data/models/TSLA/predict_t8/model.pth (torch, 615602 bytes, 27 tensors)

lstm.weight_ih_l0 f4 [256, 1]
000000 b8 ac d1 bd fa ec 50 bd 07 cd 09 3e 4e 34 46 be
       -0.102380216 -0.05100725 0.13457118 -0.1935589
000010 42 94 24 be bf 06 8e 3d cc c2 a4 bd 5f db c8 3c
       -0.16072181 0.069348805 -0.08044967 0.024518667
000020 9a d6 49 3d b5 71 04 be 63 c6 91 3c 33 92 f0 3c
       0.049276926 -0.12934001 0.017794793 0.029366588
000030 b9 60 ac 3c b1 7a 4a 3c 9d 59 b1 bd 7a d6 04 be
       0.021042215 0.0123583535 -0.086596705 -0.12972441
000040 c2 99 e5 3d 0a fe 2f be d4 a6 37 bd bf ee e9 3d
       0.112109676 -0.17186752 -0.044836834 0.1142249
000050 f8 b1 82 bd 2c 39 7c 3d 91 e6 0b be 4b 89 0c be
       -0.06381601 0.06157796 -0.13662173 -0.13724248
000060 c7 5c e7 3d 39 4e a9 bd 6f 39 cc bd c3 e1 55 3c
       0.11296993 -0.08266873 -0.09971892 0.013054314
000070 42 1d d1 bb ce fa 78 bd 7a ad 19 3c fc e5 08 be
       -0.0063816616 -0.06078606 0.009379739 -0.13368982
000080 25 d9 a4 3d 54 23 82 3d 16 6f 07 bd 8d 82 cf 3d
       0.080492295 0.063543946 -0.033064924 0.101323225
000090 b4 3b 03 3e b1 4b b4 3d d7 8b a6 3d 3b ab 81 bd
       0.12815744 0.088034995 0.08132141 -0.06331488
0000a0 f6 94 7f 3d 25 e1 cd 3d bc b4 fd 3d 7e 05 2f 3d
       0.06239792 0.100527085 0.12387988 0.042729847
0000b0 0c ca 3a 3d 8b b9 52 3d 84 80 d7 3d 1f 20 11 3e
       0.045602843 0.05144648 0.10522559 0.1417241
0000c0 18 0f 14 bd d4 b0 80 3c 49 3d 8f bd 68 58 a0 3c
       -0.036147207 0.015709318 -0.06994111 0.019573405
0000d0 1d 48 2d bd 42 df 4c bd 7e a7 ae bd 82 1b d0 bd
       -0.0423051 -0.050017603 -0.0852804 -0.10161497
0000e0 9b ca f6 bc b8 c0 0e bd 8b f5 b0 bd f1 c3 63 3c
       -0.030125907 -0.03485176 -0.086405836 0.013901697
0000f0 bc 3b 68 3d e9 7e 08 3e f1 03 19 3d d8 a0 17 3d
       0.056697592 0.13329662 0.037357274 0.037018627
000100 29 9c c2 3d ad f7 b2 bd 51 39 a7 3d 57 f1 3a 3c
       0.095024414 -0.08738647 0.08165229 0.011410079
000110 5b c6 ea bd 9f cb 1a 3e 07 b9 e8 bd a8 3b 26 3d
       -0.114636146 0.15116738 -0.11363416 0.040584236
000120 c1 90 b4 bd 8e df 15 be 59 2d 44 3a fc c3 d9 bd
       -0.08816672 -0.1463606 0.0007483564 -0.10633084
000130 47 71 1b 3e c7 d5 bb 3a 16 8e 35 3d 0c d7 e7 3c
       0.1517993 0.0014330678 0.044324957 0.028300785
000140 52 65 53 bd e7 58 72 3d 9f b6 cb 3d c1 4f b1 3d
       -0.0516103 0.059166815 0.099469416 0.0865779
000150 1f d5 10 3e a1 e6 21 bd d3 ae 0d bb a6 42 e7 3c
       0.14143799 -0.039526585 -0.0021619096 0.028230023
000160 a4 09 22 bc 72 78 f2 3c 71 3b b4 bd 4e 6c 0c be
       -0.009889994 0.029598448 -0.088004 -0.1371319
000170 3d f6 ff 3d 87 09 cb bd f8 bf b5 3d cf 5c d6 bd
       0.12498138 -0.099139266 0.08874506 -0.104669206
000180 43 a1 66 3d 57 15 f8 bc a2 bf 2e 3c 7e 9f 51 bd
       0.056306135 -0.030283613 0.010665806 -0.051177494
000190 e1 de 66 3d 2a 54 a6 bd 5c 97 f2 3d bd cc 1d 3e
       0.056364898 -0.08121522 0.11845276 0.15410133
0001a0 21 f4 21 be 0b 8d 96 bd d9 46 1a 3e 46 89 24 3e
       -0.15815784 -0.073511206 0.15066089 0.1606799
0001b0 ac 1e d5 bc 53 ec 28 bd e8 c1 2c 3e 0c f0 0a 3e
       -0.026015602 -0.041241 0.16870844 0.13568133
0001c0 7f ef e7 3d b1 ef 3f bd a6 36 a2 bd 84 01 97 bd
       0.11324977 -0.046859447 -0.079205796 -0.07373336
0001d0 98 96 d2 bd 80 46 f8 3d 28 25 21 bd d0 21 43 3d
       -0.1028263 0.12122822 -0.039342076 0.047639668
0001e0 5e 3b 48 bd 38 58 da bd a7 a9 60 bd b1 90 83 bd
       -0.048884742 -0.10661358 -0.054849293 -0.06424082
0001f0 d5 ea d1 3d 6f 05 00 3e 77 1e 2d bd e1 60 cb 3d
       0.10249869 0.12502073 -0.04226538 0.099305876
000200 d5 37 12 3e a7 0c 0f 3e 75 ac 26 3e 3e d4 18 bd
       0.1427911 0.1396967 0.16276725 -0.037311785
000210 6c 68 b6 bc c3 50 de bd df 23 27 be 70 8f e1 bd
       -0.02226659 -0.10855248 -0.16322277 -0.11013687
000220 e0 48 43 3c 21 a6 28 be c5 99 5f bd fa c4 a0 3c
       0.01191923 -0.16469623 -0.054590005 0.019625176
000230 d6 08 bc 3d a1 77 ce 3d e1 02 1d 3e ac 36 f6 bc
       0.09181373 0.10081411 0.1533313 -0.030055366
000240 fc 1b 1f be bf e6 74 3d d6 33 10 be 53 a6 1a be
       -0.15538019 0.05979037 -0.14082274 -0.1510251
000250 85 36 ac bd c4 f3 a0 3d 27 69 ec bd 7f b8 92 bc
       -0.08408836 0.078589946 -0.11543494 -0.01791024
000260 aa 8f c8 3d 8a d2 a3 bd 16 28 14 3d 41 d2 10 3e
       0.09793027 -0.079991415 0.03617104 0.14142706
000270 b8 fc d8 bd ca e3 1b be 99 45 ba 3d cb 37 a5 3d
       -0.10595077 -0.15223613 0.09095306 0.08067282
000280 bb 07 cc 3d da b0 35 bc a2 fa 40 bd 35 ab 1d 3e
       0.09962412 -0.011089528 -0.047114022 0.15397342
000290 bf 9d 0e be fa 7b da bd 68 60 3e 3e f9 8c cb 3d
       -0.13927363 -0.10668178 0.18591464 0.09938998
0002a0 03 ed ce 3d bf dc 2b 3e 0d 6d 35 3e 95 bb 37 be
       0.101038 0.16783427 0.17717381 -0.1794265
0002b0 1c 35 16 3e 98 78 0b be 28 9f 04 be dd 23 e9 3d
       0.14668697 -0.13620222 -0.12951338 0.113837935
0002c0 32 a8 1d 3e c3 a9 0a be c4 cb e2 3d fc e3 46 3d
       0.15396193 -0.13541321 0.110740215 0.048557267
0002d0 c0 e4 ed bd ab ed 24 3e 65 21 d3 3d 11 25 36 3e
       -0.11615896 0.16106288 0.10309104 0.17787577
0002e0 51 0a a1 3d 08 67 f3 3d 2a f1 35 be f2 6d 45 3d
       0.07863296 0.11884886 -0.17767778 0.048200555
0002f0 1d aa 1b 3e 0c 92 07 be 61 fd b8 3d 57 69 96 3d
       0.15201612 -0.13239306 0.09032703 0.07344311
000300 ad e6 15 3d 84 4b aa bc 48 8c 88 3d d2 1e 48 be
       0.036596943 -0.020787962 0.066673815 -0.19543007
000310 ca a7 c7 bd ba 1c 3c 3e 85 00 f6 3d 51 1c 12 be
       -0.097488 0.18370333 0.12011818 -0.14268614
000320 db b7 b3 3d 1d dc 5c 3c d6 f6 18 3d 61 15 aa 3d
       0.08775302 0.0134802135 0.037344776 0.08304859
000330 8b 5d 69 3d fc 01 8c bd ac 17 63 3d 9d 5f cf bd
       0.056973975 -0.06836316 0.055442497 -0.10125659
000340 48 ee c7 3b bb cb 0f be 09 31 39 bd e5 82 3d 3e
       0.0061014034 -0.14042561 -0.04521278 0.18506964
000350 10 e9 f5 bc d6 c8 23 3e 6d 11 16 bd d9 bc 68 bd
       -0.03001836 0.15994582 -0.036637712 -0.056820724
000360 ff 7a 2e 3e fa 8f 97 bc 26 92 e3 bb 21 9c 32 3b
       0.17039107 -0.01850127 -0.0069449125 0.0027253705
000370 d8 7c 24 bc fb 33 56 3d 99 6d 7a 3c c0 c3 4d be
       -0.010039531 0.052295666 0.015284919 -0.20094204
000380 9e 2a d7 bd f6 7f 15 be cf d9 28 be da e8 c8 bc
       -0.105061755 -0.14599594 -0.16489337 -0.024525095
000390 6b b2 5f 3d a4 ee bd bd 62 bb 12 3e 2b 3b 56 3d
       0.054613512 -0.09274033 0.14329293 0.05230252
0003a0 22 15 f4 bd 74 6e f0 3d 49 8f 0e bd 70 08 cb 3d
       -0.11918093 0.11739817 -0.034804616 0.09913719
0003b0 21 64 a3 3c 63 0f 8c bc ca ba 09 3d fe b3 05 3e
       0.019945206 -0.01709718 0.0336254 0.13056943
0003c0 8c 23 16 3d 69 59 e5 3d 30 07 7d 3c 6d d0 76 bd
       0.036654994 0.11198694 0.015443608 -0.060257364
0003d0 6b b8 c8 3c 61 d9 91 3c 12 fc 9e 3d 44 d0 32 3c
       0.024502 0.01780385 0.07762922 0.010913912
0003e0 01 1f 9b 3c 48 83 62 3d a6 3a 38 bd 59 e7 99 bd
       0.018935682 0.05530098 -0.044977807 -0.07514829
0003f0 d7 81 e3 3d 30 03 d9 3d 38 91 5c 3d 95 59 03 3d
       0.11108749 0.10596311 0.05384943 0.032067854

lstm.weight_hh_l0 f4 [256, 64]
000000 d1 7b 12 3d 28 95 06 3d 51 f3 7c bd fa ab cf 3d
       0.03576261 0.03285709 -0.061755482 0.10140224
000010 d5 4b 47 3c be 1c 4e bb 89 74 29 bd c6 d2 e7 3d
       0.012164076 -0.0031450237 -0.041370902 0.11319499
000020 cb f1 bc 3d e8 d1 a7 bd 3e 86 c4 3d 29 d8 17 bc
       0.09225806 -0.08194333 0.09595917 -0.009267845
000030 0e f4 a6 bd da 6e da bc c7 ca a7 ba 7b 80 50 bd
       -0.081520185 -0.026664186 -0.0012801521 -0.05090378
000040 d3 d5 af bd c6 da dc 3c 81 14 da bd 00 27 0d bd
       -0.085857056 0.026959788 -0.10648442 -0.03446102
000050 3e d7 db bd c9 33 2f 3e 9d 10 20 3d d4 3b 9b 3d
       -0.107344136 0.17109598 0.039078344 0.07579771
000060 5b f0 a5 3d b5 db 75 bd 68 5a 06 3d 0e 1e 3c 3d
       0.08102485 -0.060023982 0.032801062 0.0459271
000070 69 14 92 bd 1f 79 1a bd 95 f1 18 bd d8 f0 26 be
       -0.07132799 -0.037713166 -0.037339766 -0.16302812
000080 d1 49 45 3c d2 90 21 3e d1 8a 9a bd f2 04 48 3d
       0.012041525 0.15777901 -0.075460084 0.04883284
000090 43 7a 58 bd e9 29 8b bd f5 d6 0e 3e 07 d3 44 bd
       -0.052850973 -0.06795103 0.13949187 -0.048052814
0000a0 09 b2 9a bd e8 9f bd 3d 60 f3 c3 3b 3b 29 65 bd
       -0.07553489 0.09259015 0.0059799403 -0.055947524
0000b0 dc fb d7 3d 2c 43 df 3b 70 09 33 bb da 9f 40 bd
       0.10546085 0.0068134274 -0.0027318858 -0.047027446
0000c0 a3 42 95 3d 4e 62 21 3e 5d 13 76 3c a3 6e 19 3e
       0.072881006 0.15760157 0.015019265 0.14983611
0000d0 ac 94 59 bd 64 ac 86 3d bf 4a e8 3d b9 1a b6 3c
       -0.0531203 0.0657585 0.11342382 0.02222954
0000e0 de db 48 3d f1 35 84 ba 97 53 15 3d a6 20 9b 3d
       0.049037807 -0.0010086877 0.03645667 0.075745866
0000f0 98 e8 09 bd 6d 16 53 3d c2 f8 a8 bd 30 ae 5c 3d
       -0.033669084 0.05153506 -0.08250572 0.053877056
000100 e6 2e ab bd e0 12 6f bd 48 f9 a7 bc 96 b9 73 bd
       -0.083585545 -0.05836761 -0.020504609 -0.05950316
000110 d7 00 05 3e 2a bf a5 bd 60 9b 80 3d 7f 3e 18 3d
       0.12988602 -0.08093102 0.062796354 0.037168976
000120 cb ad d9 bd e7 ee e7 bc ac 76 82 3d 30 82 a0 3d
       -0.106288515 -0.02831216 0.06370291 0.07837331
000130 3f db f3 3d a6 40 bd 3d 3b e9 52 bd 88 46 df bb
       0.11907052 0.09240846 -0.051491957 -0.006813828
000140 2a 9d b7 3d 45 53 a0 bd 3d 6b 97 3c 99 42 16 bd
       0.089655235 -0.078283824 0.018483752 -0.036684606
000150 c1 e5 de bd d3 2f 00 bd 4d 1b 64 bd a7 fe dd bd
       -0.10883666 -0.03129561 -0.0556901 -0.10839587
000160 36 56 d5 3d 5f 80 05 3c 45 9f 53 bd 01 c2 b2 3c
       0.10416834 0.008148282 -0.051665563 0.021821024
000170 4b 42 d5 3c 82 d4 5c bb fb df 9d 3c cf 98 79 3d
       0.026032588 -0.0033696 0.019271841 0.060936745
000180 de 45 64 3d c6 26 cb 3d 6c 1c f7 3d db fe cf 3c
       0.055730693 0.09919505 0.12065968 0.02539008
000190 4a 9a 10 3d ee 68 8f bd 8b ab 43 3d 5c 00 91 3c
       0.03530339 -0.070024356 0.047771018 0.017700367
0001a0 85 fa 0f be 7a 56 03 bd 9b 7e 24 bd 26 74 b3 3d
       -0.1406041 -0.032064892 -0.040159803 0.08762388
0001b0 75 2c af 3d 73 f9 11 3d cb c4 b3 3d 41 2e 6d 3d
       0.085534014 0.035638284 0.0877777 0.05790544
0001c0 64 87 f7 bd 2e 91 93 bd c3 97 57 3d 38 dd 10 3c
       -0.120863706 -0.07205425 0.052634966 0.008841805
0001d0 9d 63 e5 3d 58 76 44 3d 8c 78 04 bd 1a c2 a4 3d
       0.1120064 0.047964424 -0.032341525 0.080448344
0001e0 91 1c f5 3d 58 b6 a3 bd 43 1b 1d bd e4 29 1d 3d
       0.11968339 -0.07993764 -0.038356077 0.03837003
0001f0 35 70 be 3d 35 bb c2 bd c2 fe b0 bc c4 2e a7 bd
       0.092987455 -0.09508363 -0.021605853 -0.08163217
000200 05 8f 91 3b 86 70 e7 bd 31 29 90 bd 14 e0 6f 3d
       0.004442098 -0.11300759 -0.07039107 0.058563307
000210 78 89 88 3d b5 ae dd bd dc d8 c4 3d 05 5d 0d 3e
       0.06666845 -0.10824338 0.09611675 0.13805015
000220 d2 8b c2 3d c4 6e 36 3d b1 80 52 3c 69 3e 1b bd
       0.09499325 0.044539228 0.012848065 -0.037901316
000230 f3 a4 b0 bd ed 64 00 be ef b7 a0 3c 75 69 95 3d
       -0.086252116 -0.125385 0.019618956 0.07295505
000240 ee 9f e2 bd b4 9d 98 bd a2 3b 1a bb 83 b5 a5 bd
       -0.110656604 -0.074519545 -0.002353408 -0.08091261
000250 91 7f 94 bd ee 34 16 bd 4e 42 a9 bc 1e 9e 8b 3d
       -0.07250894 -0.03667157 -0.0206615 0.06817268
000260 8e 02 84 3b 30 20 0b bc bb 94 12 be b5 ed 87 3d
       0.004028625 -0.008491561 -0.14314549 0.06637136
000270 b8 91 60 3c d2 0a 98 bd 1d db 9b bd 5a a4 22 bb
       0.013706617 -0.07423939 -0.07610152 -0.00248172
000280 3a af f8 bc 61 62 00 3e 2f ec 29 3d 79 b2 1a bd
       -0.030356992 0.12537529 0.041485008 -0.03776786
000290 13 e4 16 be 59 f1 07 3c b4 62 84 bd 1a b3 22 3d
       -0.14735441 0.008297288 -0.064641386 0.039721586
0002a0 df ce 51 bc ea a2 6a 3d bf d6 01 bd fd 68 4c bd
       -0.01280567 0.057284273 -0.03169894 -0.049904812
0002b0 02 c6 e1 bc e5 ce 30 3d 07 38 56 3d 63 96 05 3c
       -0.027560238 0.04316606 0.052299526 0.008153531
0002c0 fa 20 ab bd 27 fe 02 bd 22 84 db bd 14 8f 11 3e
       -0.08355899 -0.03198066 -0.10718562 0.14214736
0002d0 d4 99 67 bd 1d aa db 3d 24 93 98 bc 5f 9a 64 3d
       -0.056543186 0.10725806 -0.01862485 0.055811282
0002e0 ab 86 a3 3d 3c cf e6 bc ae 5e 87 3c 50 56 e8 bd
       0.0798467 -0.028174989 0.016524639 -0.11344588
0002f0 43 bc b1 3d 1d cb 9a bd 3b c5 90 3c 41 a4 c3 bd
       0.08678486 -0.07558272 0.017672172 -0.09552813
000300 31 3e d6 bd 48 44 85 bd 15 cf 7f bd c4 55 68 3b
       -0.10461081 -0.06507164 -0.06245335 0.003545151
000310 29 32 8d 3d 96 1f 15 bd 89 5d 32 3c 7e 12 2d bd
       0.06894333 -0.036407076 0.010886558 -0.042253964
000320 f2 3c 7c 3c 05 01 52 3c 4a 49 75 bd f7 08 8e bd
       0.01539539 0.012817626 -0.059884347 -0.06935304
000330 58 8a c3 bc 0f 20 9d 3c a0 07 b9 bc f9 9e 61 bd
       -0.023869678 0.019180326 -0.022586644 -0.05508325
000340 9a da 06 3e 5b 79 4d ba f8 66 83 3d f4 e5 8d 3c
       0.13169327 -0.0007838213 0.06416124 0.017321564
000350 c2 0d 62 bd 22 ac 80 3c 51 83 48 3d ca 45 a1 bd
       -0.0551889 0.01570708 0.048953358 -0.07874639
000360 91 53 06 be 50 74 cd 39 48 0e 7f bd 10 88 af bd
       -0.13117816 0.00039187307 -0.06226948 -0.08570874
000370 eb 78 66 bd 35 37 20 3d 05 0b f1 bd e8 ad 04 be
       -0.05626766 0.03911515 -0.1176968 -0.12956965
000380 a9 59 14 3d 15 8f db bc 62 43 29 3c 83 45 57 bb
       0.03621832 -0.026801625 0.010331007 -0.0032847829
000390 71 40 61 3b 46 20 73 3c fc f2 aa 3c d3 a9 f0 bd
       0.0034370685 0.014839238 0.020867817 -0.117511414
0003a0 a6 3f d9 bd 6d c0 9c bd 43 24 1d be 5a 2e ef 3c
       -0.10607843 -0.0765389 -0.15345864 0.029196907
0003b0 af 45 95 bd 3d 7a c6 3b a8 e1 9f 36 ea 34 c4 bb
       -0.07288682 0.0060570524 4.764839e-06 -0.005987753
0003c0 b2 c0 65 3d 65 1b 9a 3d bb 2f 2f bd 3e b4 99 bc
       0.05609197 0.07524756 -0.04277013 -0.018762704
0003d0 b6 bd e3 3d 84 56 43 be 20 55 27 3d 76 f5 3f 3d
       0.11120169 -0.19075972 0.040852666 0.04686495
0003e0 fb 99 1e be 10 92 e0 3c 0a 4b 95 bd 94 3f 86 3d
       -0.15488426 0.027413398 -0.07289703 0.06555095
0003f0 31 3d 6f bd c3 b3 c1 3d a8 73 42 3b c4 5f 6d bd
       -0.058407966 0.09458115 0.0029670987 -0.057952657

lstm.bias_ih_l0 f4 [256]
000000 86 bd 20 bd 20 0b 44 bd 4d 67 27 3d 61 af ad bd
       -0.039243244 -0.047862172 0.04087 -0.084807165
000010 52 b1 e6 3c 63 77 85 3d 76 49 b4 3d 55 a7 e8 bd
       0.028160725 0.06516912 0.08803074 -0.11360041
000020 79 b2 ef 3d 59 6f 09 bc 57 cc dd 3d b8 cd 9f bd
       0.11703963 -0.008388364 0.1082999 -0.078029096
000030 54 f4 cb 3d bd 03 cf 3d fc 02 fd 3d ff 93 b3 bd
       0.09958711 0.10108135 0.12354085 -0.087684624
000040 e5 0a 95 bd fa 09 da bc 85 25 cc 3d 5b 91 f3 3c
       -0.072774686 -0.026616085 0.09968094 0.029732397
000050 e3 7a a5 3d 37 bc 31 3d ad 06 9b 3d 15 82 3d 3b
       0.080800794 0.043392386 0.07569633 0.0028916646
000060 90 04 15 bd 2d ea 76 3d 19 fe b6 bd c5 7e ab bd
       -0.036381304 0.06028192 -0.08935184 -0.08373789
000070 90 88 3a bd d0 09 01 3e 59 bb c2 3d d9 aa 03 3e
       -0.045540392 0.126014 0.0950839 0.12858142
000080 a8 cc c4 bd fc 6d b0 3d 28 55 03 3c 63 ff f2 3d
       -0.096093476 0.08614728 0.008015908 0.118651174
000090 cc 6b c9 3d 66 76 87 3c c3 2d e8 3c 91 25 0c 3b
       0.09835014 0.016535949 0.028342133 0.0021384696
0000a0 6e 64 cc 3d 7b 32 dd 3c 62 4d 30 3d 42 01 6b 3d
       0.09980093 0.02700161 0.043042548 0.057374246
0000b0 f1 7a 74 3d db 21 8b 3d 8a 25 04 3e 2b ec c4 3c
       0.05968756 0.06793567 0.12904945 0.024038395
0000c0 bb 24 85 3d 8f cd e5 3d 08 cd 4f bc 45 1d 6a 3d
       0.065011464 0.11220848 -0.012683161 0.05715682
0000d0 de 00 eb 3b d0 0e 88 bc dd d6 2a bc 70 66 cf 3d
       0.0071717342 -0.016608626 -0.010427204 0.1012696
0000e0 80 1d ad 3a 4a ef 66 bd d6 25 9e 3d f8 f8 a4 bd
       0.0013207644 -0.056380548 0.077220604 -0.080552995
0000f0 e2 37 22 3e 16 94 fc 3d c8 56 01 3e 8a 97 b5 3d
       0.1584163 0.12332933 0.1263076 0.088667944
000100 45 fe ad bd c0 1f 38 bd aa 60 f3 3c 14 38 92 bd
       -0.08495764 -0.044952154 0.029709179 -0.07139602
000110 1f 01 cf bd aa 96 c2 bd 8a 4d fb 3d e5 33 55 3d
       -0.10107636 -0.09501393 0.12270649 0.052051444
000120 e1 d4 ce 3d 34 ae 81 bd ad cf dc 3c e8 7c 86 bd
       0.10099197 -0.06332055 0.026954496 -0.06566793
000130 a6 69 ab bd 04 c9 e0 3d 43 01 c2 3d 56 ca dd bd
       -0.0836976 0.10975841 0.09472897 -0.10829608
000140 05 04 b9 bc 86 3f 94 3d c5 27 d8 3d ec 44 6a 3d
       -0.022584924 0.07238679 0.105544604 0.057194635
000150 e2 26 3f 3d d0 8b 72 3d 5a cf 4b 3d 6c db c8 bd
       0.04666794 0.059215367 0.049758293 -0.098074764
000160 17 e0 e8 bd e0 9b f1 bd 72 34 97 3c 50 0c ce bc
       -0.11370867 -0.11797309 0.018457625 -0.025152355
000170 8c af 2a ba b6 12 b9 3d 70 cd 69 3c 1d dc b5 3d
       -0.0006511144 0.09036772 0.0142701715 0.08879874
000180 27 fe 97 3c 07 ea c5 3c 30 b4 88 bd cd b1 06 3e
       0.018553806 0.024159444 -0.06674993 0.13153763
000190 08 e4 36 3d a6 4a 8b 3d 6a 1e bc bc 0b 36 15 bc
       0.04465106 0.068013474 -0.022963721 -0.009107123
0001a0 1c 9a f0 3c c1 86 b2 3d 98 47 63 bd 83 0c 7d 3d
       0.02937036 0.087171085 -0.0554882 0.06177951
0001b0 96 29 2f 3d fe a4 f6 bc a7 0b df 3c 23 49 00 3e
       0.04276427 -0.030107971 0.027227236 0.125279
0001c0 42 4e 70 3d 9e 5a d7 3d 3b 07 81 3d 21 da c4 bd
       0.058668382 0.10515331 0.06300207 -0.09611917
0001d0 2a 80 cb 3d e5 11 e2 3c a2 89 3d bd 7d 19 d5 bd
       0.09936555 0.027596423 -0.046273835 -0.10405252
0001e0 37 39 fc bc b1 82 ec 3d 39 c4 a9 3d 91 0c 94 bd
       -0.030789 0.11548365 0.082893796 -0.07228959
0001f0 84 ae 8c 3d 7f 92 cc 3d 8a 37 18 3d ae 47 76 bd
       0.06869224 0.099888794 0.03716234 -0.060126953
000200 84 36 60 3d de 66 c8 bd 4a 8f be bd f9 db 40 3d
       0.05473949 -0.09785245 -0.09304674 0.047084782
000210 82 09 0d bb ba 3b 92 3c 52 68 e2 bd f9 a1 bd 3d
       -0.002152056 0.017850745 -0.11055054 0.092594095
000220 06 5e dc 3d 9f 54 cb 3d 76 07 24 3d 20 71 8a 3d
       0.10760121 0.099282496 0.040046178 0.06759858
000230 dc 8f d0 3c bb 81 05 bd 73 b4 c1 bd 37 7f d0 3d
       0.025459222 -0.032594424 -0.09458246 0.10180514
000240 48 ef 8c bd 00 5c 82 bd b3 4b fb bd 66 0e 22 3b
       -0.06881577 -0.06365204 -0.12270298 0.002472782
000250 bd 1b 85 3d fa d3 7c bd ff 8b 01 3c 4f a9 da bd
       0.06499431 -0.061725594 0.007906913 -0.10676824
000260 c8 fa 10 3c 4f e4 ad 3d 02 17 54 3d df 4d 4c bd
       0.008848853 0.08490812 0.051779754 -0.04987895
000270 83 b1 2c 3d 69 02 5b bc 14 83 d8 3d a4 2f 42 3d
       0.042161476 -0.013367274 0.10571876 0.047408715
000280 da e4 01 3d 33 4c d0 bb 9f 81 91 bd cf 26 24 bd
       0.03171239 -0.00635674 -0.071048014 -0.040076073
000290 77 36 8e 3d e1 87 93 3d de c8 af 3d da 35 c1 3d
       0.06943982 0.07203651 0.08583234 0.094340995
0002a0 3c ba e7 bc ad 8c c0 3c b0 16 2c 3d c8 20 17 bd
       -0.028287046 0.02350458 0.042013824 -0.036896497
0002b0 c5 0c 84 3d 61 07 a0 bd 0a d7 80 3d 39 1e a2 3d
       0.06447748 -0.078139074 0.062910154 0.07915921
0002c0 eb 21 8a 3c 0b 5a f0 3c 88 3a 20 bd 3d 4e 9b 3c
       0.016861876 0.02933981 -0.03911832 0.018958205
0002d0 f5 bb 84 3d d8 8c ec bc cf fa a3 3c 5b 6a 15 3d
       0.064811625 -0.028875753 0.020017056 0.03647838
0002e0 49 eb bd 3c 1c 35 bb bd 2e 63 81 3b 92 0a 95 bd
       0.023183482 -0.09140989 0.0039485907 -0.07277407
0002f0 4b 60 b8 3d e4 e0 cd 3d ea 20 56 bc 7e 02 2f 3d
       0.090027414 0.1005266 -0.013069371 0.042726986
000300 b3 33 82 3b 42 39 1e 3d f9 9f 4f 3d b9 fa a4 bd
       0.003973448 0.038628824 0.05068967 -0.08055634
000310 02 39 a5 bd fb d3 9a bd ff 67 73 3c e5 89 48 bd
       -0.08067514 -0.07559963 0.014856338 -0.04895963
000320 87 a7 f4 bd 9a e3 05 ba a2 a5 9e bd 1e dc a2 3d
       -0.11946016 -0.00051074626 -0.07746436 0.0795214
000330 e8 0d 2c bd 17 96 b0 3d e1 06 b7 3d 8b a7 e3 3d
       -0.04200545 0.08622377 0.08936859 0.11115941
000340 ac c4 ec 3c 1d a0 c8 bb 98 90 02 3e 9d de 3f 3d
       0.028902374 -0.0061226026 0.1275047 0.04684316
000350 48 1b 34 3c d7 2e 35 bc c7 3e e4 3c e5 22 a2 bb
       0.0109928325 -0.011058531 0.027861966 -0.0049480074
000360 36 b8 f6 3d 8c 7a d0 3d df e5 2c bd 2e 8d cd 3d
       0.12046854 0.10179624 -0.04221141 0.100366935
000370 72 e6 0d 3e cc 13 27 bc 14 fa 8b bd 5d c7 05 bd
       0.13857439 -0.010197591 -0.06834808 -0.03266083
000380 16 3b 99 bd 05 56 a7 3d 3d ac e9 3b c5 c8 07 3e
       -0.07481973 0.08170704 0.007131128 0.13260181
000390 02 f5 c3 3d 5f 22 11 3e 60 92 c9 bc 8f ce 3e bd
       0.09568216 0.14173268 -0.02460593 -0.04658371
0003a0 36 38 0a 3e 46 1d ac bd a5 af 34 bd 16 84 21 3e
       0.13498005 -0.08404021 -0.04411282 0.15773043
0003b0 a9 0f a5 bd 55 88 70 3d f4 fd 93 bd cc 6c 07 3e
       -0.080596276 0.058723766 -0.07226172 0.13225096
0003c0 94 5d 12 bd 5b 09 d5 3b 69 2d 8a bd 60 45 ee bd
       -0.035733774 0.0065013594 -0.067469425 -0.11634326
0003d0 c3 98 8c ba 40 db dc bb ba 68 42 bb 4b 96 00 3e
       -0.0010726679 -0.006740004 -0.0029664473 0.12557332
0003e0 13 e0 98 bd 67 f0 07 3b 5e a3 73 3d d1 40 04 3e
       -0.07464614 0.0020742656 0.05948197 0.1291535
0003f0 e3 f1 e1 3d 70 e5 59 3e 7d b0 be bd 21 5e 03 3c
       0.11032464 0.2127893 -0.09311006 0.008018048

lstm.bias_hh_l0 f4 [256]
000000 1b 8f 0e bd f9 38 f2 3d 87 2f 4e bc 4a 7c d1 bd
       -0.034804445 0.11827273 -0.012584574 -0.102287844
000010 8e 0b c2 3d a9 7b f9 3d c9 40 25 3e 91 a7 12 3d
       0.0947486 0.121817894 0.16137995 0.035804335
000020 e6 0b 4e 3d 1a 7e 8a bc c1 01 e2 bd ad 4c c6 3a
       0.050304316 -0.016905833 -0.11035491 0.0015129052
000030 44 64 b9 3c 88 20 fa 3a ba 3a 88 3d c7 84 b3 3d
       0.022630818 0.0019083181 0.06651826 0.0876556
000040 27 7d 50 bd ec 0d af bc 78 68 cb 3c ab ab 29 3d
       -0.050900605 -0.021368943 0.024830088 0.04142348
000050 44 1b 95 3d e1 6c 9d bd 33 89 73 bd 9f c5 e2 bd
       0.07280591 -0.07686783 -0.059457015 -0.110728495
000060 1a c9 2a 3d 62 09 4b 3d 8b 47 a4 3c 1d eb f7 3d
       0.04169569 0.049569495 0.020053646 0.12105391
000070 8b 4b aa 3d be 14 64 3c 60 c2 0a 3e 2c 55 55 bd
       0.0831519 0.013920961 0.1355071 -0.05208318
000080 d8 e1 cc 3d b4 8d 52 3d 78 d5 61 bd ff 40 5d bd
       0.10004014 0.05140467 -0.05513522 -0.054017063
000090 35 a1 9f 3d 87 41 0b b9 b5 cc b3 3a 7f 07 8f bc
       0.0779442 -0.00013280484 0.0013717624 -0.01745963
0000a0 7e 65 8e 3c 8d 9e 68 3d f6 2e fe 3b 25 6a f9 bc
       0.01738238 0.05679183 0.007757063 -0.030446121
0000b0 ed 4a fc 3c 7e c3 34 3d 70 7a bd bc d3 92 e4 3d
       0.030797446 0.04413175 -0.023129672 0.11160817
0000c0 85 e9 26 3d 88 c8 80 3d 14 6c 00 bd 78 d4 22 bc
       0.040750045 0.06288248 -0.03135307 -0.009938352
0000d0 55 42 17 bd 67 29 a3 3d ec 4f 6d bd 2c 19 82 3d
       -0.036928494 0.07966881 -0.057937548 0.063524574
0000e0 a4 82 ac bd b3 5e 67 bd ce 7f 9c bd 58 1e bf 3d
       -0.08423355 -0.056486797 -0.07641564 0.093319595
0000f0 91 c8 09 3c 9f 13 51 bc a0 65 24 bd 0e 15 ec bb
       0.008409635 -0.012761026 -0.04013598 -0.0072046584
000100 00 a2 cb bc c0 8b 76 bd 99 38 5c bc dc 22 ab bd
       -0.024857521 -0.06019187 -0.013441228 -0.08356258
000110 2a c2 7c 3d b6 b0 af 3d 8e 24 bc 3d b3 32 85 3d
       0.061708607 0.08578627 0.0918666 0.06503811
000120 61 7a de bd de 93 d5 3d 4c e7 d1 bc 43 a7 c3 bd
       -0.10863186 0.10428594 -0.025622986 -0.09553387
000130 46 57 16 bd 53 6f e0 3a 39 24 ac bd e8 20 d9 3d
       -0.036704324 0.0017123021 -0.084053464 0.106019795
000140 b4 9e 77 bc ae 88 b8 bd cf a1 db 3d 52 20 ee bb
       -0.015113521 -0.090104446 0.10724222 -0.0072670365
000150 56 eb 4e 3d aa 7b 03 bd 7f 94 e6 bc 4b d7 f9 3b
       0.050517403 -0.032100357 -0.02814698 0.007624542
000160 5a 9b e4 3c 25 fd 69 bd 6a fb 70 3d 5d fd ca 3c
       0.027906109 -0.057126183 0.058833517 0.024779016
000170 1b 15 4c 3d 0c ab 7f bd 7a 4b 08 bd f4 c7 77 bd
       0.049824815 -0.062418982 -0.033275105 -0.060493425
000180 d0 e2 22 bd eb 04 c5 3d 25 45 f4 bd 40 a3 0e bd
       -0.039767087 0.09620079 -0.11927251 -0.034823656
000190 90 36 5b bd ae 82 95 3d e1 21 09 3d a3 75 c1 3c
       -0.05351883 0.07300316 0.033479575 0.023615664
0001a0 70 ea d9 bd db 06 ed bd 17 03 ef 3d 6d 4c 8a 3c
       -0.106404185 -0.11573573 0.11670511 0.016882146
0001b0 88 b4 8c bd e6 0f 07 3d 31 69 2a bc 63 ee e5 bc
       -0.06870371 0.032974146 -0.010401056 -0.028067773
0001c0 95 d0 c4 3d ee e3 b7 3d 93 a5 c0 bd dd cb 34 bd
       0.09610096 0.08979021 -0.09406581 -0.04413973
0001d0 52 45 57 bd 56 a6 65 3d 8d bd b4 3c cf 65 ea bd
       -0.052556343 0.056066833 0.022063041 -0.114452
0001e0 b0 3b 6d 3d 7c c6 bc bd 45 7d ef 3d 2f e2 eb bd
       0.05791825 -0.092175454 0.11693815 -0.115177505
0001f0 63 92 3a 3d b5 a0 a5 3d df 02 1d bd 2a 6b a1 bd
       0.04554976 0.08087293 -0.038332816 -0.07881768
000200 34 c6 2b bd 9e 69 fb bb e6 b8 00 3e f0 78 bd 3d
       -0.041937068 -0.0076725027 0.12570533 0.092515826
000210 44 e6 fd 3c 77 86 aa bd a7 f7 7a 3d 09 d2 66 bd
       0.030993588 -0.083264284 0.061271336 -0.05635265
000220 c6 5a a8 3d 83 32 82 3d ac 9b 97 bd 98 8f ad 3d
       0.08220439 0.063572906 -0.07402739 0.08474654
000230 b3 4d a3 3c ac 33 c0 3c e8 69 66 bd 53 c3 56 3d
       0.01993451 0.02346214 -0.056253344 0.05243237
000240 04 49 3f bd fa b3 c4 bd 33 f5 a0 bc 74 b4 da bd
       -0.046700493 -0.0960464 -0.01964817 -0.1067895
000250 b4 ed 00 bd ab e5 c3 3d ff 10 a8 3d 41 47 96 3a
       -0.03147669 0.0956529 0.08206367 0.0011465327
000260 0b 83 63 3c 35 24 32 bd 10 98 db bd 67 86 94 3c
       0.013886224 -0.04349156 -0.10722363 0.018130494
000270 f8 54 95 bd 16 c8 a9 3d bb 8f 16 bd 79 85 73 bc
       -0.07291597 0.082901165 -0.036758166 -0.014863365
000280 2a aa 9a 3b 40 92 43 3d a7 53 e9 bd 04 7c 8c 3d
       0.004719992 0.047746897 -0.113929085 0.068595916
000290 01 eb 51 bd f1 da ee bd 6c ba 53 bd b2 d1 a4 bd
       -0.051249508 -0.116628535 -0.051691458 -0.08047809
0002a0 0b 70 ea bc 49 e1 66 3d 39 9d 3b 3d 11 ce c1 3c
       -0.02861788 0.056367192 0.045804236 0.02365783
0002b0 00 73 9e bc e7 b0 cf 3d e8 43 d1 bd 46 7b 8e bd
       -0.019341946 0.10141163 -0.1021803 -0.06957106
0002c0 55 bf 4b bd d1 9b a3 3d e7 0f a1 3c 1a 5a 2e 3d
       -0.049743015 0.07988704 0.019660903 0.042566396
0002d0 f0 a6 76 3d 7c b6 a3 3d e2 a0 72 3d 5a 40 5b bd
       0.060217798 0.079937905 0.05923546 -0.053528167
0002e0 dc 6a b5 3d 73 43 81 3d 4a 02 fe 3c 6f f1 4a bc
       0.088582724 0.06311693 0.03100695 -0.012386664
0002f0 c1 a4 c4 bd 1d a9 36 bd c6 56 a0 bc 4a c5 48 3d
       -0.09601737 -0.044594873 -0.019572627 0.049016275
000300 45 0e 34 3d e6 2a 74 bd be a4 2e bd fe 85 47 bb
       0.04395892 -0.059611224 -0.04263758 -0.0030444856
000310 f4 f2 a4 3d a2 27 42 bc 13 4c 1a 3d bd df 88 3d
       0.08054152 -0.0118502695 0.037670206 0.066833
000320 55 8d b7 bd 4d 18 ac bc e6 0d a9 3c 48 bc c1 bc
       -0.08962504 -0.021007681 0.02063651 -0.02364935
000330 11 d8 59 3d 95 81 fb 3d b7 89 27 bd a9 01 8a bd
       0.053184573 0.12280575 -0.04090282 -0.06738598
000340 5b 2f ac 3d f6 cd 30 3d fa b1 93 bd 19 d2 b8 bd
       0.0840747 0.04316517 -0.07211681 -0.09024448
000350 fa 9c 47 bd 77 8d ad bd 22 b8 c4 3d 3c bc f1 3d
       -0.04873369 -0.08474248 0.09605433 0.11803481
000360 e5 38 ad 3d 28 3a 59 3d 5e d0 f6 3d 9c 14 be 3d
       0.084581174 0.053033978 0.12051462 0.09281275
000370 8a 3f 56 ba 4c 2f ce 3d 15 81 40 bd 86 7a c7 bc
       -0.000817292 0.10067615 -0.046998102 -0.024350416
000380 d8 5e a7 3b 95 cf d2 bd 75 4d cc bd 1a e7 08 3e
       0.005107742 -0.102934994 -0.09975711 0.13369408
000390 6a 61 0e 3e 3d 7d e5 3d 30 88 1d bd 9e bc b2 bd
       0.13904348 0.11205528 -0.038459957 -0.08727382
0003a0 fc 20 63 3d 1d 93 82 3d e9 5f e2 3c 2e e0 9f 3d
       0.05545138 0.06375716 0.027633624 0.07806431
0003b0 18 ba 5d 3d 32 8b a7 bd 5a d1 a3 3c a3 05 03 3e
       0.05413255 -0.08180846 0.019997288 0.12795119
0003c0 df 85 ab 3d 2b 83 31 bd a0 ec 5d 3c 12 df a5 bd
       0.08375143 -0.043337982 0.013545185 -0.08099188
0003d0 84 99 07 3e 54 33 ef 3d 7f d7 94 3d 88 2b 02 3e
       0.13242155 0.11679712 0.07267665 0.12711918
0003e0 6d 4a a7 bd e4 ce f5 3d d1 99 38 bd 87 f2 9e 3d
       -0.081684925 0.12002352 -0.045068566 0.07761102
0003f0 d3 68 5d bd d0 cf 3e 3d 28 64 18 3e 22 44 a0 bc
       -0.054055046 0.046584904 0.14881957 -0.019563738

lstm.weight_ih_l1 f4 [256, 64]
000000 f8 75 16 bd 1a 2c 67 bd a6 4c d4 bc ee c4 80 ba
       -0.036733598 -0.056438543 -0.025915455 -0.0009824315
000010 c4 b8 a7 3d 64 9c f8 bd 30 e9 50 3d 67 46 9f bd
       0.08189538 -0.12139204 0.051003635 -0.077771
000020 65 b0 69 bd cb aa c4 3d 26 d9 b9 bd 50 47 08 3e
       -0.05705299 0.09602889 -0.09074621 0.13308454
000030 c2 f6 37 3d 16 fb e8 3d 25 35 e0 bd 92 7c 12 3b
       0.04491306 0.11376016 -0.109476365 0.0022352082
000040 84 a5 9a 3d 73 07 5c 3d 0b bb fd bd 52 3c 1d 3d
       0.07551101 0.05371804 -0.12389191 0.038387604
000050 2b 42 b1 3d 3f ce ea 3d 2c 61 23 bd b0 58 b1 bd
       0.08655199 0.114651196 -0.039887592 -0.08659494
000060 f7 57 2b 3d 52 65 ee bd cf b0 d2 3d 47 bc fe 3d
       0.041831937 -0.11640419 0.1028763 0.12438255
000070 16 73 8b bc c2 42 55 3d f2 be e7 3c b5 63 84 3d
       -0.01702265 0.05206562 0.028289292 0.0646433
000080 55 27 68 bc 66 e8 63 3d d5 7c bd bc 88 47 de 3d
       -0.014169534 0.055641554 -0.023130814 0.10853487
000090 f6 6b 01 be c9 8a f3 bb fd 61 83 3d ef 65 32 bc
       -0.1263884 -0.007432316 0.06415174 -0.010888561
0000a0 6a 5c 92 bd ea d0 7b 3d 91 8d 04 3e bf 70 78 3d
       -0.07146533 0.061478533 0.12944628 0.060654398
0000b0 7c 90 a0 3d fe 4d 69 bd 7d f9 31 be 00 cf d9 3d
       0.07840058 -0.056959145 -0.17380328 0.10635185
0000c0 33 b1 d2 bd f8 32 e3 bd c0 96 07 bc 10 a0 8f 3d
       -0.10287704 -0.11093706 -0.008275688 0.070129514
0000d0 a0 a9 93 bd a6 8f 5a bd 79 0a 3d bd e9 9d 9f bd
       -0.07210088 -0.05335965 -0.046152566 -0.07793791
0000e0 b1 75 c2 3d 9c a1 88 bd 15 32 2f 3d 92 d8 93 3d
       0.09495104 -0.066714495 0.04277237 0.07219042
0000f0 4c 78 20 3e 1c 49 a8 bd b0 00 92 bd bc ff 88 3b
       0.1567089 -0.082170695 -0.071290374 0.0041808765
000100 bc a4 82 3a 7d f4 1b be 8b 89 a9 3d 2a df 0a 3e
       0.0009967308 -0.15229984 0.08278187 0.13561693
000110 d9 f9 a9 3d 0e 7f 80 bd 92 a7 9d 3d f6 f7 a8 bd
       0.08299608 -0.06274234 0.07697977 -0.0825042
000120 61 42 55 3d b3 b5 a8 bd db eb bd 3d 73 49 85 3c
       0.052065257 -0.082377814 0.092735015 0.016270375
000130 5d bb 07 3c 03 88 2b 3d f6 15 0f be 2e d4 24 bc
       0.008284417 0.041877758 -0.13973221 -0.010060353
000140 41 3b a6 3d 81 3a f9 bd 01 06 f4 bd f4 33 bc bc
       0.081167705 -0.12169362 -0.11915208 -0.022973992
000150 ab ba e3 3d da fd ba bd 3e 8b bf 3d 0c 77 dd bd
       0.111195885 -0.091304496 0.0935273 -0.10813722
000160 4a b4 8d 3c b3 91 dc 3c 23 ea 8f 3d bc 0d 07 be
       0.017297883 0.026924944 0.0702708 -0.13188833
000170 35 05 c2 3c a2 9c d3 3a eb e1 40 3d 79 2a 84 3d
       0.023684124 0.0016144703 0.047090452 0.064534135
000180 45 41 d0 bc af 30 d6 bd 1c 0b 48 3d f3 5a f5 bb
       -0.025421748 -0.104585044 0.04883872 -0.0074876486
000190 09 8d 3a 3d 43 7c c0 bc cd dc e7 bc ab 33 80 bd
       0.045544658 -0.023496753 -0.028303528 -0.06259855
0001a0 f0 55 85 3d 54 b5 61 3d 93 00 04 be da cc 84 3d
       0.06510532 0.05510457 -0.12890844 0.06484385
0001b0 92 c6 03 3d c6 de 92 3d 2a e5 3d 3d bd c9 dd bb
       0.032171793 0.07171397 0.046361126 -0.006768434
0001c0 bd a6 1a bd c3 be cf 3d b2 1a ec bd 43 6e a8 bd
       -0.03775667 0.10143807 -0.11528529 -0.08224156
0001d0 21 53 8a bd e6 14 37 3d b9 e1 98 bd 0a 6a 07 bd
       -0.06754137 0.044697665 -0.07464928 -0.03306011
0001e0 ac 44 19 bd 24 6f 85 3c 6d 16 0c 3e 87 0c 95 bc
       -0.037419006 0.016288348 0.1368043 -0.01819445
0001f0 fa 37 42 3d ae 41 c4 3d d5 a4 1d be 47 8d bb 3d
       0.047416665 0.0958284 -0.1539491 0.09157806
000200 34 a0 81 bd 1d 77 c6 3d 70 d2 53 3d 82 71 14 bd
       -0.063293844 0.09690688 0.05171436 -0.036241062
000210 a7 d1 11 bd fc d8 1f bc cc 69 02 3e d3 1b 12 3c
       -0.03560033 -0.009756323 0.12735671 0.008917767
000220 8d 03 03 3e 31 53 b8 bc 81 bf e7 3d 9a bf 8d 3d
       0.12794323 -0.022500606 0.11315823 0.06921311
000230 5e 41 f8 39 f7 55 46 bc 54 46 2a 3d 79 fb 73 bd
       0.00047350948 -0.012105457 0.041570976 -0.059565995
000240 1b 1c 04 3d 55 cc 41 3d 52 fe 47 3d 8d b2 17 3d
       0.032253366 0.047314007 0.048826523 0.037035514
000250 33 4e 99 bd 90 3b b9 3d 42 32 b8 3d f9 55 87 3c
       -0.074856184 0.09044564 0.08993961 0.016520487
000260 22 15 07 bd 34 18 e5 bd 08 41 b6 3d 44 d3 17 bd
       -0.03297914 -0.11186257 0.088991225 -0.037066713
000270 d0 d3 a8 3d 38 31 15 3d fe d6 bb bb a8 6d e7 ba
       0.08243525 0.03642389 -0.005732416 -0.0017656581
000280 9d 50 0d bd 84 06 0b 3e 86 82 97 3d 29 a8 c7 3d
       -0.034500707 0.13576704 0.07397942 0.09748871
000290 06 bb c5 bd 30 9c 7f bd 4b 89 d9 bd d5 96 05 3d
       -0.096548125 -0.06240481 -0.1062189 0.032614548
0002a0 3e 77 13 bd ef a7 7a bd 26 86 06 3e 7e 08 66 bd
       -0.03600239 -0.06119531 0.13137111 -0.056160443
0002b0 d6 23 7c 3c 0a 3b c1 bd c5 f4 87 3b b4 02 0c 3e
       0.015389403 -0.09435089 0.004149052 0.13672906
0002c0 6a 17 7e 3c 26 01 38 3c 60 09 d3 bc c3 4c db 3d
       0.015508512 0.011230743 -0.025761306 0.107080005
0002d0 44 09 0e bd 2c fc 38 3d c6 5e 3f bd 39 09 9d bd
       -0.034676805 0.045162365 -0.046721242 -0.07667775
0002e0 b7 bc 10 3c 9d 1d ac 3d a9 3c 00 bd 67 7b 8f bd
       0.008834056 0.08404086 -0.03130785 -0.07005959
0002f0 84 d9 93 3c d6 48 94 3d 7c 89 76 bd 75 2d 80 3d
       0.018048055 0.07240455 -0.06018971 0.0625867
000300 d4 b7 d2 3c 4b 11 64 3d b1 e9 d1 3d b6 98 0e 3d
       0.025722422 0.055680554 0.10249651 0.034813605
000310 dc ff 62 bc e6 2c 5c bd fa 41 c7 bd 40 7b 0f bd
       -0.013854947 -0.053753756 -0.09729381 -0.03502965
000320 24 b3 e0 bd 96 74 57 bd f9 cf 00 be 2e 87 ba 3d
       -0.10971668 -0.05260142 -0.12579335 0.09107815
000330 96 21 0a 3e eb 12 ad bd e8 ff c4 3d 21 87 10 bc
       0.13489375 -0.08450874 0.09619123 -0.00882128
000340 6b b8 5b 3d 4d 43 18 3d c6 52 1d bd 08 68 dc bd
       0.05364267 0.037173558 -0.038409017 -0.1076203
000350 4f a6 e8 3c 32 8c bd 3c a0 d6 29 be 1e c0 f6 3d
       0.028399615 0.02313814 -0.16585779 0.12048362
000360 d0 55 a4 3d ac 1e be bc 2b 54 d0 bc fe 4a 85 3d
       0.0802418 -0.023207985 -0.02543076 0.06508444
000370 9c 3f 3c bd 82 77 17 be 5c f5 0f bd 9c f1 d5 bc
       -0.0459591 -0.14791682 -0.035146102 -0.026116185
000380 ef 4f ec 3d 9c ea c3 bd 10 cd ff 3c b7 2d 70 bd
       0.115386836 -0.095662326 0.031225711 -0.058637347
000390 e4 00 94 bd 97 0f f1 bd af 8b 40 bd f6 08 97 3d
       -0.072267324 -0.11770552 -0.047008213 0.07374756
0003a0 95 12 8c 3d 29 b1 36 3d 25 d4 f1 3d c6 18 91 3d
       0.06839482 0.044602547 0.118080415 0.07084803
0003b0 dc 20 49 3a 2b e8 77 bd cb d1 ff 3c f6 4f 9c 3c
       0.0007672438 -0.060524147 0.031227967 0.019081097
0003c0 e8 3a b4 3c 69 a0 26 be c3 f5 ab bc 0b ad 93 3c
       0.022000745 -0.16272129 -0.020991212 0.01802685
0003d0 b5 f8 66 bd a4 fb 96 3d c9 5b 82 bc 17 82 11 3e
       -0.05638953 0.073722154 -0.015912907 0.14209782
0003e0 b9 67 b6 3d 4c 13 7e 3d 28 e8 a7 3d 55 5a 85 bb
       0.08906502 0.06203012 0.08198577 -0.0040696063
0003f0 91 a1 6b 3d 17 dc 84 3d d3 ff 1f 3e a9 9a 95 3d
       0.05752713 0.06487291 0.15624933 0.0730489

lstm.weight_hh_l1 f4 [256, 64]
000000 29 39 9e 3d 1c 32 61 b9 bb 25 f7 bc 92 c9 61 3d
       0.07725746 -0.0002147634 -0.030169358 0.055123873
000010 f9 82 88 bc 60 48 b9 bd c3 94 a7 bd 55 0d c6 3c
       -0.016664015 -0.090470076 -0.08182671 0.02417628
000020 c0 67 6d bd ad 97 71 3d 5b 41 9b 3d ac 99 47 3b
       -0.05796027 0.05898254 0.07580825 0.0030456586
000030 e4 86 65 bb 74 b4 d9 bd 86 f2 9a bd 5f 6e d9 3d
       -0.0035023028 -0.10630122 -0.07565789 0.10616755
000040 41 3e 5e bd e9 41 8e 3c 65 6a b3 bd 95 9e 89 3d
       -0.05425859 0.017365413 -0.087605275 0.067197
000050 11 c1 0b 3e d9 77 0e 3e 36 5e 01 3e fa 4d ad bd
       0.13647868 0.13912906 0.12633595 -0.084621385
000060 0b b8 e4 3b 01 65 03 be a7 15 05 3d 6d 51 2b 3c
       0.0069799474 -0.12831499 0.032491352 0.010456425
000070 e7 4f 97 3d 35 ad 95 bd 7e 1f e8 bd cc 39 d0 3b
       0.07388287 -0.07308427 -0.11334132 0.006354546
000080 63 18 39 3d c3 0e 9e 3c 34 38 eb bc 87 6b 8b 3c
       0.045189273 0.019294148 -0.028713323 0.017019046
000090 fb 35 64 bd 64 8a 01 bd 2c 17 a6 bd 3e 76 07 be
       -0.055715542 -0.03162612 -0.081098884 -0.132287
0000a0 e2 72 a3 3d 15 a4 8e 3c 1d c4 b2 3d d1 89 5d bd
       0.079808965 0.017412225 0.08728812 -0.05408651
0000b0 bb 9b fb 3c 77 fc e3 bd d7 f0 91 bd 77 28 58 bd
       0.030713907 -0.11132138 -0.07126015 -0.052772965
0000c0 58 9b 8a 3d a1 a8 6c bc 59 7c 40 bd 78 71 fb bc
       0.06767911 -0.014444501 -0.046993587 -0.030693755
0000d0 4a 23 f5 bd 3f e2 9e bd f8 e9 79 3d 03 a4 7f 3c
       -0.119696215 -0.07757997 0.061014146 0.015603068
0000e0 da b0 11 3e 16 d6 26 bb e7 c7 b0 3d 65 32 1d bc
       0.1422762 -0.0025457195 0.08631878 -0.0095945345
0000f0 54 6e 01 be df cc 61 3d 60 a1 b1 3c 9c 4e 6d 3d
       -0.12639743 0.05512702 0.021683395 0.057936296
000100 11 96 bb 3c a1 99 df 3d 2d 72 d5 3d aa 74 e2 3b
       0.022898706 0.10917974 0.10422168 0.00691088
000110 a7 0e c0 bc 15 d0 9d bd bd d1 77 3c 34 d3 65 3d
       -0.023444487 -0.07705704 0.015125689 0.056109622
000120 77 27 72 bd 26 4c 38 bd 16 36 11 bc 20 34 05 bb
       -0.059119668 -0.044994496 -0.008862993 -0.0020325258
000130 df 05 de 3d 1d ff c6 3d a5 0f 94 bd c1 4d b9 bd
       0.108409636 0.09716628 -0.072295465 -0.090480335
000140 57 83 cb bd 49 7a f9 3d 6e 7d 89 3d ef bd 07 3e
       -0.099371605 0.12181527 0.06713377 0.13256048
000150 e6 4e 8b bd 43 3a ad bb b8 47 04 3e ae 32 a1 bd
       -0.06802158 -0.0052864864 0.12917984 -0.078709945
000160 73 15 c4 bd 57 37 f1 bc af 90 d2 3c a1 69 9b 3d
       -0.095744036 -0.029445333 0.025703756 0.075885065
000170 4e fd 8d 3c e9 37 05 3d 2d 40 2c 3c 19 a4 32 bd
       0.0173327 0.032524023 0.010513348 -0.043613527
000180 19 bc 00 3e c0 70 3f bc 38 56 42 3d c4 0a d9 3d
       0.12571754 -0.011684597 0.047445506 0.105977565
000190 60 4b 35 bd 76 38 d7 bc ed 06 cc bc 2c ed 7e bd
       -0.044261336 -0.02627204 -0.024905646 -0.062237903
0001a0 ae 75 6e 3d 9c 49 95 3d 2b 38 b8 3c 6f b5 04 be
       0.058217697 0.072894305 0.02248772 -0.12959836
0001b0 57 57 23 3d 6b 61 1b bd ac 13 dc 3d 96 6e e9 bd
       0.039878216 -0.037934702 0.107459396 -0.11398046
0001c0 2c f2 07 bc 64 f4 cf 3d 0b f7 ca 3d fb df 05 be
       -0.008297484 0.10154036 0.09910401 -0.13073723
0001d0 aa f8 d8 3d ce 67 b9 3d 57 67 bf bd 21 6c e3 3c
       0.10594304 0.09053002 -0.093458824 0.02776152
0001e0 13 61 dd bc 60 35 06 3e 9d 7e 97 bc 37 2b ae bc
       -0.027023828 0.13106298 -0.018492991 -0.02126084
0001f0 be d8 87 bd cb 8f fd 3d d8 aa fb 3c 81 fc ba 3d
       -0.06633137 0.12380942 0.030721113 0.091301925
000200 71 22 52 bd a9 aa da 39 6d c2 a5 bd d9 36 64 3d
       -0.051302377 0.00041707352 -0.080937244 0.05571637
000210 d9 85 81 3d f0 4b 09 3d e6 55 80 bd c1 0c 80 bd
       0.063243575 0.033519685 -0.06266384 -0.062524326
000220 dd 99 fa bc 93 3c c6 bc 2d 2a b5 3d e0 6e 1c bd
       -0.030590946 -0.024198806 0.08845935 -0.038191676
000230 5e 79 82 3d cc c8 ac bd 6d 58 83 3c b0 16 8e 3d
       0.06370805 -0.084367365 0.016033376 0.06937921
000240 ad 14 6b 3d 54 58 db 3d 48 af ca 3d 7e 5d cd bd
       0.057392765 0.10710207 0.098967135 -0.10027598
000250 e5 a2 19 3e e4 95 21 bd 14 9b 23 3d f3 ae 2d 3d
       0.15003546 -0.039449587 0.039942816 0.042403173
000260 b7 ba f3 bc 09 9d 0a 3e b2 2e 71 3b 70 95 d5 bb
       -0.029752119 0.13536467 0.0036801514 -0.0065180585
000270 18 36 8c bd fe 0a dc 3d b2 3c 74 bd 05 cd 07 bd
       -0.06846255 0.10744284 -0.059628196 -0.033154506
000280 2e 78 38 3c a2 1a 94 3d 80 ee b1 3c ef 0a 83 bd
       0.011259122 0.07231642 0.021720171 -0.0639857
000290 03 80 d9 bd 9e 5a 12 bc 23 95 33 bd 6d 49 03 be
       -0.106201194 -0.008932738 -0.0438434 -0.12820978
0002a0 42 8f 67 3d d4 d1 a9 3c da 9c 15 3d a8 66 f6 bd
       0.056533106 0.020729937 0.03652654 -0.12031299
0002b0 17 de 28 bd fa 51 49 bc 6f b0 9f 3d 93 3a 5c bc
       -0.041227426 -0.012287611 0.07797324 -0.0134417
0002c0 a7 df 4d 3c a5 54 33 bc 32 7a 67 3d 33 2a fc 3d
       0.01256553 -0.010945474 0.05651302 0.12312736
0002d0 2f cb 86 bd 5d 4c 92 3d 7b 09 52 3d 4b cd 96 bd
       -0.06581723 0.071434714 0.051278573 -0.07363375
0002e0 ca 42 85 3c f8 29 e2 3d b3 93 4d 3d 2b fb 97 bd
       0.0162672 0.11043161 0.050189685 -0.07420953
0002f0 0e e0 70 bd d7 93 90 3d 0f 68 09 3d 6b 4d e3 bd
       -0.058807425 0.07059448 0.033546504 -0.11098751
000300 ed f1 90 bd 11 fe 4d 3d c6 2b 82 bd 48 d8 4a 3d
       -0.07077394 0.050291125 -0.06356005 0.049522668
000310 0b 69 8f bd ea 02 ba 3d 7d 75 9d 3c d6 a7 fc 3d
       -0.07002457 0.09082587 0.019221062 0.123367
000320 04 e5 65 3d 07 0b 0e bd 87 92 96 3d e7 b4 3b 3d
       0.05612661 -0.034678485 0.073521666 0.04582682
000330 36 77 d3 3c 1b db 9b bd 71 e4 2c bd 3e 5c 04 3d
       0.02581368 -0.076101504 -0.042210046 0.03231453
000340 3e b2 ac bd 37 06 8d bc 7c a2 03 be e7 ce eb bc
       -0.084324345 -0.017214878 -0.12854952 -0.028785182
000350 c6 22 b5 bd ea ae 4e 3d 64 c0 f4 bd 2e 4e 2e be
       -0.08844523 0.05045978 -0.11950758 -0.1702201
000360 cf bc 8c 3d 6f 6a 9f 3d a5 c3 95 3d 85 36 6a 3d
       0.0687195 0.077839725 0.07312707 0.0571809
000370 8c 63 a3 bd 51 11 ef 3d dd b9 d3 bd bf 70 a2 bb
       -0.079779714 0.11673225 -0.10338185 -0.004957288
000380 31 2f 5b bd 8e db 6a bd 98 f4 b5 3d 25 5b ee 3c
       -0.053511802 -0.05733829 0.08884543 0.029096195
000390 6b e4 1f 3d 44 74 9f 3c 06 65 60 bc e3 87 ea bd
       0.039036196 0.01946462 -0.013695961 -0.114516996
0003a0 83 46 e1 3d ab 16 a7 3d a7 e9 9c bd f0 a8 36 be
       0.10999777 0.081586204 -0.07661753 -0.17837882
0003b0 9a c2 77 bd 3d 22 04 3d 32 48 d1 3c e9 b4 0e bc
       -0.06048832 0.032259215 0.02554712 -0.0087101245
0003c0 ad 69 87 3d b2 2b b3 bd d6 25 bc bd ca 21 2b 3d
       0.06611953 -0.087485686 -0.09186904 0.04178027
0003d0 ba a1 18 3d 91 cc 9c 3d 18 3b 07 be 0e e0 9e bd
       0.03726361 0.076562054 -0.13206136 -0.07757579
0003e0 e3 2e 09 bd 39 f3 dd bd 3a bf e7 3b 40 e5 0f bc
       -0.03349198 -0.10837407 0.0070723565 -0.008782685
0003f0 a4 92 17 bc 4d 4c 87 bd a3 60 2e bc 7d 2a f9 3b
       -0.00925127 -0.0660635 -0.010643157 0.007603942

lstm.bias_ih_l1 f4 [256]
000000 ab a7 c4 3d 77 7f 84 bd 4c 78 5c 3d 1d 4f d7 3b
       0.096022926 -0.064696245 0.05382566 0.0065707103
000010 6f 8f 05 3d 4d 5b a9 3d 8f 66 31 3c a8 65 cb 3d
       0.032607492 0.08269367 0.0108276745 0.09931499
000020 25 aa 0d bc 05 8b f8 bd 54 28 91 3d c8 98 20 3d
       -0.008646523 -0.12135891 0.0708777 0.039208204
000030 95 96 2d 3b ff e0 94 3d 9a fd ae bd a0 75 3a 3d
       0.002648746 0.07269477 -0.085444644 0.045522332
000040 80 e0 7d 3d e4 5c 30 bd ab bd 08 3d e5 47 b0 3d
       0.061981678 -0.043057337 0.033384006 0.08607463
000050 88 74 b6 bd 00 49 99 3d 31 e1 c5 bd 9a 9b bd bb
       -0.08908945 0.07484627 -0.096620925 -0.0057863714
000060 ad 6d 29 3d bc 92 21 3e f0 b0 4e bd 21 71 39 3d
       0.04136436 0.15778631 -0.05046171 0.045273904
000070 9f c6 c7 bb c1 a0 b6 39 bb 98 bf 3d b2 46 ad 3d
       -0.0060966755 0.00034833516 0.09355303 0.0846075
000080 25 1c 84 3d 30 f9 7b 3d 7d 6c 22 bd 9a 2f 09 3e
       0.06450681 0.06151694 -0.039654244 0.13397065
000090 56 93 62 bd 2d f7 c5 bd cb 75 11 3e e3 5c d6 bb
       -0.05531629 -0.09666286 0.1420509 -0.0065418347
0000a0 e9 7e a2 bc 23 9a 0a bd fb a1 1c bd ba 14 d3 3d
       -0.019835906 -0.033838402 -0.038240414 0.10306688
0000b0 3e 88 ba bc b4 d1 b9 3d a3 ce 8a bd 58 78 9a bd
       -0.022770043 0.09073201 -0.06777694 -0.07542485
0000c0 e9 1a 97 bd cc 68 82 3c 16 77 1c bc c3 a4 17 3e
       -0.073781796 0.015919112 -0.009549877 0.14808945
0000d0 a8 d0 40 3c 81 09 b6 3c f3 29 38 bc db 97 b9 bc
       0.0117684975 0.022221329 -0.01124047 -0.022655418
0000e0 a7 c3 e5 3b 38 64 a6 3c 63 62 be 3d 6f ce ae ba
       0.007011849 0.02031146 0.092961095 -0.0013336668
0000f0 89 68 7e 3d e2 a7 29 3c 63 6b b5 bd 8c 96 f3 bc
       0.06211141 0.010354968 -0.08858373 -0.029734872
000100 ef 4a 7f bd bb da 96 bd b5 de b2 3d c7 a9 2f bd
       -0.06232732 -0.07365938 0.08733884 -0.04288652
000110 c2 f3 de bd 66 a8 db bd 0e 26 62 bc 0f 79 12 bc
       -0.10886337 -0.10725479 -0.013803018 -0.008939995
000120 29 37 89 3d 37 03 56 3d 4c 52 de 3c 0b 57 eb bd
       0.06699974 0.05224916 0.027138852 -0.114912115
000130 b8 57 99 bd 56 56 2b bd 7e 6e b3 3d 10 b8 cc 3c
       -0.07487434 -0.041830383 0.08761309 0.024990112
000140 ba a6 92 3d 84 83 58 3d 3c 13 02 3e 50 88 66 3d
       0.07160707 0.052859798 0.1270265 0.05628234
000150 c4 9a bb 3c 80 e8 d2 3d 57 98 da 3d de bf 02 3e
       0.022900946 0.10298252 0.10673588 0.12768504
000160 3c de c7 bc b0 5f ff 3b fd 14 78 bd aa 02 25 bd
       -0.024397962 0.0077933893 -0.06056689 -0.040285744
000170 be 09 7c bc e7 60 a4 bd 1e a4 be bd 98 35 17 bd
       -0.015383182 -0.08026295 -0.093086466 -0.036916345
000180 5e 0b 4d 3d ef a4 be 3d a7 33 be bd 51 a7 a0 bd
       0.05005967 0.09308802 -0.09287196 -0.07844413
000190 17 e4 25 bd af 05 1e 3d d6 bb 96 bb ec db 10 3c
       -0.040500727 0.03857964 -0.0046000285 0.008841496
0001a0 fb 4a bb 3d 9a 73 cc 3d 9d b0 e1 bc 43 20 e8 3c
       0.09145161 0.09982987 -0.027550036 0.028335696
0001b0 76 65 df bc b7 c2 15 bd 92 99 f6 3d 72 cb 03 3d
       -0.02727006 -0.036562648 0.1204101 0.032176442
0001c0 74 05 a4 3b 09 03 be bc ec 62 e1 3d 4e 13 ef bb
       0.005005533 -0.023194807 0.11005196 -0.0072960025
0001d0 c7 eb be bd bd db d2 3d df 75 b0 bc fb 8f f1 bc
       -0.09322315 0.10295818 -0.02154058 -0.0294876
0001e0 a9 f5 aa bd 86 47 39 bd 59 62 55 bc 11 8e b0 3d
       -0.08347637 -0.045234226 -0.013023936 0.08620847
0001f0 b2 48 c1 bd 7a 5f cc 3d f5 be ba bd 1c 88 fa 3d
       -0.09437694 0.09979148 -0.091184534 0.12232992
000200 9c dd ad bc c9 2a 08 3e 61 86 c1 bd ba 9e 2e 3d
       -0.021223836 0.13297571 -0.09449459 0.042631842
000210 ea 19 42 bc d1 a1 d6 3c cb 62 82 bd 1a 06 2e bd
       -0.011846999 0.026200207 -0.063664995 -0.042486288
000220 8b f1 e5 3a e8 71 03 bd 71 99 a8 bc e7 08 ae bd
       0.0017543299 -0.03209105 -0.020580979 -0.08497792
000230 87 5f e3 bb b3 1c 86 3c 1d 6c 87 bc 52 0b d0 bd
       -0.006938878 0.016371107 -0.016531045 -0.10158409
000240 8d 3a 3f bd 8d 5a fc 3b 79 53 0e 3d 65 7d 75 3d
       -0.046686698 0.007701224 0.034747574 0.05993404
000250 83 e6 94 3d 3a 98 42 3d f0 89 a6 bc 6f 8e 97 bc
       0.07270529 0.047508456 -0.020329446 -0.018500535
000260 96 ec 32 bd 8e 72 34 bd 97 ff 9a 3c dd 14 b6 3c
       -0.043682657 -0.04405456 0.018920703 0.022226745
000270 14 29 b3 3d 27 c4 98 3d 6b 50 ac bd 43 c0 36 3d
       0.087480694 0.07459288 -0.08413776 0.04461695
000280 37 d8 72 bd 95 1e 92 3d d4 56 6f bd 19 41 28 3d
       -0.05928823 0.07134739 -0.058432415 0.041077707
000290 a4 39 85 3d fc 1d 7b bd 39 fa 88 bd 25 f3 fd bd
       0.06505135 -0.061307892 -0.06688351 -0.12399892
0002a0 94 07 8b 3d 37 4f b0 3d ae 4f ac 3d fb 09 67 3d
       0.06788555 0.08608859 0.08413635 0.056406002
0002b0 76 39 c5 3d 08 55 0a bc 68 59 28 bd 76 a3 e8 bd
       0.096301004 -0.008443125 -0.04110089 -0.11359303
0002c0 13 17 8b 3d c8 8b 9f bd a5 ce b6 bd 96 ae e3 3c
       0.067915104 -0.07790333 -0.08926133 0.02779321
0002d0 ec 0f 2c bd a3 83 ec 3b 12 71 0e bd 58 a6 73 bd
       -0.04200737 0.0072178408 -0.0347758 -0.05948481
0002e0 14 dc 05 bb 78 d5 be 3d fc 91 1e bb 3b 5b 18 bd
       -0.0020425366 0.0931806 -0.00241959 -0.03719638
0002f0 4a ec 9e 3d 54 a4 b2 3d cc 61 00 3c 0c a5 68 bd
       0.07759912 0.08722749 0.007835817 -0.056798026
000300 56 78 45 bd 04 98 2f 3d 1f 64 3a bd c7 fa c1 bd
       -0.048210464 0.042869583 -0.04550564 -0.0947166
000310 ab 72 9f bc d7 a2 5d bd ad f7 0e 3e e4 a3 b3 3d
       -0.019463858 -0.054110374 0.13961668 0.08771494
000320 c7 36 03 3e c1 24 30 bc 1d 4e b1 3d 65 3a 1d bc
       0.12813865 -0.01075095 0.08657477 -0.009596442
000330 fd 26 8c bd 95 23 20 3d 81 59 dd 3d 36 21 2e 3d
       -0.06843374 0.039096434 0.10808087 0.04251214
000340 26 59 f0 3d b7 bc d2 3d 09 36 7b bd de 9d 17 3d
       0.11735754 0.10289901 -0.06133083 0.03701579
000350 ab c6 81 bd 2e f5 29 bd fa 37 f0 3d f2 2d 6e 3b
       -0.06336721 -0.041493587 0.11729427 0.0036343304
000360 20 31 cd 3a ac 57 85 3d 9b 02 b8 3c c3 b1 81 bd
       0.0015654899 0.06510863 0.02246218 -0.063327335
000370 f2 74 9c bd b4 bd b1 bd f6 4f f1 3d db 98 8e bd
       -0.07639493 -0.08678761 0.117828295 -0.069627486
000380 37 fb 44 3c e6 29 78 bd ae 63 65 3d 0b 6d 1d bc
       0.012022785 -0.060586832 0.056003265 -0.009608517
000390 c6 4d ea 3d bd 1c 66 bd 3d f4 81 3d 18 26 0f 3c
       0.11440615 -0.05617975 0.06345413 0.00873711
0003a0 13 25 d3 3d a9 a7 27 3d 9a f8 40 3d 39 42 c8 bc
       0.10309806 0.040931378 0.047112085 -0.02444564
0003b0 2b c3 a6 3d 1d b6 85 3d f3 db 63 3d b7 fa f2 3c
       0.08142694 0.06528876 0.05562968 0.029660566
0003c0 75 b2 26 bd e1 f7 a6 bd 4a 08 cb bc 78 71 72 3b
       -0.040697534 -0.08152748 -0.024784226 0.0036993902
0003d0 3b 20 ff bc e8 c8 8b bd 41 29 7c 3d e7 4e 7b bd
       -0.031143298 -0.06825429 0.06156278 -0.061354544
0003e0 7c 19 be bd 19 db 9a bd 07 4c 06 3e 7a a5 0a 3a
       -0.092822045 -0.07561321 0.1311494 0.000528894
0003f0 68 23 9e 3d 00 d9 66 3d 95 64 0e 3e a9 6b f2 bc
       0.07721597 0.05635929 0.13905556 -0.029592352
