data/models/AAPL/predict_t1/model.pth (torch, 615602 bytes, 27 tensors)

lstm.weight_ih_l0 f4 [256, 1]
-0.018359179 0.16724452 -0.010920357 -0.04812449 0.07267138 0.04609797 -0.00654335 -0.0754823
0.18158737 -0.075835004 -0.046297908 -0.16706644 -0.0069698635 0.07584506 -0.09704379 0.01001859
-0.13738564 -0.10157741 -0.05733572 -0.022686157 -0.0026484223 0.17432027 0.016104478 0.05437084
0.05015002 -0.08329485 -0.11921277 0.11310035 -0.05715838 -0.018111309 -0.11139695 -0.022865523
0.122102626 0.09559106 0.06822205 0.069029 0.0389831 0.17342886 -0.047193214 0.038523793
0.0014876731 0.064918466 -0.024280194 -0.020159595 -0.11085153 0.04446584 -0.08583705 -0.13043223
-0.14995271 -0.04613244 0.009219065 0.048013225 0.009604126 0.12549022 -0.051595412 -0.09709577
-0.0724506 -0.12930758 -0.106518224 0.022064928 -0.0075022695 -0.012883502 -0.17768359 0.11487375
-0.040515564 0.22731636 -0.14931518 -0.022882173 0.08951761 0.038747903 -0.0860267 -0.10593222
0.07986846 -0.15432954 -0.082850374 -0.028423496 -0.037891373 0.0205105 -0.15274487 0.17430076
0.04944746 -0.103702396 0.02051298 0.03818606 0.010879748 -0.000813208 -0.019026123 -0.043003224
0.081120856 0.088565275 0.09199385 0.08526844 -0.034242664 0.016241403 0.012140172 -0.12641852
0.039518636 0.04140333 0.043784413 -0.083308 -0.1386975 0.20874766 -0.043305915 0.008254671
-0.13702697 0.03758902 0.013613448 -0.012460296 0.06878677 -0.11894437 -0.05391614 0.01590001
-0.04287232 -0.049992815 -0.013231773 0.09997003 0.12011749 0.14525016 0.048122093 0.14326423
-0.06116957 0.054251242 0.023297772 0.16337307 0.10822315 0.06707426 -0.015565105 0.21512862
0.19022132 0.15026656 0.18201834 0.15799662 0.08868734 0.18779162 -0.11727881 -0.15658721
0.055502348 -0.17851739 -0.17689604 -0.33807924 0.19247565 -0.106372975 -0.16707112 -0.20537736
0.1945935 -0.18607594 -0.20758452 0.11100631 -0.18686546 0.10991416 -0.19203442 -0.06901892
-0.17075579 -0.24052072 0.043746844 0.1498512 0.14649422 0.15601891 0.2326977 0.095557556
-0.12676878 -0.17365831 0.08010785 0.1917139 0.19201647 -0.05733024 -0.17010091 0.13575159
-0.020070307 0.15962182 0.17752516 0.19144462 -0.1798512 -0.052075375 -0.18990076 0.1331914
-0.15078068 -0.16367655 -0.18939215 0.18669687 0.14885548 -0.09339121 0.16966754 -0.16940883
-0.043606836 0.23066323 -0.19584653 0.22198042 -0.21726727 -0.15635851 -0.18427211 -0.15919527
-0.110865474 0.21667592 0.010584801 0.123544194 -0.119725116 0.023301065 -0.10766084 0.10283251
0.20881966 -0.17693824 -0.031871483 -0.06990727 -0.019187888 -0.08938351 -0.108645305 0.08241675
-0.011379504 -0.14985467 0.066740975 0.0058323694 -0.037720572 0.13147937 0.03247489 -0.09374524
0.052885972 0.030660354 0.026250198 0.1655434 0.037767086 0.06728414 0.044564094 -0.036329754
0.17927004 0.015900612 -0.085636385 -0.02307644 0.069861636 0.14001182 -0.024349961 -0.12837122
-0.12952995 0.1362157 0.11494885 -0.009052913 -0.08502864 -0.17857373 0.037749115 -0.009590217
-0.1089857 -0.04071077 0.19587265 0.048956294 0.09916519 -0.006009288 -0.078594565 0.018069822
-0.08207171 -0.014569758 0.05521836 0.17511873 0.16116345 0.04736785 -0.14229663 0.048772052
00000000: fd65 96bc 2642 2b3e 4ceb 32bc 2f1e 45bd
00000010: bcd4 943d 3ad1 3c3d 9969 d6bb 7796 9abd
00000020: 0af2 393e 624f 9bbd e0a2 3dbd 7713 2bbe
00000030: 7463 e4bb a854 9b3d e5be c6bd 0325 243c
00000040: d2ae 0cbe d107 d0bd dcd8 6abd 52d8 b9bc
00000050: 2791 2dbb 0381 323e 8aed 833c f5b3 5e3d
00000060: 1b6a 4d3d 7e96 aabd d325 f4bd 28a1 e73d
00000070: e81e 6abd 2b5e 94bc 1624 e4bd 7a50 bbbc
00000080: f110 fa3d 3fc5 c33d 01b8 8b3d 145f 8d3d
00000090: beac 1f3d 5697 313e ac4d 41bd 20cb 1d3d
000000a0: 07fe c23a f9f3 843d 42e7 c6bc bc25 a5bc
000000b0: 2106 e3bd d021 363d 56cb afbd 0790 05be
000000c0: 348d 19be 5ff5 3cbd 900b 173c 84a9 443d
000000d0: a05a 1d3c 8280 003e b655 53bd 26da c6bd
000000e0: fb60 94bd 3569 04be 3a26 dabd 82c1 b43c
000000f0: 99d5 f5bb 5315 53bc b0f2 35be ee42 eb3d
00000100: a6f3 25bd 9fc5 683e 14e6 18be 6573 bbbc
00000110: 0255 b73d 1fb6 1e3d c42e b0bd fef2 d8bd
00000120: 1392 a33d 9008 1ebe 75ad a9bd 64d8 e8bc
00000130: fc33 1bbd a305 a83c 2769 1cbe e67b 323e
00000140: 6b89 4a3d ec61 d4bd d60a a83c fc68 1c3d
00000150: f840 323c 772d 55ba acdc 9bbc 2624 30bd
00000160: b122 a63d b661 b53d 4667 bc3d 38a1 ae3d
00000170: 0942 0cbd b10c 853c 92e7 463c db73 01be
00000180: 4bde 213d 8a96 293d 4957 333d 629d aabd
00000190: b806 0ebe f2c1 553e 8b61 31bd 993e 073c
000001a0: cc50 0cbe f2f6 193d f00a 5f3c 4526 4cbc
000001b0: 14e0 8c3d 1b99 f3bd 2cd7 5cbd bd40 823c
000001c0: e39a 2fbd 44c5 4cbd 14ca 58bc 16bd cc3d
000001d0: 2900 f63d 75bc 143e ac1b 453d dcb3 123e
000001e0: f18c 7abd 8d36 5e3d f8da be3c 454b 273e
000001f0: 19a4 dd3d 3b5e 893d c804 7fbc ad4a 5c3e
00000200: 61c9 423e 7adf 193e 0463 3a3e dec9 213e
00000210: b5a1 b53d 724c 403e df2f f0bd 6658 20be
00000220: 6e56 633d 43cd 36be 3c24 35be b918 adbe
00000230: 5618 453e 13da d9bd b114 2bbe 714e 52be
00000240: 8543 473e b18a 3ebe 0991 54be 4757 e33d
00000250: a959 3fbe ad1a e13d aca4 44be cb59 8dbd
00000260: 9bda 2ebe 104b 76be e42f 333d 9872 193e
00000270: 9502 163e 6cc3 1f3e 4e48 6e3e aeb3 c33d
00000280: adcf 01be 7cd3 31be 960f a43d a650 443e
00000290: f79f 443e 1dd3 6abd ef2e 2ebe 7702 0b3e
000002a0: 7c6a a4bc e773 233e 28c9 353e 0f0a 443e
000002b0: ea2a 38be fd4c 55bd 5875 42be 5463 083e
000002c0: 4066 1abe d39a 27be 04f0 41be 772d 3f3e
000002d0: 926d 183e e443 bfbd 54bd 2d3e 8279 2dbe
000002e0: 159d 32bd fb32 6c3e fe8b 48be d64e 633e
000002f0: 507b 5ebe 721c 20be d4b1 3cbe 1604 23be
00000300: 700d e3bd 4be0 5d3e e06b 2d3c bd04 fd3d
00000310: 7132 f5bd e0e1 be3c 497d dcbd da99 d23d
00000320: d2d4 553e 4c2f 35be ac8b 02bd 8b2b 8fbd
00000330: eb2f 9dbc b40e b7bd 6e81 debd 1dca a83d
00000340: 1971 3abc 8173 19be 7eaf 883d 761d bf3b
00000350: e380 1abd 87a2 063e 6404 053d 81fd bfbd
00000360: f69e 583d 6c2b fb3c a80a d73c 3684 293e
00000370: a9b1 1a3d 44cc 893d d788 363d 82ce 14bd
00000380: 9192 373e 0042 823c 2162 afbd cd0a bdbc
00000390: 9e13 8f3d 425f 0f3e 9279 c7bc bf73 03be
000003a0: 80a3 04be 217c 0b3e 4d6a eb3d ab52 14bc
000003b0: 7f23 aebd 08dc 36be d19e 1a3d 4920 1dbc
000003c0: e533 dfbd 56c0 26bd d792 483e 6586 483d
000003d0: 1e17 cb3d 90e9 c4bb 30f6 a0bd 2a07 943c
000003e0: 3615 a8bd ffb5 6ebc a62c 623d 5352 333e
000003f0: 0808 253e ca04 423d 35b6 11be 34c5 473d

lstm.weight_hh_l0 f4 [256, 64]
0.0008026352 -0.031376995 0.114339806 -0.115084775 -0.2076158 -0.10363939 -0.019439915 0.026067194
0.06603296 -0.045518685 -0.05747646 0.1445881 0.009856422 0.04268736 -0.04525015 -0.08260689
-0.075481676 -0.08050489 -0.050186127 -0.03906381 0.023719061 0.16110115 0.083404176 0.0866617
0.035822775 0.08246448 0.013017979 -0.06446095 0.078617774 -0.04205732 0.006558322 0.057669353
-0.05891947 0.050824665 -0.05746299 0.00036905348 -0.121591024 -0.047873277 0.059375104 0.06942895
-0.09700778 -0.056458574 -0.03134814 -0.15601547 -0.046160787 0.14174174 -0.07448571 -0.03886798
0.027713258 0.072665624 0.06736926 -0.006211479 -0.029808333 0.064396 -0.032874815 0.03918095
0.09287377 0.08889624 -0.05007563 -0.035253987 -0.13462757 0.065736525 0.088209346 -0.10055908
0.0364371 -0.057032786 -0.05343507 0.094613954 -0.08010321 0.040190086 0.11129678 -0.004223387
0.074209176 0.036367532 -0.0037966291 -0.042917415 0.08472959 -0.08922181 0.18374977 -0.047585864
0.002207332 -0.080854885 0.061220653 0.03687993 -0.046481367 -0.043788992 -0.07606418 -0.07684469
-0.05185539 -0.07835447 0.1354386 -0.119757384 0.053781897 -0.100412294 -0.05201772 -0.10749909
-0.14967191 0.073991634 0.04311538 0.051361337 -0.03595048 -0.017156199 -0.06864938 -0.10287724
-0.033385962 -0.0023973153 0.011635212 -0.029883966 -0.0036242714 0.010004838 0.11267127 0.01775497
0.11539856 0.10239769 0.08748824 0.13715987 0.05666308 -0.035991676 0.010102252 -0.056110375
-0.013166079 -0.12779449 -0.063740715 0.11206643 0.014633596 0.04481967 -0.098677844 -0.03494854
-0.19356622 -0.023518205 -0.044277493 0.024026573 0.01863353 -0.10551564 0.18610865 0.04744556
0.048728522 0.13841084 0.1395561 0.11922475 0.05805216 0.08568945 0.08713884 0.011635401
0.025827631 -0.015104398 0.10151306 0.13068402 0.18513072 0.115572974 0.096038476 0.0031763322
-0.009197809 -0.030680222 0.11978444 0.051934216 0.014222818 -0.13576998 0.032187648 -0.1618293
-0.089356504 -0.025488632 0.021778796 -0.11604798 -0.04321016 0.08347802 -0.0019493322 0.07138638
0.21690708 -0.089548014 -0.01005684 -0.08851254 0.000723902 0.09675947 0.1461406 -0.0046235505
0.109305024 0.020796513 -0.116409175 -0.12624387 0.050207023 0.10579877 0.054621097 0.00031181666
0.096797876 -0.15994242 0.028218234 -0.10639657 -0.00096426625 0.07594102 -0.021591794 -0.121742
-0.0011316634 -0.012448601 -0.013402736 0.04658989 -0.114148505 -0.081135385 0.17717275 -0.12406834
-0.016498744 0.04522807 0.1169943 -0.01907442 -0.019504696 -0.050978925 0.11745007 -0.08793641
-0.0031871465 0.11910884 -0.02005768 -0.07082011 -0.07372286 -0.04666774 0.16013823 0.11808005
-0.09766497 -0.09987094 0.038783256 0.026058948 -0.05345254 0.023332411 -0.13610174 -0.02123408
0.07922289 0.09203418 -0.08859408 0.0155601995 0.08822056 -0.1688544 -0.13208905 -0.005421565
0.17619975 0.091140196 -0.094595775 0.0133569315 0.086887546 0.103156485 0.0416507 0.07928988
-0.05916303 -0.015537834 -0.14011659 0.056813702 0.01292391 0.027631758 0.0074154325 -0.09995544
-0.007877148 -0.07658151 0.037219588 0.086785465 -0.03842686 0.0771349 0.04150945 -0.045372847
00000000: f067 523a 2a85 00bd fd2a ea3d 91b1 ebbd
00000010: 3c99 54be e340 d4bd 7540 9fbc de8a d53c
00000020: 4a3c 873d cd71 3abd 706c 6bbd e70e 143e
00000030: d57c 213c f1d8 2e3d 3958 39bd cd2d a9bd
00000040: 2396 9abd bfdf a4bd f88f 4dbd 6001 20bd
00000050: 7a4e c23c b3f7 243e cfcf aa3d b07b b13d
00000060: e7ba 123d 23e3 a83d 5d49 553c 1a04 84bd
00000070: 5b02 a13d 4c44 2cbd 31e7 d63b b336 6c3d
00000080: 8b55 71bd 862d 503d 505e 6bbd 857d c139
00000090: b704 f9bd c516 44bd 4f33 733d c430 8e3d
000000a0: 04ac c6bd 1b41 67bd e866 00bd 85c2 1fbe
000000b0: 1813 3dbd bf24 113e f78b 98bd 0834 1fbd
000000c0: ea06 e33c b7d1 943d e5f8 893d aa89 cbbb
000000d0: 9b30 f4bc 0de2 833d bea7 06bd 347c 203d
000000e0: 9a34 be3d 3b0f b63d 1b1c 4dbd 7c66 10bd
000000f0: cfdb 09be dfa0 863d 1aa7 b43d ebf1 cdbd
00000100: 123f 153d 369b 69bd bbde 5abd f6c4 c13d
00000110: 270d a4bd 5c9e 243d 91ef e33d 5764 8abb
00000120: fbfa 973d 1ff6 143d ded0 78bb 2cca 2fbd
00000130: b586 ad3d edb9 b6bd e628 3c3e 65e9 42bd
00000140: e3a8 103b 3f97 a5bd 82c2 7a3d 690f 173d
00000150: 3f63 3ebd 165c 33bd 89c7 9bbd c060 9dbd
00000160: 5166 54bd 4f78 a0bd 6bb0 0a3e 5c43 f5bd
00000170: 684a 5c3d f6a4 cdbd 8810 55bd 7c28 dcbd
00000180: 9843 19be ed88 973d c199 303d 4460 523d
00000190: cf40 13bd 288b 8cbc 0c98 8cbd 4db1 d2bd
000001a0: b8bf 08bd 471c 1dbb 9ea1 3e3c 38cf f4bc
000001b0: 2f85 6dbb 55eb 233c 32c0 e63d df72 913c
000001c0: 1556 ec3d e1b5 d13d 092d b33d a373 0c3e
000001d0: 8c17 683d 026c 13bd ea83 253c fed3 65bd
000001e0: 8ab6 57bc 8fdc 02be 7e8a 82bd 1683 e53d
000001f0: c0c1 6f3c d594 373d 9c17 cabd 3326 0fbd
00000200: 3936 46be 40a9 c0bc 515c 35bd 60d3 c43c
00000210: 58a5 983c 9518 d8bd 4493 3e3e 4756 423d
00000220: 8f97 473d 92bb 0d3e cbe7 0e3e 1b2c f43d
00000230: 1ac8 6d3d f37d af3d d975 b23d 69a2 3e3c
00000240: 7894 d33c 7078 77bc 14e6 cf3d 08d2 053e
00000250: e892 3d3e 86b1 ec3d d2af c43d 032a 503b
00000260: 68b2 16bc 1755 fbbc 8b51 f53d f9b8 543d
00000270: d306 693c 4907 0bbe 32d7 033d 94b6 25be
00000280: 8b00 b7bd 89cd d0bc 7269 b23c 90aa edbd
00000290: 23fd 30bd 86f6 aa3d bc80 ffba 0633 923d
000002a0: e41c 5e3e f364 b7bd 72c5 24bc 1046 b5bd
000002b0: 3ec4 3d3a d429 c63d e2a5 153e 2781 97bb
000002c0: 50db df3d 735d aa3c ef67 eebd 1346 01be
000002d0: e1a5 4d3d 07ad d83d 5fba 5f3d 537b a339
000002e0: f73d c63d f2c7 23be ed29 e73c 72e6 d9bd
000002f0: d0c6 7cba f786 9b3d 46e1 b0bc df53 f9bd
00000300: 5354 94ba 38f5 4bbc 2697 5bbc 0ad5 3e3d
00000310: b1c6 e9bd 4f2a a6bd c66c 353e 8b17 febd
00000320: 6028 87bc 1241 393d b59a ef3d f541 9cbc
00000330: 50c8 9fbc 47cf 50bd aa89 f03d 0118 b4bd
00000340: 72df 50bb 56ef f33d 0150 a4bc 220a 91bd
00000350: 03fc 96bd ac26 3fbd 47fb 233e f4d3 f13d
00000360: 9204 c8bd 2389 ccbd 31db 1e3d 9379 d53c
00000370: 0df1 5abd 9d23 bf3c 415e 0bbe 18f3 adbc
00000380: 9c3f a23d 6b7c bc3d d070 b5bd 35f0 7e3c
00000390: fbac b43d 2be8 2cbe 5a42 07be 62a7 b1bb
000003a0: b56d 343e b6a7 ba3d 6ebb c1bd 08d7 5a3c
000003b0: 19f2 b13d b543 d33d ed99 2a3d bc62 a23d
000003c0: ef54 72bd 6692 7ebc b97a 0fbe 7cb5 683d
000003d0: cfbe 533c ff5b e23c 28fd f23b 70b5 ccbd
000003e0: 270f 01bc c4d6 9cbd 9173 183d 94bc b13d
000003f0: 7c65 1dbd e7f8 9d3d d005 2a3d e1d8 39bd

lstm.bias_ih_l0 f4 [256]
0.18610036 -0.07356668 0.05136416 0.02454546 0.06728333 0.10765662 0.08903363 0.045879222
-0.05030709 -0.02383499 0.033598788 0.18990116 0.22255637 -0.07534534 0.32250673 0.07017025
0.048631553 0.05850719 -0.04725894 0.013529616 0.17692429 -0.08595172 0.050910152 -0.05346666
-0.058648463 0.26747698 0.11750978 0.15487105 0.16403392 -0.072512425 0.25912747 -0.06883566
-0.07737606 0.087612696 0.1709246 -0.042001378 0.13183981 -0.08679385 -0.006292567 0.14110932
0.010403773 0.13755752 0.155388 0.28638467 -0.003654805 0.09509576 0.06527224 0.014996612
-0.037493918 0.12305494 -0.045021556 -0.043638263 0.028697135 0.053396758 -0.05369091 0.102220796
-0.06373241 -0.0057103373 0.05273756 0.10949254 0.037169855 0.12867187 0.11202643 -0.08512247
0.023014909 0.07967786 0.09917931 -0.07560509 0.045019537 0.08413114 -0.02483217 0.06468087
0.01296298 -0.058182552 0.09139545 -0.07528806 -0.008743245 -0.033714145 -0.016228857 0.0073941983
0.014807876 -0.05933905 -0.045084953 -0.071484394 0.11174564 -0.048019115 -0.10384093 -0.09442121
0.020928903 -0.1058105 0.00047547361 0.051789586 -0.14226091 -0.06552112 0.079117015 0.053926725
-0.108698204 -0.06916437 0.04853178 0.08702101 -0.08131536 -0.00027279663 0.088018134 -0.016848935
-0.063051805 -0.012872453 0.051451284 0.044375725 0.06288552 0.06830691 -0.12255433 0.08194945
-0.13192433 0.020750467 -0.027137797 0.036753945 0.054888055 -0.1109528 -0.13270308 -0.01668775
0.124740146 0.006338572 0.0823605 -0.08035421 0.0278456 -0.11617493 -0.057733018 -0.14080097
-0.011031822 0.122741275 0.035147853 -0.018995415 0.023811528 0.039145727 0.05202747 -0.07510647
-0.0075467364 0.032824438 0.019519517 0.0028691152 0.100801654 -0.091531396 -0.105880365 -0.08631631
-0.04481371 0.010452715 -0.002204842 -0.027228436 -0.026899956 0.016034381 0.014799225 0.05766954
-0.030535398 0.07608117 0.09961101 -0.06288325 -0.101631455 -0.07306724 0.034312934 -0.02622654
-0.068434015 0.008901986 0.020541277 0.0643361 0.06355319 -0.024277667 -0.027987706 0.0035137974
0.07003931 0.04649394 0.039469045 -0.057087746 0.014265845 0.016559508 -0.05248182 -0.029564416
-0.020098178 -0.1022824 -0.070473835 -0.011844137 0.00048080305 -0.12579177 0.06896388 0.027391385
-0.018018171 0.016616933 -0.06543385 0.032475658 -0.041752186 -0.078977026 -0.053221613 -0.06620462
-0.0152834 -0.028654614 0.07631754 0.06284369 -0.06841077 0.03184363 0.067568995 -0.022284266
-0.09617895 0.041995037 -0.015046037 0.26164642 0.15968388 0.112881444 0.32292467 0.15808244
0.10180491 0.15294422 -0.048013672 0.13354947 0.12682533 -0.054832786 0.052812222 -0.09921911
0.012646115 0.282098 0.009607592 0.2989314 0.016515011 0.06198514 0.055220712 -0.08914594
0.0054550003 0.11107169 -0.037878174 -0.04290097 0.14817278 -0.04886111 0.11453197 0.04456151
0.075997256 0.09457211 0.12657571 0.19131367 -0.04519767 0.10561665 0.012069411 0.117535695
-0.035705626 0.07316416 -0.02178641 0.13622165 0.08362437 -0.04346383 0.012607492 -0.041618817
-0.05891861 -0.010903485 0.018639663 0.05532596 0.13626823 0.07485813 -0.024608517 0.1352913
00000000: 1891 3e3e 21aa 96bd 3a63 523d 8f13 c93c
00000010: d8cb 893d 137b dc3d 4457 b63d daeb 3b3d
00000020: cf0e 4ebd 9941 c3bc e29e 093d 7375 423e
00000030: d1e5 633e a84e 9abd 9a1f a53e 6cb5 8f3d
00000040: e131 473d 3ca5 6f3d 9792 41bd 53ab 5d3c
00000050: a42b 353e 7507 b0bd 2a87 503d dbff 5abd
00000060: 5f39 70bd bef2 883e f8a8 f03d 8496 1e3e
00000070: 82f8 273e 6581 94bd 5bac 843e b6f9 8cbd
00000080: 5777 9ebd 496e b33d dc06 2f3e a309 2cbd
00000090: 0401 073e f9c0 b1bd e131 cebb f67e 103e
000000a0: 9674 2a3c e1db 0c3e 081e 1f3e 03a1 923e
000000b0: 7485 6fbb 91c1 c23d 74ad 853d 5ab4 753c
000000c0: 3993 19bd 3a04 fc3d 8668 38bd 09be 32bd
000000d0: 4116 eb3c 8fb6 5a3d 00eb 5bbd 2359 d13d
000000e0: 2386 82bd c81d bbbb 5703 583d a03d e03d
000000f0: 6b3f 183d 8fc2 033e 1d6e e53d b154 aebd
00000100: c389 bc3c 252e a33d 861e cb3d d7d6 9abd
00000110: 6866 383d f24c ac3d d66c cbbc 6777 843d
00000120: ae62 543c d450 6ebd 8a2d bb3d a030 9abd
00000130: d43f 0fbc d817 0abd 61f2 84bc 084b f23b
00000140: bc9c 723c 810d 73bd 00ab 38bd 6966 92bd
00000150: e6da e43d b1af 44bd 8eaa d4bd e85f c1bd
00000160: 1773 ab3c 2db3 d8bd fd48 f939 5121 543d
00000170: d8ac 11be f02f 86bd 1a08 a23d 45e2 5c3d
00000180: 2a9d debd 0da6 8dbd 42c9 463d 1238 b23d
00000190: ab88 a6bd 2506 8fb9 da42 b43d c706 8abc
000001a0: 4e21 81bd fbe6 52bc 95be 523d 52c3 353d
000001b0: 20ca 803d 7ee4 8b3d c4fd fabd 1dd5 a73d
000001c0: 2c17 07be e2fc a93c 1650 debc 4e8b 163d
000001d0: 4cd2 603d 393b e3bd 51e3 07be c0b4 88bc
000001e0: c377 ff3d ccb3 cf3b 9fac a83d c090 a4bd
000001f0: 751c e43c 1fed edbd 7579 6cbd 212e 10be
00000200: d1be 34bc c75f fb3d 32f7 0f3d 469c 9bbc
00000210: 6510 c33c 4557 203d c21a 553d 6cd1 99bd
00000220: 9d4a f7bb eb72 063d 65e7 9f3c c407 3c3b
00000230: 1971 ce3d d074 bbbd ced7 d8bd 9bc6 b0bd
00000240: 958e 37bd dd41 2b3c 1c7f 10bb 2b0e dfbc
00000250: 4c5d dcbc 895a 833c 7378 723c e536 6c3d
00000260: 5f25 fabc 72d0 9b3d db00 cc3d efc8 80bd
00000270: 2724 d0bd 47a4 95bd b88b 0c3d 0ad9 d6bc
00000280: 2227 8cbd a3d9 113c 2e46 a83c a5c2 833d
00000290: 2d28 823d f5e1 c6bc 7946 e5bc bd47 663b
000002a0: c570 8f3d 6e70 3e3d 4baa 213d d7d4 69bd
000002b0: 4abb 693c cea7 873c 2df7 56bd 1331 f2bc
000002c0: efa4 a4bc 6f79 d1bd 9654 90bd e90d 42bc
000002d0: 4b14 fc39 8fcf 00be ef3c 8d3d e663 e03c
000002e0: d89a 93bc 3c20 883c 2f02 86bd 3205 053d
000002f0: 5704 2bbd b5be a1bd e8fe 59bd 4a96 87bd
00000300: 3a67 7abc 15bd eabc 5f4c 9c3d 31b4 803d
00000310: f21a 8cbd 776e 023d 9d61 8a3d 7e8d b6bc
00000320: 78f9 c4bd fd02 2c3d a783 76bc 85f6 853e
00000330: 2c84 233e 632e e73d 6256 a53e 5de0 213e
00000340: 187f d03d 699d 1c3e fca9 44bd 31c1 083e
00000350: 80de 013e 5898 60bd a151 583d 6433 cbbd
00000360: a731 4f3c 266f 903e 2969 1d3c 890d 993e
00000370: 7d4a 873c 21e4 7d3d 1d2f 623d 2692 b6bd
00000380: dcbf b23b 8e79 e33d 2526 1bbd edb8 2fbd
00000390: 9bba 173e 9622 48bd bd8f ea3d 2186 363d
000003a0: 73a4 9b3d 06af c13d 109d 013e bbe7 433e
000003b0: 3121 39bd 8b4d d83d c7be 453c 8eb6 f03d
000003c0: 1040 12bd 17d7 953d 6a79 b2bc b07d 0b3e
000003d0: 4143 ab3d 2107 32bd a78f 4e3c 7e78 2abd
000003e0: a454 71bd 88a4 32bc 35b2 983c 799d 623d
000003f0: e689 0b3e 384f 993d cd97 c9bc cd89 0a3e

lstm.bias_hh_l0 f4 [256]
0.064628415 -0.06187311 -0.040113445 0.12791929 0.008439067 0.08335179 -0.04198894 -0.016424563
0.016168281 0.17149012 0.048297215 0.23842289 0.14201243 -0.0656677 0.46049652 0.10420329
0.08576016 -0.06694914 0.1362328 -0.06190109 0.11796445 -0.093113236 0.13361953 -0.01243874
-0.006988354 0.2983839 0.14998545 0.19763128 0.07082591 0.01226209 0.15572532 0.057076093
-0.06715853 0.08494041 0.019401494 0.120748945 0.1694754 0.010437669 -0.017397575 0.13373469
0.08264393 -0.07722096 0.0980962 0.16380848 0.024636932 -0.10534289 0.038770292 0.16591394
-0.05674163 0.18277422 0.16801462 0.011419847 0.11907417 0.04021063 0.13742277 0.061777487
0.07353782 0.122638576 0.105595306 0.13979961 0.055648874 0.035730414 0.08485557 0.039274234
0.09027117 -0.0438217 -0.06776774 -0.070730485 0.028237535 -0.10325299 0.10664563 0.09530154
-0.008048241 0.03867888 -0.019540269 -0.20631407 0.073364384 -0.028140677 -0.10303781 -0.05886779
-0.14013328 -0.11091227 0.07752387 -0.10782203 -0.06840879 0.06782644 -0.0811925 -0.011447514
-0.13690668 -0.15358466 0.12415697 -0.008910404 0.030918276 -0.0960983 -0.02235685 0.049803335
0.08916849 -0.049605478 0.12515214 -0.107156456 -0.09774546 0.07578116 0.060031936 -0.13904093
0.007031999 0.113775685 0.07831745 0.057140592 -0.047902957 0.060271896 -0.07391012 -0.12874801
0.08362828 -0.045474548 0.018932749 -0.0866356 0.022730932 -0.11307151 -0.10300263 0.09516487
-0.08268628 0.07847315 -0.10991896 0.040970065 -0.10867192 -0.092701025 -0.04218633 -0.059764795
-0.023202084 -0.076867715 0.077644534 0.08913747 -0.11788705 -0.05262925 -0.018520001 -0.029803945
0.052940078 -0.05453843 0.012299934 0.022864433 -0.095754795 0.10217063 0.10161874 0.02399019
-0.03303734 0.034749344 0.06481017 -0.0376124 0.078493014 0.08298277 0.07705947 0.008415694
-0.09204568 -0.07654986 0.08906659 0.04547446 0.112181924 -0.03675812 -0.04949852 -0.048837762
0.0002920155 -0.046240184 -0.02708702 -0.050677646 -0.039690185 -0.10803102 -0.032428805 -0.01625872
0.0072667478 0.10321916 -0.00018313594 0.030894082 0.05298204 0.058433373 0.037134778 0.016906109
0.07353782 0.07658427 0.048788752 -0.096501194 0.058397878 0.07236335 0.080922194 -0.09421746
0.04130265 -0.032076366 0.0696838 0.057465285 -0.075279176 0.11142207 0.013654856 -0.037940755
0.15916832 -0.033510488 0.017293705 0.004750587 0.044424016 -0.05882382 0.07651393 0.071487084
-0.038293306 -0.039321173 0.0741206 0.16413188 0.28314492 -0.070999555 0.36146975 -0.015064659
-0.010760412 -0.057987485 0.017292732 -0.07413321 -0.02161067 0.117092304 -0.0348173 0.016232092
0.13516766 0.15520847 0.14479473 0.21295308 -0.037592284 0.112224355 0.13680498 -0.017597714
-0.062043216 0.1067943 0.008945124 0.0925694 0.068054825 0.112957485 -0.02700067 0.2840618
-0.007549259 0.1418162 -0.014687971 0.17547998 0.048404194 0.014768276 -0.0069871186 0.0666779
-0.015881425 0.0969577 0.14075942 0.16668795 0.15610594 0.005411408 0.14980069 -0.032059927
0.131604 -0.005275141 0.011923375 0.09191211 -0.002446577 0.22328316 0.019070927 -0.09374502
00000000: e75b 843d a86e 7dbd ff4d 24bd 46fd 023e
00000010: 0344 0a3c 58b4 aa3d 98fc 2bbd ce8c 86bc
00000020: 5873 843c 1b9b 2f3e 4dd3 453d 2125 743e
00000030: b56b 113e c97c 86bd 33c6 eb3e 8968 d53d
00000040: 06a3 af3d a11c 89bd 9c80 0b3e ff8b 7dbd
00000050: 5897 f13d 27b2 bebd 8fd3 083e dbcb 4bbc
00000060: 90fe e4bb c6c5 983e c995 193e db5f 4a3e
00000070: 2d0d 913d efe6 483c 7576 1f3e 9fc8 693d
00000080: 698a 89bd 3df5 ad3d e2ef 9e3c 394b f73d
00000090: f68a 2d3e c202 2b3c 5c85 8ebc bff1 083e
000000a0: 3941 a93d 0626 9ebd a9e6 c83d 69bd 273e
000000b0: 64d3 c93c 03be d7bd 99cd 1e3d 58e5 293e
000000c0: e969 68bd 2a29 3b3e 060c 2c3e 4f1a 3b3c
000000d0: 29dd f33d e7b3 243d 8eb8 0c3e 640a 7d3d
000000e0: ff9a 963d ef29 fb3d 5a42 d83d a127 0f3e
000000f0: 13f0 633d 0e5a 123d c2c8 ad3d 05de 203d
00000100: 17e0 b83d 627e 33bd d0c9 8abd 25db 90bd
00000110: 6752 e73c 4e76 d3bd 0669 da3d 742d c33d
00000120: c5dc 03bc bf6d 1e3d ea12 a0bc ff43 53be
00000130: 1140 963d 4787 e6bc 7d05 d3bd 5a1f 71bd
00000140: 197f 0fbe f925 e3bd d6c4 9e3d ccd1 dcbd
00000150: e819 8cbd 97e8 8a3d 4148 a6bd 5b8e 3bbc
00000160: 4431 0cbe 4c45 1dbe 0246 fe3d f1fc 11bc
00000170: 5348 fd3c 2fcf c4bd b625 b7bc 95fe 4b3d
00000180: f89d b63d 1d2f 4bbd e227 003e d874 dbbd
00000190: c62e c8bd 2733 9b3d 0ce4 753d bf60 0ebe
000001a0: af6c e63b 3a03 e93d e664 a03d 410c 6a3d
000001b0: e435 44bd aadf 763d 305e 97bd 85d6 03be
000001c0: 4e45 ab3d 8543 3abd da18 9b3c 016e b1bd
000001d0: 3836 ba3c 0992 e7bd 0bf3 d2bd cde5 c23d
000001e0: 6d57 a9bd 88b6 a03d 311d e1bd 3ad0 273d
000001f0: 628f debd 09da bdbd 93cb 2cbd eecb 74bd
00000200: 4c12 bebc d26c 9dbd 1904 9f3d b58d b63d
00000210: c46e f1bd c591 57bd 42b7 97bc 6727 f4bc
00000220: b2d7 583d b063 5fbd aa85 493c 314e bb3c
00000230: 171b c4bd d63e d13d 7c1d d03d 1387 c43c
00000240: 2952 07bd 5455 0e3d 32bb 843d 760f 1abd
00000250: f2c0 a03d dff2 a93d 5bd1 9d3d fbe1 093c
00000260: 7282 bcbd 2cc6 9cbd 8b68 b63d 6d43 3a3d
00000270: a3bf e53d af8f 16bd f6be 4abd 1b0a 48bd
00000280: a819 9939 5966 3dbd 99e5 ddbc 5d93 4fbd
00000290: 2d92 22bd 5e3f ddbd 11d4 04bd 0231 85bc
000002a0: e61d ee3b 9164 d33d 2e08 40b9 9615 fd3c
000002b0: b203 593d d557 6f3d a31a 183d ae7e 8a3c
000002c0: ff9a 963d 37d8 9c3d b7d6 473d 6ba2 c5bd
000002d0: 9d32 6f3d 3c33 943d 89ba a53d 15f5 c0bd
000002e0: f82c 293d 8262 03bd 61b6 8e3d b860 6b3d
000002f0: f82b 9abd 4131 e43d 9eb8 5f3c c467 1bbd
00000300: 05fd 223e 4b42 09bd 87ab 8d3c d0aa 9b3b
00000310: f5f5 353d 3ff1 70bd 56b3 9c3d d267 923d
00000320: 71d9 1cbd 3d0f 21bd 8bcc 973d 3012 283e
00000330: 5ff8 903e 3768 91bd 9012 b93e c2d1 76bc
00000340: 704c 30bc 4984 6dbd 7da9 8d3c 27d3 97bd
00000350: dc08 b1bc 17ce ef3d 969c 0ebd 2af9 843c
00000360: 6469 0a3e f8ee 1e3e 1245 143e 5f10 5a3e
00000370: 5efa 19bd e2d5 e53d 9b16 0c3e 1529 90bc
00000380: 0721 7ebd f8b6 da3d 928e 123c 0795 bd3d
00000390: 5460 8b3d 4156 e73d 8230 ddbc 8c70 913e
000003a0: c65f f7bb 4438 113e d1a5 70bc 06b1 333e
000003b0: 7a43 463d a4f6 713c 33f4 e4bb 6c8e 883d
000003c0: c319 82bc c291 c63d 3d23 103e 3fb0 2a3e
000003d0: 3cda 1f3e 2e52 b13b 5a65 193e 4551 03bd
000003e0: 33c3 063e 17db acbb 425a 433c 6b3c bc3d
000003f0: c056 20bb 57a4 643e a23a 9c3c 64fd bfbd

lstm.weight_ih_l1 f4 [256, 64]
-0.023826567 0.050779328 -0.16437058 -0.0067148036 0.03790563 -0.02829053 0.10524166 0.061775237
0.031359855 0.09618844 0.08410335 0.09018362 -0.09911577 0.07437311 0.009803757 0.13768357
-0.13421027 -0.08387259 -0.011393367 -0.033354532 -0.0661416 0.07982547 0.08459491 0.13084605
0.0927402 -0.021197984 0.10989713 -0.00091482466 0.058221273 -0.025807422 -0.052432824 -0.09617756
-0.049064744 0.16717641 -0.0008328688 -0.04590712 -0.1504653 0.09110731 0.07109308 -0.22864352
0.12165165 -0.016285788 -0.16786017 -0.11226492 0.18377034 0.13532378 -0.041893583 0.004014832
-0.057372984 0.17279829 0.057358246 -0.016899958 -0.16495918 0.03932756 -0.2633006 0.14218256
0.12775771 0.024184084 0.08511501 -0.15243699 -0.02959242 -0.04327041 0.13756828 0.007620745
-0.099016115 -0.047270704 -0.10223889 -0.022807479 0.0043307035 -0.09432339 0.092231795 -0.054547213
0.069384664 -0.10073626 -0.024919007 -0.039555945 -0.018541869 0.07907805 -0.11944559 -0.064904824
0.06480625 0.062386002 -0.04776247 0.05313392 -0.10954335 0.09647004 0.06448536 0.14408645
0.058032382 0.0033401304 0.14656107 0.011199666 0.027717374 0.046690937 -0.055177134 0.0030248237
0.049819775 -0.1290337 0.083819106 -0.0621158 -0.012941336 0.065568574 0.03183368 0.099789865
0.053084295 -0.07826551 0.024462719 -0.037892524 0.024650069 0.021967715 0.08719972 -0.07907167
-0.048254754 0.09057418 0.069581166 0.026843103 0.13942112 0.07779641 0.051195383 -0.11482471
0.05225852 0.001295083 0.11198943 -0.07523581 0.0024683878 0.08782143 0.086318865 -0.08576544
0.043940358 -0.038714893 -0.08247118 -0.090007566 0.028553959 0.058038056 0.041197974 -0.063364126
0.07753409 -0.123231575 -0.1258529 0.16839503 0.1170808 -0.12032554 0.102296285 -0.07135424
-0.033949587 0.0037460376 -0.13082477 -0.024496667 0.05290748 -0.03671762 0.012515347 0.0037658678
-0.094055496 -0.050893202 0.08668618 0.16216007 -0.07412106 0.09094537 0.07474257 -0.11048792
-0.11351252 -0.10391893 0.13364214 0.11147173 0.007164565 -0.014328454 0.051465463 -0.002500787
0.0044592232 0.12477294 -0.02608847 -0.005666151 -0.10042912 -0.05696413 -0.03503659 0.12328479
-0.040719345 0.13402854 0.06646093 0.030119838 -0.0872437 -0.009397455 0.05381728 -0.08316226
0.07414973 -0.0490782 0.06693948 0.10341344 -0.11056927 -0.049413137 0.042336553 -0.0993334
0.025122946 0.09398457 0.13435839 0.09904448 -0.10710791 0.03771342 0.061063178 -0.10569886
-0.060333837 0.039739452 0.0034949915 -0.07666301 -0.010852698 -0.012871254 0.07127391 0.073605694
0.029585758 -0.10882461 0.06905657 0.0283689 0.037578028 -0.002967173 -0.035864253 -0.0400105
-0.14724787 -0.08191663 -0.058644854 -0.0019769608 0.054105278 0.08953392 0.14684261 0.1283853
0.1055449 0.02537136 0.06939651 0.06537528 0.07679734 -0.082909614 -0.004190799 -0.026674772
0.11635978 -0.027935054 -0.0025280477 0.012620138 0.02375314 0.05368377 0.033269618 0.015074984
0.00327926 -0.03814094 -0.099391654 0.15571848 0.15688623 0.0717635 0.09854898 0.044113226
-0.040536575 -0.07590475 -0.13525704 -0.057026748 -0.13010885 -0.057810202 0.070843436 0.051140882
00000000: ef2f c3bc fcfd 4f3d c350 28be db07 dcbb
00000010: ef42 1b3d 8bc1 e7bc f088 d73d 0808 7d3d
00000020: 3173 003d 72fe c43d 613e ac3d 31b2 b83d
00000030: 35fd cabd ee50 983d f09f 203c ecfc 0c3e
00000040: 6b6e 09be 64c5 abbd 3fab 3abc c39e 08bd
00000050: 3f75 87bd 897b a33d 1940 ad3d 82fc 053e
00000060: 93ee bd3d 65a7 adbc bf11 e13d d8d0 6fba
00000070: 6e79 6e3d 166a d3bc cdc3 56bd bef8 c4bd
00000080: 1df8 48bd 4b30 2b3e e154 5aba 1b09 3cbd
00000090: 9313 1abe 7896 ba3d 4099 913d 8721 6abe
000000a0: 8024 f93d c669 85bc 89e3 2bbe 26eb e5bd
000000b0: 4b2e 3c3e 5192 0a3e 9b98 2bbd da8e 833b
000000c0: efff 6abd 09f2 303e 7bf0 6a3d c871 8abc
000000d0: 0feb 28be f015 213d 56cf 86be 4e98 113e
000000e0: ebd2 023e b31d c63c c750 ae3d 7118 1cbe
000000f0: ce6b f2bc 503c 31bd b3de 0c3e 71b7 f93b
00000100: f6c8 cabd ed9e 41bd a062 d1bd c0d6 babc
00000110: 93e8 8d3b 9f2c c1bd 06e4 bc3d e66c 5fbd
00000120: 8c19 8e3d d04e cebd f222 ccbc 6a05 22bd
00000130: 1ee5 97bc acf3 a13d e49f f4bd d2ec 84bd
00000140: 24b9 843d 7788 7f3d 94a2 43bd f4a2 593d
00000150: 4458 e0bd 1692 c53d e710 843d 668b 133e
00000160: 5db3 6d3d 17e6 5a3b 1b14 163e ce7e 373c
00000170: 8c0f e33c ff3e 3f3d 6b01 62bd 1f3c 463b
00000180: d20f 4c3d 6921 04be 5aa9 ab3d 236d 7ebd
00000190: e607 54bc d148 863d 0864 023d a15e cc3d
000001a0: eb6e 593d ab49 a0bd 0a66 c83c 3135 1bbd
000001b0: f1ee c93c a3f5 b33c c495 b23d 54f0 a1bd
000001c0: c7a6 45bd f57e b93d 9280 8e3d 11e6 db3c
000001d0: 69c4 0e3e b953 9f3d 40b2 513d 3829 ebbd
000001e0: 080d 563d c6bf a93a b75a e53d 3b15 9abd
000001f0: adc4 213b b9db b33d f2c7 b03d caa5 afbd
00000200: cefa 333d 8293 1ebd a6e6 a8bd e355 b8bd
00000210: fee9 e93c 50b9 6d3d 35bf 283d 0dc5 81bd
00000220: 31ca 9e3d d660 fcbd 95df 00be bf6f 2c3e
00000230: 0fc8 ef3d 3d6d f6bd b780 d13d 2c22 92bd
00000240: b90e 0bbd 1580 753b eef6 05be 3cad c8bc
00000250: 84b5 583d 3765 16bd 2c0d 4d3c c7cc 763b
00000260: 2ba0 c0bd 6475 50bd 8688 b13d 4a0d 263e
00000270: c8cc 97bd 9141 ba3d a212 993d 7e47 e2bd
00000280: 4179 e8bd 73d3 d4bd 7cd9 083e 4a4b e43d
00000290: bac4 ea3b e4c1 6abc 73cd 523d 3ee4 23bb
000002a0: ad1e 923b f588 ff3d 7db7 d5bc 1fab b9bb
000002b0: c8ad cdbd 3853 69bd 8782 0fbd bc7c fc3d
000002c0: 54c9 26bd c73e 093e ab1c 883d e1bd f63c
000002d0: d3ac b2bd c8f7 19bc 826f 5c3d fa50 aabd
000002e0: d0db 973d 3906 49bd 9117 893d 6dca d33d
000002f0: 2472 e2bd 6e65 4abd 1869 2d3d 4f6f cbbd
00000300: a3ce cd3c fb7a c03d 3f95 093e d5d7 ca3d
00000310: 645b dbbd 6379 1a3d 621d 7a3d a578 d8bd
00000320: 9d20 77bd d6c5 223d 3a0c 653b 7f01 9dbd
00000330: 84cf 31bc f4e1 52bc 0ef8 913d 95be 963d
00000340: d55d f23c 70df debd 886d 8d3d e565 e83c
00000350: 6beb 193d e774 42bb 65e6 12bd 0de2 23bd
00000360: 25c8 16be e8c3 a7bd 9635 70bd e68f 01bb
00000370: 7f9d 5d3d 8f5d b73d e95d 163e 7077 033e
00000380: ed27 d83d 99d7 cf3c c21f 8e3d 7ae3 853d
00000390: ec47 9d3d 84cc a9bd f852 89bb 0d85 dabc
000003a0: 094e ee3d 0ed8 e4bc 9aad 25bb b2c4 4e3c
000003b0: f295 c23c 83e3 5b3d b945 083d 11fd 763c
000003c0: dae8 563b ad39 1cbd da8d cbbd aa74 1f3e
000003d0: c9a6 203e bef8 923d 0cd4 c93d 12b0 343d
000003e0: ae09 26bd f373 9bbd d280 0abe e194 69bd
000003f0: 413b 05be 64ca 6cbd 5d16 913d 1a79 513d

lstm.weight_hh_l1 f4 [256, 64]
0.037534595 0.06089054 -0.06878353 0.044467174 0.091553695 0.032996792 -0.033225022 0.024473092
-0.09411249 -0.081828624 0.06298439 -0.05224397 0.10260462 -0.10050997 -0.038386993 0.037727013
0.027452862 -0.0029092734 0.10536944 0.100612044 -0.021905325 -0.00459044 0.108198985 0.07980917
-0.019784136 0.10731822 0.059631795 0.08088517 0.064302534 -0.05236312 -0.110305645 0.10168939
0.117341556 -0.07635694 0.09648543 0.12905242 0.12945966 -0.030981068 0.064514786 0.082967214
-0.008389941 -0.061702825 -0.01478625 0.032520864 -0.09086431 0.024778347 -0.1171233 0.06782466
-0.015993282 0.0890651 0.120363764 -0.0023379675 0.022629125 -0.02368685 0.07547394 -0.052003004
-0.09802509 -0.07141828 0.08826558 0.018792354 -0.082736 -0.09439465 0.045398656 -0.0033896898
0.0007017925 -0.081502184 0.034256883 0.03529306 -0.007877295 0.11128993 -0.051578652 -0.03489147
-0.049040344 -0.063443795 -0.08451001 0.077824585 -0.116984226 -0.0812468 0.15356477 -0.013056329
0.08111076 0.027797906 -0.06914869 -0.0071465736 -0.11912799 0.012300824 -0.08075502 -0.048045818
-0.05577368 -0.08359343 -0.07101372 0.052208398 -0.087980434 -0.057716087 -0.067393474 0.07037751
0.05623895 -0.062362332 0.09682672 0.08554666 -0.048509885 -0.0022323278 -0.008516661 0.06386004
-0.08222322 0.02110044 -0.03183314 -0.079403214 -0.1293314 0.1522879 -0.07981352 -0.06833966
-0.029693777 -0.12877797 -0.012325048 -0.016052037 0.016595168 -0.022900874 -0.058050722 0.040452365
0.062114317 -0.046119284 -0.04793596 -0.091880456 -0.10309067 0.097676225 -0.081662156 0.017574329
0.0475919 -0.009523812 -0.018306615 -0.0077115227 0.12481128 -0.03618426 0.10312627 -0.059697166
-0.055710718 -0.05526073 -0.014141333 -0.008736352 -0.08284163 -0.069591835 0.19361623 0.001954066
0.091057725 -0.013063457 -0.04211739 0.006674069 -0.003776431 -0.0741002 0.03733994 -0.003111249
-0.138486 -0.08596981 -0.055134833 0.08597188 -0.036639392 0.06732905 0.03484251 -0.09811405
-0.01616221 0.032687552 0.017016562 0.13827844 -0.016567085 -0.034773137 0.07349102 -0.0009257006
-0.04148158 0.01175915 -0.03761928 -0.07979421 -0.04223105 -0.001782231 -0.03938685 -0.055780064
-0.030764043 -0.058898073 -0.11264148 0.112099364 -0.09305365 0.17136471 0.09127567 -0.15141983
-0.074253045 -0.10568433 -0.11077537 0.068963364 -0.020581938 -0.08993685 -0.04096485 -0.08179648
0.20770147 0.1265107 0.10974871 0.037496973 0.056498837 0.046109077 -0.1297528 -0.07397554
0.1619168 0.030172141 -0.04036197 0.028552204 0.12357929 -0.09272439 0.12984875 0.058380492
-0.030862968 0.13514023 -0.07349469 -0.17267372 -0.0008426919 0.012127914 0.007982468 -0.093074396
-0.15340462 -0.072551206 0.046330005 -0.10829242 0.14456315 0.00024921875 -0.173331 -0.09035057
-0.108293526 0.11845981 0.13820897 0.03220232 -0.113613 -0.0970729 -0.01975256 0.02996881
-0.069817476 -0.14803654 -0.021739395 0.026841937 -0.13045602 0.078275196 0.1375817 0.020622442
0.094055206 0.045265313 0.09246115 -0.025269812 0.10249421 0.119278155 0.03398029 -0.0551106
0.10014188 0.11664604 0.04676843 -0.0335462 -0.0066430625 -0.05045072 -0.019326787 -0.08032661
00000000: e0bd 193d 5c68 793d 61de 8cbd 3623 363d
00000010: 8180 bb3d a527 073d f616 08bd cb7b c83c
00000020: 0dbe c0bd c495 a7bd f6fd 803d c6fd 55bd
00000030: 5f22 d23d 2cd8 cdbd ae3b 1dbd a487 1a3d
00000040: d3e4 e03c 82a9 3ebb efcb d73d b00d ce3d
00000050: cc72 b3bc 676b 96bb 6e97 dd3d fd72 a33d
00000060: 5712 a2bc a8c9 db3d 7840 743d 20a7 a53d
00000070: 0cb1 833d b67a 56bd ede7 e1bd 8742 d03d
00000080: c550 f03d 0761 9cbd 279a c53d 5126 043e
00000090: 1391 043e 02cc fdbc 5420 843d b7ea a93d
000000a0: f775 09bc 1abc 7cbd 0742 72bc 9934 053d
000000b0: 1117 babd f6fb ca3c 57de efbd a8e7 8a3d
000000c0: 5804 83bc c367 b63d 4781 f63d 9638 19bb
000000d0: b760 b93c ed0a c2bc 1592 9a3d 1a01 55bd
000000e0: 61c1 c8bd bf43 92bd 96c4 b43d 6cf2 993c
000000f0: 7e71 a9bd fb51 c1bd f1f3 393d 8f25 5ebb
00000100: 7ff8 373a 9eea a6bd f250 0c3d 758f 103d
00000110: c50f 01bc faeb e33d 2344 53bd 5cea 0ebd
00000120: 87de 48bd d2ee 81bd 9613 adbd 7f62 9f3d
00000130: 6d95 efbd b964 a6bd 1540 1d3e 37ea 55bc
00000140: 661d a63d 6fb8 e33c d49d 8dbd ce2d eabb
00000150: 60f9 f3bd 6589 493c e362 a5bd b1cb 44bd
00000160: f172 64bd 0833 abbd a46f 91bd 79d8 553d
00000170: 162f b4bd b467 6cbd 9705 8abd 1522 903d
00000180: d05a 663d a56f 7fbd 164d c63d 1633 af3d
00000190: 4db2 46bd 3f4c 12bb 7789 0bbc 0dc9 823d
000001a0: a664 a8bd d4da ac3c 7763 02bd 279e a2bd
000001b0: 736f 04be 5cf1 1b3e 4575 a3bd aaf5 8bbd
000001c0: 5d40 f3bc 5fde 03be 00ef 49bc 907f 83bc
000001d0: 97f2 873c 9d9a bbbc 98c6 6dbd 61b1 253d
000001e0: 956b 7e3d 93e7 3cbd 7f58 44bd d22b bcbd
000001f0: 3421 d3bd 790a c83d 7d3e a7bd 0af8 8f3c
00000200: b9ef 423d c309 1cbc c1f7 95bc f1b0 fcbb
00000210: 0e9d ff3d f235 14bd de33 d33d 0485 74bd
00000220: ec30 64bd 1359 62bd 0db1 67bc eb22 0fbc
00000230: dfa8 a9bd 2a86 8ebd 5543 463e ca0f 003b
00000240: 797c ba3d 1c08 56bc 4983 2cbd 26b2 da3b
00000250: 007e 77bb d8c1 97bd c4f1 183d 19e6 4bbb
00000260: 46cf 0dbe f110 b0bd 10d5 61bd 0612 b03d
00000270: 3013 16bd d0e3 893d 05b7 0e3d 05f0 c8bd
00000280: 9c66 84bc 62e3 053d 5166 8b3c dd98 0d3e
00000290: b2b7 87bc 476e 0ebd 7682 963d b7aa 72ba
000002a0: 97e8 29bd 73a9 403c ad16 1abd 266b a3bd
000002b0: 77fa 2cbd c099 e9ba 1b54 21bd a379 64bd
000002c0: e004 fcbc 1b3f 71bd 94b0 e6bd 5a94 e53d
000002d0: e992 bebd 3b7a 2f3e bdee ba3d cd0d 1bbe
000002e0: fb11 98bd 0771 d8bd 32de e2bd aa3c 8d3d
000002f0: 749b a8bc d030 b8bd c2ca 27bd ea84 a7bd
00000300: b2af 543e 058c 013e efc3 e03d 6d96 193d
00000310: 536b 673d dfdc 3c3d ebdd 04be 7d80 97bd
00000320: 85cd 253e 912b f73c 9852 25bd 50e6 e93c
00000330: 2417 fd3d 49e6 bdbd 12f7 043e 6220 6f3d
00000340: 56d4 fcbc 3362 0a3e 6284 96bd 61d1 30be
00000350: 19e8 5cba 28b4 463c e6c8 023c ca9d bebd
00000360: 1a16 1dbe ba95 94bd 88c4 3d3d 6bc8 ddbd
00000370: 5d08 143e 93a9 8239 af7d 31be b809 b9bd
00000380: ffc8 ddbd 0f9b f23d a786 0d3e 94e6 033d
00000390: efad e8bd 28ce c6bd 1fd0 a1bc 2681 f53c
000003a0: 77fc 8ebd e496 17be d116 b2bc 9fe3 db3c
000003b0: 4396 05be bf4e a03d 38e2 0c3e 65f0 a83c
000003c0: 04a0 c03d 1f68 393d 455c bd3d a302 cfbc
000003d0: 7ce8 d13d 1b48 f43d eb2e 0b3d a7bb 61bd
000003e0: 3017 cd3d 1ee4 ee3d 4190 3f3d bd67 09bd
000003f0: 0cae d9bb 6aa5 4ebd 3653 9ebc 4782 a4bd

lstm.bias_ih_l1 f4 [256]
-0.07799723 0.035359975 -0.0614991 -0.05484884 -0.046024065 0.023489617 -0.025508258 0.035892237
0.075018674 -0.07459457 -0.08247618 0.108765416 0.04055295 0.023798456 -0.025641527 0.074448355
0.09308928 0.030180223 0.09987005 0.12371162 0.063930504 -0.07708839 0.13352795 0.03995516
-0.0014995531 -0.055734444 -0.016003966 0.12699123 -0.006054245 0.050037254 -0.050323796 -0.07979265
0.06798295 0.008249397 -0.016464107 0.14750971 0.06902975 0.14612772 -0.05724027 0.054260984
0.03606734 -0.0071210284 0.05938009 0.091916166 -0.031892892 -0.08036733 0.0020297414 0.030577525
0.07187914 -0.07552622 0.15498339 0.032008424 0.10266966 0.09342911 -0.060424585 0.10914823
0.034145072 0.092091374 0.13709502 -0.0243032 0.057738245 0.090954065 0.012617992 -0.04680728
-0.040594023 0.056506634 -0.04522927 -0.08477246 0.080552414 -0.077519715 -0.09590519 0.035474427
0.037349556 0.09177903 0.07364385 -0.018834757 -0.021091104 0.08723509 -0.053755075 -0.10728813
0.09031299 0.05439843 -0.06583811 0.050824523 -0.03709691 0.021091465 -0.025708696 0.098116435
0.056974035 -0.13525061 -0.07805105 0.12236187 0.08490857 0.117263794 0.017836533 0.06406614
-0.035751436 -0.101645835 -0.00421338 -0.0011351175 0.08957928 -0.0758846 0.009968163 0.081716165
0.10547618 -0.025388662 0.056344956 0.02808762 0.10005979 0.07745173 -0.09021761 -0.014806114
-0.10027985 0.117650524 0.031982705 -0.08868271 -0.0253437 -0.051829576 -0.020643208 -0.024772206
0.013820491 0.088407084 -0.02213582 0.08282567 -0.09354415 0.016586555 0.046691578 0.03346174
0.07426067 -0.0077582467 -0.10012649 0.031995162 -0.02874942 0.052808933 -0.028489908 -0.039809544
0.074912556 -0.09349198 -0.07218463 -0.048195582 0.012754454 -0.010875242 0.051033605 0.032910842
-0.08663649 0.04890803 -0.10662316 -0.08232117 -0.08234943 -0.07115037 0.009279468 -0.027994057
-0.03731541 -0.0435445 -0.047164828 -0.013949596 -0.08886182 -0.011180681 -0.08885947 -0.07525155
0.05545968 0.13455987 0.10486946 0.07055756 0.07618929 -0.1137737 0.015046797 0.055310283
-0.042607095 0.011214011 0.0877336 -0.027680092 -0.031601854 -0.10558984 0.017827142 -0.055954136
0.046760757 -0.07796118 0.09281969 -0.01801328 0.12410382 0.089993685 0.086149484 0.0075598913
0.09674367 -0.024892943 -0.024960559 0.057619046 -0.059884995 -0.07589356 0.044964854 -0.016374443
-0.06508507 0.022966344 -0.052928325 -0.0060519776 0.14465553 0.20507158 0.053152576 0.0948543
0.13871174 0.093406305 0.090229265 0.15712857 -0.08249638 -0.044388067 0.064773776 0.106801786
-0.022256823 -0.07642075 0.06026904 0.16677903 0.029986486 -0.0128265945 0.08453838 0.07792139
-0.011720255 -0.059450757 0.087261625 0.019009255 0.056307305 0.1440529 -0.006115807 0.106751986
-0.06044469 -0.043274615 0.16216072 0.12633973 -0.03750038 -0.008720645 -0.120877005 0.096144564
-0.015199221 0.066311665 0.116619706 0.038171675 0.10673715 0.08061518 0.11987801 0.0007787999
0.102353424 -0.011804558 0.17699747 0.08421995 0.06683115 0.1031633 -0.038016148 0.12379554
0.13064258 0.097840145 -0.049060162 0.12756823 0.04848396 0.088466585 0.16920139 0.004829472
00000000: 03bd 9fbd 9fd5 103d 7be6 7bbd 2da9 60bd
00000010: bb83 3cbd 4c6d c03c b2f6 d0bc bd03 133d
00000020: 64a3 993d 0ac5 98bd 45e9 a8bd 67c0 de3d
00000030: da1a 263d fbf4 c23c 2e0e d2bc 6178 983d
00000040: 98a5 be3d 843c f73c ab88 cc3d 855c fd3d
00000050: ffed 823d 85e0 9dbd 8dbb 083e 06a8 233d
00000060: a78c c4ba cd49 64bd c01a 83bc fd09 023e
00000070: b062 c6bb ddf3 4c3d 5320 4ebd 546a a3bd
00000080: a53a 8b3d 7b28 073c bcdf 86bc c90c 173e
00000090: 785f 8d3d 81a2 153e c674 6abd c440 5e3d
000000a0: 59bb 133d 8457 e9bb 8a38 733d 8b3e bc3d
000000b0: 1fa2 02bd a097 a4bd 6905 053b b87d fa3c
000000c0: 5f35 933d 7ead 9abd f7b3 1e3e 441b 033d
000000d0: 7844 d23d c357 bf3d c57f 77bd 1b89 df3d
000000e0: b4db 0b3d 679a bc3d a362 0c3e 8117 c7bc
000000f0: f07e 6c3d 2046 ba3d b2bb 4e3c feb8 3fbd
00000100: eb45 26bd 8073 673d 5442 39bd 2f9d adbd
00000110: aaf8 a43d a8c2 9ebd f169 c4bd a24d 113d
00000120: d9fb 183d a5f6 bb3d 96d2 963d 594b 9abc
00000130: 40c7 acbc 50a8 b23d 482e 5cbd e1b9 dbbd
00000140: 04f6 b83d e3d0 5e3d 22d6 86bd 602d 503d
00000150: eef2 17bd 02c8 ac3c 0b9b d2bc 45f1 c83d
00000160: 9b5d 693d 237f 0abe 3bd9 9fbd dc98 fa3d
00000170: 8be4 ad3d 0028 f03d ec1d 923c 1c35 833d
00000180: 1970 12bd b12b d0bd 6510 8abb 39c8 94ba
00000190: 5775 b73d 6369 9bbd 8251 233c ce5a a73d
000001a0: e503 d83d e2fb cfbc f8c9 663d 0218 e63c
000001b0: 26ec cc3d 039f 9e3d 03c4 b8bd 5895 72bc
000001c0: 865f cdbd c2f2 f03d 4c00 033d 489f b5bd
000001d0: 979d cfbc 404b 54bd f21b a9bc 15ef cabc
000001e0: 576f 623c c60e b53d 2e56 b5bc 81a0 a93d
000001f0: 1394 bfbd 87e0 873c ab3f 3f3d 2d0f 093d
00000200: fa15 983d e438 febb 1e0f cdbd 5c0d 033d
00000210: e783 ebbc 2e4e 583d ab63 e9bc 550f 23bd
00000220: c16b 993d b978 bfbd 89d5 93bd bb68 45bd
00000230: 0ff8 503c 122e 32bc 9d08 513d 85cd 063d
00000240: 796e b1bd c953 483d 3e5d dabd 0098 a8bd
00000250: d1a6 a8bd 49b7 91bd e908 183c cb53 e5bc
00000260: 0bd8 18bd b85b 32bd e82f 41bd d98c 64bc
00000270: 30fd b5bd 2d2f 37bc f4fb b5bd 7c1d 9abd
00000280: b029 633d 10ca 093e cdc5 d63d 7b80 903d
00000290: 2109 9c3d 3002 e9bd d786 763c 098d 623d
000002a0: c784 2ebd f9ba 373c acad b33d 5cc1 e2bc
000002b0: f270 01bd 7c3f d8bd 3a0a 923c 2a30 65bd
000002c0: 3588 3f3d 1caa 9fbd 4018 be3d 9690 93bc
000002d0: 252a fe3d 9c4e b83d 246f b03d f7b8 f73b
000002e0: 8c21 c63d 49ec cbbc 167a ccbc f301 6c3d
000002f0: f849 75bd 156e 9bbd 112d 383d b223 86bc
00000300: 524b 85bd ea23 bc3c 5fcb 58bd ab4f c6bb
00000310: 9420 143e 49fe 513e 84b6 593d f942 c23d
00000320: 730a 0e3e ce4b bf3d 1fca b83d 50e6 203e
00000330: ddf3 a8bd 43d0 35bd 1da8 843d e5ba da3d
00000340: f153 b6bc 7b82 9cbd abdc 763d 1fc8 2a3e
00000350: 38a6 f53c a326 52bc 7522 ad3d 4095 9f3d
00000360: 5006 40bc a382 73bd 39b6 b23d 4cb9 9b3c
00000370: 7da2 663d 9a82 133e 1c67 c8bb c9a0 da3d
00000380: da94 77bd b940 31bd 760d 263e 345f 013e
00000390: 009a 19bd 09e1 0ebc 5d8e f7bd 71e7 c43d
000003a0: 2706 79bc 69ce 873d 50d6 ee3d e759 1c3d
000003b0: 0299 da3d 9219 a53d 9a82 f53d 6028 4c3a
000003c0: ac9e d13d e867 41bc d33e 353e 827b ac3d
000003d0: c5de 883d 4847 d33d d2b6 1bbd 8488 fd3d
000003e0: 2bc7 053e 6a60 c83d 4ff3 48bd 3fa1 023e
000003f0: 1e97 463d f82d b53d 2143 2d3e 8c40 9e3b

lstm.bias_hh_l1 f4 [256]
-0.078075014 -0.08644393 0.073877506 5.5945144e-05 0.14061321 0.15291992 0.12477767 0.011236196
0.10217834 0.008219932 -0.03575586 0.14796203 0.050801355 0.11599924 0.015654488 0.15046476
-0.04754446 -0.05312455 0.06838263 0.04176088 0.1369079 0.07322475 0.16510567 -0.021402834
-0.0912187 -0.07039661 0.015871303 -0.032831725 0.13095717 0.11036424 0.018380724 0.05765151
0.045134492 -0.070591494 0.015212496 0.15891278 0.00950169 0.10189017 -0.043577664 0.0138447555
0.1500646 0.106453486 -0.061934948 -0.06899489 0.012300555 0.10508234 0.11408857 0.15499564
0.061387874 -0.009729939 0.0015228605 0.01896529 -0.0025297392 0.12732577 0.1114448 0.17182724
0.009795092 0.111063726 -0.056140468 0.14791423 0.042652544 0.1770459 0.017286986 0.03989871
-0.11081142 0.021415284 -0.072699964 -0.11491323 -0.010181764 -0.14626266 -0.086210705 0.037509166
-0.09076147 -0.09147503 -0.1092245 0.004629593 -0.036278486 0.060832053 0.12749258 0.12039917
0.0001816529 0.08881163 -0.072414145 0.051089242 -0.021053458 0.036572017 -0.013303778 0.009792384
-0.028607117 0.09215631 0.013947986 -0.07644828 -0.0915814 -0.042737354 -0.09791616 0.019615954
-0.08470976 -0.122832365 -0.021061338 -0.08995921 0.055215098 -0.080037184 -0.1012166 0.012311133
-0.08538494 -0.0736447 0.09820137 0.09574269 0.05613471 0.08217947 -0.051214788 0.015635403
-0.0073910253 0.09982553 -0.06722692 0.00903722 0.02309837 -0.016833927 0.0043155616 -0.06949511
0.078457154 0.0051744054 -0.019761132 0.07568123 0.08857859 0.07790168 -0.10504978 -0.032629136
0.07469052 0.024117434 0.11392209 0.04106961 -0.011800811 0.03910153 -0.044925068 0.04026456
0.029320309 0.034504183 0.07656923 -0.023612961 -0.023185909 -0.029264914 0.010990234 -0.08507749
0.0924186 0.016766887 0.12762922 -0.0018132937 0.06246627 0.06558616 -0.058724634 0.047771946
-0.017112685 0.019403994 -0.06854566 0.028669773 0.110165566 0.019455086 0.106717005 -0.008144783
-0.057813615 -0.103758805 -0.09316201 0.0060953572 0.056168072 0.04945345 0.078362286 0.048036873
0.06649664 -0.08403113 -0.084009275 0.0028999418 -0.011058564 0.08461124 0.021383928 0.06875873
0.054174494 0.039261255 -0.038910463 0.047210034 -0.088693276 -0.01993133 0.047729347 -0.060697142
-0.14307866 0.012586064 0.02143182 0.0015152117 -0.0506639 0.07354539 -0.012146003 0.099838756
-0.07337634 0.01073088 0.118857294 0.005893763 0.1446291 0.005993287 0.06283351 -0.056939885
0.097322814 0.11477785 0.12324875 0.052133873 0.060413178 0.09244669 -0.06799827 -0.03045492
0.05185304 0.07593079 0.12852813 -0.017889263 0.0716011 -0.016953148 0.15267508 0.08582101
0.028886499 0.11378963 0.095704935 0.078732215 0.08870976 -0.058343362 0.10623552 -0.009721894
-0.123752624 -0.0048628612 -0.03012351 0.15409727 0.124136515 -0.043732386 -0.1209713 -0.06631522
0.09714244 0.061600827 0.06432816 0.0066335616 0.044451848 0.124141164 0.098963246 0.11402839
-0.009641859 -0.051718865 -0.05694557 -0.020830262 -0.06982176 0.05860964 -0.08621632 -0.029719122
0.099843636 0.123985425 0.09327865 -0.08651992 -0.07682376 -0.038927548 0.08816064 0.036817703
00000000: cbe5 9fbd 8409 b1bd 174d 973d a4a6 6a38
00000010: e9fc 0f3e 0a97 1c3e 6f8b ff3d 0618 383c
00000020: e142 d13d e5ac 063c bd74 12bd 5c83 173e
00000030: 1515 503d 0291 ed3d d73d 803c 6f13 1a3e
00000040: fbbd 42bd 2199 59bd 310c 8c3d 750d 2b3d
00000050: 9631 0c3e dcf6 953d 7611 293e ff54 afbc
00000060: dfd0 babd 192c 90bd 8904 823c 8f7a 06bd
00000070: a319 063e a606 e23d 2c93 963c fd23 6c3d
00000080: f2de 383d 4692 90bd d53d 793c 08ba 223e
00000090: faac 1b3c cbab d03d 7e7e 32bd 1dd5 623c
000000a0: 89aa 193e 4904 da3d 80af 7dbd 314d 8dbd
000000b0: 4488 493c 6935 d73d 45a7 e93d 2db7 1e3e
000000c0: da71 7b3d 526a 1fbc b89a c73a 195d 9b3c
000000d0: fbc9 25bb b061 023e 2c3d e43d 7bf3 2f3e
000000e0: 987b 203c 6175 e33d 8cf3 65bd d476 173e
000000f0: 6fb4 2e3d 854b 353e 709d 8d3c d46c 233d
00000100: 19f1 e2bd 1b6f af3c b8e3 94bd a157 ebbd
00000110: 6ad1 26bc e1c5 15be 3d8f b0bd 36a3 193d
00000120: 26e1 b9bd 4357 bbbd 18b1 dfbd d7b3 973b
00000130: c098 14bd 082b 793d 6a8d 023e d793 f63d
00000140: 147a 3e39 dfe2 b53d de4d 94bd f442 513d
00000150: 4d78 acbc 8acc 153d 17f8 59bc 3c70 203c
00000160: 7959 eabc 73bc bc3d 1886 643c ea90 9cbd
00000170: 078f bbbd 5d0d 2fbd 4588 c8bd a3b1 a03c
00000180: 507c adbd 898f fbbd d488 acbc 893c b8bd
00000190: 3a29 623d 89ea a3bd a64a cfbd a2b4 493c
000001a0: 4dde aebd 08d3 96bd cd1d c93d be14 c43d
000001b0: 82ed 653d b64d a83d 99c6 51bd d115 803c
000001c0: 6a30 f2bb 5471 cc3d 44ae 89bd d910 143c
000001d0: cb38 bd3c 4ee7 89bc 8e69 8d3b 7453 8ebd
000001e0: 25ae a03d 0f8e a93b 19e2 a1bc c3fe 9a3d
000001f0: b168 b53d ea8a 9f3d 5724 d7bd 21a6 05bd
00000200: 58f7 983d ed91 c53c fc4f e93d 9b38 283d
00000210: 3058 41bc ed28 203d 5903 38bd 74ec 243d
00000220: 2531 f03c 4254 0d3d 54d0 9c3d f86f c1bc
00000230: 60f0 bdbc f9bc efbc 6210 343c 1b3d aebd
00000240: f745 bd3d b65a 893c 3cb1 023e 0aac edba
00000250: a2dc 7f3d 0952 863d 3e89 70bd 84ac 433d
00000260: e72f 8cbc 20f5 9e3c ab61 8cbd dfdc ea3c
00000270: 7c9e e13d 4660 9f3c 728e da3d b271 05bc
00000280: f8cd 6cbd 7f7f d4bd b9cb bebd 90bb c73b
00000290: 7e10 663d b38f 4a3d 687c a03d 50c2 443d
000002a0: 642f 883d 8318 acbd 0e0d acbd f30c 3e3b
000002b0: fb2e 35bc a848 ad3d 592d af3c 61d1 8c3d
000002c0: 13e6 5d3d 69d0 203d 9460 1fbd 4f5f 413d
000002d0: d2a4 b5bd 0747 a3bc d97f 433d 919d 78bd
000002e0: 3683 12be c735 4e3c c991 af3c 119a c63a
000002f0: f384 4fbd f79e 963d 0700 47bc 4378 cc3d
00000300: 5646 96bd 93d0 2f3c 746b f33d 7820 c13b
00000310: a719 143e 5663 c43b dbae 803d cc39 69bd
00000320: 2f51 c73d a610 eb3d d769 fc3d 548a 553d
00000330: cf73 773d b154 bd3d ad42 8bbd 997c f9bc
00000340: da63 543d 9a81 9b3d e19c 033e 818c 92bc
00000350: 99a3 923d 54e1 8abc db56 1c3e edc2 af3d
00000360: 61a3 ec3c 8a0a e93d f300 c43d 5b3e a13d
00000370: 76ad b53d 73f9 6ebd 0292 d93d 9448 1fbc
00000380: 0472 fdbd a358 9fbb 94c5 f6bc adcb 1d3e
00000390: 493b fe3d bb20 33bd cdbf f7bd 46d0 87bd
000003a0: 9ef2 c63d 2651 7c3d 7bbe 833d 595e d93b
000003b0: 2413 363d b93d fe3d 3ead ca3d b787 e93d
000003c0: e3f8 1dbc 29d7 53bd c23f 69bd 3aa4 aabc
000003d0: b6fe 8ebd a910 703d 2f92 b0bd 8475 f3bc
000003e0: d27a cc3d 12ec fd3d e008 bf3d 5b31 b1bd
000003f0: c755 9dbd 7e72 1fbd 918d b43d 29ce 163d
