models/models/predict_t3/model.pth (torch, 615602 bytes, 27 tensors)

lstm.weight_ih_l0 f4 [256, 1]
0	0xbd8ad61d	-0.0677912
1	0xbcddb015	-0.027061502
2	0xbd8cb255	-0.06869952
3	0xbd194d50	-0.037427247
4	0xbd591473	-0.052998018
5	0x3cb978f7	0.022640688
6	0xbdb423ff	-0.08795928
7	0x3c84772a	0.016170103
8	0x3dfa7bd1	0.12230647
9	0xbdd16144	-0.1022363
10	0xbd626f66	-0.05528202
11	0x3b23fc13	0.0025022074
12	0x3db9dbee	0.090751514
13	0x3d8ffdda	0.0703084
14	0x3da3626b	0.07977756
15	0x3ca7993f	0.020458816
16	0xbcd0bb5d	-0.025479967
17	0xbd680025	-0.056640763
18	0x3c992b82	0.018697504
19	0x3cd86175	0.026413659
20	0xbca437a8	-0.02004607
21	0x3dc3f7c0	0.09568739
22	0xbd79ab13	-0.060954165
23	0xbbda6996	-0.006665419
24	0xbd7b4fc7	-0.06135538
25	0xbd885e57	-0.06658619
26	0xbd3a58cf	-0.04549485
27	0xbd9fcc93	-0.07802691
28	0xbdda0a2b	-0.10646471
29	0xbdf12ad5	-0.11775748
30	0xbd996b2a	-0.07491143
31	0x3da94648	0.08265358
32	0xbe157744	-0.14596277
33	0x3d4661a3	0.048432957
34	0xbe193472	-0.14961413
35	0x3d80933c	0.06278083
36	0x3d236af0	0.039896905
37	0x3e9178bf	0.28412434
38	0x3d95f947	0.073229365
39	0x3db8abde	0.09017156
40	0xbd957b4e	-0.07298909
41	0x3e7b3452	0.24531677
42	0x3e3f9e2c	0.18712682
43	0x3d89a8b5	0.067216314
44	0xbe2986a9	-0.16555275
45	0xbdd134a5	-0.10215119
46	0x3df3e947	0.119097285
47	0xbd51dca0	-0.051235795
48	0xbe1a40fb	-0.1506385
49	0x3e8097d4	0.25115836
50	0x3e2d4db5	0.16924174
51	0xbdc786ee	-0.09742533
52	0x3db1b69c	0.08677408
53	0xbc440721	-0.01196459
54	0x3d974529	0.07386238
55	0x3e60ec43	0.21965127
56	0xbde74f58	-0.112944305
57	0xbdfd8692	-0.12379183
58	0xbd1ddfae	-0.038543396
59	0xbdd191f7	-0.10232919
60	0x3d18f3bb	0.037341814
61	0xbe0e537d	-0.13899036
62	0xbded30ed	-0.115815975
63	0x3d18d358	0.037310928
64	0x3ddeb309	0.10873992
65	0x3d04f2a8	0.032457978
66	0xbdac2d78	-0.0840711
67	0xbe25e574	-0.1620081
68	0x3db49151	0.088167794
69	0xbda070ce	-0.07834016
70	0xbded7827	-0.11595183
71	0xbb572215	-0.003282671
72	0xbb1e73f6	-0.0024178005
73	0xbe175ead	-0.1478221
74	0xbd248823	-0.040168893
75	0xbdac43c9	-0.084113665
76	0x3dc559be	0.096362576
77	0x3e650ad7	0.22367416
78	0xbd3f2cae	-0.04667347
79	0xbd82b21d	-0.06381629
80	0xbd7ba0d6	-0.061432682
81	0x3da177e0	0.078841925
82	0x3b18ee62	0.0023335447
83	0xbe524354	-0.20533496
84	0xbdd65841	-0.10466052
85	0x3e813aa4	0.25240052
86	0xbb82e36d	-0.0039943964
87	0xbdd7c5a8	-0.10535747
88	0xbd00f4be	-0.031483404
89	0xbe3d5561	-0.184896
90	0xbdf22594	-0.11823574
91	0xbd6c08dd	-0.05762564
92	0x3df7953f	0.12089013
93	0x3d67178e	0.056418948
94	0xbd8cf757	-0.06883114
95	0xbce14595	-0.027499
96	0x3d654c9a	0.055981256
97	0x3da75c0b	0.08171853
98	0xbcb3400f	-0.021881131
99	0x3d05a96a	0.03263227
100	0xbe5822a4	-0.21106964
101	0x3e9e8261	0.30958846
102	0x3e111b5d	0.14170595
103	0xbde6457d	-0.112437226
104	0x3bebc9d3	0.00719569
105	0x3e7c3dfd	0.24633022
106	0x3dbd79d9	0.09251756
107	0xbdd79916	-0.10527246
108	0x3d62ef11	0.055403773
109	0x3d738456	0.059452377
110	0xbd4b74b3	-0.04967184
111	0x3d0508f8	0.032479256
112	0xbe2c443a	-0.16822901
113	0x3dc093aa	0.09403165
114	0x3e27bb7f	0.16380118
115	0xbdc79415	-0.09745041
116	0xbdf46aec	-0.11934456
117	0xbdbb4740	-0.09144449
118	0x3cf8cc34	0.03037081
119	0x3e003f16	0.12524065
120	0xbda1e3bc	-0.07904765
121	0xbdccf4e0	-0.10007644
122	0xbdebbc98	-0.11510581
123	0xbe27acc2	-0.16374496
124	0x3cadf8a0	0.021236718
125	0xbdb5069a	-0.0883915
126	0x3c957e53	0.018248713
127	0xbd046d47	-0.032330777
128	0xbe2b4b37	-0.16727911
129	0x3d176093	0.036957335
130	0x3ca783ee	0.020448651
131	0x3e4c9a68	0.19980776
132	0x3e3893f0	0.18025184
133	0xbe3ea7d1	-0.18618704
134	0x3e16209e	0.1466088
135	0x3df8747d	0.121315934
136	0x3e1347da	0.14382878
137	0x3e2d4e75	0.1692446
138	0x3d928e0e	0.07156001
139	0x3c323ef2	0.010879265
140	0x3e24a9bb	0.16080372
141	0x3e44c0c5	0.1921416
142	0x3e2221f5	0.15833266
143	0xbdb9c6ae	-0.09071098
144	0x3de2d85c	0.110764235
145	0xbdeefb19	-0.11668987
146	0x3df92001	0.121643074
147	0x3e09e189	0.13464941
148	0x3e3e0c58	0.18559396
149	0xbe5f5cd9	-0.21812762
150	0xbe376dda	-0.17912999
151	0x3e09a410	0.13441491
152	0xbc6ea00a	-0.0145645235
153	0x3e242064	0.16027981
154	0x3d479346	0.048724435
155	0x3dd4d716	0.10392587
156	0x3e4f3e7c	0.2023868
157	0xbdedd812	-0.11613478
158	0x3d47ef54	0.048812225
159	0xbd6e123a	-0.05812285
160	0xbdd8a853	-0.1057898
161	0x3e0eb72a	0.13937059
162	0xbe04b987	-0.12961398
163	0xbe3b9033	-0.18316726
164	0xbda8fd4d	-0.08251438
165	0xbe37d872	-0.17953661
166	0x3e560b0f	0.20902656
167	0xbdcfe7f0	-0.101516604
168	0x3d8847eb	0.06654342
169	0xbe51baf7	-0.20481478
170	0xbe3ef281	-0.18647195
171	0xbe53521b	-0.2063679
172	0x3dc86b1d	0.09786055
173	0x3d94e61f	0.072704546
174	0x3e065022	0.13116506
175	0x3e4e2965	0.20132978
176	0x3de5ad43	0.11214688
177	0x3e4c9403	0.19978337
178	0x3e45d3c7	0.19319068
179	0x3df7cc11	0.120994695
180	0xbe3a290f	-0.18179725
181	0x3e22a780	0.15884209
182	0xbe03dcdc	-0.1287722
183	0x3e4fdce7	0.20299111
184	0x3d9930a3	0.0747998
185	0xbd48012b	-0.04882924
186	0x3e099790	0.13436723
187	0x3e298972	0.16556337
188	0x3d8bec93	0.06832232
189	0x3dddb529	0.10825569
190	0xbde20bb9	-0.11037392
191	0x3e231ae8	0.15928233
192	0x3d2122db	0.03933988
193	0xbc1a731f	-0.009426861
194	0xbd73609a	-0.0594183
195	0x3d9cece2	0.07662369
196	0xbdf0f089	-0.117646284
197	0x3d4d4078	0.05011031
198	0x3ccd7dec	0.025084458
199	0xbc6ad619	-0.014333271
200	0x3d1fd9e5	0.03902616
201	0xbe23e8cb	-0.16006772
202	0xbd9766aa	-0.073926285
203	0xbe1ca5fa	-0.1529769
204	0xbd84aed1	-0.06478656
205	0x3d826f9f	0.06368946
206	0xbdafeefc	-0.085905045
207	0xbdf70840	-0.120621204
208	0xbce7a69f	-0.028277693
209	0xbe142874	-0.14468557
210	0x3b3244b8	0.0027201604
211	0xbcb6d465	-0.022318074
212	0xbda0dbaf	-0.07854401
213	0x3e9ad129	0.30237702
214	0x3deea638	0.116527975
215	0xbdaa08a1	-0.08302427
216	0xbc369d69	-0.011145928
217	0x3d177fb1	0.03698701
218	0xbd7ef9b0	-0.06224984
219	0xbb31805b	-0.0027084562
220	0x3d545cce	0.051846318
221	0x3b14da61	0.0022713172
222	0x3d858c99	0.065209575
223	0xbe144cc9	-0.14482416
224	0xbde90a54	-0.11378923
225	0x3d04fa5f	0.032465335
226	0xbdf48603	-0.11939623
227	0xbc7765db	-0.015099968
228	0xbd110df1	-0.035413686
229	0x3e462d4c	0.19353217
230	0x3e2e29e9	0.17008175
231	0x3da5f75f	0.08103823
232	0xbe182004	-0.14855963
233	0x3e62f1a3	0.2216249
234	0x3e5de4e0	0.2166934
235	0x3de35a00	0.111011505
236	0xbd8fae5e	-0.0701568
237	0xbe0767b6	-0.13223156
238	0x3c0c7eca	0.008575151
239	0xba8ff395	-0.0010982627
240	0xbe2a3fdf	-0.16625927
241	0x3df4ab99	0.11946792
242	0x3ea53988	0.32270455
243	0xbe0cd06f	-0.13751386
244	0x3d64a99c	0.055825815
245	0x3da1c108	0.07898146
246	0xbcab0f72	-0.020881388
247	0x3e92fc64	0.28708184
248	0xbd0a02fd	-0.033694256
249	0x3d88ab3c	0.06673285
250	0x3ca5327a	0.02016567
251	0xbe17af8b	-0.14813058
252	0xbd8fd08c	-0.07022199
253	0xbe171c03	-0.1475678
254	0xbd0f086f	-0.034920152
255	0xbd5cdb99	-0.053920362

lstm.weight_hh_l0 f4 [256, 64]
0	0xbcbc174f	-0.022960333
1	0xbdeb1bd4	-0.11479917
2	0x3c8e3e4e	0.017363694
3	0xbdc7c7bf	-0.097548954
4	0xbdf8d3a9	-0.12149746
5	0xbe093cc9	-0.13402094
6	0x3dc0065f	0.09376215
7	0x3e1556a6	0.14583835
8	0x3df37013	0.11886611
9	0x3d518fe1	0.051162604
10	0x3e20965b	0.15682356
11	0xbca385df	-0.019961296
12	0x3d00a188	0.03140405
13	0x3cc7274c	0.02431073
14	0x3d4de3b9	0.050266
15	0xbdfe803a	-0.12426801
16	0x3db99231	0.09061087
17	0xbd5fb73d	-0.05461811
18	0x3dca4cca	0.098779276
19	0xbdfd38cd	-0.123643495
20	0x3d72381c	0.05913554
21	0xbe320fea	-0.17388883
22	0xbd11ed14	-0.035626486
23	0xbdc06dab	-0.093959175
24	0xbb880c90	-0.004151888
25	0xbde8ffa8	-0.113768876
26	0xbdd6d823	-0.104904436
27	0x3df6b0db	0.12045451
28	0x3ddf0f6c	0.10891613
29	0x3d8733a8	0.066016495
30	0xbd705926	-0.05867877
31	0xbdf0121b	-0.11722203
32	0x3b6e6f94	0.0036382424
33	0x3e09027d	0.13379855
34	0x3dcb19cb	0.09917029
35	0xbb1bfaf7	-0.002380071
36	0xbde5f01f	-0.1122744
37	0xbe591003	-0.21197514
38	0x3d2fc594	0.042913035
39	0x3cbf5dea	0.023360211
40	0xbd8dc924	-0.0692313
41	0xbcd66127	-0.026169373
42	0xbbb47e36	-0.0055082096
43	0x3d776439	0.060398314
44	0x3dacd4a1	0.08438993
45	0xbd0396a9	-0.032126103
46	0x3d7e9ce8	0.062161356
47	0x3cf326d2	0.029681597
48	0x3da2ac87	0.07943063
49	0xbd293197	-0.04130706
50	0x3d20c228	0.03924766
51	0x3dc9e611	0.09858335
52	0xbd89ab7e	-0.06722163
53	0x3daf8795	0.08570782
54	0xbe0bd11b	-0.13653986
55	0xbd17e771	-0.037085954
56	0xbdef26bf	-0.11677312
57	0x3dcbd79b	0.09953233
58	0x3e1e8ae3	0.15482669
59	0x3d5db559	0.054128025
60	0x3cec6a64	0.028859325
61	0xbdfec9c9	-0.12440831
62	0x3d9049b7	0.0704531
63	0xbcbc4d9e	-0.02298623
64	0xbc940309	-0.018067854
65	0xbd5f451d	-0.05450927
66	0xbbc177f1	-0.0059041907
67	0xbb4090a8	-0.0029383097
68	0xbe184ece	-0.14873812
69	0x3c5a8276	0.013336768
70	0xbdac5b8f	-0.08415901
71	0xbd9f042f	-0.0776447
72	0xbd1f4d7d	-0.038892258
73	0xbd8e9de4	-0.06963709
74	0x3d6f43be	0.058414213
75	0xbda639d2	-0.08116497
76	0xbe12ccfd	-0.1433601
77	0xbd451528	-0.04811588
78	0x3c532868	0.012888052
79	0x3d3273b1	0.043567363
80	0xbdfa0b09	-0.12209136
81	0x3c96621d	0.018357331
82	0x3df8acac	0.121423095
83	0x3d9a77d4	0.07542387
84	0xbd62d7b3	-0.055381488
85	0x3c9cf607	0.019160284
86	0x3d987908	0.0744496
87	0xbe321656	-0.17391333
88	0x3d2df824	0.042472973
89	0xbcaaed4b	-0.020865103
90	0xbd70440a	-0.058658637
91	0xbe3c4d89	-0.18388952
92	0x3ce4d297	0.027932448
93	0xbcae51bf	-0.021279214
94	0xbd9316f4	-0.07182112
95	0xbd8933be	-0.06699322
96	0xbccd10bb	-0.025032392
97	0x3d6b4f1e	0.0574485
98	0xbd4d3c26	-0.05010619
99	0x3e242fc5	0.16033848
100	0xbc4c56f7	-0.012471906
101	0x3d5101cd	0.051027108
102	0xbd9f2fbe	-0.07772778
103	0x3e204309	0.15650572
104	0x3d7bd63b	0.061483603
105	0x3dd59afa	0.1042995
106	0x3cadd509	0.021219747
107	0x3d1d2acc	0.038370892
108	0x3bdffc47	0.0068354937
109	0xbe0f1df9	-0.13976277
110	0xbe369be2	-0.17832902
111	0xbc9ea2f3	-0.01936481
112	0xbd6c1d9c	-0.057645425
113	0xbd881677	-0.0664491
114	0xbc97070b	-0.018435976
115	0xbdbb6b33	-0.09151306
116	0x3dc771c2	0.097384945
117	0x3c38b6da	0.011274064
118	0x3de8a210	0.11359036
119	0xbd1f9407	-0.03895953
120	0xbcc18ede	-0.023627695
121	0x3d234985	0.039865036
122	0xbdf2c17a	-0.11853309
123	0x3d02b8b3	0.031914424
124	0x3dad1bee	0.08452593
125	0xbe207d80	-0.15672874
126	0x3d977d8f	0.07396995
127	0xbde5c51a	-0.11219235
128	0x3da72c6a	0.08162768
129	0x3de1505c	0.110016555
130	0x3e2b9e37	0.16759573
131	0x3dc88e2c	0.09792742
132	0x3d759cf2	0.059964128
133	0xbcfac2af	-0.03061041
134	0x3b01ce03	0.001980663
135	0x3d6c0c74	0.057629064
136	0x3d89182a	0.06694062
137	0xbda15213	-0.078769825
138	0xbd84f547	-0.064920954
139	0x3da9b41d	0.08286307
140	0xbda9b7e6	-0.08287029
141	0x3d99a0ab	0.07501348
142	0xbc97cf31	-0.018531414
143	0x3dd5bb56	0.10436122
144	0x3e1142d9	0.14185657
145	0xbe0b7d9e	-0.13622138
146	0xbdaac8f8	-0.08339113
147	0x3d52f924	0.05150713
148	0xbbb15a84	-0.0054124016
149	0x3df3827c	0.11890122
150	0xbd6be9eb	-0.05759613
151	0x3cc2e826	0.023792338
152	0x3d93bd4c	0.0721384
153	0xbdc40b50	-0.0957247
154	0xbd17b294	-0.03703554
155	0xbdcb9884	-0.099411994
156	0x3ddbac39	0.10726208
157	0x3deceab8	0.115682065
158	0xbdc3833f	-0.095465176
159	0xbe028906	-0.12747583
160	0x3d0aa9ec	0.033853456
161	0xbcd5cc41	-0.026098372
162	0xbd8b1c9a	-0.06792565
163	0xbd3474f2	-0.04405684
164	0xbd582b51	-0.052775685
165	0xbd645856	-0.055748306
166	0xbde256df	-0.110517256
167	0xbe161457	-0.14656197
168	0x3e0827f6	0.13296494
169	0xbcf47c89	-0.02984454
170	0x3e07f21b	0.1327595
171	0x3cdfbd19	0.027311848
172	0xbd7aa233	-0.06118984
173	0x3e10639d	0.141005
174	0xbd12c66b	-0.035833757
175	0xbd90bbdf	-0.070670836
176	0x3b2aed9b	0.0026081565
177	0xbc6f15d0	-0.014592603
178	0xbd37258f	-0.044713553
179	0x3d9ab34a	0.07553728
180	0xbe16566d	-0.14681406
181	0xbcf988a9	-0.030460672
182	0x3c5d3dcb	0.013503502
183	0x3d84d73b	0.064863645
184	0x3cb04225	0.021515915
185	0xbba96818	-0.0051698796
186	0x3cff2f41	0.031150462
187	0xbd6cb609	-0.05779079
188	0x3e04e5b2	0.12978247
189	0x3e142724	0.14468056
190	0xbccbc665	-0.024874875
191	0x3cb215a3	0.021738833
192	0xbda4ce5b	-0.08047172
193	0xbe0be670	-0.13662124
194	0xbd8285e5	-0.063731946
195	0xbd3ec2dc	-0.04657255
196	0xbe0d1e5b	-0.13781111
197	0xbe009f48	-0.12560761
198	0x3dd154de	0.10221265
199	0x3c0ef115	0.008724471
200	0x3d5c3e0b	0.053770106
201	0xbe140580	-0.14455223
202	0xbe191c3d	-0.14952178
203	0xbd9f361c	-0.077739924
204	0xbd922af9	-0.07137103
205	0x3dfb1aa3	0.1226094
206	0x3b931cbd	0.00448951
207	0x3d1d33c9	0.038379464
208	0xbde447bd	-0.111464955
209	0xbd99666d	-0.07490239
210	0xbb9bf794	-0.004759738
211	0xbe189c71	-0.14903428
212	0xbdc1bc5f	-0.09459757
213	0x3c152a0f	0.009104266
214	0x3ddf52b8	0.10904449
215	0xbdb662da	-0.08905573
216	0x3e1ed24b	0.15509908
217	0x3cb389ec	0.021916352
218	0xbd70682d	-0.0586931
219	0x3d5cb1c7	0.05388048
220	0x3d8fabd6	0.07015197
221	0x3baedbe3	0.005336271
222	0xbe3ad056	-0.18243536
223	0x3e0cfa5a	0.13767377
224	0x3e31a867	0.17349397
225	0xbd7da08f	-0.0619207
226	0x3daf11b7	0.08548301
227	0x3d9d3172	0.076754466
228	0x3e33b017	0.17547642
229	0xbe0cb954	-0.13742572
230	0x3d858184	0.06518844
231	0xbbc8507b	-0.0061131096
232	0xbe36dc70	-0.17857528
233	0xbdcee9ab	-0.101031624
234	0xbdffa2b2	-0.124822035
235	0xbd97f05c	-0.07418892
236	0x3d4f3308	0.050585777
237	0x3b338f64	0.00273987
238	0xbdc11d8a	-0.09429462
239	0x3db5826f	0.08862769
240	0xbe1e840a	-0.15480056
241	0x3cc37636	0.023860078
242	0x3e064e5e	0.13115832
243	0xbe2e0f34	-0.16997987
244	0x3dd10f83	0.10208037
245	0x3d83aa65	0.064289846
246	0xbd59e751	-0.053199116
247	0x3dbe8429	0.09302551
248	0x3c2ec476	0.010666957
249	0xbb083492	-0.0020783287
250	0x3d9a6aa5	0.07539872
251	0x3d25524a	0.04036168
252	0x3d3a146b	0.04542963
253	0xbc0f327e	-0.008740066
254	0x3dcd7157	0.100313835
255	0xbb980513	-0.004639277

lstm.bias_ih_l0 f4 [256]
0	0x3c548100	0.012970209
1	0xbdb5eb73	-0.08882799
2	0xbd06c4ca	-0.032902516
3	0xbcf97c3d	-0.03045475
4	0x3e143ede	0.14477107
5	0xbd9207e6	-0.07130413
6	0xbda69b66	-0.08135109
7	0x3c3d82f0	0.011566862
8	0x3cfc5dfb	0.030806532
9	0x3c2e04d5	0.010621269
10	0xbd1850ea	-0.03718654
11	0x3d0807d6	0.033210598
12	0x3d9bba35	0.076038755
13	0x3df69db7	0.120418005
14	0x3ce19495	0.02753667
15	0xbdbdca0e	-0.092670545
16	0x3dd581d0	0.104251504
17	0x3b2dd3f3	0.0026524037
18	0xbd34fa3f	-0.044183966
19	0x3d9a8ebd	0.075467564
20	0x3de1f266	0.11032562
21	0xbccccd5a	-0.025000263
22	0x3e16e0a5	0.14734133
23	0x3db81219	0.08987827
24	0x3c931908	0.017956272
25	0x3d86ebe1	0.06587959
26	0xbd98b414	-0.07456222
27	0xbd98da2c	-0.07463488
28	0x3d6a09cd	0.057138253
29	0xbca01f0b	-0.019546052
30	0xbdb0f984	-0.08641341
31	0xbda066ef	-0.07832133
32	0x3dd8346a	0.10556872
33	0x3e2aa2f6	0.16663727
34	0xbce866cc	-0.02836933
35	0xbc2758db	-0.010214056
36	0xbcccc90c	-0.02499821
37	0xbd9afa92	-0.07567324
38	0x3d0d52c4	0.03450276
39	0xbd7d601e	-0.061859243
40	0x3d616c5d	0.055034984
41	0x3c4cc11b	0.012497212
42	0x3ad959f1	0.0016582591
43	0x3e0a0435	0.13478167
44	0xbd2feedf	-0.042952415
45	0x3d734065	0.059387583
46	0x3d871751	0.06596244
47	0x3d8cf091	0.06881822
48	0xbdd0984a	-0.10185297
49	0xbc560058	-0.013061605
50	0xbd29e06d	-0.041473795
51	0xbd6d1fa5	-0.057891507
52	0xbcb84075	-0.022491673
53	0xbd513052	-0.051071472
54	0xbdd1cdfc	-0.102443665
55	0x3d29b9a6	0.041436814
56	0xbd090eeb	-0.033461493
57	0xbdae99fc	-0.08525464
58	0x3c0e9349	0.008702108
59	0x3dcf1c08	0.101127684
60	0x3df29588	0.11844927
61	0xbdbb57a5	-0.09147576
62	0x3d5b09c2	0.053476103
63	0x3d225e73	0.039640855
64	0xbcfa53e5	-0.030557582
65	0x3dc989c6	0.09840731
66	0x3cc035b6	0.023463111
67	0xbdedcc38	-0.11611217
68	0x3bf4ac4b	0.007466828
69	0xbda911b5	-0.082553305
70	0xbd75ad61	-0.0599798
71	0x3d83b0a4	0.06430176
72	0x3de8c7b5	0.11366216
73	0xbdeb5dbb	-0.11492487
74	0xbdf89e77	-0.121396
75	0x3c2343a1	0.009964854
76	0x3d58f2cc	0.052965924
77	0xbd29e0b3	-0.041474055
78	0xbe052703	-0.13003163
79	0xbd66b098	-0.056320757
80	0x3c9ef662	0.019404594
81	0xbe18fcd8	-0.14940202
82	0xbc7e306e	-0.015514476
83	0x3c82a25b	0.015946558
84	0xbcc8cf7a	-0.024512995
85	0x3d874508	0.066049635
86	0x3c89b98a	0.016812105
87	0x3d820769	0.063490696
88	0xbd2ddf54	-0.04244931
89	0x3d8e3b60	0.06944919
90	0x3deb668b	0.11494168
91	0xbcbf7f6d	-0.023376191
92	0xbd941193	-0.072299145
93	0xbd5082df	-0.05090606
94	0x3da82990	0.082110524
95	0x3dcc2047	0.09967094
96	0x3d660e3f	0.05616593
97	0x3d4ad75e	0.049521796
98	0x3dcef891	0.10106004
99	0x3cf4c87d	0.029880757
100	0xbdae2dad	-0.08504806
101	0xbd5a92a5	-0.053362507
102	0xbe0628c1	-0.13101484
103	0xbdb9b0f3	-0.090669535
104	0x3dbb272a	0.09138329
105	0xbdeb144e	-0.11478482
106	0xbe114095	-0.14184792
107	0xbd855007	-0.06509405
108	0x3d743c81	0.059628014
109	0xbc85e204	-0.016343124
110	0xbe30df9b	-0.17272799
111	0x3cc6ef79	0.024284111
112	0x3d08efdc	0.033431873
113	0xbc3d561a	-0.011556173
114	0x3dcd5ce8	0.10027486
115	0x3cb4eb5c	0.022084884
116	0xbdd20fc1	-0.10256911
117	0xbc32db15	-0.010916491
118	0xbda5fd42	-0.08104946
119	0x3dad533e	0.08463143
120	0xbc9d4423	-0.01919753
121	0x3d68b4ad	0.05681293
122	0x3dc729ac	0.09724745
123	0xbe02200e	-0.1270754
124	0x3d2aacb0	0.041668594
125	0xbd83fb1a	-0.06444378
126	0x3ddad9f8	0.106861055
127	0xbd850a85	-0.06496147
128	0x3d877ef5	0.06616012
129	0xbcfe7383	-0.03106094
130	0xbd3407c5	-0.043952722
131	0xbb53c5aa	-0.0032313862
132	0x3d2ece70	0.042677343
133	0xbd9090cf	-0.0705887
134	0x3cf0260e	0.02931502
135	0x3c3c49b5	0.0114921825
136	0x3dd7444e	0.10511075
137	0x3ce1beb5	0.027556757
138	0x3de12dc7	0.109950595
139	0x3aa485e5	0.0012552111
140	0x3db81357	0.08988064
141	0x3d4b64dc	0.049656734
142	0xbc6620e1	-0.014045925
143	0xbc790e94	-0.01520123
144	0x3d2eee7d	0.04270791
145	0xbc83202b	-0.01600655
146	0x3dd2e608	0.10297781
147	0x3dc2d85b	0.09513923
148	0xbd43c603	-0.04779626
149	0xbd13a543	-0.036046278
150	0xbdec8801	-0.11549378
151	0x3dd806e0	0.10548186
152	0xbcb95a70	-0.022626132
153	0x3d12ec79	0.03587005
154	0xbc9512c8	-0.018197432
155	0x3b7bc602	0.0038417582
156	0x3da31b81	0.0796423
157	0x3b8cd19e	0.0042974493
158	0xbd936dd6	-0.07198684
159	0x3d4c4d75	0.049878556
160	0xbddb0106	-0.106935546
161	0xbd465d47	-0.0484288
162	0xbe025185	-0.1272641
163	0xbcab374b	-0.02090039
164	0xbce3c16f	-0.027802197
165	0x3c655934	0.013998318
166	0x3d891b6c	0.066946834
167	0x3d25f703	0.04051877
168	0x3cde9f0c	0.027175449
169	0xbca9035b	-0.020631483
170	0xbd5d7707	-0.05406859
171	0x3d08acdb	0.033367973
172	0xbc896d1d	-0.016775662
173	0xbd74ff5b	-0.05981384
174	0x3d745a8c	0.059656665
175	0x3d56ba6c	0.05242388
176	0xbd3d138c	-0.04616122
177	0x3cada8ba	0.02119862
178	0x3ce7f199	0.028313445
179	0xbcfcfe3a	-0.030882943
180	0x3d23f187	0.04002526
181	0x3d3f9a4f	0.04677802
182	0xbced9f4a	-0.029006619
183	0xbd3c8567	-0.04602566
184	0x3db66337	0.089056425
185	0x3b67487c	0.0035291007
186	0x3d004912	0.031319685
187	0x3de300fd	0.11084173
188	0xbba0a392	-0.0049023116
189	0xbbe80ef1	-0.0070818593
190	0xbca8cb9e	-0.020604905
191	0x3c9707f8	0.018436417
192	0x3d7da00b	0.061920207
193	0xbdd2d613	-0.10294738
194	0xbdf8a042	-0.12139942
195	0x3e0d28c1	0.13785078
196	0x3e1672e7	0.1469227
197	0xbd818092	-0.06323351
198	0xbdbbc10d	-0.09167681
199	0x3e23a516	0.15980944
200	0xbddb6567	-0.107127
201	0xbdbeac14	-0.09310165
202	0xbdebaa19	-0.11507053
203	0x3dd283b4	0.10279027
204	0xbd5fb745	-0.05461814
205	0x3e3ac559	0.18239345
206	0xbd27e520	-0.040989995
207	0xbdd23602	-0.102642074
208	0xbda225b7	-0.0791735
209	0x3c3f396b	0.011671404
210	0x3d8cf9fb	0.068836175
211	0x3d9b9615	0.07596985
212	0xbd439cda	-0.047757007
213	0xbdf5350e	-0.1197301
214	0x3df44faa	0.11929257
215	0x3e064d96	0.13115534
216	0x3dafcae9	0.08583624
217	0xbd9635f4	-0.073345095
218	0xbc10b6fa	-0.0088326875
219	0x3d88ff1f	0.066892855
220	0x3cfbef91	0.030753883
221	0xbdbbf41f	-0.09177422
222	0xbdcd51c2	-0.1002536
223	0x3d437358	0.047717422
224	0xbd99c74c	-0.07508716
225	0x3c5ed04c	0.0135994665
226	0xbdc2c8f8	-0.09510988
227	0xbcee45ef	-0.029086081
228	0x3ca8ba83	0.020596748
229	0x3cebf4af	0.028803198
230	0x3d5ea3e2	0.05435551
231	0x3d3aedee	0.045637064
232	0x3ce6f73c	0.028194062
233	0x3dd9d2ec	0.10635933
234	0x3dbe1be7	0.09282666
235	0x3dfa05c2	0.122081295
236	0xbd6da47f	-0.058018204
237	0x3d7529fb	0.05985449
238	0xbcd0d618	-0.025492713
239	0x3ddcf949	0.10789735
240	0x3dbfd2a1	0.09366346
241	0x3dece004	0.11566165
242	0x3dad30cd	0.08456574
243	0xbd5e4017	-0.05426034
244	0xbd8d3932	-0.06895675
245	0xbcb985ad	-0.02264675
246	0x3da51507	0.08060651
247	0xbd2e4ad8	-0.042551845
248	0xbc59f10d	-0.0133021
249	0x3ca919db	0.020642212
250	0x3e3be0c9	0.18347467
251	0x3da7bc0d	0.08190165
252	0x3bb49c30	0.005511783
253	0xbdee3a2b	-0.116321884
254	0xbde2a152	-0.11065926
255	0x3b377383	0.0027992434

lstm.bias_hh_l0 f4 [256]
0	0xbd3d1194	-0.046159342
1	0x3de0f10f	0.10983478
2	0xbd2706d1	-0.040777985
3	0xbd527901	-0.05138493
4	0xbcc46a83	-0.02397657
5	0x3d1f2ebb	0.038862925
6	0x3dc2b23e	0.09506653
7	0xbc935e9e	-0.017989453
8	0xbc63b755	-0.01389869
9	0xbda47da4	-0.080317765
10	0xbdcc1e5d	-0.09966729
11	0xbb817eb1	-0.0039518704
12	0xbd6a5fe4	-0.057220355
13	0x3d88d859	0.0668189
14	0x3cafce0d	0.021460557
15	0xbbce2083	-0.006290497
16	0xbda31c8e	-0.07964431
17	0x3dad6a7d	0.08467577
18	0x3da0a348	0.078436434
19	0x3da2c7f1	0.07948292
20	0x3c218a03	0.009859565
21	0x3d8cf096	0.068818256
22	0x3c6cc842	0.014452042
23	0x3e106907	0.14102565
24	0x3b8e17f8	0.0043363534
25	0x3e00c8d6	0.12576613
26	0x3cf42bad	0.029805982
27	0x3d9725c9	0.07380254
28	0x3c680d7a	0.014163369
29	0x3daa9168	0.08328515
30	0xbd798e02	-0.060926445
31	0x3dbad46b	0.09122547
32	0x3b9dd1aa	0.0048162537
33	0x3acb4657	0.0015508634
34	0x3d8bd8d2	0.068284646
35	0x3ced44f8	0.02896355
36	0x3dad1fcf	0.08453333
37	0x3dd77e84	0.10522178
38	0x3e0dce39	0.13848199
39	0xbcb0a273	-0.021561837
40	0x3dbc3981	0.091906555
41	0x3bd1d8f1	0.0064040353
42	0x3e0b9742	0.13631919
43	0xbc150728	-0.009095944
44	0x3cc9b92a	0.024624426
45	0xbc25d2d2	-0.010121064
46	0xbd05e506	-0.032689117
47	0xbd43f085	-0.0478368
48	0xbb240ab2	-0.002503079
49	0xbd83f387	-0.064429335
50	0xbca1f420	-0.019769728
51	0x3dc6a332	0.09699096
52	0x3bd834e6	0.006598103
53	0xbcf2f05f	-0.029655633
54	0xbddf0dca	-0.10891302
55	0xbd1201dc	-0.035646304
56	0x3b82497f	0.0039760466
57	0xbc73c3ba	-0.014878208
58	0x3dd81033	0.10549965
59	0x3dadf0ae	0.08493172
60	0x3da05487	0.07828622
61	0x3d89dc5a	0.06731482
62	0x3dd797d6	0.10527007
63	0xbd5e83ff	-0.0543251
64	0x3d831240	0.06399965
65	0x3ca66ce9	0.020315604
66	0x3d1f2c71	0.038860742
67	0x3df66a5b	0.120320044
68	0xbda83d7d	-0.08214853
69	0xbd5645bb	-0.052312594
70	0xbd85513b	-0.06509634
71	0x3d4bfb67	0.049800303
72	0xbdb09362	-0.08621861
73	0x3d914ecd	0.07095108
74	0xbdfde295	-0.12396733
75	0xbdb96c04	-0.090538055
76	0x3dc06db5	0.09395925
77	0xbdc40733	-0.09571686
78	0xbd5704a8	-0.052494675
79	0xbdd3a272	-0.10333718
80	0xbdfd48ba	-0.12367387
81	0xbe39234e	-0.18079874
82	0x3dc3f3f7	0.09568017
83	0x3d0fb96d	0.035088945
84	0x3c7a4eb8	0.015277557
85	0xbcfd1815	-0.030895272
86	0xbb81d8ea	-0.0039626257
87	0xbe183692	-0.14864567
88	0x3c3aec50	0.01140888
89	0x3ced0a66	0.028935622
90	0x3dec02e4	0.11523989
91	0xbcf8df35	-0.03037987
92	0x3b559f9f	0.0032596362
93	0x3d234f94	0.039870813
94	0x3ddcb1a1	0.107760675
95	0x3cb83d0a	0.022490043
96	0xbd569ae4	-0.05239381
97	0xbdafc703	-0.0858288
98	0xbcde6c1e	-0.027151164
99	0x3d0446e4	0.03229417
100	0xbb90c0cd	-0.004417515
101	0xbdddfcc0	-0.10839224
102	0x3da31b90	0.079642415
103	0x3d971c20	0.07378411
104	0x3c593cf9	0.013259166
105	0xbe2f36d4	-0.17110759
106	0xbdad261f	-0.08454537
107	0xbd89ff55	-0.06738154
108	0xbda2567c	-0.07926652
109	0x3d3aab2e	0.045573406
110	0xbdac9718	-0.08427256
111	0x3dab947c	0.083779305
112	0xbd01771c	-0.031607732
113	0x3dabb598	0.08384246
114	0x3c9c6e20	0.01909548
115	0xbc1ed60a	-0.009694586
116	0x3c9bd770	0.019023627
117	0xbd9a62e4	-0.07538393
118	0xbe2ddf4c	-0.16979712
119	0x3d954b84	0.07289794
120	0x3dd005a3	0.10157325
121	0xbde32b70	-0.110922694
122	0x3c593c6f	0.013259037
123	0x3cc101b5	0.023560384
124	0xbcd63230	-0.026146978
125	0x3d8bbf5a	0.06823607
126	0xbd8d6bf1	-0.06905354
127	0xbdc13644	-0.094341785
128	0xbdb69c29	-0.08916504
129	0x3cd87559	0.026423143
130	0xbd63996c	-0.055566236
131	0x3da5e845	0.081009425
132	0x3ce3b530	0.027796358
133	0xbd8fbc0d	-0.0701829
134	0x3da0dbb7	0.07854407
135	0x3d0fafd2	0.035079785
136	0x3dcd5761	0.10026432
137	0x3ccd5438	0.025064573
138	0xbdb6c920	-0.0892508
139	0xbd5b4a0e	-0.05353742
140	0xbd01a0f6	-0.031647645
141	0x3d7644a0	0.06012404
142	0x3da26f18	0.07931346
143	0xbbc694b3	-0.006060207
144	0x3c2944c9	0.010331341
145	0xbd3a9a06	-0.045557044
146	0x3bf12453	0.0073590665
147	0xbc665e74	-0.014060605
148	0x3d93f357	0.07224148
149	0xbd84226e	-0.064518794
150	0x3d146a3c	0.036234125
151	0xbd279e24	-0.0409223
152	0x3d998d99	0.07497711
153	0x3d2c15e0	0.04201305
154	0x3cb5696c	0.022144996
155	0x3d2555f5	0.04036518
156	0x3b8aa3d4	0.0042309556
157	0xbd2d3971	-0.04229111
158	0xbd326a30	-0.0435583
159	0xbcf4e4e4	-0.0298943
160	0x3db7eb70	0.08980453
161	0x3dc9333b	0.098242246
162	0x3b655bad	0.003499727
163	0xbd92a510	-0.071603894
164	0xbc10c305	-0.008835559
165	0xbd40efa9	-0.047103558
166	0x3d67d547	0.05659988
167	0x3b2e7a0d	0.002662304
168	0xbcf12416	-0.029436152
169	0x3d672d9a	0.056439973
170	0xbdae1f98	-0.0850212
171	0x3c80c966	0.015721034
172	0x3daa73ed	0.08322892
173	0xbce4640e	-0.027879741
174	0xbdb48523	-0.08814456
175	0x3dc872b3	0.09787502
176	0x3d2e62af	0.04257458
177	0x3c4c4547	0.012467689
178	0x3bbb7514	0.005720744
179	0x3e0529fe	0.130043
180	0xbd5347e8	-0.051582247
181	0xbd6d4e78	-0.05793616
182	0x3d6a3ea5	0.05718865
183	0x3d890d6b	0.066920124
184	0xbd8b8fc4	-0.068145305
185	0x3d9f80fd	0.077882744
186	0x3cdf2888	0.027241006
187	0xbd23e540	-0.04001355
188	0x3ba5faa2	0.005065278
189	0x3abfadf3	0.0014623984
190	0x3cf74f65	0.030189225
191	0x3c8ea745	0.017413745
192	0xbcea814e	-0.02862611
193	0x3e038fb3	0.12847786
194	0x3bdb681d	0.006695761
195	0x3e1afa6a	0.15134588
196	0x3e266e5e	0.16253039
197	0x3e04e496	0.12977824
198	0x3d7a9119	0.061173532
199	0xbbea568b	-0.00715143
200	0xbd4a2ca6	-0.049358986
201	0xbbd79d90	-0.006580062
202	0xbdc31a4d	-0.09526501
203	0xbd7419de	-0.05959498
204	0xbd60927a	-0.05482719
205	0xbc7c77d3	-0.015409428
206	0x3c551c19	0.013007187
207	0x3df61d6e	0.12017332
208	0x3d679e35	0.056547362
209	0xbc37846e	-0.011201007
210	0xbde446a7	-0.11146288
211	0x3db658ca	0.08903654
212	0xbd93c07e	-0.07214449
213	0xbdc5aa21	-0.0965159
214	0xbd125191	-0.03572232
215	0x3e001a73	0.1251009
216	0xbce798ce	-0.028271105
217	0xbd920324	-0.07129505
218	0x3da4d28e	0.080479726
219	0x3c433dc3	0.011916581
220	0x3e1cd98b	0.15317361
221	0xbd614d1b	-0.055005174
222	0x3cd7d1d0	0.026345164
223	0x3d3cc637	0.04608747
224	0xbc041e33	-0.008063841
225	0x3db3933e	0.087683186
226	0xbdde2bd0	-0.108482
227	0x3d8c6fac	0.06857237
228	0x3e06aebe	0.13152596
229	0x3d75be8d	0.059996177
230	0x3cd7ab06	0.026326668
231	0xbc9f5f35	-0.019454578
232	0x3d9474a0	0.07248807
233	0x3e6bea5f	0.23038624
234	0x3d29364e	0.041311555
235	0x3de02236	0.10944025
236	0x3e0246c6	0.1272231
237	0xbd1f09f8	-0.038827866
238	0x3d49ee6d	0.049299646
239	0xbc251ae9	-0.010077217
240	0x3d0499f7	0.032373395
241	0x3bb9b4d1	0.005667307
242	0x3d920c0b	0.07131203
243	0xbd69e6a5	-0.057104725
244	0x3da6b79e	0.08140491
245	0x3d0098e6	0.031395815
246	0x3dba1f7f	0.09088039
247	0x3d8b0ed0	0.06789935
248	0xbc9dee24	-0.019278593
249	0xbd89448e	-0.06702529
250	0x3dab7c59	0.08373327
251	0x3dfea9a5	0.12434701
252	0xbd51cf94	-0.051223353
253	0xbcff10a6	-0.031135868
254	0x3d9626a8	0.07331592
255	0x3cd94c57	0.02652566

lstm.weight_ih_l1 f4 [256, 64]
0	0x3c5efccd	0.013610077
1	0x3e0a8681	0.13527872
2	0x3dbd98b6	0.09257643
3	0x3d806a8f	0.062703244
4	0x3d8c4dd5	0.06850783
5	0x3da6c741	0.081434734
6	0x3cd39df8	0.025832161
7	0xbd17bf01	-0.03704739
8	0x3cedf4ed	0.029047454
9	0x3de35d4e	0.11101781
10	0x3db86773	0.090041064
11	0x3e06a499	0.13148727
12	0x3dd13872	0.10215844
13	0x3de4eeb1	0.11178339
14	0x3d2d8bae	0.042369537
15	0xbc9371fe	-0.017998692
16	0x3e301655	0.17196019
17	0x3d139559	0.0360311
18	0xbe090707	-0.13381587
19	0x3e16ed2e	0.14738914
20	0x3e3749c7	0.17899238
21	0x3e17d423	0.14827017
22	0xbda64a96	-0.08119695
23	0x3d10baa1	0.035334233
24	0xba15038b	-0.0005684427
25	0xbc808f67	-0.01569338
26	0x3da28524	0.07935551
27	0x3ce6ac3e	0.028158303
28	0xbd3410d0	-0.043961346
29	0xbdaa85f4	-0.08326331
30	0x3da29b29	0.07939751
31	0x3d5d7652	0.054067917
32	0xbd1b0fd9	-0.03785691
33	0x3d2070ab	0.03916995
34	0xbdcd2270	-0.10016334
35	0x3dafc5e8	0.085826695
36	0x3dbb4859	0.091446586
37	0x3e01f31b	0.12690394
38	0xbbe7f34a	-0.007078563
39	0xbe2761b5	-0.16345866
40	0x3e0888a0	0.13333368
41	0xbda5da08	-0.08098227
42	0xbd41102a	-0.047134556
43	0xbde6855a	-0.112559035
44	0x3df63d15	0.12023369
45	0x3e46d691	0.19417788
46	0x3dcdf36c	0.10056195
47	0xbce19217	-0.027535481
48	0x3dbb77a1	0.09153677
49	0x3e234ced	0.15947314
50	0xbd4936a8	-0.04912439
51	0x3dcd01ef	0.100101344
52	0xbcbfcfcc	-0.023414515
53	0x3e48562f	0.19564126
54	0x3cc5f439	0.024164306
55	0x3e3c341d	0.18379255
56	0x3df2a9d1	0.11848796
57	0xbdae1134	-0.08499375
58	0xbdaec5ba	-0.08533807
59	0x3dff084d	0.12452755
60	0x3e08f880	0.13376045
61	0x3e15ad61	0.1461692
62	0x3ca304c5	0.019899735
63	0x3e451b54	0.19248706
64	0xbdab11be	-0.083529934
65	0x3cce2952	0.025166187
66	0x3e2116fe	0.15731427
67	0x3de671fe	0.11252211
68	0xbd0b1492	-0.033955164
69	0x3dded5c8	0.10880619
70	0x3d7eb3d6	0.062183224
71	0xbd146451	-0.03622848
72	0x3d27d3cf	0.04097348
73	0x3d28d8a7	0.04122224
74	0x3d1c04ac	0.038090393
75	0xbdb4e444	-0.08832601
76	0xbd7fab1a	-0.062419035
77	0xbdd407c7	-0.10353046
78	0xbdd5c0c2	-0.10437156
79	0xbe0aec0c	-0.13566607
80	0xbde1465a	-0.109997466
81	0xbd914dec	-0.070949405
82	0x3c8f0692	0.017459188
83	0xbcf63a79	-0.030057179
84	0x3d949f94	0.072569996
85	0x3e091bac	0.13389462
86	0x3db08e74	0.08620921
87	0xbd69b2d8	-0.057055324
88	0xbc31a9db	-0.010843719
89	0xbdbc3058	-0.09188908
90	0xbd6cd30d	-0.05781846
91	0x3da953bb	0.082679234
92	0xbc35f674	-0.011106122
93	0xbc4e435a	-0.0125893
94	0xbd8fe9f9	-0.070270486
95	0xbdc6ddf5	-0.09710304
96	0xbdcae402	-0.0990677
97	0xbdd4dd0b	-0.10393723
98	0xbcd09654	-0.025462307
99	0xbdbfad61	-0.09359241
100	0xbcb90457	-0.022585077
101	0x3ded8863	0.11598279
102	0x3cbb2ac7	0.022847546
103	0x3cfed451	0.0311071
104	0x3dd01e3e	0.10162018
105	0xbe3a5355	-0.18195851
106	0x3dd7d835	0.10539285
107	0x3ba4b8eb	0.0050269268
108	0xbd859d49	-0.065241404
109	0x3d3eea73	0.046610307
110	0x3d84595d	0.06462357
111	0xbd0ef2d3	-0.034899544
112	0xbd5ea6b0	-0.054358184
113	0x3d7a9f72	0.061187215
114	0xbc36f11e	-0.011165885
115	0x3dceadd4	0.10091749
116	0xbda6a4aa	-0.08136876
117	0x3e028896	0.12747416
118	0xbd7f8231	-0.06238002
119	0xbcc08fbe	-0.023506042
120	0x3d9d6373	0.07684984
121	0xbe14a4b6	-0.14515957
122	0xbddcd89e	-0.10783504
123	0xbc4a8c52	-0.0123625565
124	0x3d3e4d54	0.046460465
125	0x3d74ceff	0.05976772
126	0xbd72640d	-0.059177447
127	0xbd6f0826	-0.05835738
128	0xbd584a57	-0.05280527
129	0x3d457d6e	0.048215322
130	0xbe055968	-0.13022387
131	0x3c9aa5ec	0.018877946
132	0xbda07b40	-0.07836008
133	0x3e20ef72	0.15716341
134	0xbd3c30b7	-0.045944896
135	0xbe40d936	-0.1883286
136	0x3d9e36fb	0.077253304
137	0x3c99871d	0.018741185
138	0xbdec5342	-0.11539318
139	0x3d32b6ec	0.04363148
140	0xbe09c1b0	-0.13452792
141	0x3c2b6700	0.010461569
142	0xbe003536	-0.12520298
143	0x39e714f2	0.0004407536
144	0xbd01e46d	-0.031711984
145	0xbca9c847	-0.020725382
146	0xbda3a01b	-0.07989522
147	0xbdea45d3	-0.11439099
148	0x3d26f4ad	0.040760685
149	0x3cc53d18	0.024076983
150	0x3da3a4b5	0.079904
151	0xbdf7dd9e	-0.12102817
152	0x3d8a8982	0.06764509
153	0x3d6df74a	0.05809716
154	0xbe0572e2	-0.13032106
155	0xbd6b4c23	-0.057445657
156	0x3d5d99b7	0.054101672
157	0xbccd53f4	-0.025064446
158	0xbd4aa99d	-0.049478162
159	0x3d33db90	0.043910563
160	0x3d874e1a	0.066066936
161	0xbd39350d	-0.04521661
162	0xbccce022	-0.025009219
163	0x3de70c98	0.11281699
164	0xbc125466	-0.008931255
165	0xbd1f1604	-0.038839355
166	0x3cc55c0d	0.024091745
167	0xbe0fd164	-0.1404472
168	0x3dd4db08	0.103933394
169	0x3cc44e06	0.023962986
170	0x3d91e705	0.071241416
171	0x3c387553	0.011258441
172	0xbcf5d338	-0.030007944
173	0x3d099af8	0.033595055
174	0x3d97d223	0.07413127
175	0x3c0f0a43	0.008730474
176	0xbd816dc5	-0.06319765
177	0xbd1e8cfa	-0.038708664
178	0xbddb17f1	-0.10697926
179	0xbdf709b9	-0.12062401
180	0x3d0551da	0.032548763
181	0x3ddfe8e0	0.10933089
182	0xbd0a6913	-0.033791613
183	0x3da71606	0.081584975
184	0xbdd068aa	-0.10176213
185	0x3ce3df09	0.027816312
186	0xbc890472	-0.016725753
187	0xbcb01fb2	-0.021499489
188	0x3c294155	0.010330518
189	0xbdaee9da	-0.085406974
190	0xbd612abc	-0.054972395
191	0xbc33d08c	-0.010975014
192	0xbd90c9ea	-0.07069762
193	0xbd26b545	-0.040700216
194	0x3ce5a79d	0.028034026
195	0xbd190d90	-0.03736645
196	0xbcfa48b8	-0.030552253
197	0x3e0f19eb	0.1397473
198	0x3cba7ba4	0.022764035
199	0xbdb72161	-0.089419134
200	0xbd3b9bb5	-0.04580279
201	0xbe088a73	-0.13334064
202	0xbd302888	-0.043007404
203	0x3dde5658	0.108563125
204	0x3d54ad9b	0.051923376
205	0x3bb3ba6a	0.005484869
206	0xbc92e6b4	-0.017932273
207	0xbb6814e8	-0.0035412852
208	0x3d7b0c5a	0.061291076
209	0x3b85eb19	0.0040868637
210	0xbd80aa40	-0.062824726
211	0x3d4077ca	0.04698924
212	0x3dbe3c4f	0.09288847
213	0xbd8d11a2	-0.06888129
214	0x3db26b12	0.08711828
215	0x3d615e13	0.055021357
216	0xbd7259d4	-0.059167698
217	0x3ce5f1fb	0.028069487
218	0xbe136048	-0.14392197
219	0xba72485a	-0.00092423486
220	0xbbbaf619	-0.0057056067
221	0x3de78406	0.11304478
222	0xbcbcd7a1	-0.023052039
223	0x3d8c6050	0.06854308
224	0xbd9ff892	-0.07811083
225	0x3ccbf9f0	0.024899453
226	0x3e1b1ef4	0.15148526
227	0x3dceec57	0.10103672
228	0xbd6f17e5	-0.058372397
229	0xbcc5339a	-0.024072457
230	0xbe0601c4	-0.13086611
231	0xbdfb26d4	-0.12263265
232	0xbe046183	-0.12927823
233	0xbc3c4e2d	-0.011493248
234	0x3e2b2d7e	0.16716573
235	0x3cdab4d9	0.026697563
236	0x3d7dbb24	0.06194605
237	0xbdd21d28	-0.10259467
238	0x3dd6bf30	0.10485685
239	0xbe2fa1b8	-0.17151535
240	0x3d2da58a	0.0423942
241	0x3cd042bf	0.025422452
242	0xbd5ba89b	-0.05362759
243	0xbb8dae1d	-0.0043237344
244	0x3df9deef	0.12200724
245	0xbdd57788	-0.104231894
246	0xbcafcbde	-0.021459516
247	0xbcf330e3	-0.029686397
248	0xbd78bcb2	-0.06072683
249	0xbdc1c050	-0.09460509
250	0xbd8a1a0b	-0.067432486
251	0x3d51e9ed	0.05124848
252	0xbdd39337	-0.103308134
253	0x3da6d781	0.08146573
254	0xbd93e16d	-0.07220731
255	0xbde7f953	-0.11326852

lstm.weight_hh_l1 f4 [256, 64]
0	0xbc55d127	-0.013050354
1	0xbd953596	-0.07285611
2	0x3d392990	0.045205653
3	0x3dcf66d7	0.10127037
4	0x3e025021	0.12725879
5	0xbdf28b7c	-0.11843011
6	0x3d8d7554	0.06907144
7	0x3d8bc67c	0.06824967
8	0xbde05e16	-0.109554455
9	0xbd46d955	-0.048547108
10	0x3dd25fc0	0.10272169
11	0x3d763970	0.06011337
12	0x3dd98205	0.106205024
13	0xbde5f27e	-0.11227892
14	0x3d1efb97	0.038814154
15	0x3e0dcebc	0.13848394
16	0xbd74ea15	-0.05979355
17	0x3d4f2fb1	0.05058259
18	0x3dc6deb6	0.097104475
19	0xbc587e13	-0.013213652
20	0x3d6be18c	0.057588145
21	0x3cfd4a54	0.030919231
22	0x3d90183b	0.070358716
23	0xbd9786f0	-0.07398784
24	0xbd1c2bb0	-0.0381276
25	0x3bae8f96	0.0053271754
26	0xbd0b2b84	-0.033977047
27	0x3d0f7030	0.0350191
28	0x3c17362d	0.009229225
29	0xbd948e5e	-0.07253717
30	0xbb80e584	-0.0039336104
31	0xbce0f6d2	-0.027461443
32	0xbd9731df	-0.07382559
33	0x3ccbd4dc	0.024881773
34	0x3c764a30	0.015032336
35	0x3d60a252	0.0548423
36	0x3debb775	0.11509601
37	0xbcfe1fcd	-0.031021023
38	0xbe0b6eef	-0.13616537
39	0x3d9d423d	0.076786496
40	0xbc31d756	-0.010854563
41	0xbd19f369	-0.03758565
42	0x3dec800a	0.11547859
43	0xbdd14989	-0.10219104
44	0x3dc261fd	0.09491346
45	0xbd2e7f18	-0.042601675
46	0xbd3ec48d	-0.046574164
47	0xbdf53811	-0.119735844
48	0xbd54f1bf	-0.05198836
49	0xbd6defb0	-0.058089912
50	0x3ba44892	0.005013534
51	0xbe25ce5f	-0.16192006
52	0xbd651992	-0.05593259
53	0xbe10acee	-0.14128467
54	0xbd7258f5	-0.059166867
55	0x3e0ef9ed	0.13962527
56	0x3d89fbaf	0.06737458
57	0xbdad6167	-0.08465844
58	0xbddc3f3d	-0.10754249
59	0x3d2a33be	0.04155325
60	0x3d847c7d	0.06469057
61	0x3dff9263	0.12479093
62	0x3ca37270	0.019952029
63	0x3ddc421f	0.10754799
64	0x3d75f82c	0.06005113
65	0xbcb1cc5a	-0.021703888
66	0x3c27e46e	0.010247333
67	0x3d9b1d77	0.07573979
68	0x3da0ebbe	0.07857464
69	0xbdf0b20e	-0.11752711
70	0xbda42bef	-0.08016192
71	0xbda26efc	-0.07931325
72	0x3de5dbf6	0.11223595
73	0x3d00e2be	0.03146624
74	0x3d9fade1	0.07796837
75	0xbb6b3da9	-0.0035894907
76	0x3cdc142c	0.026865087
77	0x3c728861	0.014803023
78	0x3bcdd5d4	0.006281594
79	0x3ddca50d	0.107736684
80	0x3da4a579	0.08039374
81	0xbda0f628	-0.078594506
82	0x3df38c96	0.11892049
83	0x3de84f79	0.11343283
84	0xbdcfc4e5	-0.101449765
85	0x3d07c26a	0.033144392
86	0x3ddc8e56	0.10769336
87	0xbdf248c7	-0.118302874
88	0x3b84b3b4	0.0040497426
89	0xbde6af6b	-0.11263927
90	0xbd5342d1	-0.051577393
91	0x3dd820f2	0.10553159
92	0x3c62224c	0.013802122
93	0x3dfbeb01	0.12300683
94	0x3e07e794	0.13271934
95	0x3d0b6b78	0.034038037
96	0x3d2d017d	0.042237747
97	0xbd85dfd7	-0.06536835
98	0x3d587e6d	0.052854944
99	0xbd19d2b5	-0.03755446
100	0xbca14254	-0.019684948
101	0xbdcf510f	-0.101228826
102	0x3d9eded0	0.07757342
103	0x3d621e80	0.05520487
104	0xbdee28c8	-0.11628872
105	0xbc6cb781	-0.014448048
106	0x3ddc6152	0.1076075
107	0x3c37a868	0.011209585
108	0xbe133b0f	-0.14377998
109	0xbdf2f3c1	-0.118628986
110	0x3c9ad944	0.018902428
111	0xbded1b2e	-0.1157745
112	0xbdb5b359	-0.088720985
113	0x3ce9a5df	0.028521476
114	0xbd899a56	-0.0671889
115	0x3d6ff4d6	0.058583103
116	0xbe043606	-0.12911233
117	0x3ca3f604	0.02001477
118	0xbd8852d2	-0.06656422
119	0x3c4cff85	0.0125120925
120	0xbdb0501f	-0.08609032
121	0xbd51bc6c	-0.051205084
122	0xbd8d73a1	-0.0690682
123	0xbda3f59f	-0.08005833
124	0xbd305c28	-0.043056637
125	0xbde7e9ea	-0.113239124
126	0xbd8fbf08	-0.07018858
127	0x3d4cf009	0.050033603
128	0x3d30e84f	0.043190297
129	0x3e191d97	0.14952694
130	0xbdbc4b6f	-0.09194075
131	0xbc088d12	-0.008334415
132	0xbd2c25a2	-0.042028077
133	0xbdaab4d4	-0.083352715
134	0x3d30b370	0.043139875
135	0x3d22fb3f	0.03979039
136	0x3d8b21ad	0.067935325
137	0xbe069968	-0.13144457
138	0xbb3c3b86	-0.0028722002
139	0x3d56e390	0.052463114
140	0xbd3371d9	-0.043809745
141	0xbd2e1d5a	-0.04250846
142	0xbd4a96fa	-0.04946039
143	0x3df234ce	0.11826478
144	0xbda47a19	-0.08031101
145	0x3cdad1ba	0.026711334
146	0x3d3f3d8d	0.04668956
147	0x3d8d66c4	0.069043666
148	0x3d2d79dc	0.042352542
149	0x3cf89903	0.0303464
150	0xbdef2952	-0.11677803
151	0xbde0c031	-0.109741576
152	0x3db47f0f	0.08813297
153	0xbda04bcc	-0.07826957
154	0xbdc15944	-0.09440854
155	0xbcadb5f4	-0.021204926
156	0x3e146668	0.1449219
157	0xbda79e2f	-0.08184468
158	0x3db37f44	0.08764508
159	0x3db2826f	0.087162845
160	0xbd4646b2	-0.048407264
161	0x3d05a748	0.032630235
162	0xbcb88c01	-0.022527697
163	0x3d54be31	0.051939193
164	0x3c4778e9	0.012174823
165	0xbd7fe2b9	-0.06247208
166	0x3c484314	0.012223024
167	0xbd2880d0	-0.04113847
168	0x3da4e1c3	0.08050873
169	0x3dd5f462	0.10447003
170	0x3d997669	0.07493288
171	0xbdfb65ba	-0.12275262
172	0xbc379684	-0.011205319
173	0x3da60e85	0.08108238
174	0x3d561839	0.052269194
175	0x3d8a8d1c	0.06765196
176	0xbd13af69	-0.036055956
177	0x3df0fe20	0.117672205
178	0x3b83b1e6	0.00401901
179	0x3d99ec8d	0.075158216
180	0xbce70bd8	-0.02820389
181	0x3e0635f7	0.13106523
182	0xbba60377	-0.005066331
183	0x3ad7a178	0.001645132
184	0xbdc418ba	-0.09575029
185	0x3cb976c2	0.022639636
186	0x3da66268	0.08124238
187	0x3cb373cf	0.021905808
188	0xbdde624c	-0.108585924
189	0x3d6c84df	0.057743903
190	0xbdd632c8	-0.104589045
191	0x3da8af55	0.08236567
192	0xbd574238	-0.052553385
193	0xbd9935db	-0.07480975
194	0x3da52230	0.080631614
195	0xbd7548b5	-0.059883792
196	0x3db2252d	0.08698497
197	0x3ccc6924	0.024952479
198	0xbd6e930e	-0.05824571
199	0xbd85558b	-0.06510457
200	0xbdae8caa	-0.08522923
201	0xbe15a957	-0.1461538
202	0xbd41a4ca	-0.047276296
203	0x3c21f79c	0.009885695
204	0x3d34634a	0.044040002
205	0x3d8c76c2	0.06858589
206	0x3d624331	0.05523986
207	0xbc58fa81	-0.013243319
208	0xbd7da997	-0.06192931
209	0x3d5d9b6b	0.054103296
210	0xbdae42b2	-0.08508815
211	0x3dce084d	0.10060177
212	0xbda2aa95	-0.07942692
213	0x3d753493	0.05986459
214	0x3ddb9501	0.107217796
215	0x3cc0e890	0.023548394
216	0x3b8da4e1	0.0043226336
217	0xbd97bc58	-0.074089706
218	0xbdbf9474	-0.09354487
219	0xbd814384	-0.06311706
220	0x3de5f1cf	0.11227762
221	0x3c889c99	0.016676234
222	0xbd9dc26b	-0.07703098
223	0xbdbb1f32	-0.091368094
224	0x3d857d0c	0.065179914
225	0xbdaef22f	-0.085422866
226	0xbdecc4bd	-0.11560962
227	0xbde85904	-0.113451034
228	0xbd8efbd0	-0.06981623
229	0x3c8a3af6	0.016873818
230	0x3da1bef6	0.07897751
231	0x3c29b8d6	0.01035901
232	0x3dbc4c1b	0.091942035
233	0x3d90d2dc	0.07071468
234	0xbd8593a1	-0.065222986
235	0xbe06aee8	-0.13152659
236	0x3d48f66a	0.049063124
237	0xbda159e1	-0.07878471
238	0x3d0e37aa	0.034721054
239	0xbc8daadd	-0.017293388
240	0x3cc7cadc	0.024388723
241	0x3cf1f8e2	0.029537622
242	0xbdc86242	-0.09784366
243	0xbdbabbd2	-0.09117855
244	0x3d3a4ae4	0.045481578
245	0xbc230cbe	-0.009951768
246	0x3d9b72f6	0.075902864
247	0x3c90eadb	0.017690113
248	0xbda25e1b	-0.079281054
249	0x3dbc731e	0.09201644
250	0x3e0ec8bf	0.13943766
251	0x3da31daf	0.07964646
252	0xbdb499ce	-0.088183984
253	0x3ce3d521	0.027811589
254	0x3d768ef7	0.060194936
255	0xbc397b2c	-0.01132087

lstm.bias_ih_l1 f4 [256]
0	0xbcff58df	-0.031170307
1	0xbe0934d0	-0.13399053
2	0xbd81eb4f	-0.0634371
3	0xbd8fe387	-0.07025819
4	0xbdca111c	-0.098665446
5	0x3d3b8fc5	0.045791406
6	0xbcdbb38b	-0.026819011
7	0x3dc6e8a8	0.097123444
8	0xbd89fb91	-0.067374356
9	0xbd63ca09	-0.055612598
10	0xba938813	-0.0011255763
11	0x3cdfe5d3	0.027331268
12	0x3dc04c10	0.09389508
13	0x3c790e44	0.015201155
14	0x3db4d853	0.08830323
15	0x3d7f139d	0.062274564
16	0x3d2a166c	0.04152529
17	0xbd6f959b	-0.058492284
18	0xbdfd30a0	-0.1236279
19	0x3d475f92	0.048675127
20	0xbc62443e	-0.0138102155
21	0x3d1bfa77	0.03808066
22	0xbcf0a885	-0.029377231
23	0x3d8f2126	0.069887444
24	0xbdcd1011	-0.1001283
25	0xbd9e3600	-0.077251434
26	0x3d444020	0.047912717
27	0x3cee84f2	0.029116128
28	0x3c5b368f	0.013379707
29	0x3d69a98c	0.057046458
30	0x3d8eca4d	0.069721796
31	0x3e074f12	0.13213757
32	0xbb5f53b0	-0.0034076981
33	0xbd8867b4	-0.06660405
34	0x3cd8777d	0.026424164
35	0x3d4f47b5	0.050605495
36	0xbd3776e5	-0.04479112
37	0xbde6bb2e	-0.112661704
38	0xbcc377a9	-0.02386077
39	0x3ca90d0a	0.0206361
40	0x3d690046	0.056885026
41	0x3d1878f1	0.037224714
42	0x3d4954bb	0.04915307
43	0xbd55a12a	-0.05215565
44	0xbb92194c	-0.004458582
45	0xbda33f1d	-0.07971022
46	0xbdf0266c	-0.117260784
47	0x3d56eea4	0.05247368
48	0x3d0771fa	0.03306768
49	0x3d0c24eb	0.034214895
50	0x3ad48669	0.0016214374
51	0xbd8a5677	-0.06754773
52	0x3d92766a	0.07151492
53	0x3d1da9e4	0.0384921
54	0x3d8b36a5	0.06797532
55	0x3d574be0	0.052562594
56	0x3d89756b	0.06711849
57	0x3dde55e7	0.10856228
58	0xbe12ad0f	-0.14323829
59	0xbd6bd459	-0.057575557
60	0x3c214a59	0.009844386
61	0xbb3c746f	-0.0028755923
62	0x3bd042da	0.0063556256
63	0xbdba0552	-0.09083046
64	0xbd61dd1f	-0.055142518
65	0xbe25e69d	-0.16201253
66	0x3de6867d	0.1125612
67	0xbd9e17f7	-0.07719415
68	0xbce10322	-0.027467314
69	0xbdb51f88	-0.08843905
70	0x3d5dc4bd	0.054142702
71	0x3d9954ab	0.07486852
72	0x3dc1ab72	0.09456529
73	0xbe056998	-0.13028562
74	0x3dcc2a39	0.09968991
75	0xbd07b649	-0.033132825
76	0xbdbb16a8	-0.09135181
77	0xbdbc4ea7	-0.09194689
78	0x3d6e65fd	0.058202732
79	0xbd5eecb0	-0.05442494
80	0xbc84c176	-0.01620553
81	0xbca8b3fc	-0.020593636
82	0xbdb12f3a	-0.08651586
83	0xbcf4542e	-0.029825296
84	0x3e091188	0.13385594
85	0xbdde1445	-0.1084371
86	0x3d00111a	0.03126631
87	0x3da5ec4d	0.081017114
88	0xbb885cf9	-0.004161474
89	0xbc721f46	-0.014777964
90	0xbd129f11	-0.03579623
91	0xbd3adf9c	-0.045623407
92	0xbc440679	-0.011964434
93	0x3db1a345	0.08673719
94	0x3d4eccb8	0.050488204
95	0x3d4479a1	0.047967557
96	0x3dbe6218	0.09296054
97	0xbd5188a5	-0.051155705
98	0xbc50cbd0	-0.012743905
99	0xbdc43c04	-0.095817596
100	0xbcb90e8e	-0.022589948
101	0xbdeab8d9	-0.11461038
102	0xbd94c57a	-0.07264228
103	0xbdb7c225	-0.08972577
104	0x3e0005ed	0.1250226
105	0xbde26283	-0.11053946
106	0x3d780667	0.06055298
107	0xbdc42f18	-0.09579295
108	0xbdee290f	-0.11628925
109	0xbd2fa106	-0.042878173
110	0xbd03c9a5	-0.032174725
111	0xbdfde868	-0.123978436
112	0x3cfa0df3	0.03052423
113	0xbe04b204	-0.12958533
114	0x3dfae777	0.1225118
115	0x3d6658c6	0.056237005
116	0x3d7047f3	0.058662366
117	0xbd50bfcd	-0.050964165
118	0xbaf12892	-0.0018398932
119	0x3d0ac9b3	0.03388376
120	0xbe12aef3	-0.1432455
121	0x3c88fdd0	0.01672259
122	0x3d917eb7	0.07104247
123	0x3dbb2dd7	0.09139603
124	0x3d0f6363	0.035006892
125	0x3df30682	0.11866476
126	0x3d763c21	0.060115937
127	0x3d6810c3	0.05665661
128	0x3d0580cb	0.03259353
129	0xbd984733	-0.07435455
130	0x3d069585	0.032857437
131	0xbca76457	-0.020433588
132	0x3d78af6c	0.06071417
133	0xbd4663cd	-0.04843502
134	0xbdafa56d	-0.08576474
135	0xbdd1bbe2	-0.10240914
136	0x3d4d8976	0.05017992
137	0x3d24f065	0.04026832
138	0x3dacf948	0.08445984
139	0x3d89ec9e	0.06734584
140	0xbd75847e	-0.059940808
141	0xbd02965c	-0.031881675
142	0xbdbcece6	-0.09224872
143	0x3dc16bef	0.09444415
144	0xbd1c67bb	-0.038184863
145	0xbde8b5d3	-0.11362805
146	0xbb2d2bf0	-0.0026423894
147	0xbcc20bb5	-0.023687223
148	0x3d875f58	0.06609982
149	0x3d8bba45	0.068226375
150	0x3d40d915	0.047082026
151	0xbd7c288a	-0.0615621
152	0x3b9fabca	0.004872774
153	0xbd4864f4	-0.0489244
154	0x3d706a0d	0.058694888
155	0x3dbd187d	0.092331864
156	0x3d46af19	0.04850683
157	0xbc5a33e7	-0.013318039
158	0xbdbacf7a	-0.09121604
159	0x3a0fed8c	0.00054904143
160	0x3cebc0da	0.028778482
161	0x3db6641d	0.08905814
162	0x3c9edc47	0.019392146
163	0xbcc1db1c	-0.02366405
164	0x3da4afd9	0.08041353
165	0xbd7aa008	-0.061187774
166	0x3c44c1d2	0.012009101
167	0x3cd71dd5	0.026259342
168	0xbd2587eb	-0.040412825
169	0x3d0270fe	0.03184604
170	0xbcb4d396	-0.022073548
171	0x3d324fbf	0.043533083
172	0x3d5e648e	0.054295115
173	0xbdabc65b	-0.08387443
174	0xbdc738df	-0.09727644
175	0x3a06ea8d	0.0005146645
176	0xbd83557e	-0.06412791
177	0x3d4d48bd	0.050118197
178	0xbd286afd	-0.041117657
179	0xbc4f6ec6	-0.012660688
180	0xbc2b67ee	-0.0104617905
181	0xbd331b8b	-0.04372744
182	0xbd821f47	-0.06353622
183	0x3d9d4149	0.07678468
184	0x3da910cd	0.082551576
185	0x3d41fa54	0.047357872
186	0xbd2691e1	-0.040666465
187	0xbdc66983	-0.096880935
188	0xbd8853cd	-0.06656609
189	0xbdcb2a90	-0.099202275
190	0x3d902596	0.07038419
191	0x3d4a83c7	0.04944208
192	0xbc5a8df8	-0.013339512
193	0x3be4e49b	0.0069852597
194	0xbdc7d8a5	-0.097581185
195	0xbda3b55a	-0.079935744
196	0xbdf99b9f	-0.121878855
197	0x3dd414b0	0.10355508
198	0x3d650aa6	0.05591836
199	0xbd7164fa	-0.05893419
200	0xbb966e28	-0.0045907684
201	0xbd36ebd7	-0.04465851
202	0x3cb8df3b	0.022567382
203	0xbd603278	-0.05473563
204	0xbd156d30	-0.036481082
205	0x3d29ffdf	0.041503783
206	0xbde9b0d9	-0.11410684
207	0x3c63d5d2	0.013905959
208	0x3d309d04	0.04311849
209	0x3c92e8ea	0.017933328
210	0xbd906262	-0.07050015
211	0x3dc420f2	0.09576596
212	0x3e03a291	0.12854983
213	0x3cb96fd8	0.022636339
214	0x3ccf1309	0.025277631
215	0x3de1c2c1	0.110234745
216	0x3daf92bd	0.0857291
217	0x3d972132	0.073793784
218	0x3d9c6b7e	0.0763769
219	0x3d22dac2	0.039759405
220	0xbe2051cb	-0.15656202
221	0x3bf9db4a	0.0076250182
222	0xbd450356	-0.048098885
223	0x3e239db3	0.15978126
224	0xbde1eb0c	-0.1103116
225	0xbdd6a8d6	-0.10481422
226	0x3d38adee	0.045087747
227	0xbd4f31ed	-0.050584722
228	0x3d15d1b8	0.036576957
229	0x3db20ddf	0.08694052
230	0xbdac2ba0	-0.08406758
231	0x3dad9e1f	0.08477425
232	0xbe01df13	-0.12682752
233	0xbd318e5e	-0.043348663
234	0xbd22e54e	-0.039769463
235	0x3d92be9e	0.071652636
236	0xbdca2b8b	-0.098715864
237	0xbbd43b55	-0.0064767995
238	0x3d1d1448	0.03834942
239	0x3d754419	0.059879396
240	0x3da6c0e5	0.081422605
241	0x3d0e53ed	0.034748007
242	0xbdd39075	-0.10330287
243	0xbe21a3c0	-0.15785122
244	0x3e0bcd4a	0.1365253
245	0xbdc249e4	-0.0948675
246	0x3d67b8ca	0.056572713
247	0x3db9d72f	0.09074246
248	0x3d5b721e	0.053575628
249	0xbc571611	-0.01312782
250	0x3d3c76a4	0.046011582
251	0x3dfb252a	0.12262948
252	0x3d990fce	0.07473718
253	0xbdcb65be	-0.09931515
254	0x3d405430	0.046955287
255	0xba40a4a4	-0.0007348752
