data/models/AAPL/predict_t3/model.pth (torch, 615602 bytes, 27 tensors)

lstm.weight_ih_l0 f4 [256, 1]
000000 be dc 13 be fb 19 12 be fc ec b1 bd 4f 09 15 be
       -0.14439675 -0.14267723 -0.08687779 -0.14554332
000010 65 60 f4 bd a8 d0 fd bc 47 43 cf bd a4 1f a2 3d
       -0.11932448 -0.030983284 -0.10120254 0.07916191
000020 23 01 45 bd 6e 3c f9 bc 70 94 97 3c 93 3a 8c bd
       -0.048096787 -0.030424323 0.018503398 -0.0684711
000030 eb 4d b5 3d 3e 53 ff bc 4f d0 d7 3d e4 88 29 3d
       0.08852752 -0.031167623 0.105377786 0.041390315
000040 c1 f3 d3 bc 26 4d 87 3d be 1f 80 bc be 76 3c 3e
       -0.025873067 0.06606512 -0.015640136 0.18404672
000050 3d bc 66 bd 23 a4 dd bd 41 bf 14 be ee 16 0c bd
       -0.05633186 -0.10822322 -0.14526083 -0.034201555
000060 36 14 88 bd b7 f3 b7 3d 3b bc 32 bd d9 8b 95 bc
       -0.0664448 0.08982032 -0.04363654 -0.018255161
000070 76 94 d5 bc a0 15 aa 3d 0c 4f 83 bd dc 18 2c bd
       -0.026071768 0.08304906 -0.06411561 -0.042015895
000080 1c 76 ba 3c 53 d2 7a bd ff 6e 57 3d d1 aa e8 bd
       0.022761397 -0.061235737 0.05259609 -0.11360706
000090 8f 9f 6d 3d bc 88 d4 3d df af a8 3c 9b 54 20 3a
       0.058013495 0.103776425 0.020591674 0.0006116123
0000a0 d2 8c 04 be ea c0 d4 bd 3e e2 eb 3d f4 0c c8 3d
       -0.12944344 -0.10388358 0.11517762 0.097680956
0000b0 53 c7 7d bd 60 0d bf 3d 7d 42 fb bd 5c 6c 02 bd
       -0.06195767 0.09328723 -0.12268541 -0.03184162
0000c0 ff 61 3d bd 31 c1 8e 3c b9 d2 b7 3d a2 a7 17 be
       -0.046236034 0.017426105 0.08975739 -0.1481004
0000d0 2f 08 bb 3c 09 8a 27 3d fc b4 f7 bc cb 51 24 3c
       0.02283105 0.040903125 -0.030237667 0.010029267
0000e0 a0 73 6a 3d 70 e9 44 3d d9 b9 68 bd ed 13 f1 3c
       0.057239175 0.048074186 -0.056817863 0.029428447
0000f0 25 b3 e5 bd 5e 60 91 3c ea d8 f9 bb d9 67 a1 bd
       -0.1121581 0.017746147 -0.007624735 -0.078811355
000100 14 98 11 bc ff 82 a2 bd 64 8a 51 3d 0b 99 04 be
       -0.008886356 -0.07935142 0.05115737 -0.12949006
000110 8f f5 10 bd 53 89 2d bc ba db f4 bd 95 77 f1 3b
       -0.035390433 -0.010591823 -0.11955972 0.0073689916
000120 65 35 2f 3e f8 e3 05 be ae 9f 32 3e 34 82 3f 3d
       0.17110212 -0.13075244 0.17443725 0.04675503
000130 7f 26 f6 3d 14 88 3b 3c c0 ab c9 3c c6 a3 86 bb
       0.12019061 0.011446018 0.02461803 -0.004108879
000140 1c 48 1d 3e f2 11 e0 bc 8d 86 38 be ae af 7d bc
       0.15359539 -0.027352307 -0.18020077 -0.01548378
000150 4c 20 9f bd 84 e8 b0 bd 01 9b 26 be 00 2d ad 3d
       -0.07769832 -0.08638099 -0.16270067 0.08455849
000160 53 01 e9 bc ca 56 82 3c 92 3e da 3d 10 1d 19 be
       -0.028443014 0.015910525 0.106564656 -0.14952493
000170 a4 ff 4e bd 6e b8 7b bd dc 28 db 3c a8 b8 82 3d
       -0.050536767 -0.061455183 0.026752882 0.06382877
000180 be 96 ef bc 4d 3d 2d 3d a0 73 48 3c 35 d8 96 bd
       -0.029246684 0.04229479 0.012234598 -0.07365457
000190 95 28 b8 bc e6 5f b4 3d ff 79 6e bd ca 72 fd bc
       -0.022480289 0.08807354 -0.058221813 -0.030938525
0001a0 2d 76 4c bd 8b c8 96 bd 9b a2 35 3d c6 bc 9e 3d
       -0.04991739 -0.07362469 0.044344526 0.077508494
0001b0 f7 99 b5 3d a7 be d0 bd 66 17 10 3c ef 1b 22 3e
       0.08867257 -0.10192614 0.008794641 0.15830968
0001c0 5b 5c 14 3e 34 f8 9b 3d 78 e4 c4 3d 06 ff bf bd
       0.14488356 0.076157 0.096138895 -0.09374814
0001d0 09 4b 6f 3d ee 9f 36 3e f2 85 83 bd af 26 f7 bd
       0.05842117 0.17834446 -0.064220324 -0.12067925
0001e0 cc 47 24 3e ef bb d3 3c 00 c8 b6 bd 12 49 8c 3d
       0.16043013 0.02584645 -0.08924866 0.068498746
0001f0 e1 ec 36 bd 2d 79 ca bc 21 8a 8b 3d 16 f3 70 bd
       -0.0446595 -0.024715984 0.068134554 -0.058825575
000200 2e fd 11 bd ae 90 1e 3d 1e 87 16 3e d9 b0 29 be
       -0.03564184 0.038712196 0.1469998 -0.16571368
000210 b5 59 1a 3e ab 86 10 3e fb 93 b9 3d b1 1e 04 be
       0.15073283 0.14113872 0.09061428 -0.12902333
000220 de dc 30 3e ac 4b cf 3d ab e1 34 be bf 0d 2e 3e
       0.17271754 0.10121855 -0.1766421 0.16997431
000230 9c 53 dd 3d 6a 15 22 be 04 28 33 be 5b a2 3b be
       0.10806963 -0.15828481 -0.17495733 -0.18323652
000240 9f 9d b1 3d 3f 2f 1f be f3 34 e0 3c b6 ad a6 3d
       0.08672642 -0.15545367 0.027368998 0.081386015
000250 69 2b 10 be a7 e1 31 be 82 c6 f7 3d 3f a1 34 3e
       -0.1407906 -0.17371236 0.12098409 0.17639636
000260 7e ec ab bd 22 e2 30 3e ef 55 27 be ff ab eb bd
       -0.08394717 0.17273763 -0.16341375 -0.11507415
000270 99 34 ed 3d 4e 71 14 be 01 94 29 be c8 0d 26 be
       0.11582298 -0.14496347 -0.16560365 -0.16216195
000280 20 54 d8 3d 2c 91 22 3e 61 f0 2f 3e 8a b4 0c 3e
       0.105629206 0.15875691 0.17181541 0.13740745
000290 12 f9 1c be 60 8c 4b be 40 7d 2a be c3 75 91 3d
       -0.15329388 -0.19877768 -0.16649342 0.071025394
0002a0 8b 2f 3e be 99 67 7a 3b 54 a0 81 3d 39 50 20 be
       -0.18572824 0.0038208722 0.06329408 -0.15655603
0002b0 61 d5 0b 3e 1e d0 2e 3e b3 eb ef 3d 72 7b 1e 3e
       0.13655616 0.17071578 0.11714878 0.15476778
0002c0 c7 1d 40 be ec af e3 bd 37 fa 34 3e 7d eb bb 3d
       -0.18761359 -0.11117539 0.17673574 0.09175775
0002d0 26 6d 25 be 70 32 7d bd 9c 53 8d bd d0 9b 11 bd
       -0.16154918 -0.06181568 -0.06900713 -0.035548985
0002e0 b6 60 dd bd 1f 63 ce 3d 4f c3 13 3e c6 51 01 be
       -0.10809462 0.100774996 0.14429973 -0.1262885
0002f0 95 f4 39 3e 81 00 cd 3d 79 ad ad bd d2 10 0a 3e
       0.18159707 0.10009862 -0.08480353 0.13482979
000300 95 db c9 bd 0c ee 41 3d 95 35 0a 3d c4 4d 5c 3c
       -0.09856335 0.04734616 0.033742506 0.013446275
000310 98 1a 88 3d 9d d8 1f be 6e f8 e9 ba 46 05 2f 3e
       0.06645697 -0.15609975 -0.0017850527 0.17091855
000320 f5 74 23 3d e4 12 ec bd f5 a6 09 bd cc c2 08 3d
       0.03990646 -0.115270406 -0.03360649 0.033388898
000330 2a e6 4a bd 44 0c 1e 3d 2d 44 54 3d 76 52 37 3c
       -0.049535908 0.038585916 0.05182283 0.011189094
000340 49 35 af 3c 0d 02 4b 3e 53 80 6b bc c4 2f 26 3d
       0.021387713 0.19825001 -0.014373857 0.040572897
000350 61 d5 27 be 26 fb eb bb e9 91 10 be 58 07 7a 3d
       -0.16389991 -0.00720157 -0.1411816 0.06104216
000360 42 fb da 3d 5d c0 91 3d 68 4e 16 3e c3 76 00 be
       0.10692455 0.071167685 0.14678347 -0.12545304
000370 81 47 c5 3a 6f 93 05 3d ff 8a 75 3d 8c f6 27 3e
       0.0015051217 0.032611307 0.05994701 0.16402644
000380 2a e6 1a 3e c0 7d e0 bb 1e 24 54 3d de 02 17 bc
       0.15126863 -0.006850928 0.051792257 -0.009216992
000390 ea 50 04 bd 05 9c 2c 3d f5 f9 70 bd 75 db b1 3d
       -0.03230373 0.04214098 -0.058832128 0.08684436
0003a0 0b 47 50 bd 70 e9 1a 3d 58 9a 98 3d fd a7 3c 3e
       -0.050849 0.03782028 0.07451314 0.18423457
0003b0 56 cc 3c 3d df f7 f5 3d 45 bf 2f 3d dd 92 ec 3d
       0.046093307 0.12010168 0.04290702 0.115514494
0003c0 63 73 d8 3d c3 b6 0b 3e ac 09 c8 3c 24 97 aa bd
       0.10568883 0.13643937 0.024418674 -0.08329609
0003d0 2f 54 12 3d 33 6b 91 3d 47 3a 97 bd a8 b2 20 bd
       0.035724815 0.07100525 -0.073841624 -0.03923288
0003e0 1f 64 04 bd 02 38 d3 bd 65 0c ce 3b 95 bd e8 bd
       -0.032322045 -0.10313417 0.0062880986 -0.11364285
0003f0 b5 46 81 3c 76 3e 35 3c ed 16 5c 3e 40 e9 80 bd
       0.015780786 0.011062255 0.2149312 -0.06294489

lstm.weight_hh_l0 f4 [256, 64]
000000 24 61 88 bc 4e c5 af bd 46 81 a7 3d 77 b4 00 3e
       -0.016647883 -0.08582555 0.08178954 0.12568842
000010 94 d4 94 3c fd 0c 2a bc 98 96 34 3d 17 1e c4 3d
       0.018167771 -0.010379073 0.04408893 0.09576052
000020 cb 60 82 3c 3e 78 f5 bd 77 12 0e 3d 14 0a f1 bd
       0.015915295 -0.11985825 0.03468558 -0.117695004
000030 e2 29 ff bc 06 c4 e4 3d 19 e1 78 3d c1 1a 93 3d
       -0.031147901 0.11170201 0.060761545 0.07182837
000040 7d 10 81 bd 51 de c2 3d 9f f2 a4 3d cf 85 06 3b
       -0.06301973 0.0951506 0.08054089 0.0020526533
000050 00 3e aa bd 88 8e 18 3c 82 99 a8 3d ec 6c 21 bc
       -0.08312607 0.009311326 0.08232404 -0.009852629
000060 e3 e9 e2 bc 60 62 71 bd 77 ba 39 3d ef dc 89 bd
       -0.027699417 -0.05893171 0.045343842 -0.06731593
000070 cf 6f 13 3d 99 54 0e 3e 53 50 5f 3d d8 bd ec 3d
       0.0359953 0.13899459 0.054519963 0.11559647
000080 a3 54 6a bd b1 d8 18 3c 92 ed ae 3d 3e 9d dc bd
       -0.057209622 0.009329007 0.08541407 -0.10772179
000090 5c 13 92 3d c8 a6 ac 3c ed 95 16 bc 41 8b 08 be
       0.07132599 0.021075621 -0.0091910185 -0.13334371
0000a0 47 05 57 bd 9a 66 50 bd ed f4 ac 3d 8b 42 98 bd
       -0.052495267 -0.0508791 0.084451534 -0.07434567
0000b0 28 36 c8 bc 1b 52 1d 3d 93 5b 8d bc 95 88 13 bc
       -0.024439886 0.03840838 -0.01725558 -0.009004732
0000c0 74 30 1e bd 1f 5d 93 3d 7e 64 97 3d 62 1a e0 bd
       -0.038620427 0.07195496 0.07392214 -0.10942532
0000d0 87 4e 42 3d 45 0a 80 bb e6 e8 d2 bd 25 0b 09 3e
       0.04743817 -0.003907474 -0.10298328 0.13383158
0000e0 0b 8b 18 b9 c3 13 eb bd 76 71 ee bd e0 a5 c5 3d
       -0.00014547647 -0.114783786 -0.11642735 0.09650779
0000f0 ab 40 da bd 18 83 ca bd 16 b7 9c 3d 5d ef a6 3d
       -0.10656866 -0.098882854 0.07652108 0.08151124
000100 c8 1b d5 3d a6 8f b5 bd ab 58 c2 3d 18 14 9d bd
       0.104056895 -0.088652894 0.09489568 -0.07669848
000110 f2 0e 6c 3d 37 aa c0 3c f8 96 2e 3d 1e 53 df 3d
       0.05763144 0.023518665 0.042624444 0.10904525
000120 e5 0e 8e bd 19 35 b1 3d 8d f5 87 bd 39 91 b2 bd
       -0.06936435 0.08652706 -0.06638632 -0.08719105
000130 95 cd 27 3d 1e 06 fb 3d 67 dc f5 3d 3b 54 11 3e
       0.040967543 0.12257026 0.12004929 0.14192288
000140 6d fc 98 bd 0d 49 bb bd d6 37 00 3e ee 18 14 be
       -0.074700214 -0.09144793 0.125213 -0.14462635
000150 46 7e c0 bd ba cc 18 3e 91 b7 dd bd ad 52 b0 bd
       -0.09399085 0.14921847 -0.10826028 -0.08609519
000160 db 77 8a bc cb 74 dc bd cb 1b 14 3e 84 57 58 bd
       -0.016902855 -0.10764464 0.14463727 -0.052817836
000170 91 3e 0c 3d c6 57 42 3d 85 dc 99 bd d5 b0 21 3d
       0.034239355 0.04744699 -0.07512764 0.03947528
000180 18 6d 41 bd 96 3d 4a 3c fb b9 2e 3c 97 d2 86 bd
       -0.04722318 0.012343785 0.010664458 -0.065831356
000190 92 e4 ee 3d c4 e8 d3 bc 9a 77 c7 3c 27 97 a7 3d
       0.1166469 -0.025867827 0.024349023 0.08183127
0001a0 ba 1d 88 bd a6 15 92 3d 24 e6 08 3d 99 e8 a3 3c
       -0.06646295 0.07133035 0.033422604 0.020008372
0001b0 5e 80 89 bd 0c e0 42 bd d6 d5 56 3d 91 d6 18 bd
       -0.06713937 -0.04757695 0.052450024 -0.037314
0001c0 f8 10 d7 3d ce ff 0e 3e 2f c1 c9 3c eb f4 fb bb
       0.105012834 0.13964769 0.02462825 -0.0076891086
0001d0 ec 1e 00 3e c5 8c 17 3e 09 1b e7 3d 34 cb 55 bd
       0.12511796 0.14799793 0.112844534 -0.052195743
0001e0 ef d8 c0 3d 8c a4 6e bc 9b 4b ab 3c 51 01 91 3d
       0.09416377 -0.014565598 0.020910075 0.07080329
0001f0 26 d0 cc 3c ce 98 b1 3c dd 23 ba 3d e5 c1 9e 3c
       0.025001597 0.021679308 0.09088872 0.019379565
000200 1a 83 7c 3c d0 a3 d7 bc 18 89 8e bd 65 56 18 3e
       0.015412116 -0.02632323 -0.06959742 0.14876707
000210 a7 25 59 bd 3d 6a b3 bd 6b c0 ce bd 33 16 19 be
       -0.053014424 -0.08760498 -0.100952946 -0.14949875
000220 83 cd 9f bd e0 78 18 be 7f df 11 be 67 7c a1 bd
       -0.0780287 -0.1488986 -0.14245413 -0.07885056
000230 64 02 91 3b a5 9b be bc ff ee d4 bb 76 c7 d6 3d
       0.004425334 -0.023267576 -0.006498217 0.10487263
000240 67 f8 89 b8 7a 94 64 3d 46 2b 2d bc 80 e5 08 3e
       -6.5789376e-05 0.05580566 -0.010569399 0.13368797
000250 a7 27 26 bb d1 d9 2c 3d e9 0c 9c 3d 22 d9 dc bd
       -0.0025353224 0.042199913 0.0761965 -0.10783602
000260 06 98 b2 bc fa 03 ab bd 5a 4f 04 be c0 70 06 3d
       -0.021801006 -0.08350368 -0.12920895 0.03282237
000270 c1 db ce bd 3e 53 1d bc dd 53 8e bd c4 8e 86 3d
       -0.101005085 -0.009602366 -0.069495894 0.06570199
000280 8a 74 b0 3d d1 c7 d7 3d 5c be 86 3d c8 a9 12 be
       0.08615978 0.10536159 0.06579277 -0.14322579
000290 5b 13 80 bc 43 d8 de bd 15 52 b3 3c f4 ce 4a bd
       -0.01563423 -0.108810924 0.021889726 -0.049513772
0002a0 ff 33 b7 3c 4a 8f 06 3d 13 c9 cc bd c5 86 83 3d
       0.02236366 0.032851495 -0.09999289 0.064221896
0002b0 34 f1 de bd 28 72 da 3d 7b 38 41 bd e2 18 95 bd
       -0.108858496 0.10666305 -0.047173005 -0.07280137
0002c0 f2 cb 12 be 52 75 02 be cd 78 4d bd 9e ae 16 3c
       -0.14335611 -0.12740067 -0.050164033 0.009196905
0002d0 ec 2e 7e 3d 07 18 0e bd d0 da 09 be 39 81 f4 3d
       0.062056467 -0.034690883 -0.13462377 0.1193871
0002e0 99 d4 11 be 81 77 9e 3b 02 f2 00 3e eb 92 0b 3e
       -0.14241256 0.0048360233 0.12592319 0.13630264
0002f0 d4 b3 89 3b 07 cb 7e bd b1 9a 1d be a1 b7 9a bd
       0.0042023454 -0.06220534 -0.15391041 -0.07554556
000300 57 c5 9e 3d 9d 18 86 bd 8d 36 c5 bd a0 dc 6d 3c
       0.07752483 -0.06547663 -0.09629545 0.014517933
000310 3b 98 05 be 31 59 b9 bc d2 f0 a6 bc c1 c6 d0 bc
       -0.13046353 -0.022625538 -0.020378504 -0.025485398
000320 fb fa de bc 53 e1 f7 bd ce fd 23 be da 65 50 bd
       -0.027219286 -0.12103524 -0.16014788 -0.050878383
000330 61 9c 8a 3d 1c 95 91 bc 60 6a 8a bd 44 35 35 bc
       0.06768108 -0.017771296 -0.06758571 -0.011060063
000340 22 4a 8d bb 10 94 95 bd 18 73 b5 3c c0 5b a6 bc
       -0.004311816 -0.07303631 0.022149608 -0.020307422
000350 5a c7 b9 3c 4d 4d 88 3d 17 7e c9 3d 76 b6 a5 bd
       0.022678066 0.06655369 0.09838503 -0.08091442
000360 46 8a 86 bc 72 1b 15 bc 60 ba 6f 3c a6 5b f8 3d
       -0.016423356 -0.009100782 0.014631838 0.121268556
000370 9b 34 b4 bb 0f cb 6e bd 55 aa b2 3b 05 fe 44 3d
       -0.005499435 -0.05829912 0.005452434 0.048093814
000380 89 01 0a 3e 98 c7 38 bd 5d d8 03 3e b4 4f b5 bd
       0.13477148 -0.045112222 0.12875505 -0.08853093
000390 c1 d8 d5 3d 23 28 1a be 10 c4 c6 3a 12 fd 76 bc
       0.10441733 -0.15054373 0.0015164632 -0.015074985
0003a0 e1 06 fd 3d 39 2e a0 bd 4a d0 81 bc df 24 a7 3d
       0.12354828 -0.07821316 -0.01584639 0.081613295
0003b0 12 2e e5 3d 40 9c a1 bd b0 b0 bd bd a1 ae cb 3d
       0.11190428 -0.078911304 -0.09262216 0.09945417
0003c0 27 f0 ac bd fd 13 a6 bc 59 50 ab 3d 82 07 6a bd
       -0.08444243 -0.020273203 0.083649345 -0.057136066
0003d0 ae 11 92 bd db 12 d3 bd be cf 1c bd 21 9c f0 bd
       -0.071322784 -0.10306331 -0.038284056 -0.11748529
0003e0 17 63 fa bc fe 52 b8 bd f0 93 cd bb a9 62 70 bd
       -0.030564828 -0.090002045 -0.006273739 -0.05868784
0003f0 5c 92 fd 3a b7 7c bb 3d 88 4f a6 bd d7 b7 90 3d
       0.0019345987 0.09154647 -0.08120638 0.07066315

lstm.bias_ih_l0 f4 [256]
000000 ad 6f 22 3d f0 0c b8 bc 90 01 c1 3c 33 5e 6f 3d
       0.039657284 -0.022467107 0.023560315 0.058439445
000010 0c 2a ef bb 56 1d f5 3d 28 41 05 3d c9 bf e0 3d
       -0.0072987135 0.11968486 0.03253284 0.1097408
000020 74 ab 6c 3c 09 9c 08 3e e7 b5 81 3c 85 f2 80 bd
       0.0144451745 0.13340773 0.015833808 -0.06296257
000030 4f db 92 bd 7c 4c 6d 3d da c4 71 bd e8 7e d2 3c
       -0.07170736 0.05793427 -0.059025623 0.02569528
000040 50 7d d1 3d 7e 47 f9 3d d8 14 a0 3c 27 97 5a bd
       0.102289796 0.12171839 0.01954119 -0.053366806
000050 9c e0 61 3e 7c d3 4d bd 3a 2e 59 3b a1 b7 1e 3e
       0.22058338 -0.050250515 0.0033139125 0.15499736
000060 b0 8d 96 bd 54 20 65 bd 3c 60 fe 3c 9f 03 72 3d
       -0.073512435 -0.055939034 0.031051748 0.059085485
000070 d0 00 d7 3d a7 75 33 3e ce 01 3b 3e a1 31 2a 3c
       0.10498202 0.1752535 0.18262407 0.010387809
000080 a9 6e bb bd b3 eb a9 3d 64 66 04 3e 3f 28 db 3b
       -0.09151966 0.08296909 0.12929684 0.0066881473
000090 3e 80 99 3c 50 a2 bc 3c 44 55 9b 3d 4d 7d fd 3d
       0.018737908 0.023026615 0.075846225 0.12377415
0000a0 0c 50 10 3e 2a f8 d6 bd 1b 62 ec 3c 24 59 6f bd
       0.14093035 -0.10496552 0.028855374 -0.05843462
0000b0 10 1e 52 3d 46 c4 1d bb e6 8a 47 3d ed bc e8 3d
       0.0512982 -0.0024073287 0.04871645 0.1136416
0000c0 0f d7 1c bd 24 cd 6b bd 29 c0 02 3e 45 b2 a8 3c
       -0.038291033 -0.057568684 0.12768616 0.020592818
0000d0 25 43 90 3d f8 61 3f 3d 0c 79 17 3d 83 16 1a 3d
       0.07044057 0.04672429 0.036980674 0.037619125
0000e0 5d b5 9c bd 2e 14 e9 3d d6 61 ac ba 86 f7 83 3d
       -0.0765178 0.11380802 -0.0013151716 0.06443696
0000f0 79 d7 d3 3c 55 33 2f bb 2e 2a a3 3d 1d 9e 88 3c
       0.025859581 -0.0026733477 0.079670295 0.016676957
000100 61 bd f9 3d a1 09 92 bd 3f 48 cd 3d 18 87 83 3d
       0.12194324 -0.07130743 0.100235455 0.064222515
000110 e1 b5 cb 3d 94 6e ed 3d d3 99 cd 3c 8a 7a 9e 3c
       0.099468 0.11593357 0.025097763 0.01934554
000120 10 c4 de 3c c2 11 a4 3d c2 18 90 3d f8 2e d8 3d
       0.0271931 0.080111995 0.07035972 0.105558336
000130 42 76 8d bd f4 3f ee 3c 0d aa fa 3d 0f ce ab bd
       -0.069073215 0.02908323 0.12239466 -0.08388912
000140 5a 7b c2 bd c2 cc d6 bd 36 14 98 3d 34 78 b2 3d
       -0.09496184 -0.10488273 0.0742573 0.08714333
000150 0e 76 ca bd a6 89 b7 3d 8c 12 df bd 7f e5 ca 3d
       -0.098857984 0.08961801 -0.108922094 0.09907054
000160 24 3c d9 3d 26 3b 9f bd ad 7c 6f bd 8e 59 65 bc
       0.10607174 -0.077749535 -0.05846851 -0.013998402
000170 3c 92 14 3d cc 7d ee bc 14 2d be bd 52 69 ec bd
       0.036272272 -0.029112719 -0.09285942 -0.11543526
000180 69 ac b7 3d fc 8c 26 bb 9e d5 e9 3d 44 97 b2 3d
       0.089684315 -0.0025413623 0.11417697 0.08720258
000190 76 fe 76 3d 70 3a 49 3b 34 9a 45 bd 24 0d 98 3d
       0.060301267 0.0030704997 -0.048242763 0.074243814
0001a0 ba b5 e5 bd ba 94 ba bd a1 27 f9 b9 9c b4 8e bd
       -0.11216302 -0.091103986 -0.00047522507 -0.06968042
0001b0 8f 02 09 3d 4b 54 12 3c 52 6d f1 bd 4f 9f 03 3e
       0.033449706 0.00893123 -0.11788429 0.1285374
0001c0 62 86 ab bd 8c 04 b5 bb e3 11 6d bd a4 ae 25 bc
       -0.08375241 -0.0055242237 -0.057878386 -0.010112438
0001d0 73 b8 1b 3d bb 86 05 3c c4 a6 18 bd 37 35 ab bd
       0.0380177 0.008149798 -0.037268415 -0.08359759
0001e0 6a f0 a0 bd 2d 45 3e 3d 2f 22 06 bd 19 e3 89 bd
       -0.07858355 0.04645269 -0.032747444 -0.067327686
0001f0 80 12 db bd 24 94 48 bd 3a 5d 38 3d 05 6f 91 bc
       -0.10696888 -0.048969403 0.045010783 -0.017753134
000200 80 85 85 bd 27 f7 80 3b 7f a1 b6 3d 17 32 a9 3d
       -0.06519604 0.003935713 0.08917522 0.08261507
000210 8d f5 16 bc 71 f7 ea bb a2 0d ae bd 7e e8 38 3d
       -0.009213817 -0.0071706106 -0.08498694 0.045143597
000220 da 0e 23 3d 96 12 f6 3c 7c 2e a1 bd 5b e9 bd 3d
       0.039809085 0.03003816 -0.07870194 0.09273025
000230 e8 4a f2 3c 9f db c3 bc b0 81 9c 3d f8 42 9f 3c
       0.029576734 -0.023908434 0.076419234 0.019441113
000240 f0 8c b5 3d c8 4c fb bd bd 12 51 bd 27 b2 90 3d
       0.08864772 -0.12270504 -0.05104326 0.0706523
000250 cf e1 71 3d 8a 2e 8b bd 91 b3 c5 3d a4 05 10 bd
       0.05905324 -0.06795986 0.0965339 -0.03516163
000260 cc b0 38 bd 78 50 46 bd 32 56 9c bc 25 f8 c1 bc
       -0.04509048 -0.048416585 -0.01908407 -0.023677895
000270 6a 85 13 3d bd 95 60 3c 7d 45 80 bd 35 18 ac bd
       0.036015905 0.013707575 -0.06263254 -0.084030546
000280 a2 d9 34 bd 93 59 5d 3c 54 36 83 3d f6 60 f5 3d
       -0.044152863 0.013510126 0.06406847 0.119813845
000290 ef 85 73 3d 9d db 15 3d cc e7 a3 3d b3 4e e6 3d
       0.0594539 0.036586393 0.08003196 0.112454794
0002a0 31 1a 47 3c 62 14 f0 bd 3f 51 be bd d8 5c 97 bd
       0.012152241 -0.11722638 -0.0929284 -0.073907554
0002b0 f7 2e 99 bc 0b bf c2 3d cf c2 be bc b9 1a 87 3d
       -0.018699152 0.09509095 -0.023286251 0.06596894
0002c0 ba 6a ae bd c8 ad 04 be 92 c4 13 bd cc cd be 3d
       -0.0851645 -0.12956917 -0.036076136 0.093165964
0002d0 f7 07 34 bd b0 7f 2a 3d c6 87 95 bd 4f 50 86 3d
       -0.04395291 0.04162568 -0.07301287 0.065582864
0002e0 2b 0d 20 3c c2 29 cb bd 7a 8d 0d 3d 94 fa d0 bc
       0.0097687645 -0.09920074 0.03455875 -0.02551011
0002f0 b3 d9 1b 3c bb 3f 45 3d 9d fb b3 bd 7e 71 98 bd
       0.009512353 0.04815648 -0.08788226 -0.07443522
000300 43 b9 04 bd 71 bd 0f 3d e1 3a 81 3c 50 ec a5 3d
       -0.03240324 0.035092775 0.015775146 0.08101714
000310 60 57 04 3d 22 08 0d 3e 6d d9 e6 bc c4 b9 f1 3d
       0.03230989 0.13772634 -0.028179849 0.1180301
000320 3b ec 9a 3d c6 7b 98 bd ff b0 1f 3d fa 1b 5b bd
       0.07564589 -0.07445483 0.038987156 -0.053493477
000330 24 a6 00 bd 69 a3 de bc ca 2b 57 bd 53 37 1c 3c
       -0.031408444 -0.02717753 -0.052531995 0.009534675
000340 1e ea 11 3d 06 76 62 3c cb bd 53 3b 6a b1 6b 3b
       0.035623662 0.013822084 0.003230917 0.0035963901
000350 10 f5 fd 3d 6d 4e 13 bd 53 56 3e 3d 1e b6 07 3e
       0.124002576 -0.035963465 0.046469044 0.13253066
000360 f2 62 2a 3d 2e 39 07 3e 47 be 97 3c b5 de 0c 3e
       0.041598268 0.13205406 0.018523348 0.13756831
000370 7a 15 09 3e c4 eb 55 bb de 20 ce 3d 9e f6 c3 3c
       0.13387099 -0.0032641748 0.10064863 0.023921307
000380 4f 63 2d bd e1 d5 2c bd 36 4b ea 3d a9 73 b3 bd
       -0.042331036 -0.04219616 0.114401266 -0.08762295
000390 db 2b c0 3d d0 53 08 3d 62 1f bb 3d 12 0d 63 3c
       0.09383365 0.033283055 0.09136845 0.013858097
0003a0 ca ad 0f 3d 3d ea a1 bb c9 91 0e 3e f3 f6 bf 3d
       0.035077848 -0.0049412535 0.139228 0.09373274
0003b0 45 58 5c 3d c0 f1 a6 3d f5 b0 15 3e 7c a3 8a bd
       0.053795118 0.08151579 0.14618285 -0.067694634
0003c0 6c 27 93 bc fe 73 23 bd e4 6a 1c bd 40 24 a9 bd
       -0.017963134 -0.03990554 -0.038187876 -0.08258867
0003d0 20 ce 4c bd 73 ab 53 bd d6 13 98 3d e9 cd 31 3d
       -0.050001264 -0.05167718 0.074256584 0.04340926
0003e0 fd 30 a8 3c 2a 03 d2 ba 80 da c3 3d 21 2d e3 3d
       0.020531172 -0.0016022671 0.0956316 0.11092592
0003f0 6d 4c b9 3c 8b ff 87 3c f6 1d c4 3c ab e9 f1 3b
       0.02261945 0.016601345 0.023940068 0.0073825917

lstm.bias_hh_l0 f4 [256]
000000 33 15 a2 bd 5b 67 a3 3d 89 b9 f7 3a c7 a4 d4 3d
       -0.079142 0.07978698 0.0018899898 0.10382991
000010 70 85 1d 3b 34 ae 12 3e a6 28 b4 3d 91 b8 52 bd
       0.0024035834 0.14324266 0.087968156 -0.051445547
000020 01 1b 46 3d 95 27 c4 3d 12 ea c9 bd b7 f0 14 3e
       0.048365597 0.09577862 -0.098590985 0.1454495
000030 ed f3 e0 3d 1c f6 2c 3e 13 18 f0 3d 8f cf c9 3d
       0.10984025 0.16890758 0.11723342 0.09854042
000040 36 dd e6 bd 94 88 fe bc fe fe 32 3e 37 25 e8 3c
       -0.112726614 -0.031070985 0.17480084 0.028338058
000050 da c6 28 3e aa 01 09 3d c7 40 92 3c b2 89 0a 3e
       0.16482106 0.033448853 0.017853154 0.13529089
000060 72 83 fe 3d 4a 6f 9b 3d 8a 29 cd bc 11 59 10 3e
       0.12427415 0.07589586 -0.025044221 0.14096476
000070 c1 34 06 3e 16 6f 98 3d 7d 1d 11 3e 0a bd db 3d
       0.13106062 0.07443063 0.14171405 0.10729416
000080 f5 63 5e 3d 62 dc 23 3e fc 84 b8 3b ae 19 74 bd
       0.054294545 0.16002038 0.0056310873 -0.059594803
000090 d8 46 5d bd 21 89 44 bd f7 06 3a 3e c6 71 76 3d
       -0.05402264 -0.04798234 0.1816672 0.060167097
0000a0 c5 6e 01 3e da 60 a9 3c 3d b2 d9 3d ca aa 1c 3c
       0.12639911 0.020676065 0.106296994 0.009562204
0000b0 d5 d5 91 3d 0d da 6d 3d 71 48 53 bd 1c 37 ff bc
       0.07120863 0.058069278 -0.051582757 -0.031154208
0000c0 8f 75 2e 3e a7 14 27 bc d2 63 bc 3d ce b3 f5 bd
       0.17037033 -0.010197795 0.09198727 -0.11997186
0000d0 06 8c d6 bc db b3 a3 3d 6a 31 82 bd 38 77 f9 3d
       -0.026189815 0.07993289 -0.06357081 0.12180942
0000e0 41 57 16 3e 36 4e 18 3e b0 e0 82 3d d5 ef a4 3d
       0.14681722 0.14873585 0.06390512 0.08053557
0000f0 d5 05 f4 bc 1c be 44 bd fe f1 a1 39 4e 86 ca bc
       -0.029787937 -0.048032865 0.0003088861 -0.024722245
000100 7a b1 e3 3d ba ec 7e bd a1 a5 a2 3d 53 72 61 bd
       0.11117835 -0.06223748 0.079417475 -0.05504067
000110 e9 43 80 3c 9c 57 45 3c c3 10 05 3b ac 43 52 bd
       0.015657382 0.0120448135 0.002030418 -0.05133407
000120 79 bc ae 3d e1 b4 08 3d 1e 91 fc bd bb a3 29 3c
       0.08532042 0.033375625 -0.123323664 0.010353978
000130 bc 42 28 3d 91 a8 b5 3d ca 76 fb 3d 29 82 11 bd
       0.041079268 0.08870042 0.122785166 -0.03552452
000140 74 d5 8c 3d 22 74 16 bc 3f a7 87 3d ea 2e 46 bd
       0.068766505 -0.009182962 0.066236965 -0.048384584
000150 fd b5 9c bd 33 b9 54 3d 52 bb b8 bb 8c ef 18 3d
       -0.07651899 0.051934432 -0.0056375647 0.037337825
000160 ad 50 a5 3c da 18 62 bc 47 c9 7c 3d a0 38 a6 3d
       0.02018007 -0.01379987 0.06171539 0.08116269
000170 b1 8a 6a 3d ca 5b 9b bd 4c f8 ce bc 0d fe 86 bd
       0.057261173 -0.07585867 -0.025264882 -0.06591425
000180 a5 e7 c8 bd d7 09 38 bd c6 c6 b5 bd ae ce f7 bd
       -0.09809808 -0.04493126 -0.08875804 -0.12099968
000190 61 7a 59 bc ab d3 00 bd ec 19 a3 3d f4 81 dd 3d
       -0.013273806 -0.031451862 0.079639286 0.10815802
0001a0 a4 35 ed bd 3a 48 b0 bd 50 f3 b3 bd 97 6e 32 bc
       -0.11582497 -0.08607526 -0.087866426 -0.0108906245
0001b0 91 87 ee 3d 0b 5f 7b bd 36 0b ec 3a 42 29 fe 3d
       0.11646951 -0.061369937 0.0018008712 0.12410213
0001c0 9a 41 fb 3c 4c 8a 1a 3c 6b ab 94 bd e0 c9 c0 3b
       0.03067093 0.009432387 -0.07259258 0.0058834404
0001d0 c8 e5 b1 b9 e7 fa b9 3d 7c 06 8a 3c 74 aa 05 3d
       -0.0003393127 0.09081059 0.016848795 0.03263326
0001e0 9d aa c9 3d 9c 46 99 bd b3 21 f3 3c 42 bb 80 bd
       0.09846995 -0.07484171 0.029679155 -0.062857166
0001f0 a8 5f da bd 06 7c f0 bc 39 3f 3a 3b 48 c7 81 bc
       -0.10662776 -0.029356014 0.0028419031 -0.015842095
000200 dd 59 b4 3d 4d 98 27 bd 46 34 88 bd 33 87 e6 bc
       0.088062026 -0.04091673 -0.06650595 -0.02814064
000210 69 45 8c bd ce f4 f3 b9 0a f0 88 bd 60 52 b0 bd
       -0.068491764 -0.00046530965 -0.06686409 -0.08609462
000220 de 0f 33 3d 43 cb 85 bd 5a fd 99 bd 74 04 8d 3d
       0.043716304 -0.0653291 -0.07519026 0.06885615
000230 8d 36 83 bc 23 a9 7e 3d 57 2a 0d bd 85 4f 5b bd
       -0.016017223 0.06217302 -0.034464207 -0.053542633
000240 1c f2 48 3d 8d e0 8c bc 18 2f e2 bd 43 5d 7b bc
       0.04905902 -0.017196918 -0.11044139 -0.01534206
000250 d0 a3 82 bd eb ae a9 3d eb 5a d5 bd 2b c9 85 bd
       -0.06378901 0.08285316 -0.10417732 -0.0653251
000260 de a4 96 3c a7 80 85 3d 31 c5 c0 bd e0 8a 14 3d
       0.018389162 0.06518679 -0.09412611 0.036265254
000270 aa fa 42 bd 07 04 12 bd 3a 92 06 3d 09 30 5b bd
       -0.047602333 -0.035648372 0.032854296 -0.053512607
000280 ca 06 28 3d c4 65 a7 3c 42 c6 f4 bd 4e c8 ba bd
       0.0410221 0.020434268 -0.11951877 -0.09120236
000290 0e d6 45 3d d6 ca bb bd 5c 7d ab bb c1 e1 63 bd
       0.04829984 -0.09169547 -0.00523345 -0.055635218
0002a0 0f 0d 9e 3d 1d b0 9a bd c5 1a e3 3d b3 80 bd bd
       0.077173345 -0.07553122 0.1108909 -0.09253063
0002b0 97 70 ca bc 89 dd e4 bd 49 4b c8 3c d4 92 d2 ba
       -0.02471189 -0.11175067 0.024449961 -0.0016065487
0002c0 5e 5f 84 3d d1 e2 cb 3d f6 d2 38 3d ee f5 ec bd
       0.06463502 0.09955371 0.045123063 -0.11570345
0002d0 e0 8c 4b bd f3 80 1d bd 9c 58 31 bd a5 e5 9a 3d
       -0.049694896 -0.038453054 -0.043297395 0.075633325
0002e0 01 7d 88 bd 9b b1 0c 3d 1f 6d d9 3b 3a 71 86 3d
       -0.066644676 0.034349065 0.0066353227 0.06564565
0002f0 ab 57 c3 bc 25 21 e3 3b 9f 52 df 3b ac 50 c0 bd
       -0.023845514 0.0069314414 0.006815269 -0.09390387
000300 2a fd 8d bd 8e 37 6c bd f6 17 f0 3d 02 e9 36 3b
       -0.06933053 -0.05767017 0.1172332 0.002790988
000310 e5 9a 6f 3c c4 ef 43 3e 61 ca f0 3d 78 ae bb 3d
       0.014624332 0.19134432 0.11757351 0.09164137
000320 38 d8 33 bd 08 e3 87 bd c5 d2 8e bc ea 2b f6 3d
       -0.043907374 -0.066351 -0.017434487 0.12020095
000330 fb df 15 3d 0f f0 08 3e 34 ff ff 3d 49 6c 9e 39
       0.036590558 0.13372825 0.12499848 0.00030216787
000340 a9 71 c2 bd 3c a2 ba 3d 65 6b 10 3e 84 9d 86 bd
       -0.09494335 0.09112975 0.14103468 -0.065730125
000350 ce 26 b9 3d 2a 99 3a bd 3f d0 15 bc 43 c0 19 3e
       0.090406045 -0.045556225 -0.009143888 0.15014748
000360 8d 8a be bd de 2d 1c 3e 92 57 8f bd ba b7 3e 3e
       -0.0930377 0.15251872 -0.069991246 0.18624774
000370 2f f9 a0 bd c2 b6 54 39 93 68 96 3d a9 57 86 3d
       -0.07860028 0.00020285978 0.07344165 0.065596886
000380 44 69 32 bd d4 23 16 bd 3f e2 1a 3d f0 15 84 3d
       -0.04355742 -0.036655262 0.03781342 0.06449497
000390 39 f5 6b 3c dd 8e 87 3d 4f cb f7 3d b0 4d fb 3d
       0.014401727 0.06619046 0.12099325 0.12270677
0003a0 0c 4b 69 bd e9 b4 5f bc e3 44 56 bd 29 4c 0f bd
       -0.056956336 -0.013653972 -0.05231179 -0.03498474
0003b0 df 8f 12 3e 8f ac 19 bd dd 2c 61 bc fa c5 48 bd
       0.14312695 -0.03751808 -0.013743606 -0.04901693
0003c0 a7 01 c6 3c 86 ab f6 bc 96 91 1f 3d b4 41 b2 3d
       0.02417071 -0.030111086 0.0389572 0.08703938
0003d0 b3 9e 94 3d ed 99 aa bb a7 c7 0b be ec fc e1 bd
       0.07256832 -0.0052063377 -0.1365038 -0.11034569
0003e0 8a 55 13 3e 14 83 0b 3c 9d 3b e0 3d fe 52 0e bc
       0.143881 0.008515138 0.1094887 -0.008686779
0003f0 9a 69 34 3e ab b2 7e bd 9c d8 aa 3d 0d d8 71 bd
       0.17618409 -0.06218211 0.08342096 -0.059043933

lstm.weight_ih_l1 f4 [256, 64]
000000 a7 ea d1 3d cc 08 b8 bd b6 8d 5a 3d 0a b4 a0 bd
       0.102498345 -0.08986053 0.053357802 -0.0784684
000010 04 bd 2a bd 3c 81 ef bd d7 7c 1f bd 1c 2f 93 bd
       -0.041684166 -0.116945714 -0.038937416 -0.0718672
000020 9d d1 e5 bc 46 07 6c bd af 2a 77 3c bc b9 75 3d
       -0.028054053 -0.057624124 0.01508586 0.059991583
000030 db 2d b6 bd 10 4b ba 39 12 ef b6 3c 85 ce e8 3d
       -0.08895465 0.0003553261 0.022330794 0.113675155
000040 89 43 8d bd 43 2e 9a 3d c6 a8 d8 3d 8c a0 00 3e
       -0.06897647 0.07528355 0.10579066 0.12561244
000050 2b 64 7f 3d 74 c0 3b bd 9d b1 e7 bd 08 0e b2 3d
       0.062351387 -0.045837834 -0.11313174 0.086940825
000060 3b e9 42 bd 37 f3 9d bd 06 f4 e1 3d 4b d6 da 3d
       -0.047585707 -0.07712405 0.11032872 0.106854044
000070 c3 a5 9a bc 03 3d c7 3d e3 42 5a bd 15 7c 46 3d
       -0.01887787 0.09728434 -0.053286444 0.048458178
000080 10 7c 99 bd 59 ce b7 3d a6 b2 fd 3c c4 37 14 be
       -0.07494366 0.089749046 0.030968975 -0.14474398
000090 b0 7f c9 3c 1a 13 9d bd 4c 20 38 3c 81 32 80 bd
       0.024597019 -0.07669659 0.011238169 -0.06259633
0000a0 4e 5e 2b 3d 01 bc 9c bd f1 ab d5 3c b1 5d 84 bd
       0.041837983 -0.076530464 0.026082965 -0.06463183
0000b0 36 b9 ef 3d 55 9f 3b 3d 04 17 49 bd 2c 4b 0a be
       0.11705248 0.045806248 -0.049094215 -0.13505238
0000c0 67 c6 1c 3d 88 55 a5 bd bf e2 df 3d 66 67 98 3d
       0.03827515 -0.080729544 0.1093192 0.07441597
0000d0 73 cb b4 3d fb 6f 37 3c 92 3c 9c bd 98 c7 f3 3c
       0.08827867 0.011196132 -0.0762874 0.02975826
0000e0 5e d7 1f bc 21 b1 4e 3d 5f a3 96 3b 78 11 58 3d
       -0.009755937 0.050461892 0.004597112 0.052751034
0000f0 d4 50 80 3b 06 81 11 3e 7b 20 b9 bc 3f 0c 89 bc
       0.0039158855 0.14209375 -0.022598496 -0.016729472
000100 3f e9 60 bd a1 4b b7 3d bc e7 5a bd 8c 5a b8 bd
       -0.05490994 0.08949972 -0.053443655 -0.090016454
000110 59 10 b1 bd c8 bd 81 bd a8 a4 8e bd 34 6d d6 bd
       -0.08645696 -0.06335026 -0.069649994 -0.104700476
000120 1f 45 89 3d 6e 7d 43 bd 22 e0 2b 3c 4d 70 d5 3b
       0.06702637 -0.04772704 0.010490449 0.0065136314
000130 88 d5 10 3e 46 f1 8b bd 22 75 6a 3d ea 5c f3 3c
       0.14143956 -0.06833129 0.057240613 0.02970739
000140 ec e7 31 bd 5b aa 19 bd fd 5f 9b 3d 91 8a 68 bd
       -0.04343407 -0.03751598 0.07586668 -0.056772772
000150 7e 71 ef bd 2b 21 56 3d 2c 5b 83 bd c7 3f 98 3d
       -0.11691569 0.052277725 -0.06413874 0.074340396
000160 c6 12 fb bd d4 b8 80 bb c3 13 6e 3d 70 4c 04 3d
       -0.1225944 -0.003928283 0.058124315 0.03229946
000170 f5 d1 66 bd cc 60 ba 3d b0 02 76 bd 01 a2 81 bc
       -0.056352574 0.09100494 -0.060061157 -0.01582432
000180 46 5e 2a 3e 4a 6c 85 bc 32 f3 cd 3d 7b c0 bc bc
       0.16637525 -0.016286988 0.100561514 -0.023041
000190 47 04 43 3d 41 a4 ea bd c9 15 9f 3c a0 b4 9b 3d
       0.0476115 -0.1145711 0.019419568 0.07602811
0001a0 93 d9 bf 3d 8c 5d 49 3d 78 bf 0e 3e 0c da eb bc
       0.09367671 0.04916148 0.13940227 -0.028790496
0001b0 5a c6 0b 3e 0d 00 0f 3d eb 5c b3 3d a1 6e 9a 3d
       0.13649884 0.034912158 0.08757957 0.07540632
0001c0 56 92 e4 bd da 32 27 bd 18 d0 2f bd 9f 71 c3 3d
       -0.11160724 -0.04081998 -0.042923063 0.09543156
0001d0 dc d2 7e bd 9e f2 9e bd 4c b5 1d be c8 7e 11 3d
       -0.06221281 -0.07761119 -0.1540119 0.0355213
0001e0 6f 62 c7 bd a5 d1 8d 3c 70 29 f0 3d 01 33 f8 bd
       -0.097355716 0.01731188 0.117266536 -0.12119103
0001f0 ee e6 5e bd 36 d1 99 bc 09 a5 f9 bc fb b4 e5 3d
       -0.05441945 -0.018776517 -0.030474203 0.1121616
000200 3d 94 19 3c db 1e 14 bc 13 31 15 3e fe 74 ea bd
       0.009373722 -0.00904056 0.14569502 -0.11448096
000210 9b 4d 9f bd 2a 2c 36 bd 7c 1a d6 3d 27 61 d0 b9
       -0.07778474 -0.044475712 0.1045427 -0.00039745236
000220 70 72 52 bc df 6e f1 3d 71 0b 26 bd 19 8a a1 bd
       -0.012844667 0.11788725 -0.040538255 -0.07887668
000230 ee 80 99 3b 55 be 2e be 55 b0 19 be 36 bd 9b bd
       0.004684559 -0.17064793 -0.15008672 -0.076044485
000240 f5 52 f5 3d 09 a3 16 3d 51 4d a6 bd af ab d2 3c
       0.119787134 0.036776576 -0.08120216 0.02571663
000250 4c c8 86 bc 8e bf 74 bd be cf 9d 3d 9b 49 2c 3e
       -0.01645293 -0.059752993 0.07705639 0.16824953
000260 0c 8e 12 bd 09 71 b6 3d 35 cc 0a be 4f 41 b6 bd
       -0.035779998 0.089082785 -0.13554461 -0.088991754
000270 87 ac c1 3d 6c 66 16 3d 4f ec 9a bd 43 c5 bc 3d
       0.09456735 0.03671877 -0.075646035 0.09217312
000280 9c 7b 40 bd 7e 1a de 3d b1 25 79 3c 9d 85 da 3c
       -0.046992883 0.10844897 0.01520674 0.02667504
000290 b7 db 4e bc 57 97 cc 3d 32 28 0e be c7 0b 9a 3a
       -0.012625626 0.09989803 -0.13882521 0.0011752778
0002a0 41 d9 ab 3d 91 27 07 be d3 12 58 bc 75 68 a0 3d
       0.08391047 -0.13198687 -0.013188082 0.078324236
0002b0 75 71 8b bc 4e c4 91 3d 49 13 22 3d bf 13 76 bd
       -0.017021874 0.0711752 0.039569173 -0.060077425
0002c0 ba 79 bc bd da ea 09 bd 47 81 ed 3d e8 71 8f bd
       -0.09202905 -0.033671238 0.11596923 -0.07004148
0002d0 a6 8b aa 3d 53 b0 ae 3d 8f d3 ad 3d 09 20 da 3d
       0.08327417 0.08529725 0.08487617 0.106506415
0002e0 32 2c b5 bd 36 b4 e9 bc d1 5b c9 3d bd ef e8 3c
       -0.0884632 -0.028528314 0.09831966 0.028434629
0002f0 c3 29 c4 bd f0 bd 8e 3d 9d e2 8e bd 8f be e0 3c
       -0.09578278 0.069698215 -0.06976817 0.027434615
000300 45 46 4d 3d 28 d7 03 3b a5 fe b6 bd 39 fe a0 3d
       0.050115842 0.0020117257 -0.08935288 0.07860989
000310 fc b8 90 bb e0 43 e1 bd 50 95 f9 bd 7b c7 f8 bc
       -0.004416583 -0.10999274 -0.12186682 -0.030368557
000320 5a bd 86 bd 85 fe d5 3d 13 ac 00 be 0e 5a 27 bc
       -0.06579085 0.104489364 -0.12565641 -0.010214342
000330 65 b7 ac 3d 48 bb 0c 3d 1a 22 f1 bd 01 fe 74 3d
       0.08433417 0.034358293 -0.117740825 0.05981255
000340 24 c7 11 3e 3e 0d d9 bc e0 82 bd bd ea a8 98 bc
       0.14236122 -0.026495572 -0.09253478 -0.018635232
000350 9b 9f 38 bd 40 e8 44 3c b3 e0 03 bd 63 1c dd 3c
       -0.045074087 0.012018263 -0.03219671 0.026991075
000360 ba f5 4e 3d 2c c3 98 bd 6a e8 97 bd 16 0a 8e 3c
       0.05052731 -0.07459101 -0.07417376 0.017338794
000370 d4 ff 71 bd ea 21 dc 3d 17 f1 c1 3c 27 37 a8 bd
       -0.059081867 0.10748656 0.02367453 -0.082136445
000380 cc c5 1d 3e 77 e0 d2 bd 87 ec aa bd 22 34 63 bd
       0.15407485 -0.102967195 -0.08345895 -0.05546964
000390 1c dd 8d 3c e8 1c e0 bd 63 35 ee bb 85 8e 01 bc
       0.017317347 -0.109430134 -0.007269548 -0.007907514
0003a0 5e ce 39 bc 40 45 c5 bd 2b 97 ed bd 32 d1 9f 3c
       -0.011340706 -0.09632349 -0.116010986 0.019508932
0003b0 f6 67 51 3d 58 6c f5 3b 6a 5f 06 3d 36 d5 11 3d
       0.051124536 0.007489722 0.032805838 0.035603724
0003c0 f7 59 55 bd 3b c2 8e 3d 79 fe 05 3e 95 17 f9 bd
       -0.05208775 0.0697064 0.13085355 -0.12162701
0003d0 4c d5 c7 bd 27 20 8c bd e0 57 f6 bd 01 8e 4c 3d
       -0.0975748 -0.0684207 -0.120284796 0.049940113
0003e0 d4 52 e6 bd 82 1c e7 3d 38 7d 07 3e 2d 7c c6 3c
       -0.11246267 0.11284734 0.13231361 0.024229134
0003f0 eb 22 c7 3d b9 06 d4 bc 71 eb e1 bd ea 47 02 be
       0.09723457 -0.025882112 -0.11031235 -0.12722746

lstm.weight_hh_l1 f4 [256, 64]
000000 2d 04 26 bd c7 3a 00 3e bf 3e 23 3e 03 ff e8 b8
       -0.040531326 0.12522422 0.15941904 -0.00011110122
000010 56 10 b6 bd 50 d3 81 bd 51 11 40 bd 70 e6 97 3b
       -0.088898346 -0.06339133 -0.046891514 0.0046356246
000020 0e ce ca 3c 5c 08 7d bd dc 63 82 bc 3b 92 9f 3c
       0.024756458 -0.06177555 -0.015916757 0.019478908
000030 19 a6 d9 bd 66 47 bd 3d 1e a9 62 3d bc bb a4 bc
       -0.10627384 0.09242134 0.055337064 -0.02010905
000040 2a 2c b3 3d f6 ca ac 3d eb b9 d5 3d 58 7d 9e 3d
       0.08748658 0.08437149 0.10435852 0.07738751
000050 83 17 f8 3d 1e 93 25 be b7 43 93 bd 41 3a d9 3c
       0.121138595 -0.16169402 -0.0719065 0.026517035
000060 09 2b 8f 3c 82 42 21 bc f9 b4 5d bc 5b 60 ff 3c
       0.017476575 -0.009842517 -0.013531917 0.031173876
000070 9e d9 3f 3d 5e d2 15 3e 05 28 e1 3c 5d af 25 3d
       0.046838395 0.1463103 0.027484903 0.040450443
000080 ea 71 a6 bd 31 04 b4 bb 1c f6 be bb 1a b0 d0 bc
       -0.08127196 -0.0054936637 -0.0058276784 -0.025474597
000090 94 85 98 3d 2a ca e6 bc 77 af 75 3d 01 2f b6 bb
       0.07447353 -0.028172571 0.05998179 -0.0055598025
0000a0 1c 90 dc bd bb ca c0 bd 43 92 ce bc 4a 16 1b 3e
       -0.10769674 -0.09413668 -0.025216227 0.15145221
0000b0 ff e9 ca bc 65 0a de bd 71 5f aa 38 50 7f 98 3d
       -0.024769781 -0.10841826 8.124009e-05 0.07446158
0000c0 16 19 82 bd cf 56 0f bd 95 a9 9a bd 00 37 b6 bd
       -0.06352441 -0.034994897 -0.075518765 -0.08897209
0000d0 91 5d 11 bd 79 6d f2 3d 6e 03 ff bd e3 dc 20 bc
       -0.035489623 0.118372865 -0.12451826 -0.0098182885
0000e0 96 55 bd bc e7 a3 fd 3d c7 5a 3b 3d 61 6e f1 bd
       -0.0231121 0.123847775 0.04574087 -0.11788631
0000f0 81 87 08 bd ac 05 8e 3d d5 35 34 bd 46 6d 9f 3c
       -0.03333235 0.069346756 -0.04399665 0.019461285
000100 72 28 56 bd 88 5f 0e bc 6c 8b 98 bc b6 03 b6 bd
       -0.052284665 -0.008689769 -0.018621169 -0.088874266
000110 1d b5 76 bc 22 8e c9 bc c7 97 c7 bd e9 bb 68 bd
       -0.015057829 -0.024603907 -0.09745746 -0.05681983
000120 99 19 96 3d 57 3a 1d 3e 66 21 e3 3b c2 9f 9a bd
       0.07329101 0.15354286 0.0069314716 -0.07550003
000130 8c e6 b2 3d 22 22 7b 3c 59 64 95 bd 90 84 07 3e
       0.087353796 0.015327962 -0.072945304 0.13234162
000140 6d 55 0d 3e 3a eb c3 3d db 55 6b bd 64 c3 e3 bb
       0.13802119 0.0956635 -0.057454925 -0.0069507826
000150 47 db 42 3d 5a 04 22 bd 19 3f e8 3c a1 63 42 3c
       0.0475724 -0.03955493 0.0283504 0.011864574
000160 1b 9d e5 bc 55 27 02 be 5e fa 01 be 49 e5 0e 3e
       -0.028029015 -0.12710316 -0.12693164 0.13954653
000170 3f 91 cc 3d 53 0e 0b 3d 39 bb 17 be 29 f4 78 bd
       0.09988641 0.033949208 -0.14817514 -0.060779724
000180 b4 61 ab 3d 12 c2 91 3d e2 e9 ef bc 5d 61 01 3d
       0.08368245 0.07117094 -0.029286329 0.031586993
000190 f0 78 6a bd 32 51 00 be ed 65 d5 bd b4 b5 8c 3d
       -0.05724424 -0.12530974 -0.104198314 0.068705946
0001a0 86 4b e5 bd 23 95 28 bd 4a 02 65 3d 2b f8 f7 3d
       -0.111960456 -0.041157853 0.055910386 0.12107881
0001b0 4b c5 10 3d 31 06 e0 b9 2c 54 8a 3c 3d 05 8d bd
       0.035344403 -0.00042729222 0.01688584 -0.06885765
0001c0 6a 0b c5 3d 93 66 af bd 50 e8 45 bd 79 27 96 bc
       0.09621318 -0.08564486 -0.048317254 -0.018329369
0001d0 8b 05 d5 bd d4 85 ec 3d c9 8a 8c 3d 32 69 da 3d
       -0.10401448 0.11548963 0.06862409 0.10664596
0001e0 34 c7 30 bd c0 5f a2 bd 02 ff 32 3d 6d 76 a0 bd
       -0.043158725 -0.07928419 0.043700226 -0.07835088
0001f0 12 0a 9c bd 2a 3c 9b 3c eb 28 8a 3d 1f ce 0f 3e
       -0.07619108 0.018949587 0.06746086 0.14043473
000200 83 05 3c bc 14 4c c5 bd 8e a6 f8 bd 89 71 22 bd
       -0.0114759235 -0.096336514 -0.12141143 -0.039659057
000210 8b 95 a8 3c 12 c0 1b 3d 11 e4 12 3e 3a 38 90 bc
       0.02057912 0.03802497 0.14344813 -0.017604936
000220 cc 38 39 3d cf d7 f0 bc 35 89 3b bd 83 3e 2a 3d
       0.04522018 -0.02939978 -0.045785148 0.041563522
000230 68 8f 98 ba 77 db 29 3e 4e b4 23 3d 2a 69 e2 3c
       -0.0011639418 0.16587625 0.039966874 0.027638037
000240 47 95 ff 3d 7f 5c f7 3d ab 7b b4 bc 01 c6 8d 3d
       0.12479644 0.12078189 -0.022031626 0.06922532
000250 d6 38 df 3d 26 a5 f1 bd ec b2 00 be 02 67 95 bc
       0.108995125 -0.11799078 -0.12568253 -0.018237595
000260 92 0d 86 3d 49 64 73 bd e6 18 52 bb 28 c1 ac 3c
       0.06545557 -0.05942181 -0.0032058298 0.021088198
000270 fa 27 90 3d 1c 27 75 bc 1c b5 f7 bd 20 04 70 3d
       0.07038875 -0.014962938 -0.12095091 0.058597684
000280 51 a3 8c 3d db be e2 bd 22 da a4 3d c1 41 3b bd
       0.06867088 -0.11071559 0.08049418 -0.045717005
000290 07 c1 2d 3d 56 f6 0f bd 14 bd c4 3d 19 b8 b3 bc
       0.042420413 -0.035147034 0.09606376 -0.02193837
0002a0 67 52 34 3c eb 3f b2 3c 89 eb 57 3d 18 be 0b 3d
       0.011005974 0.021758994 0.05271486 0.034116834
0002b0 d8 94 a6 3d ec 4d 9a 3b d7 73 01 bd 60 48 29 be
       0.081338584 0.004708996 -0.031604614 -0.16531515
0002c0 48 f6 a0 3d f0 85 f8 bc f2 ce 82 3c 6b 9b e9 bd
       0.078594744 -0.030337304 0.01596782 -0.11406597
0002d0 cb 03 a9 3d 04 cb 84 bc 79 2e 90 3d 69 e0 1b 3e
       0.082526766 -0.016210087 0.07040114 0.15222324
0002e0 8b b4 c9 3d 33 07 ea 3d f0 50 71 bd cd 5b 82 bd
       0.09848889 0.114271544 -0.05891508 -0.06365166
0002f0 97 60 a8 bd fb 0d 81 3c ca dc 7a bd b2 d7 1b 3e
       -0.08221548 0.015753737 -0.061245717 0.15219
000300 08 5d f9 3b bb f2 33 3d 1f ce a9 bd ec 3d 1f 3d
       0.007609967 0.043932658 -0.082912676 0.038877413
000310 f9 f9 af 3d be 27 20 be 54 59 a6 3d 46 99 5e 3d
       0.085926004 -0.1564016 0.08122507 0.05434539
000320 e3 a4 cc 3d 40 b9 19 3d f4 63 0d bd 45 3d b8 3d
       0.09992387 0.037530184 -0.03451915 0.08996061
000330 c6 4a 4e 3d 01 85 82 bd 43 88 d3 b9 6a e0 aa 3d
       0.05036428 -0.06373025 -0.0004034658 0.08343585
000340 1a 8c 92 bc 24 de ad bd 65 05 d4 bd 34 fc 7a bd
       -0.017889071 -0.084896356 -0.103525914 -0.061275676
000350 fb 31 56 bd 13 ba 9c 3d 06 d4 fb bd 65 3c a3 3d
       -0.05229376 0.07652678 -0.122963 0.07970504
000360 8f 51 cd bd 52 de 99 bc 27 60 bf bc e6 49 b6 3d
       -0.10025322 -0.018782768 -0.023361279 0.08900814
000370 92 91 78 bd 9e b3 d4 3d 49 7d cf bc b6 fb 10 be
       -0.0606857 0.10385822 -0.025328295 -0.1415852
000380 94 f9 8b ba 3e 77 d1 3b 10 4d 99 3d 29 14 c7 bc
       -0.0010679238 0.0063923886 0.07485402 -0.024301605
000390 5e 7d cd bd 5c e4 a6 3c 01 ee bd bd 8d 40 09 3c
       -0.100336775 0.020372562 -0.09273911 0.0083772065
0003a0 b7 b6 d9 ba 8a 2a 65 bd f8 b0 d2 bd 30 4c 85 3d
       -0.0016610239 -0.05594877 -0.1028766 0.06508672
0003b0 d5 c1 cc bd 86 be d8 3d 70 1e f9 3d 40 fd 62 bd
       -0.09997908 0.105832145 0.121640086 -0.0554173
0003c0 e9 3b 61 bc 4b 55 b4 3d d0 47 8e bd 37 73 99 bc
       -0.013747194 0.08805331 -0.06947291 -0.018731697
0003d0 32 12 0a bd 54 c6 ed ba 7f 3b ca bc 7c 39 6b bd
       -0.03370876 -0.0018140771 -0.024686573 -0.05742787
0003e0 f4 8e 36 bd 77 f1 0f 3e b8 46 d8 3d 67 7d a4 3d
       -0.044569924 0.14056955 0.105603635 0.08031731
0003f0 bc 89 72 bc 47 6f e4 bc 88 29 98 3d fc d8 22 3d
       -0.014803346 -0.027885092 0.074297965 0.039757714

lstm.bias_ih_l1 f4 [256]
000000 f9 5c ac bc d4 a2 65 3d 40 f9 11 3e b5 b3 8f 3d
       -0.021040427 0.056063488 0.14255238 0.07016698
000010 f8 d6 64 bd 58 37 0e 3d 1f f6 14 bc 7b ce 77 3d
       -0.055869073 0.03472075 -0.009091883 0.06049965
000020 78 46 9c 3d 8f 26 9f 3d b4 f6 b5 3c c0 8f b2 3d
       0.07630628 0.07771026 0.022212364 0.087188244
000030 c2 79 9b bd 87 3f 25 3d 0b 92 96 3d 9f 32 b2 3d
       -0.07591583 0.040343788 0.07352074 0.087010615
000040 e6 1b 23 3d 92 59 1f 3e fc 85 1d 3e f4 c1 70 bc
       0.039821528 0.15561512 0.15383142 -0.0146946795
000050 fc b8 04 3e e9 54 8c 3d 8c 70 a3 3d ae 3a 65 bd
       0.12961191 0.06852133 0.07980451 -0.055964164
000060 16 ec 97 3d 8b bc c3 bd d3 63 09 bc 90 e5 a1 bd
       0.07418077 -0.09557446 -0.008385616 -0.07905114
000070 9b 6f 9d 3d 89 ce 89 bd 03 05 e3 3d b4 22 82 bd
       0.07687303 -0.067288466 0.1108494 -0.06354275
000080 4d d8 09 3e d1 dc 63 bd 2a 82 f7 3d d6 d3 c5 3d
       0.13461418 -0.05563051 0.12085374 0.09659545
000090 c9 4b db 3c 43 a3 7f 3b a6 8a 0a 3e 2e 32 cf 3d
       0.026769536 0.0039007224 0.13529453 0.10116993
0000a0 67 33 a7 3d cc a2 23 bd e2 c9 15 3e 4f 1c 32 3d
       0.08164101 -0.039950177 0.14627793 0.04348403
0000b0 08 87 e4 3d d2 91 81 3d 78 0c 10 3d a7 71 12 3d
       0.11158568 0.06326641 0.03516814 0.03575292
0000c0 91 46 92 3c ac db 06 3e 95 e5 3a 3d db b1 8c 3c
       0.017855914 0.13169736 0.045629103 0.017174652
0000d0 1f bb 11 3e 86 ee 9a 3b f1 73 03 3e ac 6a fb 3c
       0.14231537 0.0047281412 0.12837197 0.030690514
0000e0 7b ef b7 3d 21 ad 12 3e aa 29 ce b9 dc f5 a7 3c
       0.08981224 0.14323856 -0.00039322424 0.020502977
0000f0 57 74 d0 bb 54 2d 11 3d c6 a8 73 3c d8 3e ab bc
       -0.006361525 0.03544362 0.014871782 -0.02090399
000100 1b 06 23 3d 4c af f3 3d 39 c2 03 bb 01 40 cb 3d
       0.039800745 0.118986696 -0.002010478 0.09924317
000110 b0 b6 f4 3d 37 6e d7 3c c3 f9 d1 bd a2 75 b8 bd
       0.119489074 0.026297672 -0.102527164 -0.09006812
000120 c5 c9 0a 3b 5b 51 a2 bd 3e d8 e4 bd 9e 22 49 bd
       0.0021177393 -0.079256736 -0.111740574 -0.04910528
000130 ac c1 92 bd 1a 0a 2f bd 68 a9 ab 3d 9c 49 48 3d
       -0.07165846 -0.042734243 0.08381921 0.048898324
000140 66 be b3 bd f6 6d 04 3e b1 60 ad 3d 29 da e3 3c
       -0.0877655 0.12932572 0.08465708 0.027813988
000150 06 5c b8 3d 29 14 ba bc e3 ce ab 3d a3 de 9c ba
       0.09001927 -0.022714691 0.0838907 -0.0011968206
000160 55 95 8f bd 32 d5 d7 3d 28 58 d6 3d 30 d4 34 bd
       -0.07010905 0.10538711 0.10466033 -0.04414767
000170 c7 9f 85 3d 37 1b 04 3d 25 01 f8 bc ee eb 63 bc
       0.06524616 0.032252517 -0.030273983 -0.0139112305
000180 8e 04 be 3c 8e d9 41 bd ce 74 f7 bc 60 2a a8 bd
       0.023195531 -0.047326617 -0.030207064 -0.082112074
000190 e8 b8 d2 bd 64 ed ad bd 6c c1 de 3d 86 6d f2 bd
       -0.10289174 -0.08492544 0.10876736 -0.11837296
0001a0 8a 46 d1 3c d5 cb 9f 3d 41 a7 45 3c 16 10 db bd
       0.025546331 0.0780255 0.012063802 -0.106964275
0001b0 91 7a 40 3c c5 84 0b be 59 47 ae 3d d7 22 38 3c
       0.011747972 -0.13624866 0.08509702 0.011238775
0001c0 48 0c 6c 3d 20 3d ad 3d d6 ae d9 bd fd a7 83 bb
       0.0576289 0.08458924 -0.106290504 -0.0040178285
0001d0 f2 64 4d bc 0e 1c 96 bb 70 00 d8 bc 03 ad 3d bd
       -0.012536274 -0.004580981 -0.026367396 -0.046307575
0001e0 41 95 96 bd 97 6e 1a bb 0a 8e 2d 3d cb 52 56 3d
       -0.07352687 -0.0023564452 0.042371787 0.05232505
0001f0 59 de ca ba eb df 1c bd 83 cd 00 3c 68 cc f3 bc
       -0.0015477642 -0.038299482 0.007861498 -0.029760554
000200 4b e1 33 3d 62 02 9e bc c5 59 9f bd 13 e4 94 3d
       0.043916028 -0.019288246 -0.07780794 0.07270064
000210 3b 58 66 3d 66 f6 75 bd e1 18 88 3d f7 23 c1 3d
       0.056236487 -0.060049437 0.0664537 0.09430688
000220 50 74 b9 3d 4a c6 cc bd 7a ea 84 3d 82 b8 c9 bd
       0.09055388 -0.09998758 0.06490035 -0.09849645
000230 9e 92 76 3d 2f 35 80 3d 9a c2 50 3d b1 47 d6 bd
       0.06019842 0.06260144 0.050966837 -0.10462893
000240 8a a0 94 bd 4e f5 41 3d 46 13 c1 bd 48 a4 a3 3c
       -0.07257183 0.04735308 -0.09427504 0.019975796
000250 ca fd 68 3d a3 c9 30 bd f2 75 91 bc 39 9c 52 bd
       0.056882657 -0.043161046 -0.017756436 -0.051418517
000260 4c 05 fb 3c 4a ee b5 bd 40 7d a5 bd 06 55 3f 3d
       0.030642174 -0.08883341 -0.0808053 0.046711944
000270 f6 4f 87 3d fa ce 5c 3d 61 27 a3 bc b4 37 9f bc
       0.06607048 0.053908326 -0.019916238 -0.019435741
000280 14 b6 76 bd 47 49 8b bd de 33 5e 3d 9d e9 42 bc
       -0.060232237 -0.06801086 0.054248683 -0.011896518
000290 48 d5 e8 3b 83 b1 d8 3c 48 7e ae bd 46 c8 d6 3d
       0.007105503 0.026451832 -0.0852018 0.10487418
0002a0 93 f3 3e bc 36 be 2d bd 4d 9c b1 bd e0 bc 2b 3d
       -0.011654752 -0.042417727 -0.0867239 0.041928172
0002b0 1d 09 9e bb f2 c7 01 bd 67 9c 96 bc 62 bb fb bd
       -0.0048228637 -0.031684823 -0.018385125 -0.122916
0002c0 e7 65 a9 3d ae 75 67 3d 76 cf a1 bd ae 7a 02 3d
       0.082713895 0.056508712 -0.07900898 0.031855278
0002d0 f7 96 9d bc b7 a5 ce 3c db e5 be bd ac 79 b8 bb
       -0.019237025 0.025225503 -0.09321185 -0.005629739
0002e0 05 30 19 3d a4 2b 0f 3d a5 2e da 3d 7c e4 3b bd
       0.03739931 0.03495373 0.10653428 -0.045872197
0002f0 e8 cf 2f bd 64 27 6e bd d6 51 de bd 77 de 00 3d
       -0.042922884 -0.058143035 -0.10855453 0.03146216
000300 be ed b7 3d 86 ac 14 3d 97 7e e6 3d 42 f5 e3 3d
       0.089808926 0.036297344 0.11254614 0.111307636
000310 e6 74 c2 3d 04 36 29 bd cb e1 d9 bd 00 65 0d 3e
       0.09494953 -0.04131128 -0.1063877 0.1380806
000320 aa 6c a1 bc 24 17 07 bd f7 03 ec bd ef a1 0c 3e
       -0.019705135 -0.032981053 -0.11524194 0.13733648
000330 80 5f b8 3d 39 4c e4 3c dc 26 83 3d 01 f1 8a bc
       0.0900259 0.027868377 0.06403896 -0.016960623
000340 c4 66 fb 3d 59 ad d2 bc cb 00 ec 3c 89 b5 5e bd
       0.1227546 -0.025717424 0.028808972 -0.054372344
000350 f6 0b 27 3e 29 53 24 3e 29 c4 7e 3d 7d 45 ae bd
       0.16313156 0.16047348 0.06219879 -0.085093476
000360 76 bb 41 3d 97 2b f4 bc 5f 7f 81 3d 25 1e ba 3c
       0.047297917 -0.029805942 0.06323122 0.022719452
000370 80 24 5e bd e3 d8 c3 3d 04 8c a0 3d 27 b0 42 ba
       -0.054234028 0.09562852 0.07839206 -0.00074267614
000380 1b 4b 81 bd ee e8 9d 3b cf 23 9b 3b 8e 90 1e 3d
       -0.06313153 0.004819027 0.0047344933 0.038712077
000390 27 26 ad 3c 8c c4 12 bd 10 5b eb 3d 4e aa 1d 3e
       0.021136357 -0.035831973 0.11491978 0.15396997
0003a0 b1 62 ad 3d 6c 95 0e 3e 9c 04 86 bc 6e 57 95 bd
       0.084660895 0.13924187 -0.01635962 -0.072920665
0003b0 1b 52 1b 3c 17 4c df 3d e2 70 50 ba a8 0a 6d 3d
       0.009480025 0.10903185 -0.0007951391 0.05787149
0003c0 09 ea c1 3d 7f 1c 71 3c 35 92 19 bd 63 15 46 bd
       0.09468467 0.014716267 -0.03749295 -0.04836024
0003d0 ce c8 00 3e af 16 29 3e 1c ee 15 bd d7 d3 b6 3d
       0.12576601 0.1651256 -0.036604032 0.08927124
0003e0 a5 81 b0 3d 9f b9 e5 3d ed 19 b7 bb 13 fd 88 3d
       0.08618478 0.11217045 -0.0055878074 0.06688895
0003f0 6a 62 c2 bd a2 24 99 3d 7f 1b d1 3d d4 44 62 3c
       -0.09491427 0.0747769 0.102103226 0.013810355
