data/models/TSLA/predict_t1/model.pth (torch, 615602 bytes, 27 tensors)

lstm.weight_ih_l0 f4 [256, 1]
000000 b0 9c f7 bd fc 2a a7 bc 52 2f 28 3e c5 32 1e bd
       -0.12090433 -0.020406239 0.16424301 -0.038622636
000010 46 32 a7 bb 42 39 b4 3c 1b 11 48 3b df 97 a9 3c
       -0.0051024286 0.021999959 0.0030527774 0.0207023
000020 97 e3 a6 bd 23 fd f3 3d ae 47 06 be 89 20 a3 3d
       -0.08148878 0.11913516 -0.13113281 0.0796519
000030 f7 df 23 bd 07 9c f1 3d 3a dc 1d 3e a4 77 42 bd
       -0.04000851 0.11797338 0.15416041 -0.04747738
000040 62 18 5f 3d 4c 51 3f be 7c 26 fc bc 71 56 1b 3e
       0.054466613 -0.18683356 -0.03078007 0.15169694
000050 5b 3d 26 3e 60 ea a1 3d 55 51 93 3c 85 89 8b bc
       0.16234343 0.079060316 0.017983118 -0.017033348
000060 63 ab 32 3d 2f ca 25 be ea a9 d9 3c 63 ec d8 3d
       0.04362048 -0.16190408 0.02657028 0.10591962
000070 0b 7f f0 3d 3a 34 7b bd 3c 46 04 3e 79 6b d1 3d
       0.117429815 -0.061329104 0.12917417 0.10225577
000080 dd fa 93 3d 3f 9f 82 3d 91 e1 ba 3c ec ca c1 bd
       0.07225583 0.0637803 0.022812637 -0.094625324
000090 48 b1 98 3c e7 88 bd 3d f4 be 87 bd 40 66 1f 3e
       0.018639222 0.09254628 -0.06628218 0.15566349
0000a0 95 34 17 3d 9d 5f 06 3d f1 ae a0 bc e8 73 9b 3d
       0.03691538 0.032806028 -0.019614669 0.07590467
0000b0 76 0f 46 bc 84 1c 1d 3e fc cc 0e 3e 53 29 a5 3d
       -0.012088647 0.15342909 0.13945383 0.080645226
0000c0 45 bb 34 3e 2c 60 49 be 52 a2 dc 3d 46 89 03 bc
       0.17649563 -0.19665593 0.10773148 -0.008028334
0000d0 3e 5a 3f bd 12 e7 a2 3d 32 23 9b bd 32 fb 7e bd
       -0.04671692 0.079542294 -0.07575072 -0.062251277
0000e0 10 dd 83 bc 57 13 ed bc 77 66 03 bd 07 72 5a 3d
       -0.016096622 -0.028939886 -0.03208014 0.0533314
0000f0 f7 4e bd 3d 19 f5 24 3d 82 86 aa 3d a9 8b b0 3d
       0.09243577 0.040272806 0.083264366 0.08620388
000100 06 99 61 bd 87 aa 38 be 4d de d1 3c 94 12 88 bd
       -0.055077575 -0.18033801 0.025618697 -0.066441685
000110 27 3e a3 bd a8 f1 f5 bd 52 ee 7b 3d 86 5f 9a 3d
       -0.07970839 -0.12008983 0.061506577 0.07537751
000120 b8 e4 9c bd ab fd db 3d 14 ec 76 bd 8d b4 f6 3d
       -0.07660812 0.10741743 -0.060283735 0.12046156
000130 be 28 a5 3d ff 9c 25 3e 71 95 bc bc 99 06 16 be
       0.080644116 0.1617317 -0.023020478 -0.14650954
000140 70 c5 a6 3d c9 ca 1a be 28 07 6f bd 88 34 04 3e
       0.08143127 -0.15116419 -0.058356434 0.12910664
000150 a6 a5 c0 3d b3 9b 0d 3e d5 e5 1e be fa 09 88 3d
       0.09406595 0.13828926 -0.15517361 0.06642528
000160 29 da 65 bd fb 39 fd bd 72 89 df bd 11 77 3a 3e
       -0.056116257 -0.123645745 -0.109148875 0.18209483
000170 2f 83 af bd c0 4b 49 3c d8 c5 36 3e 52 dc 0c 3e
       -0.08569943 0.012286127 0.17848909 0.1375592
000180 ae 67 1b 3d f8 e2 4d 3e 0e e6 a9 3d fd d3 3c be
       0.037940674 0.20106113 0.082958326 -0.18440242
000190 10 6d 1c ba 09 20 08 be 87 7e 0f be 31 19 06 3e
       -0.00059671793 -0.1329347 -0.1401311 0.13095547
0001a0 ac 66 6b bd 03 12 d8 bc 24 f8 12 3e 48 a6 38 bd
       -0.057470962 -0.026375776 0.1435247 -0.045080453
0001b0 6a 25 08 be 68 dd d6 bc 30 12 9d 3d ea 25 cb bd
       -0.13295522 -0.026228622 0.076694846 -0.09919341
0001c0 d7 63 a1 bd ec 0f bc 3c c4 a4 98 3d a6 7e c2 bc
       -0.07880371 0.02295681 0.074533015 -0.023742031
0001d0 98 26 4b 3d 9c 5a 22 3e 59 3c 25 bd b0 48 f8 3c
       0.049597353 0.15854877 -0.040340755 0.030308098
0001e0 7d 18 0a be 86 98 b6 3d d7 28 0a 3e af 30 44 3d
       -0.13485904 0.0891581 0.13492142 0.04789799
0001f0 93 13 30 3e 4a d6 93 bb f9 99 bb 3d 8b 40 4a bb
       0.17194967 -0.004511629 0.09160227 -0.0030861225
000200 11 f3 40 3e c9 87 9c bd fc 95 18 be 6d 97 a7 3d
       0.18842722 -0.076430865 -0.14900964 0.08183179
000210 9f 35 20 3e f2 78 a6 bc c3 61 40 be 5b 46 36 be
       0.15645455 -0.020321343 -0.18787293 -0.17800276
000220 ba 9b bd bd 7d aa 3f 3e b3 3b 14 3e 87 41 3c 3e
       -0.09258218 0.1871738 0.14475898 0.18384372
000230 bb 6e 36 3e d9 a2 00 3e 3a 41 22 3e 8b 38 30 3e
       0.17815678 0.12562121 0.15845194 0.1720907
000240 44 8d 33 3e 03 1f da 3c a0 9c 0a 3e 9e bb 33 3e
       0.17534357 0.026626116 0.1353631 0.17552039
000250 83 4a 38 3e 88 58 e0 3d 61 41 ef bd 85 44 50 3d
       0.17997174 0.10954386 -0.11682392 0.050846595
000260 5c 1e d1 bd 4c 65 05 3e 63 f6 38 3e 9c 48 2c be
       -0.10210869 0.13026923 0.18062739 -0.16824573
000270 fa d1 13 be 54 1c a5 3d 5f db e5 bd 70 79 06 3e
       -0.14435568 0.08062044 -0.11223482 0.13132262
000280 92 2d 0e be 41 d4 0f 3e b6 97 38 3e 7e 22 ec bd
       -0.13884571 0.14045812 0.18026623 -0.11530016
000290 d6 cd 08 3e 45 57 34 3e 34 8b 44 be cb a7 1a 3e
       0.1335977 0.17611416 -0.19193727 0.1510307
0002a0 be e0 26 3e de 6c 40 be 4d be 0b be 34 17 d2 bd
       0.1629667 -0.1879153 -0.13646813 -0.10258332
0002b0 92 a3 f8 bd c5 b5 43 3e fa d5 ba 3d 83 d2 40 3e
       -0.121405736 0.19112308 0.09122844 0.18830304
0002c0 7b a9 09 3e b1 0e f9 3d ee ef 86 3e d4 a6 36 3d
       0.13443558 0.12161005 0.26354927 0.044592693
0002d0 db dc ed bc 64 25 b1 3d e3 88 2c be 58 c4 0b 3e
       -0.029035976 0.0864971 -0.16849093 0.13649118
0002e0 93 94 24 3e 47 07 26 be 5b 19 3b be e6 fc 4a be
       0.16072302 -0.16213714 -0.18271391 -0.19823036
0002f0 68 c4 2e 3e 09 42 31 bd bc e1 3e 3e 48 22 38 3e
       0.1706711 -0.043275867 0.18640798 0.17981827
000300 f0 32 19 be b2 83 dc bd 1a 7d 48 3e 50 b1 70 bd
       -0.14960837 -0.107673064 0.19578972 -0.05876285
000310 7d 48 14 bd 76 2e 85 3c ac 35 34 bd 60 dd e9 3b
       -0.036201943 0.016257506 -0.043996498 0.0071369857
000320 52 3d 24 bc c1 58 16 bd 98 98 a1 bd a6 93 3e 3e
       -0.0100243855 -0.036705736 -0.07890433 0.18611011
000330 b6 2f 0f bd 64 c8 1e 3e de 1c c7 3d 63 dd cd bc
       -0.03495761 0.1550613 0.09722303 -0.02512998
000340 87 27 84 3d 16 2c 5d be ca f3 8e 3d 0b b3 1e 3e
       0.06452852 -0.21598849 0.06980093 0.15497987
000350 d1 96 0d 3e 49 fb 1d 3e f9 fd ad bd fd 24 4f 3d
       0.13827063 0.15427889 -0.08495707 0.050572384
000360 0b 29 34 bd be ca ae bd 64 04 90 3b 49 a3 22 3e
       -0.043984454 -0.08534764 0.0043950547 0.15882601
000370 69 56 cc 3b b5 3b 0e 3e d6 fa 2e bc 84 54 a4 3c
       0.006235887 0.13889964 -0.010679921 0.020059831
000380 b4 26 22 bd 8f 94 5b 3e 03 d1 14 3e 8a ad cd bd
       -0.03958769 0.2144339 0.14532857 -0.100428656
000390 0a 1c c4 3d d3 27 b3 bc 84 db 87 bd 54 1e 11 3e
       0.095756605 -0.021869576 -0.06633666 0.14171726
0003a0 88 c2 83 3c 5d 79 26 bd 9b e1 cc bc 66 60 ca 3d
       0.01608397 -0.040643085 -0.02500992 0.09881668
0003b0 52 c8 80 bd 85 34 09 3e 57 df 5b 3e cc 0c a2 bd
       -0.06288208 0.13398941 0.21471916 -0.07912597
0003c0 2d 67 3a 3e c1 a9 4f be c6 59 f0 3c 59 3f cd 3d
       0.18203421 -0.202796 0.029339682 0.10021848
0003d0 5f fb ce 3d c6 8b b6 3d cb 68 b5 bd 58 95 41 bd
       0.10106539 0.089133784 -0.08857878 -0.047261566
0003e0 99 e0 e2 bd 90 33 5e bd bb d0 c7 3c 14 18 29 3e
       -0.11077995 -0.054248393 0.024391523 0.16513091
0003f0 1e 23 69 3e f4 65 aa bd bc 36 3a 3c 07 e7 07 3e
       0.22767302 -0.08320227 0.011365589 0.13271724

lstm.weight_hh_l0 f4 [256, 64]
000000 80 59 1d ba 13 0c bb 3d 31 21 73 bc fb 5f 15 3d
       -0.0006002411 0.09133162 -0.014839456 0.036468487
000010 e1 90 c3 bd fa 68 6d 3d 77 d9 df bd 6b a1 1f bc
       -0.09549118 0.05796144 -0.1093015 -0.009743075
000020 62 18 99 bc 46 69 9f bd ce 54 3e 3d f2 96 c4 3d
       -0.018688384 -0.07783751 0.046467595 0.09599103
000030 b6 67 2b 3d 38 3d 88 3d 11 c8 be 3d 6b e1 8c 3d
       0.041846953 0.066523015 0.093155034 0.068789326
000040 05 40 db 3c 54 04 2f 3d c3 8c e9 3d 1e 1a 16 ba
       0.026763925 0.042728737 0.11403801 -0.00057259377
000050 30 89 d9 bd 76 21 bc 3d 1d 17 dc 3d 4e 95 f4 bd
       -0.106218696 0.0918607 0.10746596 -0.1194254
000060 4e ca 29 3d a2 2d 35 3a 8a 54 d5 ba 15 32 a8 bd
       0.0414527 0.0006911402 -0.0016275805 -0.082126774
000070 0c 9b c1 3d 1b e6 db 3d d1 ec e6 bd 72 f4 8d bd
       0.09453401 0.107372485 -0.11275638 -0.0693139
000080 aa 61 34 3c 46 01 0c 3e 08 ed 64 3c c6 b4 50 3d
       0.011009613 0.13672361 0.013972528 0.05095365
000090 bf 81 3f bd 88 81 8c 3d a2 37 47 bc f0 65 1e 3d
       -0.046754595 0.068606436 -0.01215926 0.038671434
0000a0 a6 10 25 bd 2a fb bc 3d bc 17 b5 bd 43 e6 27 bd
       -0.04029908 0.09227593 -0.088424176 -0.04099108
0000b0 18 db f1 ba 48 5a d8 bd 6e aa 89 bd 76 71 1e 3c
       -0.0018452136 -0.10564095 -0.0672196 0.009670606
0000c0 e4 e5 26 bd 00 1f e0 bd 69 1e 67 3d b8 00 49 bc
       -0.040746585 -0.10943413 0.056425486 -0.012268238
0000d0 db f4 13 3d 74 1a 83 3c cb 37 cf 3d 43 ca fd bd
       0.036122184 0.016003825 0.101180635 -0.12392094
0000e0 86 08 16 3d f4 21 b5 bd 72 56 f4 bc 8a 24 9e bd
       0.036629222 -0.08844367 -0.029826377 -0.07721813
0000f0 24 df 32 3e 68 55 49 3c 0e 4c 34 3c 30 71 09 bd
       0.17467934 0.012288429 0.011004461 -0.03355521
000100 2f c8 72 3d ef ef c6 3d a0 c1 e2 bc d1 8e 72 bd
       0.05927294 0.097137325 -0.027680218 -0.05921823
000110 49 3e d8 bd a4 1c 1e bd 67 f6 c8 bd a7 dc 55 3d
       -0.10558755 -0.038601533 -0.098126225 0.052212384
000120 26 fe 1f 3e 7c 3c cf 3d bc ef ae bd 4a a4 32 3d
       0.15624294 0.10118958 -0.085418195 0.04361371
000130 a3 9c d4 bd 66 e2 d1 bd 3f 25 9e bd cf 64 84 bb
       -0.103814386 -0.1024826 -0.07721948 -0.0040403376
000140 4d 12 02 be 5e 4c ec 3c 94 63 6c bd c2 fd aa bd
       -0.12702294 0.028845008 -0.057712153 -0.08349182
000150 ab a2 3f 3d b0 7e 15 be ae ec a6 3d 21 f5 07 bc
       0.04678599 -0.14599109 0.08150612 -0.008298189
000160 ee dc ff 3d bf e1 98 3b 05 0c c1 bc a3 93 5f bd
       0.12493311 0.004665583 -0.023565302 -0.054584157
000170 43 9b 5e 3d 8d 08 87 bd 8c 86 56 bd 3a a2 ae 3d
       0.054347288 -0.06593428 -0.052374408 0.08527036
000180 fc 45 ab 3d 0b 8f 0d be f0 3d bd 3d 68 94 eb bc
       0.08362958 -0.13824098 0.09240329 -0.028757289
000190 58 73 8f bd f9 92 89 3d c1 24 f8 3d 3c 22 ba bd
       -0.07004422 0.06717486 0.12116385 -0.09088561
0001a0 1b b7 41 bd b3 e4 c2 bd 6b bf c6 3d 61 0b 20 3d
       -0.047293764 -0.09516277 0.09704479 0.03907335
0001b0 f0 c3 95 bd 31 80 f2 ba 75 3f a8 3d 62 0a 99 3d
       -0.07312763 -0.0018501339 0.082152285 0.074726835
0001c0 1c 7d a8 bd 40 fa a5 3d 1b f7 7a 3c 69 21 ef bd
       -0.08226988 0.08104372 0.015317704 -0.11676294
0001d0 7b 7a c8 3d 4a 29 9e bd c5 79 3d 3d c3 f2 a2 bd
       0.09788986 -0.07722719 0.046258707 -0.079564594
0001e0 a9 3d 94 3c 3b 9d f1 3d 84 c4 be 3c c4 a8 3b 3e
       0.018095808 0.117975675 0.023287065 0.18326098
0001f0 88 fd 0d be db d3 44 bd bf 46 06 3d f1 d5 35 be
       -0.13866246 -0.048053604 0.032782312 -0.17757393
000200 9a 21 34 bb 41 4a 23 3d 79 89 15 be 78 1e ce 3b
       -0.0027485848 0.039865736 -0.14603223 0.0062902533
000210 f5 8f 39 3c 0b b3 ff bd 55 dd eb bd ad 66 b3 bd
       0.011325826 -0.124853216 -0.11516825 -0.08759818
000220 00 54 fe 3d d7 1d 22 bd 3b 84 b6 bd 06 f6 8e bd
       0.124183655 -0.03957924 -0.0891194 -0.06980519
000230 de f0 2a bd d7 0b 3d 3b 17 e6 10 bc e2 75 e3 3d
       -0.041733615 0.0028846168 -0.00884392 0.11106469
000240 bd 36 10 3e d6 61 ae bd bf 0a a0 3d fb 84 6f 3d
       0.14083381 -0.085147545 0.0781455 0.05847643
000250 93 d8 c1 3d 4f 89 b8 3d ae 81 bf bc ce 57 05 be
       0.094651364 0.090105645 -0.023377266 -0.13021776
000260 46 6b 3a 3d fc cf 21 bd 19 76 d4 bd a8 0c 52 bd
       0.04551246 -0.03950499 -0.10374088 -0.0512816
000270 16 ba fa bc c8 fb 07 3e 7e 42 33 bc 8c 1b 2e bd
       -0.03060631 0.1327964 -0.010941146 -0.04250674
000280 47 02 b3 bb 2e 36 22 bc 5c 7f f5 3d e3 af 81 3c
       -0.005462918 -0.009900613 0.119871825 0.01583094
000290 43 03 52 bd 7b 3e e7 3d 02 8c 48 3d 73 12 6d 3d
       -0.051272642 0.11291214 0.048961647 0.057878923
0002a0 b1 0f 5d 3c d3 e5 ff bd e1 f9 a9 3d 73 ad cb 3d
       0.013492511 -0.12495007 0.08299614 0.09945192
0002b0 88 9b ce 3d 92 6c 20 bd a1 1c d0 3d 0e dd a1 bd
       0.10088259 -0.03916604 0.101617105 -0.07903491
0002c0 3a dd 12 bc 5f a5 b1 3d 8a 4e 4a bd be 66 92 bd
       -0.008963877 0.0867412 -0.049391307 -0.07148503
0002d0 85 ee 39 3d 14 ac e2 3d a5 49 a0 3d dc 47 d9 bd
       0.045393486 0.110679775 0.078265466 -0.10609409
0002e0 79 05 85 bd b6 8a d2 3d a4 88 b0 bd 38 c5 dd bd
       -0.064951845 0.10280363 -0.08619812 -0.10828632
0002f0 a8 ed 3f bd e7 a6 69 3d 0a 69 c2 bd ae 4c ec 3d
       -0.046857506 0.057043936 -0.09492691 0.11538063
000300 0c a3 45 bc a4 eb d7 3d 07 18 a9 3d 50 26 c3 bc
       -0.012062799 0.10542992 0.08256536 -0.02382198
000310 bc c6 00 be 28 9e cd bd f8 3e ca bd 15 32 5c 3d
       -0.12575811 -0.100399315 -0.098752916 0.0537587
000320 60 c3 a0 3d 2d c9 18 3d bc 0b 00 be db bb 74 bd
       0.07849765 0.03730123 -0.12504476 -0.059749465
000330 d9 aa 99 3c 71 8e c4 bc 4e b5 0a be a5 08 1b be
       0.018758224 -0.023993703 -0.13545725 -0.15140016
000340 64 b0 8b 3d b9 0c c7 bb ba 07 08 3d 84 a6 fb 3d
       0.06820753 -0.0060745147 0.033210494 0.1228762
000350 63 fb 27 3b e0 57 16 bd a0 40 b5 3d 8a 76 87 3b
       0.0025632016 -0.036704898 0.08850217 0.004134004
000360 e4 f8 8c 3c 2e f9 04 be 01 3c 60 bd da 82 33 3d
       0.017208524 -0.1298568 -0.054744724 0.04382596
000370 82 3f 12 3e 13 51 78 3c 9b a0 22 3d dc b2 65 3d
       0.14282039 0.015156048 0.039703947 0.056078777
000380 96 57 04 be 04 cf e8 3d 1a f0 06 bd 88 8a b2 bd
       -0.12924036 0.1136761 -0.032943822 -0.08717829
000390 ae f2 9b 3d a2 9f f7 3c 43 41 a0 3b a1 dd 8a 3c
       0.07614647 0.030227486 0.0048905923 0.016951384
0003a0 19 e2 85 bd 03 0b 0f 3e b9 81 6c 3c 80 59 71 bc
       -0.06537265 0.13969044 0.014435225 -0.014730811
0003b0 4e 17 ea 3d da 93 de 3d 54 d1 37 3d 78 22 f0 3b
       0.11430226 0.10868044 0.044877365 0.0073283277
0003c0 d3 84 df 3c fc 97 cf bd 18 11 82 3b 01 07 bd bd
       0.027285015 -0.101364106 0.003969323 -0.092298515
0003d0 fc 6d 06 3e c0 01 c7 3a fe e4 04 3e 30 f6 56 3d
       0.13127893 0.0015183017 0.12977979 0.052480876
0003e0 06 56 05 be f7 53 05 3e 38 90 78 3c 1b 90 eb bc
       -0.13021097 0.13020311 0.015171103 -0.028755238
0003f0 a1 e9 7e 3d bf ca c8 bd 82 32 bf 3c 62 9b 15 bd
       0.062234525 -0.09804296 0.023339514 -0.036525138

lstm.bias_ih_l0 f4 [256]
000000 ee 0c 94 3d 73 45 9d 3d 14 15 ce 3c e8 c1 fc 3d
       0.07229029 0.07679262 0.025156535 0.12341672
000010 c6 44 26 3e c9 2c 89 3c 67 9b 58 3c 54 36 15 3d
       0.16237172 0.016744988 0.013220645 0.036428764
000020 0c d8 ab ba 22 64 c1 3d cf 6e bb 3d dc 11 2e 3e
       -0.0013110652 0.09442927 0.091519944 0.16999
000030 08 de a1 3d 64 4a 30 bd d5 8f 92 3d c6 a7 64 bd
       0.07903677 -0.043039694 0.0715634 -0.055824064
000040 10 33 5d 3d 00 75 f9 bd 1d a9 66 3e 30 b8 29 bd
       0.054003775 -0.12180519 0.22525449 -0.04143542
000050 ed ff b4 3d a9 33 f0 3d f6 ca ac 3d e3 1f fe 3d
       0.088378765 0.117286034 0.08437149 0.12408426
000060 55 3d 59 bd e9 ea 80 bc a1 e5 1b 3e bf cf 57 3c
       -0.053037006 -0.015737014 0.15224315 0.013172089
000070 32 e9 5e 3d 8c bb 8c 3d 27 ee 24 3e c9 74 55 3d
       0.05442161 0.06871709 0.16106473 0.052113328
000080 30 d5 96 3d d8 a3 ac 3d e7 ab 13 3d 63 3d bb 3d
       0.07364881 0.08429688 0.03605261 0.09142568
000090 6b 9c 0f bd f5 01 26 3e c2 30 3d 3e 32 b9 92 3d
       -0.03506128 0.16211684 0.18475631 0.071642295
0000a0 c4 6d 37 3e 4c 8e 42 3d 67 a5 02 3e 23 db be bd
       0.17912966 0.047498986 0.12758408 -0.09319141
0000b0 22 8c f7 bd 17 ae 14 bd ef 43 fe bb da 3a 9e 3d
       -0.12087275 -0.036298838 -0.007759563 0.07726069
0000c0 5f 54 1c bd a2 31 55 bd f3 9b cd 3e c3 e6 61 3d
       -0.0381664 -0.052049287 0.40158042 0.055151712
0000d0 59 a1 ca 3d c7 11 85 3d ad 8f a3 3d 67 25 59 3d
       0.09894056 0.064975314 0.07986388 0.053014185
0000e0 34 c8 52 3d 14 a7 3d bd b6 8f 71 3d e0 3d 88 3e
       0.05146046 -0.046301916 0.058974944 0.26609707
0000f0 2b 24 2d 3e 2c 70 1b 3a 94 2f 7a 3d 12 c7 02 3e
       0.16908328 0.00059294957 0.06108053 0.12771252
000100 9a 0a ae bc 61 32 cf bd 30 f4 24 3d c2 2f 40 bb
       -0.02124529 -0.10117031 0.040271938 -0.002932534
000110 03 58 f4 bb ef 24 af 3d 0a 70 1f bd f1 e9 7c bd
       -0.007456781 0.085519664 -0.03892521 -0.06174654
000120 70 9a 11 3e 15 0a 9a bd 5f 1b 01 be 5e 76 ef bd
       0.1421907 -0.07521454 -0.12608097 -0.116924986
000130 02 51 cc 3c d4 0e c7 3d 01 f0 ed bd 69 38 d0 3d
       0.024940971 0.09719625 -0.11618043 0.101670094
000140 d0 52 6e 3c b7 dd 46 3c 4f a2 ed 3c d5 d6 e2 bc
       0.014546111 0.012137822 0.029008059 -0.02769033
000150 9c b3 ff bc ff 94 5f bd 56 20 a9 bd 3f 65 46 3d
       -0.031213574 -0.054585453 -0.08258121 0.0484364
000160 5e db 00 be 4c df 07 be 3c 5c 9d bd e6 17 4f 3d
       -0.12583682 -0.13268775 -0.07683608 0.0505599
000170 21 cb fb bd ae 0d 53 bc 89 53 05 bd 63 29 c7 3d
       -0.12294603 -0.012881679 -0.03255037 0.09724691
000180 99 f0 b8 3d 9e 69 15 be ef 33 6a 3d 33 24 50 bd
       0.09030265 -0.14591071 0.057178434 -0.050815772
000190 ab b5 94 3d 55 78 ab 3d 28 47 be 3d 6a a6 00 bd
       0.07261213 0.08372561 0.09290916 -0.031408705
0001a0 60 2b 61 bd fb 61 9f bd 45 e8 17 3d a6 6f d7 bd
       -0.054973006 -0.0778236 0.037086744 -0.10519342
0001b0 6a a4 93 bd 2b 46 f2 bc a2 38 83 3d 68 d7 af bd
       -0.07209094 -0.029574474 0.06407286 -0.08586007
0001c0 1a dc 08 be a7 6b e7 bd fd cf f7 bd 5f 68 1f 3b
       -0.13365212 -0.1129983 -0.121002175 0.0024323685
0001d0 03 08 17 3d b5 24 80 3d 22 a4 34 3d d8 db df bc
       0.036872875 0.06257001 0.04410184 -0.02732651
0001e0 5e 61 c7 3d 88 39 21 bd d8 ec 5e bd f0 4a 46 3d
       0.09735368 -0.039361507 -0.05442509 0.04841131
0001f0 63 1a 9f 3c 8a d0 73 3c e8 04 de bc 65 8f 1b 3d
       0.019421762 0.014881263 -0.027101949 0.03797855
000200 74 a5 4c bd ba 30 a7 3d 6b 1b 1d bd ba 60 93 bd
       -0.049962476 0.08163591 -0.038356226 -0.071961835
000210 96 2b 55 3d a2 02 ea bd ae 37 50 3d 33 92 af bc
       0.05204352 -0.114262834 0.05083435 -0.021432018
000220 ef d3 9c 3d de 45 b6 bd bd 1c 5a bd a6 62 50 3c
       0.076576106 -0.08900045 -0.053250063 0.012718832
000230 a6 a1 97 3d 4b 85 c3 3d 0e b2 90 3d 1d e5 b4 3d
       0.07403879 0.09546908 0.07065211 0.088327624
000240 bc 38 9d bb 44 75 72 bd d2 72 cf 3d 94 16 bb bd
       -0.004798023 -0.059193864 0.10129322 -0.09135166
000250 58 48 51 bc c7 84 82 3d 4c 22 99 3d 3c 7e a1 bd
       -0.012773596 0.063729815 0.07477245 -0.078854054
000260 86 96 b8 3d 4e 23 d9 bc ae 99 42 bd b1 18 1e 3d
       0.09013085 -0.026506092 -0.04750984 0.038597766
000270 7f bd 41 3d e1 32 59 3d b0 a3 54 3d 76 e8 92 3d
       0.04729986 0.053027038 0.051913917 0.07173245
000280 fb b0 e6 3b 50 78 d1 3c c7 76 65 3d f2 fb 80 3c
       0.0070401407 0.025570065 0.056021478 0.015745137
000290 c9 1a c6 bd ef 45 23 bd 76 8b 07 3d 0b c1 54 bd
       -0.096730776 -0.039861616 0.033091985 -0.051941913
0002a0 de aa cb 3d 4c 5e 2e 3b c0 cf ec 3b ce 4c 44 bc
       0.099447 0.0026606498 0.007226914 -0.011981202
0002b0 83 3f 73 3d bf 7f c3 bd 0b f4 50 3d da c1 bb 3c
       0.05938674 -0.0954585 0.051013988 0.022919584
0002c0 42 2d cc bb 19 46 11 bd 6c af 20 3d 59 db 27 bd
       -0.006230981 -0.03546724 0.039229795 -0.04098067
0002d0 eb b5 02 3e dd e4 02 3b 9e a7 65 3d 66 84 eb bc
       0.12764709 0.001997284 0.056068055 -0.028749656
0002e0 89 69 04 bd 88 29 8f 3d bb 87 bc bd b6 d5 9c bd
       -0.03232721 0.06990343 -0.09205576 -0.076579496
0002f0 24 0a e6 bd b3 9a 8c 3d b2 fd 9f 3d 21 ef 52 bd
       -0.11232403 0.06865444 0.078120604 -0.051497582
000300 33 4c 52 bd 07 e6 a4 bd 04 9e 4a bd 6e 6d 0d 3d
       -0.0513422 -0.08051687 -0.0494671 0.03452819
000310 9e e6 7b 3d 5f 15 4d 3d b1 15 9c 3d 8d 6d e1 3d
       0.06149923 0.05006921 0.07621325 0.11007223
000320 5a 55 04 3d 59 12 29 3e 7e c2 9d bb c9 02 42 3e
       0.03230796 0.16510905 -0.004814445 0.18946375
000330 0b 04 27 3d 18 1f 93 3d c5 16 8f 3d 18 d9 3d bd
       0.04077534 0.07183665 0.06986765 -0.046349615
000340 17 a9 1c 3e 8b a8 c8 bd cf 3c e9 3d d1 82 48 3d
       0.15298878 -0.09797772 0.113885514 0.04895288
000350 05 e8 88 3c 22 d5 af bc 63 e1 58 bd 04 68 ff 3d
       0.016712198 -0.021463934 -0.05294932 0.12471011
000360 c5 f0 bc bd 5e 06 66 3c 21 5c d6 3d 20 0f 4e bd
       -0.09225611 0.014039604 0.10466791 -0.050307393
000370 92 f8 89 3d 59 c3 d3 3d 53 be 73 bc 98 18 8b 3d
       0.06736864 0.10339994 -0.01487692 0.067918
000380 27 8f 16 bd 72 5e dc bd 3c 85 6d 3b 3d eb c9 bc
       -0.036757614 -0.107602015 0.0036242744 -0.024648303
000390 0c f2 3b bd c8 bf 54 3d e8 cb 6e 3d 88 4e c6 3d
       -0.04588513 0.05194071 0.05829993 0.096829474
0003a0 d6 1b 33 3e 57 e9 6a bd d6 9a c7 ba 01 bc c6 3d
       0.17491087 -0.057351436 -0.001522864 0.09703828
0003b0 d4 12 97 bd bd 31 a8 3d 4b eb bb 3b 85 7c 04 3d
       -0.07376638 0.08212612 0.005734836 0.032345314
0003c0 e6 4c fe 3c 26 0a 2e 3d 2a ed 82 3e f0 43 65 bd
       0.031042527 0.042490147 0.25571567 -0.055972993
0003d0 14 f0 bd 3d 82 34 ef bd 8d 32 b8 3d 89 d5 1e bd
       0.09274307 -0.11679937 0.08994017 -0.03877786
0003e0 59 3d 39 bd 0e e2 c7 3d 35 ae 1a 3e 02 3a fe 3d
       -0.04522452 0.097599134 0.15105517 0.12413408
0003f0 e4 a1 3c 3e 73 53 ed bc 46 31 33 3e f7 c9 30 3e
       0.18421131 -0.028970456 0.17499265 0.17264543

lstm.bias_hh_l0 f4 [256]
000000 81 4e 7a bd d5 37 b4 3d 3c 8c bf bd da 55 8e bc
       -0.061110023 0.087997116 -0.093529195 -0.017374922
000010 c6 ef 6d 3c 8b c5 c4 3d 87 99 1f 3d 5e bc 30 3e
       0.0145224985 0.09607991 0.038964774 0.17259356
000020 4c 40 21 3e a2 22 2e bb 01 85 9d bd d0 7c e2 3d
       0.15747184 -0.0026570936 -0.07691384 0.11058962
000030 cd e1 ef 3d e0 61 39 bd 9e cf c1 3d a1 87 a3 3d
       0.1171299 -0.045259356 0.09463428 0.079848535
000040 a3 57 87 3d 15 dc 50 bd 27 c9 75 3e 3a 61 fb 3d
       0.06608512 -0.050991137 0.24002515 0.12274404
000050 34 5a eb bc 1d 8f 48 3d a4 ac 24 3d 6d 1a 31 bd
       -0.028729536 0.04896461 0.040203705 -0.043238092
000060 8f a3 94 bd 99 7a 5c bd fd bf ad bc ed 51 af 3d
       -0.07257759 -0.053827856 -0.021209711 0.08560548
000070 00 0b de 3d 5d 26 db 3d 44 8d e1 3c 8c d2 6e 3d
       0.10841942 0.107006766 0.027533181 0.058306262
000080 0a 2a 86 3d 37 fa 85 bd 6f fb 4d 3e fe 86 25 3d
       0.06550987 -0.06541865 0.20115446 0.04041194
000090 f3 f1 ce 3c 6a fb f8 3d 84 ee ea bc 62 06 1e 3e
       0.025261855 0.121573284 -0.028678186 0.15432122
0000a0 8e c4 cb 3c 52 44 dc 3d 44 ac e6 3d e1 18 4a bd
       0.024873998 0.107552186 0.11263326 -0.049340133
0000b0 94 68 a3 bd e2 83 ae bc 00 8a 9a bd cd 6e 46 3d
       -0.07978931 -0.021303121 -0.07545853 0.04844551
0000c0 fd 5b 89 bc 3a 7e 65 3c 6e 3e db 3e b7 db 36 3d
       -0.016767496 0.014007146 0.42821068 0.04464313
0000d0 ad 16 9a 3d b4 b4 53 bc 68 43 01 3e 1f 36 95 3d
       0.07523856 -0.012921501 0.1262337 0.072857134
0000e0 82 ad 31 3d b5 f1 95 3d c7 84 c5 3d 8d 56 32 3e
       0.04337836 0.073214926 0.09644466 0.17415829
0000f0 6e 41 2c 3e 46 72 01 3d 40 2e 34 3e f4 d7 95 3c
       0.16821834 0.03160312 0.17595768 0.018291451
000100 14 28 f2 bd e5 b5 89 bd 22 c1 39 bd 92 7f c9 3d
       -0.118240505 -0.06724147 -0.0453502 0.09838785
000110 a6 53 0f be e5 a8 97 bc 41 7b 01 bd 39 e7 c2 3d
       -0.13996753 -0.018513152 -0.031611685 0.095167585
000120 99 5d 69 bc 5f 08 99 bd e5 d0 e1 bd 2f 86 cc 3c
       -0.014243507 -0.074723 -0.110261716 0.024966327
000130 51 11 41 3d 1c a3 8c bb fe 4b 26 3d 4d 9b 84 3c
       0.047135655 -0.004291905 0.040599816 0.016187334
000140 7f d0 14 3c 50 26 50 bd e8 9e 40 bb 0e c6 89 3d
       0.0090829125 -0.050817788 -0.002939159 0.06727229
000150 14 87 0d be b9 2d 1e bd 02 51 96 bd c1 c2 82 bd
       -0.1382106 -0.038617823 -0.0733967 -0.063848026
000160 d8 51 e0 3c 0d 7d bb bd 64 62 36 3d 8f 0b 4b bd
       0.027382776 -0.09154711 0.044527426 -0.04957157
000170 16 a2 8f bc 20 32 1c bb 8c eb 9a bd 40 c5 7f 3d
       -0.017533343 -0.0023833588 -0.07564458 0.06244397
000180 56 8e a3 3d 59 d7 aa bd 77 23 0f bd 7e 51 b4 3d
       0.07986133 -0.083418556 -0.03494593 0.08804606
000190 fd de d2 3c 4c d7 22 3c 57 20 db 3c a0 5b 9a 3c
       0.025741095 0.009939026 0.02674882 0.018842518
0001a0 a2 cc b0 3d ff 58 70 bd 1e 7a c4 3d ac 46 0e bd
       0.086327806 -0.058678623 0.095936045 -0.034735367
0001b0 35 65 58 bd 32 af 9b 3c 00 6e 6a 3d 28 63 1b bd
       -0.052830894 0.019004438 0.05723381 -0.03793636
0001c0 90 cc d9 3b a0 74 aa bd dd 4f 46 bd 31 54 a3 3c
       0.0066467 -0.08323026 -0.048416007 0.019937607
0001d0 0a b7 c3 3c b9 d9 ae 3d 00 f9 e8 3d 3d 54 b0 bd
       0.02389099 0.08537621 0.11375618 -0.08609817
0001e0 68 eb 02 be 4e 1c 50 3d 0d 3b ad bd af 6d d7 bc
       -0.12785113 0.050808243 -0.08458529 -0.026297418
0001f0 64 9d c6 bd 15 fc ad 3d 55 4e 8a bd 93 bf c4 bb
       -0.09697989 0.084953465 -0.06753222 -0.0060042827
000200 b4 fa b6 bc 64 13 9e 3d f6 2a 7f bd 1e b5 e7 3d
       -0.022336341 0.07718542 -0.06229683 0.11313842
000210 ea b5 24 3c a2 e3 ae bd 6a 0c 5e 3c b3 8a 32 bd
       0.010053137 -0.08539511 0.013552764 -0.043589305
000220 31 4d d2 bc f1 23 39 3d 2d e0 c0 3c fe f2 52 bc
       -0.025671573 0.045200292 0.023544395 -0.012875317
000230 75 44 87 bc 3b b8 7e bc 0e 13 54 bd 51 63 61 bd
       -0.016512135 -0.015546854 -0.051775984 -0.055026356
000240 fb b3 d3 3d a8 1d 86 bc 30 a4 c1 bd e2 d3 a7 3d
       0.10337063 -0.016371563 -0.094551444 0.0819471
000250 ce 72 a2 bd b8 2b d6 3c 13 72 df bd 08 b8 7e bd
       -0.079320535 0.026143894 -0.1091043 -0.062187225
000260 7b 02 7b bc 4c 84 98 bd 59 f3 85 3b fa c5 f6 bd
       -0.015320416 -0.074471086 0.004087847 -0.1204948
000270 e8 41 b2 bd 01 1a 21 3d 0f c5 96 bd 0c 59 4b bd
       -0.08703977 0.03933144 -0.07361805 -0.04964547
000280 55 e6 5b bd fa 87 89 3d 1e a8 95 bd 6e 03 2d 3d
       -0.05368646 0.067153886 -0.073074564 0.0422396
000290 34 7d a8 3d 83 98 70 3d a1 70 01 bd 2c 54 46 bd
       0.082270056 0.058739197 -0.031601552 -0.048420116
0002a0 ab bc 9e bc f1 35 f3 3b 57 26 97 bd 39 b4 a3 bd
       -0.019377073 0.007422202 -0.073803596 -0.07993359
0002b0 e5 aa aa 3d 66 3d 42 3d c6 1a e3 3d 24 3e ee 3c
       0.08333377 0.047421835 0.11089091 0.029082365
0002c0 df 03 19 bc 4c 6c 31 3b 66 b9 97 bd aa 17 98 3b
       -0.009339302 0.0027072607 -0.07408409 0.004641493
0002d0 98 fa 88 3d eb 53 55 3d d4 c3 95 bd 50 f1 76 bd
       0.06688422 0.052081984 -0.07312742 -0.060288727
0002e0 aa 6a 46 bd 72 a5 73 bd b3 da 95 3d 8f e9 31 3d
       -0.048441567 -0.059483953 0.07317104 0.04343563
0002f0 b8 1e 9f 3d fb f2 8b bc 98 93 c5 bb 60 eb 58 3d
       0.07769531 -0.017083636 -0.0060295574 0.052958846
000300 92 bb dc 3d 82 99 ed bc 6a 85 9f 3d 98 af 31 3c
       0.10777964 -0.029003862 0.077891186 0.0108450875
000310 c5 4e 05 3e 54 d4 a3 bd 4d 40 55 3d d0 20 0b 3e
       0.1301833 -0.07999483 0.052063275 0.13586736
000320 05 57 72 3d 6c c0 1e 3d ae cf da 3d f1 fc 3f 3d
       0.05916502 0.038757727 0.10684143 0.046872083
000330 d4 94 61 3d fd 9b c2 3d 2d e8 81 3a 74 37 87 bd
       0.055073574 0.09502409 0.0009911113 -0.06602374
000340 07 e3 86 3d 71 77 12 3d ef a1 e9 3d 42 01 a5 3d
       0.06586271 0.03575844 0.114078395 0.080568805
000350 a9 64 25 3e ac 9b 4a bd a8 90 1c 3d 85 e3 99 3d
       0.1615168 -0.049464867 0.038223892 0.07514099
000360 b2 e1 7f bd 2e d8 ac 3d 2b 16 e7 3c 2b ab 1c bd
       -0.0624711 0.084396705 0.028208813 -0.038249176
000370 5c a2 00 3e 8d 3f a3 bc 5b e7 18 3d 5c 42 35 3e
       0.12561935 -0.019927764 0.037330013 0.17701095
000380 ba 62 24 3d 20 e6 3e 3d 78 1c 74 3d 70 87 ef bd
       0.040133215 0.046606183 0.059597462 -0.116957545
000390 f5 e5 a9 3c 03 02 02 3e 53 5b 2b bd 80 99 0c 3e
       0.020739535 0.1269608 -0.04183514 0.1373043
0003a0 55 3f 9a 3d e8 e1 ad bc 36 79 37 39 21 28 9e 3d
       0.07531611 -0.021225885 0.00017497395 0.07722498
0003b0 15 d5 cd 3d 47 4f bd bc 62 96 f0 3d de e4 f4 3d
       0.10050408 -0.023109091 0.11747433 0.119577155
0003c0 fc 8f 35 bd 2e 25 0c bd 1c 9b c4 3e 24 cc 22 bc
       -0.044326767 -0.034215145 0.3839959 -0.009936366
0003d0 dc 30 20 bd 5d c2 2d bc da 9f 08 3d f0 4e 6f 3c
       -0.039109096 -0.010605422 0.03335557 0.0146062225
0003e0 d8 35 bc bd b7 bd 01 3e 53 fa 1b 3d 9f 80 31 3d
       -0.091899574 0.12670027 0.038080525 0.043335553
0003f0 e4 87 2f 3e 6f 53 54 3d 57 1c 69 3d 7b e6 bb 3d
       0.17141682 0.05183738 0.056911793 0.0917482

lstm.weight_ih_l1 f4 [256, 64]
000000 44 2e 00 3e 59 91 52 3d d8 bf ac bc e9 d3 1f bd
       0.12517649 0.051408146 -0.021087572 -0.039020453
000010 8f 8b 05 be a6 c2 8b 3c 43 e8 00 3d 1f a0 11 3c
       -0.13041519 0.017060589 0.031471502 0.0088882735
000020 93 9a 35 3d 39 b0 53 3c 80 ce 00 3e 91 d6 ae bc
       0.044336867 0.012920433 0.12578773 -0.021342548
000030 ac 4c bd bb 3d f3 02 3c 1c 89 f4 3d 08 1f 81 3c
       -0.0057769623 0.007992563 0.11940214 0.015761867
000040 10 c1 a4 3d 48 3e dd bd 4c 4a b2 bd b9 c2 16 bd
       0.08044636 -0.10802895 -0.08705577 -0.036806796
000050 fe 61 d4 bc ee de 99 3c 55 9d 8c 3b 9c 1b 1d 3d
       -0.025925633 0.018783059 0.0042912164 0.03835641
000060 90 84 95 3d 16 9a 98 3d 6c e2 b5 3d a4 86 bc 3d
       0.07300675 0.074512646 0.08881077 0.09205368
000070 d1 97 43 bd 23 62 a1 3d 4f 32 f1 3d ed 29 88 bc
       -0.047752205 0.07880046 0.11777174 -0.016621554
000080 54 06 a6 3d 95 e9 9a 3d aa 6b 05 3e ad ae bc bd
       0.08106676 0.075640835 0.13029352 -0.09213004
000090 69 da 5a bd 7c 1e 8c bc 98 78 0a 3e 61 8d 96 bd
       -0.05343095 -0.01710438 0.13522565 -0.07351185
0000a0 3f 06 31 bd 9e d0 fd 3b 7d fc 17 3e 11 75 01 3c
       -0.043218847 0.0077458164 0.1484241 0.007901446
0000b0 4b f5 22 3d 65 72 12 bd e0 90 c1 3c ad 73 50 3d
       0.03978471 -0.035753626 0.023628652 0.050891567
0000c0 63 6a 88 3d 71 d9 bb 3d 06 5d 4b bd 8b 76 b5 3b
       0.06660917 0.09172333 -0.04964926 0.005537813
0000d0 28 6d 02 3d be f2 70 bd 40 d2 95 bd cc 14 d5 3a
       0.03184238 -0.058825247 -0.07315493 0.0016256808
0000e0 9f cd a4 bb b9 9a 30 bd 16 15 60 3d f1 b7 0b bc
       -0.0050293948 -0.043116305 0.05470761 -0.008527742
0000f0 d1 da 9c 3d 82 a0 3e bd 64 72 8e bd 4e 10 45 3d
       0.076589234 -0.04653979 -0.06955412 0.048111252
000100 08 63 cb 3d 5b a0 42 bd 6c b6 99 3d 49 e3 8c bd
       0.09930998 -0.04751621 0.07505497 -0.06879289
000110 ac 3c 9d bd f4 51 f4 bd e5 4b 98 3d 9a 3c 93 3d
       -0.07677588 -0.11929694 0.07436351 0.07189293
000120 a1 86 34 3d 98 6e 42 bd 61 db 11 bd c8 3a 51 3d
       0.044073705 -0.04746875 -0.035609607 0.05108145
000130 15 8c f6 bd 07 5e 03 bd 27 31 e1 bd 9d c9 a4 bd
       -0.12038437 -0.032072093 -0.10995703 -0.08046267
000140 57 60 b7 bd 73 94 55 bc d5 bb 36 3d 5e 55 0c 3d
       -0.08953922 -0.013035881 0.044612724 0.0342611
000150 16 45 f1 bc a1 0e 0c be 05 cf 09 3e bc dd 94 3d
       -0.029451888 -0.13677455 0.13457878 0.07268855
000160 03 c2 e1 3d 08 57 d6 3b f4 c1 26 bb de b0 27 3d
       0.11023333 0.0065411367 -0.0025445195 0.040940158
000170 b9 ca 68 bd bf 91 7a bd f5 ef 83 3d bc 9e 80 3c
       -0.056833956 -0.06117415 0.064422525 0.01570069
000180 b2 18 1e bd 2f c1 a0 bd 95 32 95 bd 13 8f 2f 3d
       -0.03859777 -0.07849347 -0.072850384 0.042861056
000190 5e 00 ef 3d a6 fd 90 bd 95 01 a5 bd 31 bc 3c bd
       0.11669992 -0.070796296 -0.080569424 -0.04607791
0001a0 fa 13 c2 bd 57 76 44 3d 64 0b 04 3e e7 49 53 bc
       -0.094764665 0.04796442 0.1289497 -0.012896038
0001b0 1a 4e 0c 3d 28 11 15 bd 92 ff a5 3d de ef 0a bd
       0.03425417 -0.036393315 0.08105387 -0.03392016
0001c0 6a c9 1c 3e ba 23 c4 3d 32 59 e0 3d de c3 11 ba
       0.15311208 0.09577127 0.10954513 -0.00055604975
0001d0 81 c2 6b bd 2d d1 9d bc 18 3a 95 3d 60 a5 93 bc
       -0.05755854 -0.019264782 0.07286471 -0.018023193
0001e0 a5 2f 39 bc eb 4d 96 3d 40 50 38 bd 85 5d b3 3d
       -0.011302863 0.073390804 -0.044998407 0.08758072
0001f0 51 a2 7e bd 59 bb 48 bd 7d 4e c4 bb 32 10 b7 bd
       -0.062166516 -0.049006794 -0.005990802 -0.08938636
000200 a3 70 53 bc 29 dc 17 3d a7 c2 79 3b ec 82 67 bd
       -0.012905273 0.037075195 0.0038110407 -0.05652134
000210 f3 19 44 bb d9 cc dd bd c4 97 a0 bd 79 20 14 3c
       -0.0029922694 -0.10830087 -0.07841447 0.009040945
000220 43 66 82 bc 28 f2 12 3e 87 c4 fc 3c ae 53 82 3c
       -0.015917903 0.14350188 0.03085543 0.015909042
000230 b2 97 e3 3d db fa 37 3d db 17 6f 3d 14 dd 16 3e
       0.11112918 0.04491697 0.05837236 0.14732772
000240 2e 30 53 ba 83 15 20 bd da 7a b9 3c aa 65 86 3d
       -0.00080561906 -0.039083015 0.022641588 0.0656236
000250 c2 7d 78 3e 96 c9 c2 bd d3 90 18 bc 02 0d 93 bd
       0.24266723 -0.09511106 -0.009311873 -0.071802154
000260 f6 51 bc bc 58 12 c9 bc c0 59 14 3e 98 b3 28 ba
       -0.0229883 -0.02454488 0.14487362 -0.0006435453
000270 c6 61 c7 bd 00 92 a2 bd 52 5c d9 bd ae a3 13 3d
       -0.09735446 -0.079380035 -0.10613312 0.03604477
000280 07 13 69 3c bc 13 03 bd 0e ed a4 3d e9 83 de 3a
       0.014225728 -0.032001242 0.08053027 0.0016976568
000290 e1 95 93 3c ed e6 94 3d f0 e8 83 bc 4f d4 21 bc
       0.018015804 0.07270608 -0.016102284 -0.0098772785
0002a0 27 44 b9 bd 80 e2 42 be 4d f0 ba 3d 74 d5 58 3d
       -0.09046202 -0.19031715 0.09127865 0.05293794
0002b0 fd 3c 15 be 0a 08 a9 bc 11 ea f5 3d d0 ca fa 3d
       -0.14574046 -0.020633716 0.12007535 0.12245715
0002c0 26 de 50 bc 0a f2 0a 3e 51 7c 5b bc 06 4c 82 bd
       -0.012748277 0.13568893 -0.013396339 -0.063621566
0002d0 36 15 3b 3c 2e 69 81 3c 18 6f de bc e6 8f 81 3d
       0.011418631 0.015797224 -0.027152583 0.063262746
0002e0 f3 a1 71 3d 57 d6 50 3d e2 2a 4f 3d 8d ac 9d 3c
       0.058992337 0.05098566 0.050578006 0.019247318
0002f0 95 b7 09 3e c7 d1 f5 bd 4b 28 a7 3c dc f3 f2 bc
       0.13448937 -0.120029025 0.020404955 -0.029657297
000300 12 5a 9e bd ca 3b 36 bb 67 47 89 3d 36 52 f8 bc
       -0.07732023 -0.0027806633 0.06703072 -0.030312639
000310 e8 c1 aa 3d 34 5c d7 bb bf bf d3 bd 99 3e 65 bd
       0.08337766 -0.0065722708 -0.10339307 -0.0559679
000320 2b 96 c5 bd 94 d8 4f 3d 2a 0e b3 3d 4c 8d a0 bd
       -0.09647783 0.050743654 0.08742936 -0.0783945
000330 4b 5c cc bd 85 6b ce bb 2e 1a dc bd 11 6b c4 bc
       -0.09978541 -0.0062994384 -0.10747181 -0.023976834
000340 df fc 2b bd 00 c4 af bd 62 cf fc bd f0 cf 71 3b
       -0.041989204 -0.08582306 -0.12344243 0.0036897622
000350 18 bc 15 3e 55 23 e9 ba 4f c3 42 3d 85 a9 90 3d
       0.14622533 -0.0017787019 0.047549542 0.07063583
000360 3f 77 db bc 7b 2a cf 3c 29 43 45 bb 79 4f ca 3d
       -0.02679026 0.025288811 -0.0030099845 0.098784395
000370 66 7f 34 3d 7c 27 ab 3a 2a de 28 bd 24 99 e0 ba
       0.04406681 0.0013058032 -0.041227497 -0.0017135483
000380 e7 f3 d2 3c ab 10 88 bd ab ed 4b 3d 36 fa da 3c
       0.025751067 -0.06643804 0.049787205 0.026730638
000390 6d a2 a7 bd ca b0 a1 bd 99 38 c1 bc 6f 46 83 bd
       -0.08185277 -0.07895048 -0.023586558 -0.064099185
0003a0 ca 60 54 bc 1b 4f 08 bd 5f 39 ef 3d da 7c 42 3b
       -0.012962529 -0.033278566 0.116808645 0.0029676468
0003b0 96 ac 80 bd c1 82 ea 3d 0f ca 16 bd a9 c6 d4 bd
       -0.06282918 0.114507206 -0.03681379 -0.10389454
0003c0 62 4e 9c bd ed 0a 04 be ec 04 da 3d a9 6d 91 bd
       -0.07632138 -0.12894793 0.1064547 -0.07100994
0003d0 d4 31 7c bd 49 2b 69 3d e0 a8 89 3d 7d 00 d1 3c
       -0.061570957 0.056926046 0.067216635 0.025512928
0003e0 0b ff 82 bc 38 67 3f bb d6 67 02 3e 3a 2e 58 3d
       -0.015990755 -0.002920581 0.12734923 0.05277846
0003f0 01 11 0c bd f8 08 e1 bc 66 8f ed bd 32 4b 32 3b
       -0.034195904 -0.027470097 -0.11599617 0.0027205464

lstm.weight_hh_l1 f4 [256, 64]
000000 49 7a 89 bd b7 b9 02 3d 83 3c 38 bd b7 de 17 3c
       -0.06712777 0.031915393 -0.044979583 0.009269408
000010 ca 1b f2 bd 37 26 e9 3c f4 28 b0 3d 72 e9 95 3d
       -0.118217066 0.028460605 0.08601561 0.07319917
000020 79 06 cb bd 20 73 86 3d 86 7e 31 ba 44 6a 09 3e
       -0.09913344 0.06564927 -0.00067708676 0.13419443
000030 5b 77 29 bd 3c ba 88 3d 97 de 08 3e b3 38 d8 3d
       -0.041373592 0.066761464 0.13366161 0.105576895
000040 cb 23 87 3d e0 66 1f be 3e da aa bd ab bf 85 3c
       0.06598624 -0.15566587 -0.08342408 0.016326746
000050 07 93 8a bd 06 cd 97 3d 6d b6 23 3d fe b7 1e 3d
       -0.067663245 0.07412152 0.039968897 0.038749687
000060 9e 24 f3 bc 60 e5 03 bd 05 58 13 3d 57 8e 11 3e
       -0.029680546 -0.03220117 0.035972614 0.14214455
000070 c9 eb e0 bd a9 e5 8f bc e8 7f 03 be 04 71 e6 3d
       -0.109824724 -0.017565565 -0.12841761 0.11252025
000080 d3 70 4b 3b f3 26 59 bb ff 50 ab bd a6 5d 63 bb
       0.003104259 -0.0033134788 -0.08365058 -0.003469327
000090 0c 8a 8d bd be 46 dc 3b 5e 4c d0 3d af 00 1b bb
       -0.06911096 0.0067223003 0.10170816 -0.002365153
0000a0 58 2d 92 3d 59 3d 3b bb 00 e9 e2 3d be 05 ca bc
       0.07137555 -0.0028570502 0.110795975 -0.024660941
0000b0 47 dd a3 bd 85 94 df 3c f6 a0 ed bd 15 fe e4 3d
       -0.0800119 0.0272925 -0.116029665 0.11181275
0000c0 37 49 eb ba 61 a5 09 3b 37 13 a7 bc e5 c6 f5 3d
       -0.0017950897 0.0021003115 -0.020394905 0.12000827
0000d0 24 2c 63 bd 98 4a 7f 3c 91 32 1d 3d 8b bc b0 bd
       -0.055462018 0.015581749 0.038378302 -0.08629712
0000e0 61 57 d0 3c 82 4c f3 bd ea c1 a3 bd 38 e9 b8 bd
       0.02543229 -0.11879827 -0.079959705 -0.09028858
0000f0 8d be 48 bd da 7d c6 3d 88 37 ac bd 91 82 12 bc
       -0.04900985 0.09691973 -0.08409029 -0.008942262
000100 fa c1 be 3d 5c cf 4a bc de 02 6e bd e2 a7 dc bd
       0.09314342 -0.01237854 -0.058108203 -0.107742086
000110 ce 92 58 bd 42 a6 7b bc 2c 89 93 bd 40 12 c0 3d
       -0.05287438 -0.015359463 -0.07203898 0.09378481
000120 a5 ea 1a bd 1b 26 e4 bb c8 1d 0f be e4 61 83 3d
       -0.03782143 -0.0069625503 -0.13976204 0.064151555
000130 af 72 6b 3d cc f9 fa 3d 45 69 dc 3d ec 4b f0 3c
       0.057482418 0.12254676 0.10762266 0.029333077
000140 4a 6c 6a bd 2f ff 90 3d ed a7 83 bd 6a a9 bf 3d
       -0.05723218 0.070799224 -0.06428514 0.09358485
000150 7d f6 3b bc 6e 0f 0a be be b5 1c bd 35 97 a8 bd
       -0.011472342 -0.13482448 -0.03825926 -0.082319655
000160 df 2e 17 bd e0 67 8a 3d d2 1d f1 bc 9e f8 27 bd
       -0.036909934 0.06758094 -0.029433165 -0.041008584
000170 67 f1 40 3d 9a 5c 5f bd 8f 18 ee bd 35 0c c2 3d
       0.04710522 -0.05453167 -0.11625778 0.094749846
000180 54 45 d4 bc 79 36 d0 bd b6 cc 96 bd 89 04 81 bc
       -0.025911964 -0.1016664 -0.07363264 -0.015749233
000190 f1 a2 8c bd 67 f3 94 bd 73 77 e0 bd 06 15 62 3d
       -0.06867016 -0.07272988 -0.10960283 0.05519583
0001a0 81 ae e5 3c db 3c 47 3d c3 7a 60 3d 5a 9c fd bd
       0.028037312 0.04864202 0.054804575 -0.12383337
0001b0 8c f2 48 3d fe 31 20 3e 43 66 d7 3d b8 95 2d bd
       0.049059436 0.1564407 0.10517552 -0.04237911
0001c0 27 9b 82 bd f8 81 21 be 03 1e d0 3c 73 94 f3 bd
       -0.06377249 -0.15772235 0.025404936 -0.11893549
0001d0 d0 8c a4 3d fc e3 aa 3d 75 f3 09 be 6e 53 4b bc
       0.0803467 0.08344266 -0.13471778 -0.012410028
0001e0 5b 70 3b bd 1c d8 ab 3d 54 d2 0f 3d 4e 35 1a bc
       -0.045761447 0.08390829 0.035112694 -0.009412123
0001f0 5f 5e 2a 3d fa 16 9d bd 03 7a ff bd 9c 09 37 ba
       0.041593906 -0.07670398 -0.12474444 -0.0006982328
000200 ad d6 82 3b e4 52 19 be 23 b9 bf bc 7d d3 07 3d
       0.0039928765 -0.14973027 -0.02340371 0.033160675
000210 71 4c 9a 3d 64 f8 a1 bc 6a 9c 02 be 24 a1 65 bd
       0.07534111 -0.019771762 -0.1275498 -0.05606188
000220 82 ef fb 3c 12 d9 a8 3d 32 0d 0c 3d fa 31 fc bb
       0.030753855 0.08244528 0.03419227 -0.0076963874
000230 7e fb 3f bb 4a d7 85 3c 27 31 29 3d a6 1b 72 bd
       -0.0029294188 0.01633801 0.04130664 -0.0591084
000240 b9 50 ba bb 16 bc 2e bd 7b a5 86 3c 37 a0 45 be
       -0.0056858924 -0.04265984 0.01643633 -0.19299398
000250 f5 2e 80 bd 3a 15 dd 3d f2 87 bc bd 8f f3 73 3d
       -0.06258956 0.10795064 -0.09205617 0.059558447
000260 39 7f a3 3c 9a b1 94 3c cc 8d 7b 3d ef b1 ff bd
       0.019958125 0.018151093 0.061414525 -0.1248511
000270 6f b4 00 3e c7 0b 8f 3d 5f ca d9 bd c6 bf 3d bc
       0.1256883 0.06984668 -0.10634302 -0.011581367
000280 b4 fb 5a bc 02 63 a1 bc e4 25 41 3d ee 38 92 3d
       -0.013365675 -0.01970053 0.047155276 0.07139765
000290 d4 5e 56 bd 58 aa 75 bd c8 35 68 3d 0e da d7 3d
       -0.05233653 -0.059976906 0.056691915 0.105396375
0002a0 25 87 43 bc 64 8d 94 3d c0 0b 13 3e c3 ed fb bd
       -0.011934076 0.072535306 0.14359951 -0.12301209
0002b0 d4 28 7f 3c 10 c3 2b bd 4f 24 9b bd f2 51 c0 3b
       0.015573699 -0.041934073 -0.07575285 0.0058691436
0002c0 67 40 a2 3d 39 8f 00 3d be a2 03 3d c6 36 92 bd
       0.0792244 0.031386588 0.032137625 -0.071393535
0002d0 91 0e f0 bd 81 ab fe bd c6 23 88 3d 57 c7 75 bd
       -0.11721528 -0.124350555 0.06647448 -0.06000456
0002e0 18 d7 5d 3d d9 c9 2a 3d bd 57 73 bd 9e 4a d2 3d
       0.054160208 0.041696403 -0.059409846 0.10268138
0002f0 df 50 b9 bc 3f db 37 bd 8e 2d 4c bd 12 46 a5 bd
       -0.02262157 -0.044886824 -0.04984813 -0.080700055
000300 c2 b8 d2 bc 89 57 fa bc 4e c5 2c bd eb 45 7b 3d
       -0.025722865 -0.030559318 -0.042180352 0.061345976
000310 11 ac 9e 3d b7 23 4a bd 89 c3 bc bd 51 74 8f bd
       0.07747663 -0.049350467 -0.09216983 -0.070046075
000320 ed 17 0e 3e 32 f3 17 3e 4e 1a 6a bc bd 23 5d bd
       0.13876314 0.14838865 -0.014288498 -0.05398916
000330 2a ea 95 bd 76 b1 c9 bd 25 17 f7 3c dc 7b b1 bd
       -0.07320054 -0.09848301 0.030162403 -0.086662024
000340 58 7d b7 bd 55 32 8b bd 25 e0 82 bd fe fb 6d bc
       -0.08959454 -0.067967094 -0.063904084 -0.014525412
000350 98 df 96 bd 77 6f fa bd 12 77 95 ba 01 f7 5f bd
       -0.07366866 -0.122282915 -0.0011403284 -0.05467892
000360 8e 7b 98 bc 9c cf 6a bd 25 b1 91 bd 30 ba 4c 3d
       -0.018613603 -0.057326898 -0.07113866 0.04998225
000370 26 51 33 bd 68 4c a8 3d 14 fb 9b bb ed 67 9b ba
       -0.04377856 0.08217698 -0.0047601555 -0.0011856534
000380 aa 57 98 3d 34 3d 0b bd ac 7c 6d bd aa d1 80 3d
       0.074385956 -0.033993915 -0.057980224 0.0628999
000390 fd 1f ae 3d 7a ac 7f bc d6 ae 8e bc c8 26 ac 3d
       0.08502195 -0.015605086 -0.017417353 0.084058344
0003a0 86 69 cc bc 36 a5 96 bd e2 fb 64 3d e4 e0 b1 bc
       -0.024952661 -0.0735573 0.055904277 -0.021713682
0003b0 20 16 32 bd 6a 06 ce 3d 57 13 e5 bc ca 88 ea bd
       -0.04347813 0.10059817 -0.027963324 -0.11451872
0003c0 ba 84 1f 3d 00 c8 8d bd 06 30 b4 3d 44 71 3f 3d
       0.038944937 -0.069229126 0.08798222 0.046738878
0003d0 a0 e5 9d bd 0d db 0f 3e 03 c9 ab bd 65 3c 84 3c
       -0.07709813 0.14048405 -0.08387949 0.01614208
0003e0 c8 f9 b5 bd 80 a4 09 be 09 d1 ff bd 9f a3 b0 bc
       -0.088855326 -0.13441658 -0.12491042 -0.021562396
0003f0 6d 66 dd 3d 6f 2d 89 bd 54 16 b8 bc 00 bb 8a bd
       0.10810552 -0.06698119 -0.022471584 -0.06773949

lstm.bias_ih_l1 f4 [256]
000000 09 39 dd 3d 50 ec cd 3b a7 f8 8d 3d 1c a9 30 3e
       0.10801894 0.006284274 0.06932192 0.1725201
000010 8b c6 bc 3d 3f 36 2a 3d 85 44 f5 bb a0 a8 04 3e
       0.092175566 0.04155564 -0.007484975 0.1295495
000020 21 99 aa bd 97 31 c7 3d 07 1d 6c bd 85 79 4b 3d
       -0.08329988 0.097262554 -0.05764487 0.049676437
000030 e6 72 60 3e 6d 19 2a 3e 66 b5 c8 3d b8 7d 2d 3e
       0.2191883 0.16611262 0.09800224 0.16942489
000040 ee cd b5 3d cf e4 f6 3c df 15 8e bd 90 40 e3 3d
       0.088771686 0.030138401 -0.06937765 0.11096299
000050 84 ad 07 3e 29 de 9d bd eb 37 39 3e 91 9d 95 3d
       0.13249785 -0.07708389 0.18087737 0.07305444
000060 92 02 aa 3d 41 45 af bb 19 ec 9b 3c 83 b3 d7 3d
       0.083012715 -0.005348832 0.019033479 0.10532286
000070 0d 98 bb 3d f6 b1 00 3b e8 e8 1e bc ba 91 2e bc
       0.09159861 0.0019637323 -0.009699084 -0.010654861
000080 1c ba c1 bd f0 09 bb bd 60 99 89 3d c7 0a d1 bc
       -0.09459326 -0.09132755 0.06718707 -0.025517834
000090 ed 60 14 3d b4 52 f4 bc a5 3f 6e bc e1 9a fd bc
       0.036225248 -0.029824592 -0.014541541 -0.030957641
0000a0 b0 eb 9b 3d 56 4e 03 3e 61 89 54 3d 2f 53 12 3e
       0.07613313 0.12822852 0.051888827 0.14289545
0000b0 5f fc 2c 3c 11 c1 68 3d 9e cd 22 bd 3a d6 ec 3b
       0.010558217 0.056824747 -0.039746873 0.0072276862
0000c0 ca 43 0d 3d 47 e6 0f 3e 15 59 09 3e 59 df 58 bd
       0.034488477 0.14052688 0.13412888 -0.052947376
0000d0 6a e0 44 bb 95 25 9c 3d 73 0c 05 3d 0e 66 85 bd
       -0.0030040988 0.07624356 0.032482576 -0.06513606
0000e0 51 c8 06 3e 30 06 f5 ba 6e 69 0a 3e d0 f7 1e bd
       0.13162352 -0.0018693861 0.1351678 -0.03881055
0000f0 4b 2d 93 bd ab c7 04 bd 1f 16 1d 3e ea 9c 39 3c
       -0.07186373 -0.03241698 0.1534047 0.011328915
000100 36 f5 74 bd 32 8d 89 bd 18 fa 81 bd ff 92 94 3d
       -0.059804164 -0.06716384 -0.0634653 0.072546
000110 81 e6 f8 3c 82 9c 7d bd 0c 12 93 3d ba 1e 81 bd
       0.03038335 -0.061916836 0.071811765 -0.06304689
000120 5e 17 ab 3d de c1 2e bd b0 4c 7a bd f7 35 be 3c
       0.08354066 -0.042665355 -0.06110829 0.023219092
000130 79 51 1b 3d 19 f7 00 3b 93 33 47 3d f7 90 ac bd
       0.037919495 0.0019678532 0.04863317 -0.08426087
000140 ea a6 c8 bd 68 a4 f3 3c d7 db dd 3c 66 b8 0c be
       -0.09797461 0.029741481 0.027082367 -0.13742217
000150 a9 8d 7d 3d da 7b 78 3c ca 3d e2 bd c3 80 33 bc
       0.061902676 0.015166247 -0.110469416 -0.010955992
000160 a8 80 f0 3d 00 62 8e 3d 85 00 c4 bd 39 84 c3 bd
       0.11743289 0.06952286 -0.095704116 -0.09546704
000170 df 33 cb bd 81 8c cf 3d 9e 82 33 bc 77 9f c3 3d
       -0.09922003 0.10134221 -0.0109564345 0.095519
000180 ff 6b b9 3c ee 8a d2 3d 28 98 a7 3d 9e 8c e7 3d
       0.022634504 0.10280405 0.081833184 0.113061175
000190 7b 87 cc 3d a7 ec 29 bd 2c 9b 9f 3d c4 15 1f 3e
       0.09986778 -0.041485455 0.077932686 0.15535647
0001a0 26 bc c4 3c 0c 7e 32 3b 80 8f 96 bb 82 01 b2 3d
       0.024015497 0.0027235774 -0.0045947433 0.08691694
0001b0 75 09 c0 3d ef 4b 08 be 38 3b b8 bd 43 fb d2 3d
       0.09376804 -0.13310216 -0.0899567 0.103018306
0001c0 be b0 cb bc 44 f8 36 bd 2c a2 f1 bd e2 63 4e 3d
       -0.02486455 -0.04467036 -0.1179851 0.050388224
0001d0 f2 c7 af 3d 74 ff 22 3d 42 fd 94 3d cc 16 9a bd
       0.085830584 0.0397944 0.072748676 -0.075238794
0001e0 96 cb 28 3a c4 81 04 3b 81 58 74 bc a9 0a d2 3d
       0.0006439028 0.0020218948 -0.014913679 0.102559395
0001f0 f8 72 65 3d f1 0e 3e bd 00 39 cf 3d 65 d5 c3 bd
       0.056017846 -0.046400968 0.10118294 -0.09562186
000200 2c 6c a2 3d c3 7b 90 3d 3e 43 81 3d b5 f9 d5 bd
       0.079307884 0.07054856 0.063116536 -0.104480185
000210 38 c1 17 3b 46 82 da 3d 86 ae ba bd ee 6c 99 3d
       0.0023155939 0.10669379 -0.09115319 0.0749148
000220 4e be 2c 3d f1 a6 ee 3c 89 26 a7 3b 70 d9 a6 3d
       0.042173676 0.029132338 0.0051010293 0.08146942
000230 2a bd 8b 3d 5f d4 f4 bc 55 d1 b2 bb ec 96 d1 bc
       0.068231896 -0.029886423 -0.005457083 -0.02558466
000240 23 15 a5 3d 8a fe 33 bd 53 d1 22 bc d9 4f b5 ba
       0.08060672 -0.04394392 -0.009937602 -0.0013833
000250 13 cb 84 3d 59 35 1d bc f8 30 ed bd 9f 44 1f bd
       0.06484046 -0.009595239 -0.11581606 -0.0388838
000260 0b d3 e5 3d fe ac fc 3c ab e8 02 be 66 82 c8 3d
       0.11221894 0.030844208 -0.12784068 0.097904965
000270 43 0d 25 bd 99 e3 e1 3c 03 9f 82 bd e2 75 8c 3d
       -0.04029585 0.027574347 -0.06377985 0.06858422
000280 14 c1 df bd 5f 44 63 bc be 30 8b bd a4 c9 66 bd
       -0.109254986 -0.013871281 -0.06796406 -0.056344643
000290 54 dd 25 3d 1d 0f a6 bd d2 2b b3 3c ba 1c ba 3c
       0.040494278 -0.081083514 0.021871481 0.022718776
0002a0 63 a4 ee 3b ca b9 02 3d 57 74 3d 3d 3f 40 cb 3d
       0.00728278 0.031915464 0.04625353 0.09924363
0002b0 8a 70 7b bc 3a b5 8e 3d ea 26 c3 3d bb a4 94 bd
       -0.015346656 0.0696816 0.09528907 -0.07257982
0002c0 44 ec ae 3d b2 3e 08 3d 12 8b 24 3d 10 3e 95 3d
       0.08541158 0.033262916 0.04017169 0.07287228
0002d0 d3 82 7f bd b2 72 07 bd cc 8b 39 3d 58 2e a2 3d
       -0.062380623 -0.033068366 0.045299336 0.079189956
0002e0 d3 14 85 3d 33 6a 26 bd 2c 74 80 3d be ff ac 3d
       0.064981125 -0.040628623 0.06272158 0.084472165
0002f0 00 69 a1 3d 3d 63 c1 3d 16 5d 50 bd 5d 34 4c bd
       0.07881355 0.09442756 -0.050870024 -0.049854625
000300 bc 22 b2 3d 5a 84 bf bc e7 f4 9b 3c 8b 43 99 3c
       0.08698031 -0.02337854 0.019037677 0.018708965
000310 63 ee a9 bc 13 0f b0 3d a9 ea f0 3d 51 14 62 3c
       -0.020743554 0.08596625 0.11763508 0.013798789
000320 ac 5a ac 3d 2e c6 de bc 2e 0c 04 3e 4f 4e ce 3d
       0.08415732 -0.027194109 0.12895271 0.1007353
000330 e6 66 45 3e 47 35 8c bd 4f 06 f5 3d 88 1e 15 3e
       0.19277534 -0.06846099 0.11964094 0.14562428
000340 76 47 53 3d 3c d3 13 3d 0d f0 3c bd 30 6c f9 3d
       0.051581822 0.03609012 -0.046127368 0.12178838
000350 28 16 cc bc 6d a2 fa 3d 8d 57 02 bd a0 96 d7 bb
       -0.024912909 0.122380115 -0.031821776 -0.006579235
000360 76 cd 98 ba c1 c6 b9 3c 5b 03 dd 3d 3f 19 b8 3d
       -0.0011657912 0.022677781 0.10791656 0.0898919
000370 fa da 3e 3d 17 3c 8a bd 3d 9a a7 3d 97 2c 3f 3d
       0.04659555 -0.067497425 0.081837155 0.046673384
000380 ef 0b 85 bd 99 5a ae bd e7 0f 20 bd 4c c6 bd 3d
       -0.06496417 -0.08513374 -0.039077666 0.09266338
000390 c5 09 88 bc 88 3f da 3d 1f 8a 01 be 5b bb 2e 3e
       -0.016606221 0.10656649 -0.12650345 0.17063658
0003a0 b5 b5 25 3d 10 c2 ba bc 63 18 8f 3d 1a 54 ba 3d
       0.040456492 -0.022797614 0.06987073 0.09098072
0003b0 25 9d f9 3d 7e b7 2f 3d 9d 3b 41 3b c4 75 b6 bd
       0.12188176 0.0428996 0.0029484995 -0.08909181
0003c0 48 a5 fc 3d 16 c9 6b bd 1b f3 d4 3d 5b 19 bd bc
       0.123362124 -0.057564817 0.10397931 -0.02308338
0003d0 74 1f d3 3c f8 42 2f bc 74 4c 9e bb 29 f6 88 bd
       0.025771834 -0.010697119 -0.0048308913 -0.06687576
0003e0 50 fb 49 3d e4 bb be bd 2a 56 bb bb 9c 76 01 3e
       0.049311936 -0.09313181 -0.0057170587 0.12642902
0003f0 ab d9 f8 bc 37 bb a1 bd de 2d 89 bd b3 63 fc 3d
       -0.03037723 -0.078970365 -0.066982016 0.123237036
