data/models/MSFT/predict_t3/model.pth (torch, 615602 bytes, 27 tensors)

lstm.weight_ih_l0 f4 [256, 1]
00000000: 648e 873b 3776 1abe 1cdb 14be 7476 bc3d
00000010: f0df c0bd bff8 23be dddb eebd 982d 17be
00000020: f5c7 413e 0b97 8dbd d4ee 103c efdd 2e3c
00000030: a7eb eebd b374 41bd c502 00be 6bcb b6bd
00000040: dbab d1bd 8d7f bebd b5c9 11bc 4374 41be
00000050: f7c2 31be e4ef 0abe 2bcc fa3c d9bf 283d
00000060: 94e7 e5bd b45f 9fbc be4b ffbd 975d 63bd
00000070: 46f4 edbd 3c0d 1ebe 746e 4abd 2a4c 76bd
00000080: b056 81bc 11fd 9bbd 0aae 81bd c836 973c
00000090: 0558 003e 322c 7bbd 1853 85bd 25d2 f9bd
000000a0: d9fd 19be 7b9f 44bc 5d3b a0bc 4d42 433d
000000b0: 3955 95ba e41e 01be 4e16 963d 7464 c93c
000000c0: 0aa5 80bd 9cda 39be cc3b 97bd 1957 b73b
000000d0: 4f4f 93bd 5ac1 383d 2464 2e3e bcdc 993d
000000e0: 86a6 1cbe 8d9c 5dbd 04fc 65bd 987a aebd
000000f0: 72dd 813c f92c 35be d659 ffbd 089f 74bd
00000100: 0535 743c 5ed7 143e 6332 22be 9a6a 573e
00000110: a802 8abc ce7d d3bd 54f7 583c f73c 913d
00000120: 24c1 733e d20d 253d e30e 973d 7dd5 0abe
00000130: 7fd9 03be 07a8 d63d 4ff5 c13b 2f6c c13c
00000140: 5598 84bd 6390 59bd 870c a73d e5f4 19bd
00000150: de9b 8f3d b501 0bbe 9a9f dd3c 992b 38bb
00000160: 68c1 b8bb 24be adbd 05e5 8a3d 8fe4 943e
00000170: 7900 dfbd f987 b33d 66af a0bd 8315 6d38
00000180: 03be d4bd 9ea6 163d 310f c5bd ae48 5a3e
00000190: 36a3 a93d e664 7a3d fb5c 4b3d 26d9 9fbc
000001a0: 9539 97bd 7a11 04be af32 0bbd 1ebb 5b3e
000001b0: 7d6a 44bd a3f4 91bd d71c 3a3e 50a9 8b3d
000001c0: 6d24 73bd a430 17be 4b1a 1abe 36c8 b73d
000001d0: 3fae c13d ba6c 713d ece9 423e d512 8f3d
000001e0: 4f69 fbbd 1beb c33d 5ebd 91bd e305 d93c
000001f0: 28d9 a0bd 96c1 813d 1af8 c8bd 6e03 bdbc
00000200: c150 01be 6818 39be a064 39be 21e3 6cbe
00000210: 0d32 1e3b 7fa6 953d 42d5 fdbd e95b 643e
00000220: 562b 6c3e cabe efbc a6bb 2fbe 7b71 443e
00000230: 478e 1d3e 8360 bb3d 75b4 28be 8856 c93d
00000240: 96e6 d83d 4ef5 65be a671 e0bd 5d4d edbd
00000250: 9b7b 083e baa0 4c3e 6b86 6e3e bd46 7b3d
00000260: 9d36 1fbe 7d95 28be fe74 28be c74a 27be
00000270: 696d 3f3e 89ef 4d3e f4cc dcbd 3094 4c3e
00000280: aebc fdbc 346a 4d3e 750e 423c 36df 95be
00000290: aaa0 793e edab 2e3e 9bf6 43be 6d10 043e
000002a0: eb5b bd3d 94c8 1e3e c3e5 683e e773 0e3e
000002b0: 9e01 85bd 6acd 20be 0cc7 45bc 63bc 013d
000002c0: 2fea 2fbe 7cfd 5a3e 3767 3c3e ab62 a03d
000002d0: 7396 5b3e 30f0 8bbd 687f 57be 1401 35be
000002e0: ab2b 28be 8f2f 02be 1b02 473e 5a39 c23d
000002f0: 887a 343e c725 1ebe 94fa b43d 9b7e df3d
00000300: 450f 01bd 6912 2abe 1740 c13b ef06 183e
00000310: 2f4f 473d ef88 da3c 098e be3a 1e48 9fbe
00000320: 320b 193e b885 63bd dd63 b9bd 8c73 c1bd
00000330: 8826 7c3d 2687 0dbe 9995 18be 9f8b f9bd
00000340: b92e b1bc 5aab 7c3b 2958 24bc 08d2 39be
00000350: 8fee babc e99d 683c 997a efbd 9bff 16ba
00000360: 0271 21be 858c c5bd eb37 59be 3918 0d3e
00000370: cfa7 0f3d e644 dfbd 795a 5e3d 0cfc 8cbd
00000380: f6b5 f73c 395c 7c3d a88a ba3b 0d78 95bc
00000390: 73b5 1c3e b4f3 06be fdf0 acbd 4b16 963d
000003a0: 0407 0dbe b2f4 a5bd bc8b 23be d594 1a3e
000003b0: 56b0 30be 4190 35be dda2 d6bb 884c a2bd
000003c0: f895 a8bd 1613 203d e944 89bd 5ac3 8d3d
000003d0: b8c3 be3d 57d8 ce3d 1e5b 0b3d f87f fa3d
000003e0: 312a cdbd 3697 873c 842f 2bbe b4a2 87bb
000003f0: cd0b ecbd ef4e 3cbe e310 463d 1e7b 03be
0.0041368473 -0.15084158 -0.14536709 0.09202281 -0.09417713 -0.16012858 -0.11663029 -0.14763486
0.18923934 -0.06913575 0.008846004 0.01067303 -0.11666041 -0.047230434 -0.12501056 -0.08925518
-0.10237857 -0.09301672 -0.008898188 -0.18892007 -0.1735953 -0.13568074 0.030614933 0.041198585
-0.11225811 -0.019454814 -0.124656186 -0.055509176 -0.11618857 -0.15434736 -0.049421743 -0.06013123
-0.015788406 -0.07616628 -0.063320234 0.018458739 0.12533577 -0.061321445 -0.065099895 -0.12198285
-0.15038241 -0.012000914 -0.019559557 0.04767065 -0.0011393196 -0.1260944 0.07328473 0.024584033
-0.06281479 -0.18149799 -0.07384452 0.0055950996 -0.07192861 0.04510627 0.17030388 0.07512805
-0.15297899 -0.054104377 -0.056148544 -0.08519477 0.015852664 -0.17692937 -0.12468307 -0.059721977
0.014905219 0.14535281 -0.15839534 0.21036759 -0.01684697 -0.1032673 0.013242561 0.07091706
0.23804146 0.040296383 0.07375886 -0.13558002 -0.12875937 0.104812674 0.0059191356 0.023611156
-0.064743675 -0.053116214 0.08156686 -0.037587065 0.07012151 -0.1357487 0.027053643 -0.0028102158
-0.00563829 -0.08483532 0.06781963 0.29080626 -0.10888762 0.08766169 -0.078459546 5.6525238e-05
-0.10387804 0.036779992 -0.09622038 0.21316788 0.08283083 0.06113138 0.04964922 -0.019512724
-0.0738403 -0.12897292 -0.033983883 0.21458098 -0.047953118 -0.07126739 0.18175064 0.06819403
-0.05936091 -0.14764649 -0.15049092 0.08973734 0.09457063 0.05894158 0.19034547 0.06986014
-0.122759454 0.09566327 -0.07116197 0.026492065 -0.07853919 0.06335752 -0.098129466 -0.023072924
-0.12628461 -0.18075716 -0.18104792 -0.23133518 0.002413872 0.07307147 -0.12394191 0.22300686
0.23063406 -0.02926578 -0.17161426 0.19183914 0.15386306 0.091492675 -0.16475089 0.09830958
0.10590856 -0.22456858 -0.10959177 -0.115870215 0.13328402 0.19983187 0.23293464 0.06134676
-0.15548177 -0.16463275 -0.16450879 -0.16337119 0.1869408 0.20110907 -0.10781279 0.19978404
-0.030973759 0.20060045 0.011844267 -0.2927186 0.24377695 0.17057772 -0.19137041 0.12896891
0.092460476 0.15506202 0.22743897 0.139114 -0.06494449 -0.15703359 -0.012071382 0.0316738
-0.17179178 0.21385759 0.18398748 0.078313194 0.2144411 -0.068329215 -0.21044695 -0.17676193
-0.16422908 -0.12713455 0.19434397 0.09483595 0.17624867 -0.15444098 0.088368565 0.1091282
-0.031508703 -0.16608585 0.0058975327 0.14846395 0.0486595 0.026676623 0.0014538179 -0.3110971
0.14945677 -0.055547446 -0.090522505 -0.09445867 0.061560184 -0.13821086 -0.14900817 -0.12184834
-0.021628724 0.0038554282 -0.010030785 -0.18146527 -0.022818832 0.014197805 -0.116933055 -0.0005760134
-0.15765765 -0.096459426 -0.21212737 0.13778771 0.035072144 -0.10901813 0.0542855 -0.068840116
0.030238133 0.061611388 0.0056927986 -0.018245721 0.15303592 -0.13178903 -0.08444402 0.07328471
-0.13772207 -0.081033126 -0.15971273 0.15095837 -0.17254767 -0.1773081 -0.0065501765 -0.079247534
-0.08231729 0.0390807 -0.06702597 0.06922026 0.09314674 0.10099857 0.034022443 0.12231439
-0.10017813 0.016551595 -0.16717345 -0.004139269 -0.11525688 -0.18389486 0.04835595 -0.12839934

lstm.weight_hh_l0 f4 [256, 64]
00000000: 31f6 7cbd 8d0a adbd 40a6 85bd d0c9 4abe
00000010: be73 ec3d d62c c3bc 1699 833d 7ef6 87bd
00000020: 8195 8b3d f762 2dbd 9137 90bd 822a 9cbd
00000030: 8865 a83c a61a a5bd 0ec6 b53d 57a6 ac3d
00000040: a7e9 753d a173 c83d b895 c03b 9bec afbd
00000050: 4978 503c 4dc3 703d b635 9ebd cbfc 143d
00000060: 3b75 17bd 296c 053d bc07 03bd 26b7 503d
00000070: 71cf 5a3d 340d 833d 8dd9 4a3d 933e 4cbd
00000080: cf3f 7b3d 6c34 b93d de77 4dbd 884f 853d
00000090: 9e02 9d3d e8d7 c9bd 96ce 83bd cbcf 1cbd
000000a0: e83e 08bd cc44 77bd 0935 c3bd 18f7 c9bd
000000b0: 3f3f aebd b945 113e 85c9 c03c 9e02 a4bd
000000c0: 864d 893d ec2f 923d 25b5 643d 8af5 06be
000000d0: 486f 66bd 48cb 463d 9f81 c13d f7f9 92bd
000000e0: ec5d adbd 038e d4bd 2d42 19be 9511 b63b
000000f0: 4c00 a33d f66c 8e3d 7f5c 073d 54f0 68bd
00000100: aa25 993c 31e8 f43c b36c 253e dcd0 56bd
00000110: 5740 04bc b456 84bd be31 c33d b10f 803d
00000120: b03e b03d 4113 54be 8b5c ff3b 93dd 82bd
00000130: 4cf4 9c3d f310 30bb ea9c 443e 30cf 6abd
00000140: 4c5c 1bbc d427 e73c 43e3 4c3d d8c0 173e
00000150: d620 153d b29e 10bd 38a1 c4bd 64d5 773c
00000160: abd7 153e e46b 923d 1750 163e da5c 3cbd
00000170: 10dd d4bc 8477 3e3d b533 a73c c330 cb3d
00000180: a61e 54bd 1303 48bd d250 3fbe 3e08 50be
00000190: cc91 123e 4cc1 40be f6ef 07bc 7c94 d5bc
000001a0: 8c08 0dbe 288c 79bc 9138 363c 94a7 ef3d
000001b0: fa7a 383e 8b14 91bd 9209 6c3d 8ff0 f6bd
000001c0: 1c7c 07be 4bde 273d 316f ec3c 3444 65bd
000001d0: 86dd a23c 1319 47bd 0ecf 11bd 74b9 4ebe
000001e0: c1ee aabd 56fe 813b 6c3a c0bd 7fab 253d
000001f0: f085 4abd 7b0a cdbd 7619 7bbc 0028 26bd
00000200: 3ceb b7bc 75ff 063e 5497 0d3c e05e 53bd
00000210: fea8 a83b 7e89 1e3d 37bd 743d 0d9c d03c
00000220: d58d 243e caa9 543d 597a cb3d 5684 6e3c
00000230: 5e22 c6bb 00ac 06bd 0c0c b5bd 0f45 abbc
00000240: f97d 9d3b 841d c2bc cc80 02bd e906 ce3d
00000250: 6fa5 a0bd 5bcb 883d 2553 11be ee51 8fbc
00000260: 820b 07bc d65a a43d 280f 51bd 6c32 2dbe
00000270: 946b a4bd 87e1 b23d 4030 2ebd e353 a73a
00000280: 864e 3cbd c3de 433b f842 4ebd 5239 a6bc
00000290: 85d6 473e 5c0e a5bd 5587 803d 8df0 8a3d
000002a0: 460f 28bd a59f c4bd 5b92 9dbd 5920 4cbd
000002b0: f52c ccbd 7594 6c3d 283e 233e f657 bf3d
000002c0: 750e d53d 22a8 67bd 0803 21bc 82a8 5dbd
000002d0: 7339 ccbd f6a2 9ebd d3ee 00bd 0ffc 1d3d
000002e0: aea3 133e 73de 613d 3483 543d 2f56 993d
000002f0: f680 8d3d 9853 883d 8bf8 a7bd ccb1 15bd
00000300: c35f b6bc 6bda 0fbe 4e71 aabd 987d 0e3c
00000310: 4158 d63d d8f8 b8ba 1839 40bd 6966 883d
00000320: 77dc 4d3d c086 69bd b365 45bd 479b 6bbd
00000330: 43c2 acbc bc16 0ebb b52d 3f3d c4c5 abbd
00000340: 9164 123d f5d5 093e 3720 98bd 55aa 06be
00000350: 838b 5a3d 1692 373c 7f01 2ebc b5c2 b13d
00000360: 8e6d 7ebd 9028 cbbc d5d8 99bd 1606 7bbe
00000370: a15b 19bd c77b f9bc 0063 0dbd e63d 393e
00000380: 47dc 033e 35d8 173e 6a20 51bd e2de 16bd
00000390: fbc3 393e 0855 8f3d 9325 f7bd 7918 a73c
000003a0: 5824 713c 8614 223d 14ba 9e3d 26ae 033e
000003b0: 8df5 303e 6706 e4bd be82 373e 6136 21bc
000003c0: 4d87 55be 02b2 113e 9b02 a83d 0b0c cf3c
000003d0: 7ffc 573e d235 c53c 6233 33be 94dd 08be
000003e0: 24c9 bcbd 7303 66bb 828a c73d 0dc8 173e
000003f0: 550e 223e d428 1fbd a46c 563e 9bbc cdbb
-0.061758224 -0.08449278 -0.0652585 -0.19803548 0.115455136 -0.02382509 0.06425683 -0.066388115
0.06815625 -0.04233071 -0.070418485 -0.07625295 0.020556226 -0.080617234 0.088756666 0.08430164
0.06003728 0.097876795 0.005877223 -0.08590051 0.012723991 0.058780003 -0.07725088 0.036373895
-0.036977034 0.032573853 -0.031989798 0.050955914 0.053420488 0.06399003 0.04952388 -0.049864363
0.06134015 0.09043202 -0.050163142 0.0650931 0.07666515 -0.09855634 -0.064358875 -0.038284104
-0.033263117 -0.060368344 -0.095316 -0.098615825 -0.08508157 0.14186753 0.023533592 -0.08008312
0.067042395 0.071380466 0.055836815 -0.13179603 -0.05625847 0.048533708 0.094485514 -0.07176583
-0.0846518 -0.10378649 -0.1496665 0.005556295 0.07959041 0.069543764 0.033047196 -0.05686982
0.018694717 0.029895874 0.16154747 -0.052445278 -0.00807198 -0.0646185 0.09530972 0.06252993
0.08605707 -0.2071047 0.0077930144 -0.06389918 0.076637834 -0.0026865571 0.19200483 -0.057326496
-0.0094824545 0.028217234 0.05002142 0.14819658 0.036408268 -0.035307594 -0.096010625 0.01512656
0.14633052 0.07149485 0.1467899 -0.045986988 -0.025984317 0.046500698 0.020410398 0.0992141
-0.05178704 -0.048831057 -0.18683174 -0.20315644 0.1431343 -0.18823737 -0.008296957 -0.02607178
-0.13772792 -0.01523117 0.011121885 0.11701885 0.18015662 -0.070839964 0.057626314 -0.12057602
-0.13230938 0.04098348 0.028861614 -0.055973247 0.019881021 -0.048607897 -0.035597853 -0.20187932
-0.0834632 0.003967087 -0.09386143 0.040446755 -0.04944414 -0.100117646 -0.015325895 -0.04056549
-0.022451036 0.13183387 0.0086420365 -0.05160415 0.0051470986 0.03870534 0.05975076 0.025465036
0.1606973 0.051919736 0.09935445 0.0145579185 -0.0060465774 -0.032878876 -0.088401884 -0.020906953
0.004806277 -0.023695715 -0.03186111 0.10059912 -0.07844054 0.06679412 -0.14191873 -0.017495122
-0.00824249 0.08025138 -0.051039845 -0.16913766 -0.080283314 0.08734422 -0.042526484 0.0012766089
-0.045973323 0.0029887415 -0.050356835 -0.020291004 0.19515426 -0.080593795 0.062758125 0.06784163
-0.04103019 -0.09600762 -0.07693931 -0.049835537 -0.099695124 0.057758767 0.1594168 0.09342949
0.10403148 -0.05655683 -0.009827383 -0.05411578 -0.09971895 -0.07745926 -0.03147776 0.03857046
0.14417908 0.055143785 0.051882938 0.07487141 0.06909363 0.06656569 -0.08201703 -0.036546513
-0.02226246 -0.14048164 -0.083223924 0.008696936 0.10466052 -0.0014112247 -0.04692945 0.06660158
0.05025908 -0.057013273 -0.04819269 -0.05752113 -0.021088725 -0.0021681031 0.04667445 -0.0838733
0.03574044 0.13460524 -0.074280195 -0.13150914 0.053355705 0.011204263 -0.010620474 0.086797155
-0.0621162 -0.024799615 -0.075120606 -0.2451404 -0.0374409 -0.03045453 -0.034518242 0.18090019
0.12876998 0.1482857 -0.051056303 -0.03683365 0.18141167 0.0699864 -0.120677136 0.020397412
0.014718138 0.039570354 0.07750335 0.12859401 0.1728117 -0.11134034 0.17920968 -0.009839625
-0.20852394 0.14228061 0.08203622 0.025274297 0.21092413 0.024073515 -0.1750007 -0.13365775
-0.09218052 -0.003509727 0.09743215 0.14822407 0.1582578 -0.038857296 0.2093988 -0.006278587

lstm.bias_ih_l0 f4 [256]
00000000: 2f83 f3bb fbd9 103e d94a 443b ba8c e43d
00000010: 35ad 163d 4b21 ab3d aa5f c23c 2899 023f
00000020: dd1c 733d 4365 d33c baa5 093e 1c2d ccbc
00000030: dac0 b1bd 271e af3a b2e5 b03d b9c0 2d3c
00000040: 8d89 df3d 7b2e 59bd 8811 213e 0152 3bbc
00000050: 1985 143e 0581 103d a276 59bd c938 26bd
00000060: 0ec5 c43d fe2e 133e a7b5 633c e37b f93d
00000070: 2703 d93d 1219 96bc c3d9 7cbd 656b 483e
00000080: b7a8 023e c152 393e ad95 6b3d d1a2 8d3d
00000090: 6af6 0c3e 3fe1 723d e886 4e3d 0433 173d
000000a0: 5c5b ad3c c9b8 283e af2a 373e 4ab1 b63d
000000b0: 6d59 83bc 8f88 803d 0849 f93d f4ee 9e3d
000000c0: 090e 233e f300 a03c 51b3 de3d 9056 8f3d
000000d0: 58d1 cd3d f752 e13c 26b3 bd3d 833b 813e
000000e0: d881 70bc 4b63 69bd 053b 433d 4d27 953b
000000f0: 25df 1e3c 398f dabc cfec a53d 759d 783c
00000100: b410 eabd 0b21 5b3d dc4a 103c d6d7 3fbd
00000110: 6bb4 acbd 2d2d c23d cede 5dbd bb07 20be
00000120: 9cd7 cc3d c649 f2bd 85c9 25bd 7b94 d3bd
00000130: 4f94 e3bd e097 e0bd dd0e dabc 833b 673c
00000140: 1d10 373d 2b08 5c3c 86a4 8d3d b783 6bbd
00000150: 766a f1bd c953 57bd e484 eebd a226 f43c
00000160: d3b0 e9bd be67 e6bd 78fa 05be 316c ad3d
00000170: 1f38 0b3e 1744 1e3c 5041 c63c 85c7 d6bd
00000180: d19f 5a3d d7ac c7bd 15b4 af3d 8e36 2dbe
00000190: b711 693d 4ed1 8e3d 61ed 1e3d 242a e53d
000001a0: 9213 2b3d 14a6 393d 957d 6abd 3a0b 9abd
000001b0: 761c e8bb d9df c8bd 5a7d bc3d b044 a4bd
000001c0: 1547 debd 537e 6f3d 2ef7 3a3a e4d9 71bd
000001d0: 5a11 05bd 94b9 c2bd ba08 9bbd 0241 b13d
000001e0: cdd6 bfbd 8714 93bd 5f29 90bc 59b2 4c3c
000001f0: 5d58 e6bc a3ab b8bc 767b d03d a50a 033d
00000200: e0d5 adbc cb97 91bd 114c b6bd af50 89bd
00000210: 1eb3 3d3d e01d f33c c41d f93c f50d 30ba
00000220: 9a52 4e3d 4d1b eabd 5b09 db3c 5666 67bd
00000230: f9e6 393d d9cb 843c ed46 033d 467f b1bc
00000240: 648c 683b 593e 6f3c abaa 833d c272 753d
00000250: fc23 9d3c 142d 12bc b19d 883c 4d6c db3d
00000260: c36f 91bd 349c 813d 52ae 413d 2516 c33d
00000270: cfeb be3d 9251 9abd 0904 b6bd 8010 f53d
00000280: 6441 a4bc 10dc 913d 0b7e 90bd 6818 77bd
00000290: 694f 993c a157 01bd 68ba 2b3d 4d0d 823d
000002a0: ddd5 d3bc cfa4 d73d 9480 393d 51e0 52bd
000002b0: a128 98bd b702 9bbc 0af7 c33c fdd6 6fbd
000002c0: c03a 31bd 1ccd 393c c43d ee3d 14f2 db3a
000002d0: 012c 953d cabb 5a3d 6312 8a3d 8ed6 c4bd
000002e0: 7138 b1bd 6081 07be b0cc b1bc 49c2 1b3d
000002f0: 98fd a5bb 96de 8ebd bbab be3d f508 653c
00000300: 4354 983d d6ed 843d 6852 013e e51d 12bd
00000310: 9518 37bd 071c a83d 2b2c 52bd 4586 153f
00000320: 602e a53d 6d80 12bd 5200 cfbd 4fb1 e4bc
00000330: 947f 453d 63fe b53d 9c0f dc3d 39e2 23bd
00000340: 3232 f6bd cc87 20bc d675 ca3d e1ed 85bd
00000350: 5160 0d3e 3a12 fc3d 50ff ec3d 07e9 dfbd
00000360: 610a 213e a7bc 183d 9305 153e 42e9 ba3d
00000370: 73f8 893c 0928 503e c5e4 aabd da9f 5b3e
00000380: c2f9 643c f2de db3d 8b33 8a3d 9412 8a3e
00000390: 6ac1 403e 99f0 123d 873b 033e c36a e43d
000003a0: 9251 013e 7361 90bd 8013 8e3e 394b 31bd
000003b0: 8ced 3e3c e1f1 73bd cb81 7cbc d724 ffbd
000003c0: 1b58 ad3d caa3 0b3d 07e5 6e3b 55c6 c3bc
000003d0: 5916 c73d 6d8d 623c a7d9 fe3c 5d88 5c3e
000003e0: c63a 463d cc81 c2b9 3bec a63d 8ca4 b4bc
000003f0: f867 033e c549 2f3e 5d48 e73d f637 683d
-0.00743141 0.14145653 0.002995184 0.11159654 0.036786277 0.083559595 0.023727257 0.5101495
0.059353698 0.025805121 0.13442126 -0.024923854 -0.08679362 0.0013360427 0.08637561 0.010605031
0.109149076 -0.053022843 0.15729344 -0.0114331255 0.14503898 0.035279293 -0.053091653 -0.0405815
0.09607898 0.14373395 0.01389829 0.12181833 0.105963044 -0.018322501 -0.06173111 0.19572218
0.12759672 0.18097974 0.05751579 0.069158204 0.13765875 0.059296843 0.050421625 0.036913887
0.021161728 0.1647674 0.17887376 0.08920534 -0.016033852 0.062760465 0.12172133 0.077604204
0.15923323 0.019531703 0.10874046 0.06998932 0.10049695 0.027505381 0.092626855 0.25240716
-0.014679395 -0.05697946 0.047663707 0.004551804 0.0096967565 -0.026679622 0.08101808 0.015174259
-0.11428967 0.05349831 0.00880691 -0.046836697 -0.084328495 0.09481273 -0.05416756 -0.15627949
0.10002062 -0.118304774 -0.040475387 -0.10331055 -0.11112272 -0.10966468 -0.026618415 0.01411331
0.0446931 0.013429682 0.06916146 -0.05749866 -0.11787884 -0.052570138 -0.116464406 0.029803578
-0.1141068 -0.11250256 -0.13083827 0.084679015 0.13595627 0.009659789 0.024201065 -0.10487274
0.05337507 -0.097497635 0.0857927 -0.16915342 0.05690166 0.069735155 0.0388006 0.11189678
0.04176671 0.0453244 -0.05724867 -0.075216725 -0.007083471 -0.098083206 0.092035964 -0.080209136
-0.108534016 0.05847008 0.00071321696 -0.059045687 -0.03248725 -0.095080525 -0.07570024 0.086549774
-0.09367142 -0.0718165 -0.017597852 0.012493693 -0.028118307 -0.02254278 0.10179798 0.031992573
-0.021220148 -0.0710903 -0.08901227 -0.06704842 0.046313398 0.029677331 0.030409701 -0.0006715947
0.050371744 -0.114309885 0.02673786 -0.05649408 0.04538629 0.016210483 0.032050062 -0.021667134
0.003548407 0.014602267 0.06429037 0.059923895 0.019182198 -0.00892188 0.016676756 0.10714016
-0.07101395 0.063286215 0.047285385 0.09525708 0.09322321 -0.075350896 -0.088874884 0.11966038
-0.020050712 0.07122052 -0.07055291 -0.06032601 0.018714624 -0.03157771 0.041925818 0.06350193
-0.025858814 0.105294816 0.045288637 -0.051483456 -0.07429624 -0.018922193 0.023921508 -0.05855464
-0.04326892 0.011340406 0.116328746 0.0016780519 0.07283784 0.053401746 0.06741788 -0.096112356
-0.086533435 -0.13232946 -0.021704048 0.03802708 -0.005065631 -0.06976049 0.09310099 0.013979186
0.07437947 0.06490676 0.12629092 -0.03567304 -0.044701178 0.08208471 -0.051311653 0.58408004
0.08065486 -0.035767008 -0.10107483 -0.027916579 0.04821737 0.08886411 0.10745165 -0.040010665
-0.12021293 -0.0097980015 0.09885757 -0.065395124 0.13806273 0.12308164 0.115721345 -0.10933118
0.15726615 0.037289288 0.14552908 0.09126522 0.016842103 0.20327772 -0.083444156 0.21447697
0.0139755625 0.10735883 0.06748112 0.269673 0.18823782 0.035873983 0.12815677 0.11153176
0.12628773 -0.07049837 0.27749252 -0.04328463 0.011653315 -0.059556846 -0.015411804 -0.124581985
0.084640704 0.03409175 0.003645243 -0.023898283 0.09721059 0.013827664 0.031109644 0.21536393
0.048395894 -0.0003709927 0.08150526 -0.022051118 0.1283263 0.17117985 0.11293099 0.056693994

lstm.bias_hh_l0 f4 [256]
00000000: cebf a0bc 2ea2 083e 5bc2 143e 694b 1d3b
00000010: 08c6 d83d 7b08 38bc b728 0c3e f29d 3a3f
00000020: dce7 07bd 1e28 dfbd a044 033d fd24 8ebc
00000030: 9652 a63d 0d0c eabd c034 753e ee6d 933d
00000040: 9577 773d 4276 c33d 35c5 a1bd 8ad0 5f3d
00000050: cacc aa3d bdd7 163d 9b27 e63c e2ca d53c
00000060: 6f61 0b3e 80b9 b2bd 317f a73d 905c 8c3d
00000070: 10c3 82bd 16db 323e 229b 4bbd 4ef9 ad3c
00000080: 8617 4a3b 1291 353d b984 8ebd e6c0 453d
00000090: 6720 353e b1c8 553d 4c5f 2b3e ed8a eb3d
000000a0: fcac 52bd 9d20 be3c 32f0 3d3e 36a4 323c
000000b0: 8fb9 eabc f076 b5bd 0d55 043e 6bb5 703d
000000c0: cd4c 58bd 9380 2ebd 907d 46bc fa20 943c
000000d0: 5738 593e 799e a1bd 3077 3d3d 99e3 2f3e
000000e0: 106c cf3d 63e2 a9bc 1da2 19bc 4057 72bd
000000f0: 1643 e13d 6ae6 a5b9 e8fd 6abd c94b 0d3e
00000100: d8c9 b4bd 7df2 b939 48bc 1cbd 382a 0bbe
00000110: 9492 ed3c 3d2e 113d 2ceb 8cbd 90ad d1bd
00000120: 0a17 d83c 08e2 ae3d cff9 e9bd f5f0 e0bd
00000130: 023a 57bd f5a7 313c 401c f0bd d6d6 09be
00000140: f567 91bd a23f 6a3d 02d6 9ebd 0ed2 c3bd
00000150: 604f 5abd b59b 89bd bc5f c2bd d7a5 5c3d
00000160: ff7c ee3c 3e32 e1bc d295 c53c 9adf d2bd
00000170: fcd8 82bc 6f38 923c be1d 20bd b35e c2bc
00000180: dc61 aa3d cafc 4b3d 341c 363d 9f08 25be
00000190: 4a75 2dbc b53e 173c 0938 c4bc 4dce c5bd
000001a0: 7dc4 8dbc 2365 f53d 4ff8 56bd ea9d 123c
000001b0: d10a ffbd bd31 babd 68d3 af3d 0ad6 a63d
000001c0: 18ad 0dbe b930 adbd 2eff 3d3a 6d74 ca3d
000001d0: d1c9 b03d fadb 07be 4118 04be 617a d2bd
000001e0: f3e7 dabd 07cf a33d dd67 953d cd53 84bd
000001f0: ac94 033e 91bd ec3b 7f9f cd3b 6389 c93d
00000200: 70e7 033d bea3 843c 57e8 703d 86c6 3b3d
00000210: 8482 9c3d 7a3b c4bd 00d8 713c 4a5d f73c
00000220: c7ff 813d 8f5e efbd 77f4 973d 6e8d 3dbd
00000230: f5f7 a93d 7c26 04bd 440b 2f3c 8e42 c4bc
00000240: 92b6 a8bd 5a01 af3c e436 8ebd 3679 c6bd
00000250: bdd0 6cbd 6f9d a5bc 0897 0cbd 1a3a 98bb
00000260: 2cf2 253d f574 bbbd 8c35 83bd fbaa dabd
00000270: cd4e 11bd a8e3 093e 6dca f23c 2a7d abbd
00000280: bcf5 813d 2825 83bb fff7 ccbd 03b9 3dbd
00000290: 37c3 a93d 7e68 afbc e546 87bd 20b1 27bd
000002a0: d5cc 813c f50d afbd 9e2c 013c 9270 be3d
000002b0: f3f0 e63d d113 083d ae4c 3c3d 745e 4a3d
000002c0: 4064 9ebd 01ef 093d 8ad1 25bd b169 9c3c
000002d0: 1875 183c 7dbd f9bd 5bd7 c7bd 0100 2d3d
000002e0: a31b 613c a7d3 c33d ae0f febb 6b51 b63d
000002f0: b8fd c93d 7f4f 903c 0b9b cf3c eed5 bc3c
00000300: 5ac3 b33c 5f1b 063e 55ef 913c 3a00 2c3e
00000310: a0d7 54bd dec7 a0bc 36c6 b9bd c04b 393f
00000320: e38e 0ebd 3aa7 813d e05c 80bc 11da 55bd
00000330: 95d5 dd3d 1376 503d 59ca 9c3d c468 073e
00000340: 1e20 9abd ed81 d6bd 4e68 693d e33b bdbd
00000350: b528 0d3e f847 bc3d cab3 8dbc 83ba d9bd
00000360: d299 75bd 89a5 0cbb 6f9f 0b3e 8008 883e
00000370: 4cc6 dc3d 1d07 373e 0695 afbc cd78 973d
00000380: 0b75 9ebd a491 b13c c6e7 4fbc 4270 1a3e
00000390: 68e8 193e 60f8 f73b 8bb6 5c3d 7f25 0dbd
000003a0: a106 2e3e 292a 9f3d eefd 343e cc20 633d
000003b0: 933b 82bd 8446 703d 1f85 8ebd c045 da3c
000003c0: ca1a 1f3d 4e79 1a3e 3a2e 823c 905f 14bd
000003d0: 10f2 493d e935 c73b 8b71 703d 0c7e 833e
000003e0: 93e4 e23d 67b0 46bd 6597 c43d f1f2 0a3e
000003f0: 6700 42bd 1d18 9abc 91e6 b73d ebed f83d
-0.01962271 0.13343117 0.14527266 0.0024001247 0.105846465 -0.011232491 0.13687406 0.72897255
-0.033180103 -0.108963236 0.032047868 -0.017351622 0.08121221 -0.1142808 0.23945904 0.07198702
0.060416777 0.0954404 -0.078989424 0.054642238 0.08339842 0.036826838 0.028095057 0.026097719
0.13611387 -0.087267876 0.08178557 0.068535924 -0.063848615 0.17466387 -0.049708493 0.021237042
0.0030836775 0.044327803 -0.069589086 0.048279665 0.17688142 0.052193347 0.16735572 0.11501107
-0.051434502 0.02320891 0.18548658 0.010903409 -0.028652934 -0.08860576 0.1292307 0.058766764
-0.052807618 -0.042603087 -0.012114897 0.01808213 0.21212898 -0.078915544 0.046256244 0.17176665
0.10128033 -0.020737832 -0.00937703 -0.05916524 0.10999124 -0.00031642924 -0.05737105 0.13798441
-0.08827561 0.00035466618 -0.038265496 -0.13590324 0.029000558 0.035444487 -0.06880793 -0.102381825
0.026378173 0.08539206 -0.114246 -0.10983459 -0.052545555 0.010843267 -0.11724138 -0.1346086
-0.07099906 0.05718959 -0.077556625 -0.09561549 -0.053298354 -0.06719152 -0.09490916 0.053869095
0.029112337 -0.027489778 0.024119291 -0.10296555 -0.015972607 0.017849175 -0.039090864 -0.023726797
0.083194464 0.049801625 0.04446049 -0.1611657 -0.010587046 0.009231259 -0.0239525 -0.096584894
-0.017305607 0.11982181 -0.0524829 0.008948782 -0.12453235 -0.09091518 0.085852444 0.081462935
-0.13835561 -0.08456559 0.00072478026 0.09885488 0.086322434 -0.13267508 -0.12899877 -0.10277248
-0.10688772 0.07998472 0.07295201 -0.06461296 0.12849683 0.0072247465 0.006275117 0.098406576
0.032203138 0.01619136 0.058815327 0.045843624 0.076420814 -0.09581657 0.014760971 0.03019585
0.06347614 -0.116879575 0.07419675 -0.046277456 0.08299247 -0.032263264 0.010683838 -0.023957517
-0.082379475 0.02136295 -0.06944063 -0.09691088 -0.057816256 -0.020216672 -0.034323722 -0.004645598
0.040514156 -0.09153167 -0.06406698 -0.10677143 -0.03547554 0.1346575 0.02963754 -0.083734825
0.06345698 -0.004002232 -0.10008239 -0.04631902 0.082891874 -0.02141213 -0.06605319 -0.040940404
0.015844742 -0.08547584 0.007884173 0.09298815 0.11276426 0.033222023 0.045971565 0.049406484
-0.07733965 0.033675198 -0.040483035 0.019093366 0.009305261 -0.12194345 -0.09757873 0.04223633
0.013739499 0.09561854 -0.007753334 0.08902248 0.09862846 0.017616032 0.025342485 0.023051228
0.021943737 0.13096379 0.017814318 0.16796961 -0.05196345 -0.019626554 -0.09071009 0.7238121
-0.034804236 0.06330724 -0.015669286 -0.052209917 0.10831753 0.050893854 0.07655782 0.13223559
-0.07525657 -0.10474 0.05698424 -0.09239938 0.1378506 0.091934144 -0.017297644 -0.106312774
-0.059961148 -0.0021460971 0.13635038 0.26568985 0.107800096 0.17873807 -0.021433365 0.07396088
-0.07737168 0.021675892 -0.012689536 0.15081885 0.15030062 0.0075674504 0.053885024 -0.034459587
0.16994716 0.07771713 0.17674991 0.0554512 -0.06359019 0.058661 -0.069589846 0.026644588
0.038843907 0.15085337 0.015891183 -0.036223948 0.049303114 0.0060794246 0.058702033 0.25682104
0.11078753 -0.048508074 0.09599189 0.13569237 -0.047363665 -0.018810326 0.08979524 0.12154754

lstm.weight_ih_l1 f4 [256, 64]
00000000: bdd8 ef3d c493 323e 33f6 8f3c 0eed 8ebc
00000010: b7af d73d f302 a7bd b862 893d aa0e 66be
00000020: 8193 8b3d a06c 96bd b737 e63d fc97 f73c
00000030: d5d2 20bc 68e6 203d 4563 40bd 0650 a7bc
00000040: 8f39 a0bd b2b2 703c 51aa e43d 0e2d 053d
00000050: 8964 dfbd 2f47 81bc e0fc 2b3d 3985 383d
00000060: a9fc bb3d c40c c53d ef14 103d f4b3 1c3e
00000070: 209f 8f3c 30be e8bd 51bf e83d 536b 42be
00000080: 2c9e ae3d 29c0 32be bbaa afbd ce25 b33d
00000090: 7b0a 36bc f900 aebd 5f8e 2f3e 12d1 abbc
000000a0: de7a cabc c2eb 84bc 0fa2 63be d66d 163e
000000b0: 7a64 8abc a669 9abc a6c7 c8bd 872d 1cbe
000000c0: c973 a53d b5bc 25be aeb4 1d3d ee32 bdbd
000000d0: 5272 99bd f751 493d 9e3a 44bd e4eb 0f3e
000000e0: 65e0 0e3d ead1 bf3d 3e31 3bbe b0d6 963c
000000f0: ff37 05be cfde fa3d cc62 043c 836b 83bd
00000100: 47ca 293e c0dd 9ebc 21bf 15bd 6d22 783c
00000110: 7420 903d 242b b43d f950 2c3c 312a 0dbe
00000120: 6dcc 1b3e 265b eabd a29e 3e3e 4a81 f3bd
00000130: a8c5 3ebd dd1a a33d 154d 9a3c 5ab6 2dbb
00000140: 0f24 2bbe f0e3 0f3e 09b0 66bd 1eb5 a2bd
00000150: 2cbd 20bd 6e54 bebd 53bc 8f3d 955d 3c3c
00000160: 21f5 503d 1b53 23bd e74b 68bc 9b8f 613c
00000170: e3ce debd 9691 e2bb 1838 99bd d2de 1fbe
00000180: 5be1 6ebc 3ffe b33d e925 42bd 07a4 a1bc
00000190: dd94 093e b33c 4dbc c4f0 ac3d 6168 0cbe
000001a0: 512e 7bbd 8c6a 76bd c216 ef3c 4ae1 99bd
000001b0: 89aa afbd b5e7 4dbd ee1d 1f3e f72e c23d
000001c0: ade6 bf3c 3537 d8bd 8345 7ebd fa14 293d
000001d0: 1dc8 85bd af91 68bd 06a3 33bd b1a0 cb3d
000001e0: 6515 143e 992d 663d 3a82 0dbd 6ceb a7bd
000001f0: 0b96 6dbd 353f 123d b2a0 75bd 2709 9b3c
00000200: a7b7 b63d e31c 3b3e f9a6 ce3d ccbd 2abe
00000210: ae45 a93d 6044 f03c ab06 b03c 1190 c7be
00000220: d723 733e fff4 a9bd 848e 0c3e f26c 643d
00000230: 90f1 003e b13d be3c 41e2 783b 470a d03d
00000240: 6a2a 043c fac4 b73b 3427 0abd bc71 e33d
00000250: cfcf e0bb 75e8 efbd 6ffe b33d 0ea8 e8bc
00000260: 73f5 59bd 8602 863d b279 7abd d8ee 59bd
00000270: 8058 c23d e1d3 bf3c d8ff b5bd 6b90 f33d
00000280: bda5 01bd 0ac0 873d 9486 f4bd db80 863d
00000290: c913 353d 600f f2bd 0b05 193e a536 60bd
000002a0: 2e82 a73d 8951 14be 4f15 cf3d 1cb7 3f3e
000002b0: d0df 213e 8665 d2bd e9cc 263d 9b08 d6bb
000002c0: a88c 97bd 9ddc f63c c49e c73d 96be 85bd
000002d0: df63 bc3d 9c83 37be 4842 1cbe b31f 013c
000002e0: d3ba dbbd 5b38 5b3d fd0a 393b 95a3 ae3d
000002f0: fa87 ba3c e2c6 353c 913d 9a3d bc8d fc3d
00000300: ad1b 3dbd ddf9 bf3d c953 973d ebbf e8bc
00000310: 333c 51bd daaf 8a3d dc20 2b3d 6a76 b3bd
00000320: 9239 be3d e059 01be 24b0 8f3d a97b ba39
00000330: 57c7 81bd e791 2bbd dc0a 033c e5d6 c23d
00000340: 7397 ddbd 45bc 523d e901 a93d e05a b03d
00000350: 0b0f e5bc 3552 983d b115 06be 1813 473c
00000360: d01a 36bd 8acd 5c3c dfe8 85bd 73b3 013e
00000370: d314 a23d 1b10 e23c 597f 80bd f40e 3d3d
00000380: d16a a5bd c186 003c 8777 163d 677f de3d
00000390: 1d5c c43d dff0 bcbd ab09 4b3d cbb0 903d
000003a0: f76f 453d 5711 7b3d 9d8b 81bd 196a cbbd
000003b0: 2191 8d3d bb7a 203d 4478 19bd 7789 923c
000003c0: 1919 183e 9632 84bd fd24 17be 243a 6dbd
000003d0: 91dd 9f3d 0592 15be a719 9e3b 8959 3dbd
000003e0: ee44 d83d 5cea 013e 11e5 653d b175 8d3d
000003f0: c404 463d 757a 3d3d 5f0d b53d cf8a e13c
0.117112614 0.1743918 0.017573452 -0.01744702 0.10531562 -0.081548594 0.06708282 -0.22466531
0.068152435 -0.07344937 0.112410955 0.030223839 -0.009815891 0.039282233 -0.04696967 -0.0204239
-0.078234784 0.014691042 0.11165298 0.03251367 -0.109078474 -0.015781013 0.041989207 0.045048926
0.091790505 0.096215755 0.035176214 0.15303022 0.017531931 -0.113644004 0.11364616 -0.18986253
0.08526263 -0.17456116 -0.08577486 0.08747445 -0.011110897 -0.08496279 0.17144154 -0.020973716
-0.02471679 -0.0162257 -0.22229789 0.14690337 -0.016893614 -0.018849205 -0.09803705 -0.15251742
0.08078725 -0.16185267 0.038502388 -0.0923823 -0.07492508 0.049150433 -0.047907464 0.14054829
0.034881968 0.0936621 -0.18280503 0.018412918 -0.13009642 0.122495286 0.008080196 -0.064169906
0.16581069 -0.019392848 -0.036559228 0.0151449265 0.0703744 0.08797291 0.010517352 -0.13785626
0.15214701 -0.114431664 0.18615201 -0.11889894 -0.04657522 0.07964108 0.018835584 -0.0026506395
-0.16712974 0.14051795 -0.056320224 -0.079447016 -0.03924291 -0.092934474 0.07018342 0.011496921
0.051015023 -0.039874177 -0.014178253 0.013767148 -0.10879304 -0.006914328 -0.07481402 -0.15612343
-0.014580096 0.08788728 -0.047399435 -0.019731535 0.13435693 -0.012526679 0.0844436 -0.13711692
-0.061323468 -0.060160205 0.029185656 -0.075136736 -0.08577449 -0.0502698 0.15538761 0.09481614
0.023425424 -0.10557405 -0.06207801 0.04127977 -0.06532309 -0.05677956 -0.043856643 0.09942759
0.14461286 0.05619583 -0.03454802 -0.081992 -0.05800442 0.03570481 -0.059967704 0.018925263
0.08921748 0.18272738 0.10090441 -0.16673964 0.082652435 0.029329479 0.021487555 -0.389771
0.2374414 -0.082986824 0.1372624 0.05576796 0.12592149 0.023222776 0.0037976655 0.1015821
0.008066753 0.0056081982 -0.033728793 0.111056775 -0.00686071 -0.117142595 0.08788764 -0.028400447
-0.053212594 0.0654345 -0.061151214 -0.053206295 0.09489536 0.023416461 -0.08886689 0.1189278
-0.0316522 0.066284254 -0.11939731 0.06567546 0.04420832 -0.11819339 0.1494333 -0.054739613
0.08179127 -0.14484228 0.10111486 0.18722194 0.15808034 -0.1027327 0.04072276 -0.0065317876
-0.07399875 0.030134493 0.09747079 -0.06530492 0.091987364 -0.17921299 -0.1525966 0.007881093
-0.10728993 0.05352054 0.002823531 0.085272945 0.022769917 0.011094781 0.07531274 0.12331721
-0.04616897 0.093738295 0.073890276 -0.028411826 -0.0510828 0.06771822 0.041779384 -0.0876282
0.092883244 -0.12631941 0.07016018 0.0003556882 -0.06336849 -0.04188719 0.007998195 0.09513644
-0.10819902 0.05144908 0.082523175 0.08611083 -0.027961275 0.07437555 -0.13094212 0.012150548
-0.044459164 0.013476739 -0.06538557 0.1266611 0.07914128 0.02759557 -0.0627429 0.04615684
-0.08077014 0.007844628 0.036735084 0.10864144 0.09587882 -0.0922563 0.049569767 0.070649706
0.04820248 0.061295833 -0.06325457 -0.09932346 0.06912447 0.039179545 -0.03746821 0.017887814
0.14853324 -0.06454961 -0.14760204 -0.057916775 0.07805932 -0.14606483 0.0048248353 -0.046227966
0.10560022 0.12687057 0.056126658 0.069072135 0.04834439 0.046259362 0.08840441 0.02753201

lstm.weight_hh_l1 f4 [256, 64]
00000000: 8362 05bd b02a 27be ff09 29be e4d9 bcbd
00000010: b7e4 e43c 2e3c 8bbc adbc ba3d f645 c13d
00000020: 1c56 eebd 2d84 c33d bda0 db3c 9ace 8f3d
00000030: ce71 163d 8c42 b03b e8e6 ebbc ff80 04be
00000040: e341 2dbe 7307 913c d4b8 0cbe 7677 babd
00000050: 4603 353d 3576 4dbd 6e07 0c3e 0eac e43d
00000060: 4d4a 29bd 4bb1 463d b6fb ffbd 6ad0 4dbd
00000070: cf3a 5b3d 7e62 f33d c0ea 00bd 58d8 a23d
00000080: e812 723d b671 273e d289 5dbc ec31 883d
00000090: 11cb 3abd 6a60 c03c cd3f 363e b875 333e
000000a0: d29b 113d 0357 b2bd 292f 9fbd ca62 b9bd
000000b0: a71f c83d 563d b53d 0944 113d 2d25 a5bd
000000c0: 743a 523d 73c8 e53c 6e8d 933c ac00 093c
000000d0: b848 e6bc 618c 3fbe 7e84 ab3c 6dfc 07bc
000000e0: 4748 9cbd 6511 e6bd 731e c03d 5727 e63d
000000f0: 051e a33c 23f4 253e b8bd 40bd 1643 273e
00000100: e66e c33d 788e 04be 7027 863d 2312 c6bd
00000110: 06d8 023e 1c70 473d f3db 503d 4b72 cf3d
00000120: ebde d53c d6db b03d 49bc c13c 692a c13c
00000130: a598 59bd f119 c23d ede3 993d 01c6 063d
00000140: f6c7 a63d bda4 c2bc 9c70 cebd 972b bd3c
00000150: 7fc5 5dbc 7535 a8bd 795d e03d 592b 88bd
00000160: aad2 973a dc3f a33d 120c ad3d 1e97 cebd
00000170: a051 0cbe f904 d2bd bf0d 693d 19c6 66bd
00000180: 430c 6ebd bb08 87bc c11c c73d d5a7 15bb
00000190: 4702 01bc 577c 4b3d 2ff5 9abd 9640 d6bc
000001a0: 835c 2c3d 0850 af3d 0812 36bd 391b acbc
000001b0: 1b7b 9b3d 61fd a33c a8cb 183d b2a1 73bd
000001c0: be8e 023e 916c 94bd a7eb 123b 2d61 a03d
000001d0: 667d c63d fb4b f93d 6722 3f3d 8d9a c3bd
000001e0: 4940 da3c 1518 803b ccd2 553c b19e 563e
000001f0: 03c8 dfbd 7b39 c3bd c4bd 663d 47bc c7bd
00000200: 38c9 43bd 8b43 99bd ec13 c53c 6fa2 b5bd
00000210: 9759 323d e77b 23bd ea51 f23d 577c 9339
00000220: 8645 4a3e d886 f13d 03f6 603d 94e7 66bd
00000230: 7b7d 33bd 5866 813d 95b9 b7bd afa7 07be
00000240: c8a9 d23d 5743 56bd dbf5 76bc 7432 bcbd
00000250: bce0 7fbd 019e b53d 6469 c53d 2557 b1bc
00000260: af30 00be 9364 d53d 22f4 6d3d 65f7 3abd
00000270: df4e 13be 59d2 52bd ec36 a63d 83c3 8ebc
00000280: 4dd7 a2bc 3445 ebbd 7893 013d 0527 f63d
00000290: 5384 f13d 2e2d 1ebd 0490 83bd b4a7 3abc
000002a0: b75e f03d 9442 623d ca12 02be 9bcf d0bd
000002b0: 660e 373d f03d 35bc 915c 22bd 0abc 003e
000002c0: bcb7 9b3b b146 27bc 8e44 683b 0047 32bd
000002d0: b822 6ebc 1203 2a3d 9967 083e 9df4 6dbd
000002e0: 5d03 753c 082b b5bb a7dc bd3d 60e1 093e
000002f0: 1426 dcba ce86 bc3d eb4b 0cbd 112e dd3c
00000300: 4ceb 14be 1e60 833d 832c 99bd 3091 62bd
00000310: cf4c adbd 8f3e cf3d ecbb 6a3d 6e6c bd3c
00000320: dc72 733d 0c4d ddbd 2dcd 45bd 2c37 a13d
00000330: d02d 3b3b 44cc e3bd dbe4 41bd af0c 833d
00000340: f808 6b3d 8fd9 453c fd60 893c d3d5 93bd
00000350: 3660 e73d 5970 b13a 02d7 90bd c5ce f7bd
00000360: 3109 febd 762e 363d bf92 093c 1e2d b8bd
00000370: 9783 a33d 77d1 03be 2d21 d9bb fcd6 9fbd
00000380: 150b 963d 73dd 53bd 1a5c 13bd b4ff 263d
00000390: c132 5bbd dc31 013e 330a 03bd 15e8 be3d
000003a0: 0428 69bd 57d1 fa3d c6e5 0fbe 05c3 913d
000003b0: 3703 163c 3a4a 2cbd 159d 88bd b572 46bb
000003c0: 47f1 dabc 498f cb3d 8251 86bd d350 4c3d
000003d0: 6817 afbc 862e d8bc 57d3 c2bd 5508 c83c
000003e0: 6392 603d 2336 04bc f71c cdbd ac35 f53c
000003f0: edde 7d3d f69f d53d b9e1 b73d 8b44 2bbc
-0.03256465 -0.16324878 -0.1650772 -0.09221247 0.027941091 -0.01699647 0.09118018 0.09437172
-0.11637518 0.09546695 0.026810044 0.07021828 0.036729626 0.0053790268 -0.028796628 -0.12939833
-0.16919665 0.017703747 -0.13742381 -0.091048166 0.044192575 -0.05016156 0.13674709 0.11165629
-0.041330624 0.048508924 -0.12499182 -0.050247587 0.05352288 0.1188402 -0.031473875 0.079514205
0.05910006 0.16351971 -0.013521628 0.06650147 -0.045603815 0.023483474 0.17797776 0.17525375
0.035548992 -0.087080024 -0.07772667 -0.09052046 0.09771662 0.088495895 0.035465274 -0.08063731
0.051325276 0.028049683 0.018011775 0.008361977 -0.028110847 -0.18705894 0.0209372 -0.008299929
-0.07630973 -0.112337865 0.09380808 0.11237972 0.019911775 0.16206412 -0.04705593 0.16334185
0.095426366 -0.12944973 0.06550491 -0.09671428 0.12777719 0.0486909 0.05099101 0.101292215
0.026107272 0.086356804 0.023649352 0.023579793 -0.05312409 0.09477604 0.075141765 0.032903675
0.08143608 -0.023760194 -0.10080072 0.023092074 -0.013535856 -0.08213321 0.109553285 -0.06648893
0.0011583169 0.079711646 0.08449568 -0.10087417 -0.13703012 -0.10254855 0.056897875 -0.056341264
-0.058117162 -0.016483655 0.09722281 -0.0022835631 -0.007874078 0.049679127 -0.07566296 -0.026153844
0.042080414 0.085601866 -0.04445079 -0.021009075 0.0759184 0.020018281 0.037303597 -0.059480377
0.12749764 -0.0724727 0.0022418292 0.07831035 0.096918866 0.12172695 0.046663668 -0.095509626
0.026641982 0.003909121 0.013050746 0.20958973 -0.10926821 -0.09532448 0.05633332 -0.09752708
-0.04779932 -0.07483586 0.024057351 -0.088688724 0.04354247 -0.039913084 0.1183203 0.00028130665
0.19753084 0.117932975 0.054922115 -0.056373194 -0.04382084 0.06318349 -0.08970944 -0.1324756
0.102862895 -0.052310314 -0.015073265 -0.09189311 -0.062470183 0.088680275 0.09639242 -0.021647999
-0.12518571 0.10419574 0.05809415 -0.04564609 -0.14385556 -0.051470134 0.08115944 -0.017427212
-0.019878054 -0.11487809 0.031634778 0.12019161 0.11792817 -0.038617305 -0.06423953 -0.011392523
0.117368154 0.055239275 -0.1270248 -0.101958476 0.044691466 -0.01106213 -0.03963906 0.12571731
0.0047521275 -0.010209725 0.0035441252 -0.043524742 -0.014534645 0.041506834 0.1332077 -0.05809461
0.014954415 -0.0055288114 0.09270602 0.1346488 -0.0016796016 0.092053995 -0.03425209 0.026999505
-0.14542884 0.06414817 -0.07479193 -0.055314243 -0.08461916 0.10119354 0.057308123 0.023122992
0.05943571 -0.10805711 -0.048291374 0.07871851 0.0028561242 -0.11122945 -0.047337394 0.063989036
0.0573816 0.012075796 0.01676988 -0.07218518 0.11297648 0.001353751 -0.070722595 -0.12099985
-0.12404097 0.044477902 0.008396803 -0.089929804 0.07984083 -0.12872873 -0.0066262693 -0.07804677
0.073263325 -0.051724862 -0.035976507 0.0407712 -0.0535152 0.12616676 -0.03199215 0.0932161
-0.056922927 0.1224696 -0.14052495 0.07117275 0.00915604 -0.042062975 -0.06670586 -0.0030280773
-0.026726378 0.09939439 -0.06558515 0.049881767 -0.021373466 -0.026389372 -0.09512966 0.024418036
0.054827105 -0.008069548 -0.1001529 0.02993282 0.061980177 0.10430901 0.089786 -0.010453354

lstm.bias_ih_l1 f4 [256]
00000000: 3ec5 f9bc adec 783d 366e 263e b876 343c
00000010: 800b a83d 7b40 09bb 15a5 253d 5fef bcba
00000020: 8b8c fa3c 9a3d 9d3d fff7 8f3d c82a 683d
00000030: a50a 99bd e8a6 883c 1a27 ff3d bf45 e13d
00000040: cd4e 9abc da94 2dbd c728 6ebd 6011 8a3d
00000050: 20cc d73c 63da 33bd 9d9c 53bc 52b4 eb3c
00000060: 8df7 2d3d bf55 233d d901 073d 6e40 223d
00000070: 656d f53c 52ec b13c 8e4d 0e3e bc35 03bd
00000080: 2a95 943d a339 313e 5007 18bc 5469 a6bd
00000090: e418 f33d e20a f73a 9230 bdbd 201f 813e
000000a0: c604 7a3c 38bf 24bd 16ba b03d d997 9a3d
000000b0: 0ffe ac3b 223a 283c 225e be3d 0867 0b3e
000000c0: b0f7 bc3d ff7e b1bd c3f0 0f3e 365c 343d
000000d0: a401 803d 5c98 833d 841b 83bc f6bb 8d3c
000000e0: 297d 2d3d 858e 81bc 7915 893d fde5 90bd
000000f0: a0ad 9f3c cc1c e33d ed03 7a3d 0c96 233d
00000100: 3f23 4f3c 6633 b2bc 656b d83d 4a33 693c
00000110: 1714 573d 7ba0 09bb 4cd9 d2bc c5fb 2a3a
00000120: 4c14 2d3d 7cc6 22bd 14c3 d33d 9004 6a3d
00000130: 7a23 283d d8ce cb3d d559 f83b 0700 c03d
00000140: e9cc e43d 4cef 0c3d 5339 a33d f9d2 39bc
00000150: c89e bd3b 817d adbd 2c2a b7bd 72c4 943d
00000160: 5bef b03d 1862 bb3d ce68 973c 2b65 6a3d
00000170: 1a08 ae3c c630 fcbd 504e 033e 5c04 663d
00000180: e0b2 a63d 7e1c 123d 8fd2 ec3c 90bf 003e
00000190: 15b8 18ba e78d b83d f5d6 f5bd 0675 08bd
000001a0: 9cfa 7abd 7882 dcbd 0aa0 373d 2b48 f73c
000001b0: 5b9c bc3c 3ae0 bbbd 45a3 86bd 8f6a 8bbc
000001c0: 4761 e0bc 96e1 17bd 4a2c 03bd 7d1f b33d
000001d0: 6823 a23c e199 16be 7e03 f9bb f292 de3d
000001e0: 1fdd 23bd 9bfd 0ebd bb1d 9ebd 41e8 a8bd
000001f0: 42e3 103d 6ea1 81bc b872 fc3d 8451 233d
00000200: 6cac 29bd ccc3 b5bd d8f8 273d b354 a43d
00000210: 018e 5ebc ea65 adbc 52b1 46bd 6fbe 2dbd
00000220: 9151 833d d8dc 19bc 218b c73d 3de7 c23c
00000230: 7877 f0bd a1f5 dd3d 6462 19bd c9ae d7bd
00000240: 2bcc c83d d6a2 0bbc 02d0 d3bd 61bb a8bd
00000250: 7927 1d3d 4b1f dcbd a747 553d 9b6a 0bbd
00000260: 9f04 4abd 6f57 803c 2378 343c 0b24 93bc
00000270: ef5f 58bd ce67 973d bed4 c5bd e618 9c3d
00000280: de80 11bb 3ca0 00bd d2b0 523c 08ec 923d
00000290: 187a eb3d 8273 ec3d bf45 8e3d 0a61 bbbc
000002a0: ce57 49bd 6838 6a3c 2ad3 acbc cc10 f5bd
000002b0: 0973 ea3d 8014 52bd 223e 623d b317 b6bd
000002c0: 6cb7 c33d f403 8d3d 6808 a1bc 87d5 903d
000002d0: 6ee4 0f3d 085f 293c 4685 f83b 453f 8a3d
000002e0: 226f 96bd 5324 e4bd c0ce e33c 05a4 bb3c
000002f0: 9677 c2bd c075 b43d 2f91 49bd 2af8 063e
00000300: 06bb babd 1bb4 fc3d 513e 913d e9cf 923d
00000310: b0bd adbd bf44 d03d bbe8 2c3d d138 24bd
00000320: dad0 a33d a065 2f3d 8030 59bd af9c 1abd
00000330: f89e c1bc 8d24 0d3e 2f7b bdbd 42d3 383d
00000340: 8183 c23d 4bee d83d a435 6ebd fa8e 233d
00000350: a5b8 c7bb a632 8e3d 4735 4dbc c0a5 853c
00000360: cb11 683c 55c7 5339 da00 a4bd 61b2 8a3d
00000370: 5539 3f3d 6a8d a9bd 4f98 1dbd dc70 c3ba
00000380: 1fa1 d1bd 5a82 c43d 6b6d f93c 574f 07bc
00000390: 9dd5 c53d c5ee a13d da0d 6c3d 02fb 043d
000003a0: 37aa 723c e5ed 0b3d 7c9d 4d3d 577f e23c
000003b0: 8223 96bd 1635 823d 1b09 ef3c 1601 9f3d
000003c0: c23e 243b c69a 403d c7b5 e3bd 5ab2 fa3d
000003d0: df24 adbd f5f7 383c 9e63 cf3d 5835 bb3c
000003e0: f52a 1c3e 5155 e23c 97d3 fc3b a68a a13d
000003f0: b45c 203d dd5f 4abd 60da abbd ae5c b93d
-0.03048956 0.060772587 0.1625298 0.011014633 0.082053185 -0.0020942974 0.040440638 -0.00144146
0.030584594 0.07677765 0.070297234 0.056681424 -0.074727334 0.01668115 0.1245863 0.10999631
-0.018836403 -0.042378284 -0.058144357 0.06741595 0.026342452 -0.04390944 -0.0129157575 0.028772507
0.04247241 0.039876696 0.032960746 0.039612226 0.02995939 0.021719132 0.13896772 -0.032033667
0.07255013 0.17307143 -0.009279087 -0.081255585 0.11869982 0.0018847848 -0.0923778 0.2521906
0.015259927 -0.040221423 0.08629243 0.07548494 0.0052793096 0.010267766 0.09295298 0.13613522
0.0922693 -0.08666801 0.14056687 0.04403325 0.06250313 0.064255446 -0.016004331 0.01730154
0.04235569 -0.015815029 0.06693549 -0.07075117 0.01949197 0.11089477 0.0610389 0.039938018
0.012642681 -0.021753024 0.10567359 0.01423342 0.052509394 -0.0021000195 -0.02573838 0.0006522502
0.042255685 -0.03974007 0.103399426 0.057133257 0.041049458 0.09951562 0.007579068 0.09375005
0.11171896 0.0344079 0.07969918 -0.011341804 0.0057867505 -0.084712036 -0.089435905 0.072640315
0.086394034 0.09149569 0.018482592 0.057225388 0.021244098 -0.1231399 0.12822843 0.0561565
0.081395864 0.035671704 0.028908996 0.12573075 -0.000582577 0.09011441 -0.120038904 -0.033314727
-0.061274156 -0.107670724 0.04483036 0.03018578 0.023023775 -0.09173627 -0.0657411 -0.017018585
-0.027390135 -0.03708037 -0.03202466 0.0874624 0.019792274 -0.14707138 -0.0075992933 0.10867871
-0.0400058 -0.034909826 -0.077205144 -0.08247424 0.03537298 -0.015824046 0.12326568 0.03987266
-0.0414242 -0.08875236 0.0410088 0.080239676 -0.013583661 -0.02116676 -0.04850895 -0.04241794
0.06412042 -0.009391032 0.097433336 0.023791904 -0.11741537 0.108378656 -0.03744735 -0.105313845
0.09804567 -0.00852271 -0.10342409 -0.08238865 0.038367722 -0.10748156 0.052070286 -0.034037214
-0.049320813 0.015666692 0.011014971 -0.017961523 -0.052825864 0.07392846 -0.09659718 0.076219365
-0.0022202055 -0.03140281 0.01285954 0.07173926 0.11497897 0.11545469 0.06946897 -0.02287342
-0.049156003 0.014295675 -0.021096785 -0.119660944 0.114477225 -0.05128908 0.055235036 -0.08891239
0.09556469 0.068855196 -0.019657329 0.07071977 0.035129957 0.010337599 0.007584247 0.06750349
-0.07345416 -0.11139741 0.027808547 0.022905359 -0.094954655 0.088115215 -0.049210723 0.13180605
-0.09117703 0.1233904 0.07091964 0.07168562 -0.08483446 0.10169362 0.042214137 -0.040093247
0.0799882 0.042821527 -0.05302477 -0.03774708 -0.023635373 0.13783474 -0.09252011 0.045123346
0.09497739 0.10592326 -0.058156624 0.039931275 -0.0060950094 0.06943254 -0.012524909 0.016314387
0.014164398 0.00020196785 -0.08007975 0.06772304 0.046685535 -0.08278926 -0.03847533 -0.0014910954
-0.102358095 0.09595175 0.030447682 -0.008258662 0.09659884 0.0790687 0.057630397 0.032465942
0.01481109 0.03416242 0.050199017 0.027648611 -0.07330991 0.063577816 0.029179147 0.07763879
0.002506182 0.047022603 -0.11118656 0.12241049 -0.08454298 0.011289586 0.10126422 0.022852585
0.15250762 0.027628573 0.007715653 0.07887773 0.03915091 -0.04940783 -0.08391261 0.0905088

lstm.bias_hh_l1 f4 [256]
00000000: 4e41 a83c 0718 673d 188b e33d 246b df3d
00000010: eb14 623d af73 263d 6b8c 993d 3b25 a33d
00000020: 651e b63d 530d 5bbd caac 0b3e 0741 c2bd
00000030: 9ba3 d13d f4af 49bd ea61 813d edb6 bcbd
00000040: c69d 6d3d f20a 003e 699d 78bb e254 11bd
00000050: 91b1 cc3d d215 203d be30 9e3d 1dd0 99bd
00000060: 7fb6 593d 03a4 413d 021b 033d 5e79 b23c
00000070: dcba f03d d935 e7bc d92b c63d de92 6b3d
00000080: 9345 d3bd a0a2 2c3e fa5b 463c 82c2 d73d
00000090: f14b e73d 4cf8 263d a42e ff3d 5786 0b3e
000000a0: f25d 113d 5574 473d 80c5 813d 4064 6f3d
000000b0: b8c9 963d 03c0 2d3d fe2c f73c 1180 9ebc
000000c0: 960e 1dbd 6dd7 6dbd 8f3c 4f3d 6507 aabc
000000d0: df60 cf3d 7a5f 133d 3427 cabc b437 373c
000000e0: 26bb e13b c69a 933d ad57 8c3d 7ce4 5a3d
000000f0: d036 153e 1c51 86bd e1c4 e53c a69e 123e
00000100: c785 9fbc 73e5 a3bb 14cd fcbd 915e 663d
00000110: 07e0 adbd 4e67 b3bd db24 b53d 56ba a53d
00000120: ac89 433d 264f f5bc 5ac0 56bc 8169 3c3d
00000130: e16f abbd 9aca 9fbd cbba c7bd 0827 ad3c
00000140: fde6 bd3d 417c f4bd b1c7 833d 79c9 9e3d
00000150: 8143 b03d 1a27 26bd b690 67bc fab6 c4bd
00000160: c0ea 833c 0bea 7e3d ac14 30bd 3c79 88bd
00000170: 2558 cc3c 715a 37bd 99cf 31bd a383 fbbd
00000180: 447e c83d 7d42 ac3c 3883 a1bc 0b4c dfbd
00000190: 9279 85bb 475d 8c3d 81fa 4c3d 0a59 a3bd
000001a0: ca84 a53d 2962 153c bcad a93d de29 44bd
000001b0: 3865 9cbd 3902 1dbe 20ff 52bc 9cfd f5bd
000001c0: d4d2 e8bd 9b40 963d 1cb3 ef3c 8b0e f2bd
000001d0: e261 9bbc 785d 8a3d 18b7 e6bd 3e14 1fbb
000001e0: 452c bfbd c6de 8d3c 75d8 f6ba 6617 f2bd
000001f0: 9217 5abd 2e3c 8b3d aeec eb3d 2140 843c
00000200: 1c17 d03b 0bc3 89ba e0e8 0ebe 5562 ebbd
00000210: 43b4 f83d 45d5 98bd e619 cd3d 0978 e23d
00000220: 1b59 823d 3a36 733d 7762 913d 3992 c9bd
00000230: 91c3 01be cd00 babd 2f56 d53d a552 85bd
00000240: f5ee 8ebd b867 26bc 0ed9 2dba 5305 da3d
00000250: 0dbc b63d dc43 333d df98 083d 4d76 a03d
00000260: 63e0 dbbd 792c d8bd f7ce 59bd 616c c8bb
00000270: f35c 1ebd d89b 953d 3c41 093d a880 6abd
00000280: 1540 d43d 0ef8 d8bb ccbf d13b 1cdd a93c
00000290: b839 93bd e973 b33d 6589 923c dba1 113e
000002a0: ca2d 89bc f838 92bd 7c5e 28bc a600 943d
000002b0: fb61 663d 9199 713d 99b6 c23d 87c8 853d
000002c0: e16f 253d 6c6a 383d e185 a53c 4c2e f63d
000002d0: 6c9c 8abc 5c74 35bc 6446 293d f749 b43d
000002e0: 669b a5bb 3cf6 d23c f491 d33c 6494 553d
000002f0: f8c7 803d cd2b cb3d ef05 22bd c694 8f3c
00000300: 429e b73d c1b2 b0ba 7e61 5e3e 3812 c73c
00000310: 9820 95bd 2213 f6bc 8b00 37bc 4f10 ce3d
00000320: 6cd7 573d 337f 94bc 83ea 8239 ff69 a53d
00000330: 1731 e33d bd92 3f3d 5b6c 37bd 930f d3bd
00000340: a55f acbd a69c 23bd dddb d83c 9150 04bd
00000350: 86f7 5d3d 45c4 1e3c 5f2b d63d 61ad d13d
00000360: 2972 efbc e65e 49bd 59ee 9e3d 1ff0 393a
00000370: 49d0 c0bc 4002 fa3a 6a16 a43d 1852 cfbd
00000380: 09bb 87bd e7ae 023d 6030 96bd eaf0 cc3c
00000390: 7727 743d 17a8 ad3d 3a25 743d a91e c13d
000003a0: 617f f2bc bff7 9fbb 5ceb 1bbd 0246 a93d
000003b0: 946c b5bd 7d55 133e fe47 f93d c6c7 173d
000003c0: a1a3 6fbd 275e 85bb 4975 83bc 99c2 2dbd
000003d0: c97c 8d3c 8c40 f33d db88 a5bc 1093 c2bd
000003e0: 41ef 663b b916 253e 886c 2f3d 4932 aebd
000003f0: 3e67 53bc 44c0 ac3c 3409 0f3e 6266 01bd
0.020538952 0.0564194 0.111105144 0.10909107 0.05519573 0.04063767 0.07497486 0.079660855
0.08892516 -0.053479504 0.13640133 -0.09485059 0.102362834 -0.049240068 0.06317504 -0.09214578
0.058011793 0.12504175 -0.003793562 -0.03548134 0.099948056 0.03908331 0.077241406 -0.075103976
0.053152557 0.047275554 0.03200818 0.021786388 0.117543906 -0.028223919 0.09676332 0.05751311
-0.103160046 0.16858912 0.01210689 0.10535146 0.112937815 0.040764138 0.12460068 0.13625465
0.035489984 0.048694927 0.06336498 0.058445215 0.073626935 0.042419445 0.030172821 -0.019348176
-0.03834399 -0.058066774 0.050594863 -0.02075548 0.101258986 0.035979725 -0.024676897 0.011182714
0.006888765 0.07207255 0.0685266 0.053440556 0.1457169 -0.06558439 0.02804798 0.14318332
-0.01947297 -0.0050017177 -0.12343803 0.05624253 -0.084899954 -0.08759938 0.0884492 0.080921814
0.047738716 -0.029944967 -0.013107384 0.045999054 -0.083709486 -0.07802315 -0.09752425 0.021136776
0.09272573 -0.11937762 0.064345725 0.077532716 0.08606625 -0.040564634 -0.014133623 -0.096052125
0.016103148 0.06223492 -0.042988464 -0.066637486 0.024944374 -0.044763986 -0.04341087 -0.12280967
0.09789708 0.021027798 -0.01971589 -0.10903176 -0.00407333 0.06853729 0.050043587 -0.07975967
0.08081968 0.0091176415 0.0828509 -0.04789149 -0.076364934 -0.15332879 -0.012878209 -0.12011263
-0.11368337 0.07336541 0.02926021 -0.1181918 -0.018967573 0.06756109 -0.11265391 -0.002427354
-0.093346156 0.01731814 -0.001883282 -0.11820869 -0.053245135 0.06798588 0.115197524 0.01614386
0.006350411 -0.0010510398 -0.13956022 -0.11493365 0.12143757 -0.07462553 0.10014705 0.11058051
0.06364652 0.059377886 0.07098859 -0.09842343 -0.12672259 -0.09082184 0.10416829 -0.06509904
-0.06979171 -0.010156564 -0.000663177 0.10645547 0.089225866 0.043765888 0.033348914 0.07835064
-0.10736158 -0.105553575 -0.053175893 -0.0061164354 -0.038662862 0.073051155 0.033509478 -0.057251602
0.10363785 -0.0066213673 0.006401038 0.020735316 -0.07188743 0.087623425 0.01788778 0.14221899
-0.016745467 -0.07139772 -0.010276433 0.07226686 0.056245785 0.058984343 0.09507484 0.06532388
0.0403899 0.045023367 0.02020544 0.12020549 -0.01692029 -0.0110751055 0.041326895 0.0880317
-0.0050539253 0.02575218 0.025826432 0.05214347 0.06288141 0.09920464 -0.03955644 0.017526995
0.08965732 -0.0013481007 0.21716878 0.02430068 -0.072816074 -0.03003842 -0.011169563 0.10061704
0.052695677 -0.01812706 0.00024970257 0.08076858 0.110933475 0.0467708 -0.04478107 -0.10305705
-0.0841668 -0.039944313 0.026472026 -0.032303397 0.054191135 0.009690349 0.10457491 0.102381475
-0.02922924 -0.049162768 0.07760305 0.0007092971 -0.023536818 0.0019074157 0.08012088 -0.1012308
-0.06627471 0.03190508 -0.073334455 0.02501722 0.05960795 0.08479326 0.059605815 0.09429676
-0.029601755 -0.0048818286 -0.038066253 0.08265306 -0.088586 0.1438808 0.121719345 0.037055753
-0.058505658 -0.0040700617 -0.016047137 -0.04242191 0.017271416 0.11877546 -0.02020686 -0.09500706
0.0035237821 0.1612195 0.042828113 -0.08505685 -0.012903033 0.021087773 0.13968354 -0.03159178
