models/models/predict_t1/model.pth (torch, 615602 bytes, 27 tensors)

lstm.weight_ih_l0 f4 [256, 1]
000000 6d 11 2c 3d 57 09 12 be 6a 63 89 3d c7 60 10 be
       0.042008806 -0.14261375 0.06708415 -0.14099418
000010 f8 0f 0e be 15 c4 e5 3d 72 b9 b6 3d 1b 73 c2 3b
       -0.13873279 0.1121904 0.0892209 0.005934132
000020 54 5a 02 bd e0 74 40 3b 85 47 56 3e 66 2e 04 3e
       -0.031824425 0.0029366538 0.2092572 0.12908325
000030 60 0a d9 bd 46 3d ad 3e be a6 b2 bd 07 10 dd bc
       -0.10597682 0.3383581 -0.0872321 -0.026985181
000040 14 9a bd bd d3 5d be 3d 4d 57 9b 3d 12 5c 8f bd
       -0.09257904 0.09295239 0.07585011 -0.06999983
000050 a3 fa 02 3e 8a 25 79 3d 6d 66 bd 3d 6c 68 e9 bb
       0.12790923 0.060826816 0.09248052 -0.0071230438
000060 d1 bd a3 bd d1 eb 85 3e 01 7c 23 ba d7 72 13 3e
       -0.07995189 0.26156476 -0.00062364346 0.14399277
000070 59 5e 03 3e bf 12 a3 bc 6b 32 29 bd ce ad 89 bd
       0.1282896 -0.0199064 -0.041307848 -0.06722604
000080 e5 01 c5 bd 83 4c c5 bd 08 92 ce 3c 51 4e 16 3e
       -0.09619502 -0.09633734 0.025216118 0.14678313
000090 26 2f 85 3e 7c cd bb bc 3d 2c 8f bd ea e1 09 3e
       0.26012534 -0.022925131 -0.0699086 0.13465086
0000a0 33 1f 02 be ea 0f 43 3d 87 16 67 bd 59 fd f0 3b
       -0.12707214 0.0476226 -0.056417968 0.00735442
0000b0 ca d9 3c bd 3e 25 82 bd 54 26 23 bd c5 e7 a4 bd
       -0.046106137 -0.0635476 -0.039831474 -0.08052019
0000c0 9e e4 72 bd 44 61 7b 3e c5 62 0a 3c dc c1 d7 3d
       -0.059300058 0.24548823 0.0084464 0.105350226
0000d0 bb 33 f4 3d 74 42 31 3d f3 34 92 3d 76 da 98 3d
       0.11923929 0.043276265 0.071390055 0.07463543
0000e0 67 c7 1f be c1 6c cd bd 13 cc c4 bd d8 8b 8e bd
       -0.1560341 -0.10030509 -0.096092366 -0.06960267
0000f0 3f 82 2e be ac c5 39 be db 8b 4c bd 5c e0 ca 3d
       -0.17041872 -0.18141812 -0.049938064 0.099060744
000100 ce 8d a2 bd a6 09 c7 bd 28 f9 29 be fe b7 0a be
       -0.07937203 -0.09718637 -0.16598952 -0.1354675
000110 d1 cb 5a bd 94 33 dd 3d 33 0e 96 bb 14 ac 48 3e
       -0.05341703 0.10800853 -0.0045793294 0.19596893
000120 28 31 ab 3d ba c2 2f 3d ec 4f 7f 3e cc 00 fb 3d
       0.08358985 0.042910315 0.24932832 0.12256011
000130 32 e2 69 3d f9 1e a7 3e e2 02 e2 bc d7 1c c7 3c
       0.057100482 0.32640818 -0.027589265 0.024305744
000140 16 e3 89 bd 7f e9 28 3e bc 79 93 3e 0e 03 0e bd
       -0.06732766 0.16495322 0.28803813 -0.034670882
000150 d4 d0 a0 3d 0e b0 cd bd e6 fe 1e 3d 68 7f d1 bd
       0.07852331 -0.100433454 0.03881731 -0.10229379
000160 be a8 be 3d de 6e 8f 3e 72 22 50 bd 7b 40 86 3c
       0.09309529 0.28014272 -0.0508141 0.016388169
000170 8b 9a 23 3d 9c 3d 54 bb d4 ef 73 bd 45 bf 06 3d
       0.039942306 -0.0032385355 -0.05955489 0.032897253
000180 ab dd 78 3d f9 07 e7 bc 44 2d ff 3d bf 5b ce 3d
       0.060758274 -0.028202044 0.124598056 0.10076093
000190 78 c1 a2 3e c8 11 bf bd f8 64 b6 3d ef 0b 30 3e
       0.3178823 -0.093295634 0.08905977 0.17192052
0001a0 52 de 07 be 78 61 f5 bd 4e 26 55 be 78 4e e2 3d
       -0.13268402 -0.11981481 -0.20815393 0.11050123
0001b0 d6 38 ed bc c7 62 38 bd 04 3c 58 bd 4f a6 fb bc
       -0.028957766 -0.045016076 -0.05279161 -0.03071895
0001c0 d1 cc 5a bd 96 00 cf 3d cf d2 29 bd 8a 42 f1 3d
       -0.053417984 0.10107534 -0.04146081 0.117802694
0001d0 8c a1 10 3c 08 e9 c3 3d c5 4a 54 3e e5 0a 03 3e
       0.008827578 0.095659316 0.20731647 0.12797125
0001e0 6b 6d ae bd 46 e2 e4 bd 60 38 26 bd 5c 4f 2e be
       -0.085169636 -0.11175971 -0.040581107 -0.1702246
0001f0 1d fa ca bd 28 06 8f 3d 0f 8a 0f be e2 cb c1 3d
       -0.099109866 0.06983596 -0.14017509 0.09462716
000200 a1 37 36 be 58 12 29 be e6 91 2c be 2c 14 37 3e
       -0.17794658 -0.16510904 -0.16852531 0.17878789
000210 43 88 21 3e 4d 86 e0 bd fb 3b 0b be c5 98 49 be
       0.15774636 -0.10963116 -0.135971 -0.19687183
000220 e2 0c 4e be 40 e8 e4 3d f4 87 4d 3e d6 e8 38 3e
       -0.20122102 0.11177111 0.20071393 0.1805757
000230 21 0c 97 bb 12 eb 5a 3e 1a c2 2b be e3 9d 39 3e
       -0.0046096 0.21378735 -0.16773263 0.18126635
000240 73 c1 18 3e 5e c0 57 3e 38 77 47 3e e1 fa 36 be
       0.14917545 0.21069476 0.19479072 -0.1786914
000250 9f 4e 16 3e 58 a6 e9 bd b5 86 11 be 24 5d f7 3d
       0.14678429 -0.11408681 -0.14211543 0.12078312
000260 76 e6 3a 3e 13 05 5a 3e 3a 4c 1f 3e 6d 50 2e 3e
       0.18251976 0.21290998 0.15556422 0.17022868
000270 a5 7e 13 3e eb a0 23 3e bf db 9c 3d 5f 32 14 3e
       0.1440378 0.15979354 0.07659101 0.1447234
000280 c3 1f 32 3e 66 cb 16 be 6d c3 63 3e b2 2a 19 be
       0.17394929 -0.14726028 0.22242518 -0.14957693
000290 be 7b 13 be 23 06 0d be 9d be 13 be 10 2d 56 be
       -0.14402673 -0.13771872 -0.14428182 -0.20915627
0002a0 1c dd 00 be 0a 78 30 3e 1c e7 35 3e d0 e3 43 3e
       -0.12584347 0.17233291 0.17763942 0.19129872
0002b0 9a 7f 20 be 87 47 c1 bd b0 de db 3d c4 47 a3 bd
       -0.15673676 -0.09437471 0.10735834 -0.079726726
0002c0 5d da 31 be dd 96 15 3e ff 2a f9 bd 99 7c 12 be
       -0.17368455 0.14608331 -0.12166404 -0.14305343
0002d0 20 ec 96 bd 22 0b 09 be 9e 11 37 be 5f 50 3c be
       -0.07369256 -0.13383153 -0.17877814 -0.18390034
0002e0 d5 52 24 be b2 25 d1 3d 7c 1c 3e 3e e9 b8 28 be
       -0.16047223 0.10212268 0.18565553 -0.16476788
0002f0 b1 b7 fd 3d fc 7b 7f 3d 55 ed 0f be 08 63 34 be
       0.12388552 0.0623741 -0.14055379 -0.17615902
000300 56 4b ae 3d 9f a9 5f bd fd 92 f3 3c 23 e9 d1 bd
       0.08510463 -0.054605123 0.029733175 -0.102495454
000310 75 06 de bd f8 3e 06 3d f0 43 44 bd 8b a4 e1 3d
       -0.10841075 0.032774895 -0.047916353 0.11017712
000320 52 a4 1c 3d 9e 9b 60 3b 24 57 8b 3e 35 fc 33 3e
       0.038242646 0.0034272443 0.2721492 0.17576678
000330 40 e2 63 3c 99 7a a6 3e a6 94 c9 bd ac e9 33 bd
       0.013908923 0.3251541 -0.098428056 -0.04392402
000340 df 72 15 be fe 98 97 bc 46 d5 a9 3d 1d 86 5e bd
       -0.14594601 -0.01850557 0.08292632 -0.05432712
000350 28 8e cf 3d d4 ca d5 bd af 3b 59 3d 1a ac 83 bc
       0.10134536 -0.10439077 0.053035434 -0.016073275
000360 39 98 80 bd 44 db 85 3e 4e f0 1e be a8 b0 37 3e
       -0.06279034 0.2614385 -0.15521356 0.17938483
000370 f1 f4 41 3e 8d 72 c1 3c 1c 68 f7 bd f9 26 b5 bd
       0.18941094 0.023614192 -0.12080404 -0.08845324
000380 0c 49 b0 bd d9 46 9d bd bc f1 39 3d c1 85 0e 3e
       -0.086076826 -0.07679529 0.04539655 0.1391821
000390 7a a7 58 3e e7 0f a5 3c 09 8d 9d 3d 35 60 05 3e
       0.21157637 0.020149184 0.07692916 0.13024981
0003a0 91 a6 9b bd cf 6e 5a 3d 95 00 da bd 8f bc e9 3d
       -0.076001294 0.05332833 -0.10644642 0.11412918
0003b0 9d d2 e9 bc ae d7 ca bd 8a a1 ff bd d4 b7 07 3c
       -0.028542811 -0.09904419 -0.12481983 0.008283574
0003c0 10 e4 db 3d d4 f4 81 3e 3a 09 07 be f6 30 bd 3b
       0.10736859 0.25382102 -0.13187113 0.005773659
0003d0 6a c8 97 3d 1c 16 59 3e 48 3e 4f 3e 9f 86 ef 3b
       0.07411273 0.2119984 0.20238602 0.0073097493
0003e0 07 e2 bd 3c d3 66 60 3d a0 c2 41 bd 1c 4f 30 be
       0.023179067 0.05478556 -0.04730475 -0.17217678
0003f0 05 f7 21 bd 24 02 4a be 22 2e d8 3c c7 fc 72 3e
       -0.039542217 -0.19727379 0.026389185 0.2372924

lstm.weight_hh_l0 f4 [256, 64]
000000 58 5b dd bc d4 d2 72 3c 6e 13 4b 3d be 0b 9c bd
       -0.027021095 0.014820773 0.049579076 -0.07619427
000010 e1 2d fd bc a4 55 60 bd 4a 81 c7 bc 76 39 c9 bd
       -0.030905666 -0.054769173 -0.024353642 -0.09825413
000020 1b 79 cb bd 8b 5b cc bd 3a 31 81 3e 24 18 e9 bb
       -0.099352084 -0.09978398 0.2523287 -0.0071134735
000030 12 80 d6 bd 52 e4 91 3e 9b 20 b8 3d d1 50 15 3e
       -0.10473646 0.28494507 0.08990594 0.1458161
000040 3f 93 8c 3d b7 bb b7 3d 8f c7 26 3e 77 94 05 3b
       0.068640225 0.08971351 0.16287063 0.0020382681
000050 fd be fe bb 9b a1 fe bd b9 da e0 bd 1f d2 0c 3e
       -0.0077742324 -0.124331675 -0.10979218 0.1375203
000060 77 04 d4 3d ec 7d 21 3e 6b 62 dd bd a2 34 9d 3d
       0.10352414 0.15770692 -0.10809787 0.076760545
000070 0f e0 36 3e f6 f9 94 3d 06 1e d3 3d 6e 68 52 bd
       0.17858909 0.07274239 0.10308461 -0.051369123
000080 2f 63 1d 3d 22 f3 c8 bd 40 ce 87 3d 6f 6b 56 bd
       0.038424667 -0.09811999 0.06631136 -0.05234855
000090 dc 54 58 be ea ce 55 bb 17 a6 e1 bb 9a 9a 88 bd
       -0.21126121 -0.003262455 -0.0068862545 -0.06670113
0000a0 67 fb a0 bd 44 f0 af ba 59 ea 9e 3c 03 b8 1a 3e
       -0.07860451 -0.0013423045 0.019398855 0.15109257
0000b0 0c e6 e9 3d e9 26 c3 3d 0f 17 05 3e 0b 9f 32 bd
       0.11420831 0.09528906 0.12997077 -0.043608706
0000c0 ab 30 81 3d 0e d4 5a 3e 0d 56 96 bd c4 3f b6 bd
       0.06308111 0.21369955 -0.07340632 -0.08898881
0000d0 2b 93 b3 bc be 79 0d bc 1f 84 34 be 1b ea 09 3d
       -0.021920761 -0.008634983 -0.17628525 0.033670526
0000e0 7b 47 6b bd c7 34 a6 3d 8a 4e c0 bc ae 95 43 3b
       -0.057441216 0.08115535 -0.02347495 0.0029843855
0000f0 c7 3f e1 bd bd b1 15 bd 0b 07 95 bd 16 b5 a7 bd
       -0.10998493 -0.036546458 -0.07276734 -0.08188836
000100 6b 27 d1 3c 7e 85 f7 3d a8 97 14 bd 8f 2e aa bd
       0.025531491 0.120860085 -0.036277443 -0.083096616
000110 ec bf 94 bd 81 77 c1 3d 18 aa ac bd 27 1b e5 3c
       -0.07263169 0.09446622 -0.0843088 0.027967049
000120 c7 ed b5 bb 35 60 81 bd e9 f2 32 3d 89 11 f1 3d
       -0.005552027 -0.06317178 0.04368869 0.11770923
000130 35 ce ca 3c 57 9d 52 3e fe c4 15 bc 4b 87 88 bd
       0.02475653 0.20567833 -0.009141205 -0.0666643
000140 7b ec f7 bd d9 97 b0 3d d5 cb 04 3e ca 82 af 3d
       -0.12105652 0.08622713 0.12968381 0.08569868
000150 30 7e c1 bd 84 66 8f 3d 37 f6 9d bd 98 a8 41 3d
       -0.094478965 0.07001975 -0.077129774 0.047279924
000160 a8 74 0e 3d b5 a8 9f 3d 11 04 6f 3d aa 91 c4 3c
       0.03477922 0.0779585 0.058353487 0.02399524
000170 fc f6 f6 3d 82 e4 cd 3c 8e 6d 01 be 69 eb 87 bc
       0.12058827 0.025133375 -0.12639448 -0.016591744
000180 f1 a4 89 bd b7 40 de 3b 12 08 e6 bd 67 e0 87 bd
       -0.06720913 0.006782617 -0.11232008 -0.06634598
000190 87 b9 ba bd 00 32 9f 3b 5c c5 08 3e 45 82 e5 bd
       -0.09117418 0.0048582554 0.13356537 -0.112064876
0001a0 0d a8 8e bd d1 4b be bd 44 d8 f7 bd 4f 40 7e 3d
       -0.06965647 -0.092918046 -0.12101796 0.06207305
0001b0 e3 67 e3 3d 7c fe 58 3d db a1 d1 bd f3 23 e6 3b
       0.11103799 0.05297707 -0.102359496 0.0070233284
0001c0 b7 f3 b9 3d 5b 13 e6 3d 81 14 01 3e 8b d6 b0 bc
       0.09079688 0.112341605 0.12605478 -0.021586677
0001d0 e4 31 b7 bd ac 53 df bd 3d fc 2c be 98 84 a2 bd
       -0.08945063 -0.10904631 -0.16893096 -0.079354465
0001e0 9f ed cd 3d ac fe 28 be 08 96 11 be cd b9 4b 3e
       0.10055088 -0.165034 -0.14217389 0.19895096
0001f0 e8 c0 6f 3d 2d 11 a2 bd b3 57 c2 3d ce a6 6b bd
       0.05853358 -0.07913432 0.094893835 -0.057532124
000200 99 1f c4 3d b6 4a 72 bd d1 4f 09 bd 7d 56 a0 bd
       0.09576339 -0.05915328 -0.033523384 -0.07828996
000210 30 f7 c1 bd 0c ee e0 bd d6 9d cf bd ed e3 b6 3d
       -0.094709754 -0.10982904 -0.10137527 0.08930192
000220 30 fd 27 3c 81 66 81 bd 56 1d a0 3d 19 98 fc 3d
       0.010253236 -0.06318379 0.078180954 0.12333698
000230 2f 4e c5 bd f6 81 0e 3e b4 10 8d bd 2b a6 01 be
       -0.09634053 0.13916764 -0.068879515 -0.12661044
000240 a4 94 de bc 15 5d f7 3d 80 05 b2 3d e8 c8 1f 3e
       -0.027170487 0.12078301 0.08692455 0.15603983
000250 29 e6 f5 3d c3 6c 30 bd c3 5d ed bd 46 7f 8a bc
       0.1200679 -0.043072473 -0.11590149 -0.016906392
000260 02 02 76 bc 8c b1 90 3d d2 38 6d bd 1b 0d 88 3d
       -0.015015127 0.070651144 -0.057915516 0.06643125
000270 d0 c6 03 3e 27 7a e3 3a 8f 7c 05 be b2 91 f4 3d
       0.1286881 0.001735513 -0.13035797 0.11941852
000280 ad 44 a9 3d f0 41 c6 bd 5d fb 60 3d cf eb 29 be
       0.08265052 -0.09680545 0.05492722 -0.1659386
000290 3d 02 09 be 9d 3b 55 3d b6 aa 8c 3d 60 a2 20 be
       -0.1337976 0.052058805 0.06868498 -0.15686941
0002a0 a8 3a e1 bc a7 33 ad bd eb d8 60 be 42 71 94 3d
       -0.02749379 -0.084571175 -0.21957748 0.07248165
0002b0 9f 51 5c 3d ac b5 8c 3d 8d f7 b4 bc bb 31 d7 bd
       0.053788777 0.06870589 -0.022090698 -0.10507532
0002c0 25 0e f5 3d c8 42 0b 3e 55 c9 e0 3c a6 66 be bd
       0.119655885 0.13599694 0.027439753 -0.092969224
0002d0 21 45 bd 3b 51 96 e1 bd 04 9e 93 bd 6f 3f b3 3d
       0.005776063 -0.11014999 -0.072078735 0.087523334
0002e0 27 8f 10 3e 77 9d 4e bd a0 61 92 bb 71 02 dc 3d
       0.14117108 -0.05044314 -0.004467204 0.10742653
0002f0 a0 b3 78 bc c8 ea 92 3d c9 58 38 3d 23 88 80 3c
       -0.015179545 0.07173687 0.045006547 0.015689915
000300 45 3e 8a bd 20 91 39 bc d7 a0 13 bd 2c 9d ba bd
       -0.06750158 -0.011326104 -0.03604206 -0.091120094
000310 07 36 33 bc d0 96 36 bc 58 73 d3 3d 0a 3d a3 bd
       -0.010938174 -0.011144355 0.103247344 -0.07970627
000320 1a 1e 8b 3d a8 c3 0a bd c7 a3 2c 3e b4 1a 3b bc
       0.06792851 -0.033878 0.16859351 -0.011419941
000330 34 da 78 3d 7c ae 9b 3e 9f 7d 82 3d 81 78 37 3d
       0.06075497 0.3040656 0.063716166 0.044792656
000340 33 cb 53 bd 89 97 b7 bc 87 89 60 3e 30 2b 4b 3b
       -0.051707458 -0.022411125 0.21927463 0.0031001084
000350 a6 66 b5 bd b2 98 c9 3d 12 fd 41 bd 05 2e b5 bd
       -0.08857469 0.098435774 -0.047360487 -0.08846668
000360 21 0d 97 3d 6b bc d2 3d d0 e9 09 be db a6 a5 bb
       0.07375551 0.10289844 -0.13468099 -0.005055291
000370 53 73 2e 3d 77 b3 d4 bd 63 8e 5e 3b 90 f9 a2 3c
       0.04259045 -0.10385793 0.003395938 0.019894391
000380 4b c1 00 be 1f eb 92 bd a4 b1 28 3d f7 f0 2b bd
       -0.12573735 -0.07173752 0.041185036 -0.04197785
000390 70 ce 3f be 9e 7c ad bc 8c 16 b3 3c d7 63 70 bd
       -0.18731093 -0.021177586 0.021861337 -0.058688965
0003a0 4d 69 06 3c 47 e3 08 3d ee 36 ef bd 05 45 fb bd
       0.008203817 0.033419874 -0.11680399 -0.12269024
0003b0 71 db 06 3e c8 22 fd 3c 5a e6 6d 3d d1 5f 48 3d
       0.13169648 0.030900374 0.05808101 0.048919503
0003c0 71 84 8e bd 70 00 19 bd 43 44 e3 3d f0 b4 c3 bc
       -0.06958855 -0.037353933 0.11097004 -0.023889989
0003d0 cd d8 cd bd ae 68 19 3d 52 c5 d3 bd 62 ba e0 3d
       -0.10051117 0.037453346 -0.1034037 0.1097305
0003e0 12 e5 d6 3d 2e 9a a1 bc 2c ba 50 bd 78 9b 08 3e
       0.104929104 -0.019726839 -0.050958797 0.13340557
0003f0 c6 24 d0 bd 47 13 09 be 62 bb c8 3c 11 31 12 3d
       -0.10163264 -0.1338626 0.024503414 0.035691325

lstm.bias_ih_l0 f4 [256]
000000 b2 f2 c3 3d 7e b8 0c 3c 81 25 4a bd d9 e5 25 3e
       0.09567775 0.008588908 -0.049352173 0.16200961
000010 1d f7 0b 3e b2 87 a8 bd 62 6c 93 bd c6 c1 f2 3c
       0.13668485 -0.08229007 -0.07198407 0.029633414
000020 99 ad 69 3e 59 7a d6 3d 6c 96 7c 3d 47 17 5b 3d
       0.22820129 0.10472555 0.06166689 0.053488996
000030 52 f4 88 bd 87 2b 16 bd fa f3 0a 3e 84 3c 1b 3e
       -0.066872254 -0.036662605 0.13569632 0.15159804
000040 bb 60 ea 3d fc 72 9b 3d 33 c0 12 3e 81 4d c8 bc
       0.11444231 0.07590291 0.1433113 -0.02445102
000050 e0 2e 32 bd c4 44 b7 3d 11 5c 98 bc 0f 34 9f 3d
       -0.043501735 0.08948663 -0.018598588 0.07773601
000060 09 4b 76 3d e6 3d e0 ba 4f db dd 3c be 9c 32 bd
       0.060130153 -0.0017108291 0.027082114 -0.043606512
000070 19 53 17 3d ee ac 0c 3e b5 57 a3 bc ca 74 ba bd
       0.036944482 0.13737842 -0.019939283 -0.09104307
000080 8e 7d 05 bd 7b 99 a0 bd d4 11 58 3e e9 75 78 bd
       -0.03259044 -0.07841774 0.21100551 -0.060659323
000090 2b a9 d4 bd 23 82 b3 3d ee 5b 31 3c 16 e4 10 3e
       -0.10383829 0.08765056 0.01082514 0.14149508
0000a0 4f 7c 69 3d d1 c4 af bd af df 08 3e 2f 66 79 3e
       0.057003316 -0.085824616 0.13366579 0.24355386
0000b0 e1 6c a7 3c f2 6b 29 3d c0 b7 54 3d 17 5c 37 3c
       0.02043766 0.04136271 0.05193305 0.0111913895
0000c0 82 aa ea 3d 1d 35 c7 bb 34 78 fc 3d e6 b2 84 bd
       0.11458303 -0.0060793296 0.123276144 -0.06479435
0000d0 71 55 55 3d 16 8c 02 bd 91 cf cd 3d 47 dd 18 3d
       0.052083436 -0.031871878 0.10049356 0.0373204
0000e0 72 a2 9f 3c e3 a5 20 3d bf f7 63 3e 90 e2 33 3d
       0.01948664 0.039220702 0.22262476 0.04391724
0000f0 97 9a 86 3d 23 c4 17 3d 1f ec 8f bd 8f 2b 5c bd
       0.065724544 0.037052285 -0.070274584 -0.05375248
000100 c5 fc 42 3d 0d 2d dd bd 32 cf 4b 3d 39 ee dd bc
       0.04760434 -0.107996084 0.049758144 -0.027091132
000110 7c 6c e6 bd b5 05 42 bd cd f0 ba bd a3 fa 35 3c
       -0.112511605 -0.047368724 -0.0912796 0.01110712
000120 76 54 cc bb cf 4d 24 bd ab ef 5e bd 34 e3 8b bd
       -0.0062356545 -0.040113267 -0.054427784 -0.06830445
000130 a9 f8 c7 bd 10 52 65 3c df 15 c9 bd bd 6c 06 be
       -0.09764225 0.013996616 -0.09818625 -0.13127418
000140 78 e7 23 bd b7 d0 14 bd e1 33 46 3c 7e a2 58 3c
       -0.040015668 -0.03633186 0.01209733 0.013222335
000150 0c 4a 6d 3c f5 5c 2d 3c 87 35 8b 3c 01 7f 31 bd
       0.014482986 0.010581245 0.016993297 -0.04333401
000160 7c fc 00 3d c7 ae d4 3d 63 a8 da bd b8 bb 8d bd
       0.031490788 0.10384899 -0.106766485 -0.0692057
000170 45 15 11 3d e7 7b 04 bc f0 b9 ca bc c9 38 6e bb
       0.035420675 -0.008086181 -0.024746865 -0.0036349765
000180 3b fd a6 3d 58 75 9b 3c 9c 2f 26 3d a5 22 4c be
       0.08153769 0.018976852 0.040572748 -0.19935091
000190 2d 9b 01 be df 7a e9 bd cd da c2 bd 1b f0 f7 bd
       -0.12656851 -0.11400389 -0.09514389 -0.12106343
0001a0 55 f3 d4 bd 03 c3 6f 3d e0 4f 57 bd 67 a1 2e be
       -0.103979744 0.058535587 -0.05256641 -0.17053758
0001b0 69 fe ed bc fb bb a7 3d 24 8d 8d bd 32 d8 f7 3c
       -0.029051976 0.08190151 -0.06911686 0.030254457
0001c0 92 c3 9f bd 1f 0b 47 3d d8 3a 2a 3d a1 91 73 3c
       -0.07800974 0.04859459 0.041560024 0.014866264
0001d0 a1 cb 6f bd 27 1b 6c be 3c 13 8b 3d 5f 0c a1 ba
       -0.058543805 -0.23057233 0.06790778 -0.0012287012
0001e0 88 73 66 bc 76 3f 1b 3d b9 fc 92 3d cb ef b4 3a
       -0.014065631 0.037902318 0.07177109 0.0013804374
0001f0 5f c7 de bd f8 a6 4d 3c fb 94 4f 3c ad 25 ed bd
       -0.10877871 0.0125520155 0.012669797 -0.11579452
000200 7e cd ca bc ad 81 b2 bd 02 3f 5b bc ad 8f 04 3e
       -0.02475619 -0.0871614 -0.013381721 0.12945433
000210 e1 20 29 ba 2f 19 5d 3d c2 aa 8b ba 36 6b 4f bd
       -0.0006451738 0.053979095 -0.0010655748 -0.050639354
000220 c4 aa 65 bd 17 d5 a4 3d 9f 5c 1d 3c 1b 8c 88 3d
       -0.056071058 0.08048456 0.009604602 0.06667348
000230 4e 96 28 3d 68 00 14 bb aa fa 97 bd 63 e1 32 3d
       0.041158967 -0.002258325 -0.07420857 0.043671977
000240 59 50 6f bd b9 16 db 3d 5d a7 be 3b d9 7f dd bc
       -0.058426235 0.106976934 0.005818291 -0.027038502
000250 2a dd 04 3d 43 a5 b3 bc 25 83 88 bd 00 0e 55 bd
       0.03243748 -0.021929389 -0.06665639 -0.052015305
000260 ad 43 ea bc 4e bd e1 3d a3 1e 8e bd 45 b6 5e bd
       -0.028596723 0.11022435 -0.06939437 -0.054373045
000270 3d e2 8f 3d c1 66 82 3d da 3f 18 3d 56 dc 5c bd
       0.070255734 0.06367255 0.03717027 -0.053921066
000280 91 51 11 3d e0 2b eb 3b af ef e8 bc d8 0e 95 bb
       0.03547818 0.007176861 -0.028434603 -0.0045488887
000290 70 60 f5 3c 12 ab 67 bd 26 18 01 3c 3c 2a 43 bd
       0.029953212 -0.05655963 0.007879293 -0.0476477
0002a0 6b ef 22 3c 07 15 a3 3d 53 e6 2c 3d 09 e6 f2 3b
       0.009944777 0.07962995 0.04221184 0.0074126762
0002b0 5d af 5c 3d 69 2a 3e 3d 79 ab 0b bd 8a 78 1c 3c
       0.053878177 0.046427164 -0.034099076 0.009550223
0002c0 71 41 14 3c f0 7d 38 3d 92 9f f6 3c 48 c3 d9 b9
       0.009048806 0.04504198 0.030105386 -0.0004153496
0002d0 85 2c 79 3d 70 c5 18 bc 31 bc 9a bd 3d 54 71 3c
       0.060833473 -0.0093244165 -0.07555426 0.014729557
0002e0 8b 69 8a bd 43 54 c2 3d 2b e5 3d bd 33 79 af bd
       -0.06758412 0.09488728 -0.04636113 -0.08568039
0002f0 70 1f d9 3c 3d 23 24 bd 37 65 8e bb f1 e6 84 bd
       0.026504248 -0.04007267 -0.004345562 -0.06489361
000300 ee 7d da 3d 80 eb d3 3d f8 4d 1d 3d 2c 6a 4e bd
       0.106685504 0.103476524 0.038404435 -0.050394222
000310 36 ff 4a bc ea 37 c5 bc c3 d2 83 bd 12 2c 09 3e
       -0.012389949 -0.024074513 -0.06436684 0.13395718
000320 2b e4 12 3e f2 4b 0a 3e 24 c4 25 3d 6b 24 eb 3d
       0.14344852 0.13505533 0.040470257 0.114815556
000330 85 54 2c bb 6c 7f 2f 3e 98 e4 89 3d 4e e7 1f 3a
       -0.0026295495 0.17138451 0.06733054 0.0006099836
000340 72 f2 c5 3d 2c 52 cd bd 11 c7 ab 3c a1 80 db 3d
       0.096653834 -0.10025439 0.020968946 0.107178934
000350 9e 24 ba 3d 5c 7e 14 3d 75 57 3d bd 6a 36 95 3c
       0.090890154 0.03625332 -0.046225984 0.018214423
000360 52 90 4e 3e 22 1d 69 3e 39 ae ee 3d fc 27 23 bd
       0.20172241 0.2276502 0.11654324 -0.039833054
000370 42 a3 cc bb ab 2e 16 3e 24 db ca 3b e8 93 cc 3d
       -0.006245048 0.1466624 0.0061906744 0.099891484
000380 e6 4a 5e bb ef 8f 0b 3e 3f 24 da 3d 6c 0c c7 3d
       -0.0033919155 0.13629125 0.10651445 0.09719166
000390 05 8e 06 bd b2 92 05 3e 16 e7 80 3c fc c9 50 3e
       -0.032850284 0.13044241 0.01573519 0.20389551
0003a0 1d 51 50 3c 92 a0 7a bd 6b b1 af bd 8f 86 74 3e
       0.012714651 -0.061188288 -0.08578762 0.23879455
0003b0 86 51 40 bd 74 ce 4c bb fa 0d e5 bd ee fb c0 bc
       -0.046952747 -0.0031250985 -0.111843064 -0.02355763
0003c0 2d 43 8d 3d eb d5 2d bd f7 b2 a6 bc a5 4b bc 3c
       0.068975784 -0.042440336 -0.020349009 0.022985289
0003d0 ef 03 cb bd a0 84 fb bd e0 3a d5 3d bc 1d a0 bd
       -0.0991286 -0.122811556 0.1041162 -0.078181714
0003e0 bd 8a 8c 3d 52 39 13 bd 3a f3 31 3e e2 e3 82 bd
       0.068624 -0.035943337 0.1737794 -0.063911214
0003f0 af d7 8d 3d e1 93 2c 3d 1b a3 8f 3d 58 67 aa 3d
       0.06925904 0.042133216 0.07013532 0.083204925

lstm.bias_hh_l0 f4 [256]
000000 3e e5 dc 3d dc 5d 79 bd eb 3a 8d bd c7 5d 8a bd
       0.10785912 -0.060880527 -0.06896003 -0.06756168
000010 d8 c1 1c bc e7 99 67 bd 3f 0c 70 bd 7b 3e 76 bd
       -0.0095677 -0.056543257 -0.05860543 -0.06011818
000020 ce b3 3a 3e d5 52 4b 3b 7a 5d 0c 3e b9 cb 13 3d
       0.18232653 0.0031024714 0.13707533 0.036082957
000030 96 ec 1e bd 9f 39 39 3e 5e 79 a6 bd f5 c7 0d 3e
       -0.038799845 0.18088387 -0.08128618 0.13845809
000040 6f 9e d2 3c 24 5a 87 bd bf 82 56 3d 86 35 e7 3d
       0.025710313 -0.0660899 0.052370783 0.11289506
000050 2c b0 e6 3d fa 84 c9 bd a8 f7 38 3e 5e 31 0b 3e
       0.11264071 -0.098398164 0.18063223 0.13593051
000060 b0 19 d3 3b 02 d0 18 3e 1d 28 87 3d 01 34 10 bd
       0.006442271 0.14923099 0.06599448 -0.035205845
000070 19 26 70 3d 9f 25 b3 3d 93 85 55 bd c8 4b 5f 39
       0.058630083 0.0874741 -0.05212934 0.00021295168
000080 9d 98 ea 3d 42 a3 a5 bb 23 f8 03 3e 85 95 35 bd
       0.1145489 -0.0050548622 0.12887625 -0.044332046
000090 0e 8d 8e bd a5 e5 65 bd 8b d6 c0 bd 1a b0 3f 3d
       -0.06960498 -0.05612721 -0.09415921 0.046798803
0000a0 9d 26 17 bc 23 62 08 3d d6 93 03 3e a7 ec bb 3d
       -0.009225515 0.033296715 0.12849364 0.09175997
0000b0 25 4d 88 3d 7a ae 67 3c fe a3 cd bc e6 94 3e bc
       0.06655339 0.01414072 -0.025102612 -0.01163218
0000c0 98 48 a5 3d a0 dd 25 bd 9c 59 bc bb 0a 52 70 3d
       0.08070487 -0.04049456 -0.005747987 0.05867199
0000d0 2c 1c 8b 3d 0b ed f3 bc 29 4e c3 3d 8d 36 0a 3e
       0.06792483 -0.029776117 0.09536392 0.13497372
0000e0 8d 94 28 bd ed 6f 49 3d a6 2b 4a 3e b0 71 b8 bd
       -0.041157294 0.049179006 0.19743213 -0.09006059
0000f0 4a 29 01 be 09 e9 01 3e 8c f6 d9 3c 42 d6 c9 bc
       -0.12613407 0.12686552 0.02660682 -0.024638299
000100 5d c7 40 bd 0a 65 c6 3d e3 a9 26 be 56 ff 08 bd
       -0.047065128 0.096872404 -0.16275744 -0.033446632
000110 bd 1e c0 3c 2c d4 83 bc a9 93 19 bc 03 66 e5 bd
       0.023452157 -0.016092382 -0.009373584 -0.11201098
000120 38 8b 3c bd 42 ce d0 3c 76 f4 e2 bc 47 75 74 bd
       -0.046031207 0.025488976 -0.027704459 -0.059682157
000130 75 57 4b 3d d1 93 6d bd c0 35 16 be ff ba 2f 3d
       0.049643952 -0.058002297 -0.14668941 0.042902943
000140 ae 99 ee bd 38 f1 9b 3d 75 3e e8 bd f6 1b 32 bd
       -0.11650406 0.07614368 -0.11340038 -0.043483697
000150 ab 75 c9 bc a9 e3 ec bc f4 ff 78 3d a5 cc 8c bd
       -0.024592241 -0.02891715 0.06079097 -0.0687497
000160 91 75 96 3c c0 87 fb 3d c1 ad d3 bd dc ef 14 3d
       0.018366607 0.12281752 -0.10335875 0.03636156
000170 1e 86 28 be 9c 34 c4 bd 7d 12 8c bd 3d 9a 12 3d
       -0.16457412 -0.09580347 -0.06839464 0.035791624
000180 9f bc ac bd 20 50 aa bc 9e aa e1 bd 9b b2 be bd
       -0.08434414 -0.02079016 -0.11018871 -0.0931141
000190 34 97 55 3d 75 75 f4 3c 9b 7b ce bd 23 92 33 3d
       0.05214615 0.029841164 -0.100821696 0.04384054
0001a0 4e 5a f3 bb 65 db 06 be 76 01 01 3e 15 55 d0 bd
       -0.0074265366 -0.1316963 0.12598214 -0.10172478
0001b0 6a 15 95 3d 0e f3 bc bd 38 78 8d 3d 88 5d bd bd
       0.07279475 -0.092260465 0.069076955 -0.09246355
0001c0 cb 44 df bd 74 cc 05 3d 8a 30 ba bd df 3b 2b 3b
       -0.10901793 0.032665685 -0.09091289 0.0026128215
0001d0 3d 22 a3 bd fc 5a 04 be 1f e7 8d 3d c0 88 32 bd
       -0.07965515 -0.12925333 0.069288485 -0.043587446
0001e0 bc 89 2d 3d de e2 6c bd 3b b7 b2 3d 16 b0 e7 3a
       0.04236768 -0.057833545 0.08726355 0.0017676379
0001f0 2b 7e 43 be fa 43 f1 3d 98 36 8c 3c 8c c9 8e bd
       -0.19091098 0.117805436 0.017115876 -0.06972036
000200 12 8c 15 3c 8f d9 25 3c 15 e3 ad ba 0a c7 5c bd
       0.009127634 0.010122671 -0.0013266528 -0.053900756
000210 fd c4 8f 3d 68 e8 52 bb e6 26 28 3d be a3 a2 bd
       0.070199944 -0.0032181982 0.04105272 -0.079413876
000220 8e f0 a5 bb ec bc 62 bd d3 87 81 3d 89 26 81 bc
       -0.0050640767 -0.05535595 0.063247345 -0.015765445
000230 1a 5c c9 bc 5e 0b 89 3d 02 64 58 3d 4e 17 5a 3d
       -0.02458005 0.06691621 0.05282975 0.05324488
000240 56 d1 13 3e a6 da a7 3d f2 15 b0 3d f4 75 f8 bc
       0.14435324 0.08196001 0.08597936 -0.030329682
000250 a5 64 f2 3b a1 53 49 bc 09 40 7f bc d7 17 9e 3d
       0.0073972517 -0.012288005 -0.015579232 0.07719391
000260 14 90 f4 3d 27 50 11 bd e8 bd ec 3d f2 88 e1 3d
       0.11941543 -0.03547683 0.11559659 0.11012448
000270 78 b7 b1 bc a0 61 2d ba 45 10 74 bd ab ed df 3d
       -0.02169393 -0.00066139735 -0.05958583 0.109340034
000280 86 b3 be 3c b6 e7 0f bd c1 ba d7 3d 06 b1 ed bc
       0.023278963 -0.035133086 0.10533667 -0.029015075
000290 14 1c 65 3d f7 db 94 3c 91 9d 77 bc d8 4d 3b bd
       0.05593498 0.018171294 -0.01511325 -0.045728534
0002a0 e2 f7 8e bc b5 bf df bc 61 cb e2 3d 63 8c 3b 3d
       -0.017452184 -0.027313093 0.11073948 0.04578818
0002b0 34 58 fc bd 77 32 5a bd 2e ea c4 3c 18 1b 96 3c
       -0.12321511 -0.053270783 0.024037447 0.018323466
0002c0 18 37 91 bd 57 ce cc bc c1 58 ac bd 97 cd 9e bd
       -0.070905864 -0.025000734 -0.08415366 -0.07754057
0002d0 9a 0f 71 bd fc 3a 7b 3d 2a 51 f4 bc e4 dd cb bc
       -0.05885277 0.06133555 -0.029823858 -0.02488608
0002e0 ed 26 1c 3c 69 e2 69 bd 74 08 db 3d fb f2 83 bd
       0.009530765 -0.057100687 0.10694972 -0.06442829
0002f0 02 46 a8 3c 6a 3d b2 3d 8d d2 05 bd 7f 5b 42 bd
       0.020541195 0.0870312 -0.0326715 -0.04745054
000300 42 bc 7c bd a5 03 04 bc 90 04 8c bd f7 7c 09 3e
       -0.061702974 -0.00805751 -0.06836808 0.13426577
000310 b9 30 95 3d 21 aa 0d 3d 04 f8 03 be db 44 89 bc
       0.07284684 0.034586076 -0.12887579 -0.016756466
000320 6f 1e af 3d 93 dc 13 3e 66 95 9d bd ba 1d 06 bd
       0.085507266 0.14439611 -0.07694511 -0.032743193
000330 5f 4e 7f bc 51 91 15 bd 6a 1b d8 bc 12 6a 68 bc
       -0.01558265 -0.036515538 -0.02638026 -0.014185445
000340 9e 43 07 3e 01 66 e6 3d 0a fd a6 bd 87 30 1e bd
       0.13209388 0.112499245 -0.08153732 -0.038620498
000350 25 40 21 3e 08 45 97 3d 06 aa 29 3e f9 0d 3f bd
       0.15747125 0.073862135 0.16568765 -0.046644185
000360 4f 6d 5f 3d 58 08 51 3e 1e 42 e3 bb 12 9e 25 3e
       0.054547604 0.20413339 -0.006935372 0.1617358
000370 4a ce e9 3b 1b c6 34 3e d1 56 31 3d 51 89 0d 3e
       0.0071351873 0.17653696 0.043295685 0.13821913
000380 bf 7d d4 39 df 7d e9 3d 75 92 fc 3d 5e 00 31 bd
       0.0004052948 0.11400961 0.12332622 -0.04321324
000390 69 08 a2 3d 1b 10 09 3e 23 dd e8 bc d5 be 37 3e
       0.0791176 0.1338505 -0.028425759 0.1794389
0003a0 c4 d1 96 3c 18 e3 ed bc 4d 4b 6a 3c a0 b0 72 3e
       0.01841057 -0.02903895 0.01430018 0.2370019
0003b0 73 e7 81 3d ff ff 82 3d 86 09 57 bd 63 b6 b3 bd
       0.063429736 0.06396484 -0.052499317 -0.08775022
0003c0 c7 fc a0 bb 45 ff 9b bd 07 d8 88 3d e6 5d 65 bd
       -0.004912946 -0.07617048 0.06681829 -0.05599775
0003d0 20 bc b6 bc bc af 81 3b 06 45 05 3e 74 e1 b2 bd
       -0.022306502 0.0039577167 0.13014612 -0.08734408
0003e0 75 af 36 3e 36 d8 d4 3d 58 ba de 3c c9 16 7b 3d
       0.17840369 0.103928015 0.027188465 0.061301026
0003f0 bc f5 42 3c 7e 9d e3 3c 09 8d 7e bd d9 2f 5e bc
       0.011899408 0.027785059 -0.06214622 -0.013561212

lstm.weight_ih_l1 f4 [256, 64]
000000 46 c1 89 bc 15 e6 80 bd 57 8b 43 3d f9 09 b7 bd
       -0.016815793 -0.06293885 0.047740307 -0.08937449
000010 d7 02 db bc 4c d7 96 bd ac 24 8a 3d d2 c4 08 3e
       -0.026734753 -0.07365283 0.06745276 0.13356331
000020 54 74 46 bd 30 75 1a be 3a 11 ec bd 70 c3 51 3b
       -0.048450783 -0.15083766 -0.11526723 0.003200736
000030 b6 14 a6 3d ec 96 73 3d f7 be 7e 3d 1e d3 86 bc
       0.08109419 0.059470102 0.062193837 -0.01645809
000040 11 0f 0b be 96 d0 e3 bd ff db 01 bb 65 ee cb bd
       -0.13579966 -0.11123769 -0.0019814966 -0.099575795
000050 4d f1 e5 bd 77 26 f4 3d bc 42 42 bd fe a8 ca bd
       -0.11227665 0.11921399 -0.047426924 -0.09895514
000060 f0 82 6a bc 35 d5 71 3b f2 97 50 3d ae c8 b6 ba
       -0.0143134445 0.0036900763 0.050926156 -0.0013945305
000070 32 ad 4b 3d f2 6d 8a bc d0 18 81 bd 4e 9c 43 bd
       0.04972572 -0.01689813 -0.06303561 -0.047756486
000080 4a 66 d8 bd 0b f5 3f bd 1c ae bd bd 6c 25 96 bc
       -0.10566385 -0.04686455 -0.09261724 -0.018328391
000090 3b 9e b8 bd 85 33 d9 bd a4 59 c0 bd 13 cc bf bd
       -0.09014555 -0.1060553 -0.093920976 -0.09365096
0000a0 85 d1 94 3d fe 94 bd bd c9 35 fd bd 4e fb 07 be
       0.07266525 -0.09256934 -0.12363774 -0.13279459
0000b0 8c 19 dc 3d 88 54 f5 3d 19 0c 03 bd 6a ca d9 3d
       0.1074706 0.11979014 -0.03199396 0.106343105
0000c0 7f 1d 99 bd 12 c7 0f 3e c7 98 02 3e d4 67 1d bc
       -0.07476329 0.14040783 0.12753592 -0.009607274
0000d0 4a a0 c5 ba b7 7d b2 bd 90 46 b0 bd 84 3e 2c bd
       -0.0015077677 -0.087153845 -0.08607209 -0.042051807
0000e0 50 86 08 3e 33 1b 5e 3d e8 ed 07 be 05 ec 84 bd
       0.13332486 0.054225158 -0.13274348 -0.0649033
0000f0 10 00 83 3d a0 fb 4a 3d 76 fe 87 3d 94 51 eb 3d
       0.06396496 0.049556375 0.066403314 0.11490169
000100 0a e6 75 bd 53 f8 20 bd 15 e6 bd bd 96 d9 ce 3d
       -0.060033835 -0.03929932 -0.092724 0.10100095
000110 5a dc ab 3d 1c 75 49 bd 06 09 10 bc 70 e9 de bd
       0.08391638 -0.04918395 -0.008791214 -0.108843684
000120 82 05 9e bd 07 8e 7e bc d5 10 96 3d 6d f0 89 bd
       -0.07715894 -0.015536792 0.07327429 -0.06735311
000130 05 a6 12 bc 7a 76 16 3d 27 d8 22 be 36 d5 e0 bd
       -0.008950715 0.03673408 -0.15902768 -0.10978167
000140 bd fe 68 bd 53 15 e2 bd 97 7f 2e bd 9a 6c 9c 3c
       -0.056883562 -0.110392235 -0.042602148 0.019094754
000150 6c d2 9a 3d 16 f1 af 3d 58 ca 79 3d ea 45 96 bd
       0.07559666 0.08590905 0.060983986 -0.07337554
000160 0e fa e4 3d a3 7f 9f 3c 06 f6 16 3d 2b 04 68 bd
       0.11180507 0.019470042 0.03685572 -0.0566446
000170 2b 2f 6d bc 2e 17 78 bd 4e 80 b4 bc ed 5f 3e bd
       -0.014476578 -0.06056898 -0.022033837 -0.0464782
000180 3b 13 9c bd 45 53 3f 3c 8f d7 58 3d 6f d2 90 bd
       -0.076208554 0.011677568 0.052939948 -0.07071387
000190 f5 8b 6b bd 4f 04 41 bd 44 4f 0c be 84 11 92 3b
       -0.05750652 -0.04712325 -0.13702112 0.0044576544
0001a0 94 22 96 bd ee 3d 8f 3c ba a0 c8 3c 83 bc a1 3c
       -0.07330814 0.017485585 0.024490703 0.01974321
0001b0 22 96 de bd fd d3 c2 bd f7 b4 b0 bd 39 ef c4 bc
       -0.10868479 -0.0951309 -0.08628266 -0.024039852
0001c0 d0 a2 1f bd 4b 65 43 3d 17 9a 02 be 2e 12 aa bd
       -0.03897363 0.047704022 -0.12754093 -0.08304249
0001d0 7e 50 4b 3d e7 fd 78 3d 3d 31 b7 3c 4a 81 12 be
       0.04963731 0.060789015 0.022362346 -0.14307132
0001e0 9a 7c b0 bd 66 cc 01 be 8e 7f b7 bc 8a fe 12 3e
       -0.08617516 -0.12675628 -0.02239969 0.14354911
0001f0 e5 a9 77 bd bc 41 5d 3d 03 dc 56 3c 0d a0 33 bd
       -0.06046476 0.054017767 0.013113978 -0.04385381
000200 92 97 62 3d 0e cc f5 bc c9 03 97 3d c9 eb 22 bd
       0.05532033 -0.030004527 0.07373769 -0.039775643
000210 ad aa 32 3d f0 80 87 bd ea 1b f6 3b 1c 29 00 bd
       0.0436198 -0.0661639 0.007510652 -0.031289205
000220 64 7e e0 3d f5 5d b0 bc fb 2b 59 3d bf 8a 55 bd
       0.10961607 -0.021529177 0.05302046 -0.05213427
000230 07 2b 8a bd b8 73 09 3d 6a 1d 08 bd cd 6b 17 be
       -0.06746488 0.033557624 -0.033231176 -0.14787216
000240 33 3b d7 bd c4 4b 6c be bb f8 0b 3d c3 90 1d bd
       -0.10509338 -0.23075777 0.034172755 -0.038468134
000250 7f e0 12 be 8c 62 ec bd b2 d3 f8 3c 6a 92 0f bb
       -0.14343451 -0.11542234 0.030374382 -0.0021907338
000260 32 0f 11 bc b9 9a 1a be 3f 09 21 3d bc 6a 98 3d
       -0.0088537205 -0.15098085 0.03931546 0.07442233
000270 19 aa db bd b2 a2 05 be 18 78 dd 3d 4e 36 19 3d
       -0.10725803 -0.13050345 0.10813922 0.037405305
000280 31 1e 8f 3d 85 cf ae bd e4 52 05 be 2e 0a c6 3d
       0.069881804 -0.08535675 -0.13019902 0.0966991
000290 5a 32 b1 3d 80 6e e5 3c 06 1f 56 3d 85 4a 32 3d
       0.08652182 0.028006792 0.05227568 0.0435281
0002a0 d4 78 6b 3d 0f eb cb 3d ae 78 2b bd a4 10 86 bd
       0.057488278 0.09956943 -0.041863136 -0.06546143
0002b0 a2 fd 8a 3d 9b 8b c9 bd 73 4c e1 bd aa cc 38 bd
       0.06786658 -0.09841081 -0.1100091 -0.045117058
0002c0 08 7f c7 3c 59 19 70 3d 94 70 8f 3c 96 05 1d 3c
       0.024352565 0.058617923 0.017509736 0.009583851
0002d0 67 b1 9d 3d c7 f8 9f 3b 85 8e 2c bc aa 7d 29 bd
       0.076998524 0.0048819515 -0.010532026 -0.04137961
0002e0 f3 f1 c5 3c 88 ca fb bc ff ac e1 3d a3 b4 83 bd
       0.024163222 -0.030736223 0.110193245 -0.06430938
0002f0 c5 9a a3 3d f3 a9 55 bd b6 43 21 bd 3a 52 9d 3c
       0.07988504 -0.05216403 -0.039371215 0.019204248
000300 4d ed 89 3d d1 5d 68 bc 29 d4 f6 3d 74 62 87 3d
       0.06734715 -0.014182524 0.12052185 0.06610575
000310 4f 61 47 bd 34 88 5e bd 44 45 fc bc d3 32 41 3e
       -0.048676785 -0.054329112 -0.030794747 0.18867044
000320 5f a4 27 bd 69 ed 15 3a 1c db e4 bb d2 9a c2 3d
       -0.04092824 0.0005719276 -0.0069841277 0.09502186
000330 9a 0a 85 3d 08 e0 f3 bd d1 ad c4 3d d6 0f be bd
       0.06496163 -0.11907965 0.09603465 -0.09280364
000340 e9 5b a9 bd bb a0 b2 bc 05 12 33 be 17 1d b3 3b
       -0.082694836 -0.021805158 -0.17487343 0.0054661143
000350 65 5b b3 bc c3 0e 80 bd 94 e6 05 3e d7 4f 98 bd
       -0.021894166 -0.062528156 0.1307624 -0.07437103
000360 a9 86 33 3d 94 22 60 bc 58 24 d5 3d c7 85 ea bd
       0.043829594 -0.013680119 0.10407323 -0.11451297
000370 16 83 13 be d5 89 94 bc 7f 20 94 3d 2e 5b 39 3d
       -0.14405474 -0.01813213 0.07232761 0.04525297
000380 b7 b2 ba bb af d6 c4 3d bd 08 0b 3c af 11 96 bd
       -0.005697574 0.0961126 0.00848597 -0.07327592
000390 14 c7 07 bd 0d 8d aa 3d b1 32 91 3d fb 77 da 3c
       -0.03314884 0.083276846 0.07089747 0.02666854
0003a0 42 08 c1 3d e5 91 c7 3d 31 51 d3 bd 55 70 df 3d
       0.09425403 0.09744624 -0.103182204 0.109100975
0003b0 c2 f7 15 3c a2 2a 90 3c 45 65 55 3d 2a 0c d3 bd
       0.009153308 0.017598454 0.05209853 -0.103050545
0003c0 b4 9a a0 3d 82 be 54 bd ea a9 da bc f0 ee 89 3d
       0.07842007 -0.051939495 -0.02669235 0.06735027
0003d0 d5 db 04 3e 72 0e ac 3d a3 f0 3b 3e 45 ed bc bb
       0.12974484 0.08401193 0.18353514 -0.0057655894
0003e0 0e 3c 9d bb 04 4b 90 3d 90 70 76 bc 2f 5f 02 3d
       -0.004798419 0.07045558 -0.015041485 0.031829055
0003f0 36 ae 1a 3d 29 49 b1 bd 68 3b 85 3d 9e 37 3a 3c
       0.037763797 -0.08656532 0.065054715 0.011365799

lstm.weight_hh_l1 f4 [256, 64]
000000 7d 1b 2f 3c 07 cd 69 bd 66 ad eb bd 92 14 5c 3d
       0.010687706 -0.057080295 -0.115076825 0.053730555
000010 af ac ea 3d 1d d4 4c 3c 3f 3b f5 bd f6 0c dd 3d
       0.11458718 0.012501744 -0.11974191 0.10793488
000020 51 75 a1 3d 12 bc 16 3e 02 0d 84 3d 3c f8 96 3c
       0.078837045 0.1472018 0.064477935 0.018428914
000030 7d 37 f1 bc 4d 3e 85 3c 83 24 dc bd 57 b3 de 3c
       -0.029445404 0.016265059 -0.107491516 0.027185125
000040 09 52 a9 3d af c5 6e 3d ab df d4 bc dc 84 5a bd
       0.082676 0.058293995 -0.02598556 -0.05334936
000050 ab 01 e1 3d 5f 3d 5e bd 0b 54 0f be aa 68 f5 bd
       0.10986646 -0.054257747 -0.13996904 -0.11982854
000060 cb 6f 58 3d b0 a7 00 3d 7f 83 47 3d b7 55 f2 bc
       0.05284099 0.03140992 0.04870939 -0.029581888
000070 f7 7b b0 bd d4 91 c1 3c 22 1e 96 3d 91 d0 5f bd
       -0.086173944 0.023629107 0.07329966 -0.054642264
000080 5a 9c da bc 64 78 7a 3d df 32 10 be f5 2c a0 bb
       -0.026685882 0.06114997 -0.14081906 -0.004888172
000090 e1 b8 7b bd 20 66 72 bc ca 5c c8 3d 9d 7f 0c be
       -0.06145561 -0.014794856 0.09783323 -0.13720556
0000a0 ef 93 3d 3d f9 b8 ac 3d 80 c6 89 3d 73 1f 42 3d
       0.04628366 0.08433718 0.06727314 0.047393274
0000b0 28 37 97 bd f8 86 e4 bd d9 45 8a bd a2 0c 06 3e
       -0.07383567 -0.11158556 -0.06751604 0.13090757
0000c0 3b 8c 0e 3e ce 19 76 3d d4 af e8 3d dc bd 3c bd
       0.13920681 0.060083203 0.113616616 -0.0460795
0000d0 36 55 b5 bc ac fa d0 bd 51 57 e0 bd d0 a2 c9 bd
       -0.022135358 -0.10204062 -0.10954154 -0.09845507
0000e0 53 26 06 be 49 4e 94 bd e2 57 d9 bd c3 84 55 bd
       -0.13100557 -0.07241494 -0.106124654 -0.052128565
0000f0 77 96 b1 3d 2a 41 32 be c2 1c 2a bb ef c3 d8 bd
       0.08671277 -0.1740767 -0.0025957082 -0.10584246
000100 78 39 bb bd f3 e7 1f 3d dd 35 5b 3d 0d 28 f3 bc
       -0.09141821 0.039039563 0.053518165 -0.029682184
000110 a7 02 e2 bd b4 df f6 bd 31 96 7d 3d 99 dc c6 bd
       -0.11035662 -0.12054387 0.06191081 -0.097100444
000120 8a 13 14 3d fb 72 10 3e a8 ce 88 bb 37 2a f9 bd
       0.036151446 0.14106362 -0.004175026 -0.12166255
000130 59 50 01 3e 29 bd a2 bd dc 52 f8 3d da e5 6a 3d
       0.12628306 -0.07946236 0.12125179 0.05734811
000140 ea 1c 6f 3d 7c 02 a8 bd 3f ad c4 3d a3 c2 05 3e
       0.058377184 -0.08203599 0.096033566 0.1306253
000150 be 4e a9 bc f8 5b cd bd 15 6f 24 bd 5a d9 92 bd
       -0.02066743 -0.10027307 -0.040145 -0.07170363
000160 a7 da 47 3c 80 2c a5 3d 8a a7 95 bd 36 ca e9 bc
       0.012198127 0.08065128 -0.07307346 -0.028538805
000170 d2 a7 a4 3d 5c 3e 1b 3d 1c e5 f9 3d 6f 7b f5 3d
       0.08039822 0.037901267 0.12201902 0.11986434
000180 5f f9 42 3d ef b8 bc 3a f6 8e 7a bb 4e c2 90 bd
       0.0476011 0.0014398376 -0.0038232184 -0.07068311
000190 c8 30 b9 3d 3c 8e 7c bc c2 63 fa 3d 09 a3 11 3d
       0.090425074 -0.015414771 0.122260585 0.035555873
0001a0 be ef 25 bc 40 e6 45 3d e3 65 9e 3d 6c c7 a4 bc
       -0.01012796 0.048315287 0.07734277 -0.020114623
0001b0 1b b2 4c 3c d0 85 93 3d a1 0a ff bd 39 a7 dd 3d
       0.0124936355 0.07203257 -0.12453199 0.10822911
0001c0 98 0d 39 3d 72 cb b4 bc a1 48 23 bd 2b 2c e9 3c
       0.04517898 -0.022069667 -0.039864186 0.028463444
0001d0 25 3e 8e ba 70 ac b9 bd 5d f5 69 bc 3a ed 12 3e
       -0.0010852261 -0.09066093 -0.014279691 0.14348307
0001e0 00 7c 74 bd eb 3f 48 bc 84 a0 a6 bd 84 ad ad bd
       -0.059688568 -0.0122222705 -0.08136085 -0.08480361
0001f0 65 0d eb 3d 2e 2c 91 bd d7 9b 15 be 1d d2 8f 3d
       0.11477164 -0.07088505 -0.1461023 0.07022498
000200 13 e8 c0 3d 37 3b 02 3e 3c 97 28 bd 72 cd b1 3d
       0.09419265 0.12717901 -0.041159853 0.08681764
000210 15 ea 04 bd 15 b9 86 bd ce c3 81 bd 69 e5 4c bd
       -0.0324498 -0.0657827 -0.06336175 -0.05002347
000220 29 82 b6 3d 56 dc ed 3d ed 05 32 3d 60 28 bf bd
       0.08911545 0.11614291 0.043462683 -0.09333873
000230 2d 1c 05 3d 34 33 97 3d 4c 74 72 bd a1 8b 62 3d
       0.032497574 0.07382813 -0.05919294 0.05530894
000240 2c 90 da bd fe 8b 9f bd 02 45 3d 3c 7f 8a c7 bd
       -0.1067203 -0.07790373 0.011552097 -0.09743213
000250 68 d4 88 bc 1b 29 ed 3d 95 61 76 bc 44 58 3e 3d
       -0.016702846 0.11580106 -0.015037914 0.046470895
000260 2e 63 32 3d 6b 00 57 3d 1d 99 c5 bd 21 78 74 bc
       0.043551616 0.052490633 -0.09648345 -0.014921219
000270 9c 64 cc bd b3 60 96 bc 45 e6 be 3d 26 95 99 bc
       -0.09980127 -0.018356657 0.09321264 -0.018747877
000280 90 70 58 3b f1 84 9c bd ab 15 24 bd ac 75 16 3c
       0.0033026077 -0.07642544 -0.040059727 0.009183329
000290 65 98 dd bd aa d5 a2 bd b4 93 6a bd 14 9f aa bd
       -0.108200826 -0.079509094 -0.057269767 -0.08331123
0002a0 c0 b6 1b 3d 3f fb f9 3d d8 ab 91 bc af b0 6d bd
       0.03801608 0.122061245 -0.017782137 -0.058029827
0002b0 2b b1 ab bd 18 1a 00 be a5 6a f1 bd c0 53 41 3d
       -0.083834015 -0.12509954 -0.11787919 0.04719901
0002c0 c0 6d fb 3d 24 f3 fc 3d dc 8e cc bb 47 cf 41 bd
       0.122767925 0.12351063 -0.006242616 -0.047316816
0002d0 d5 c8 fd bb a4 19 58 bd 1a 02 c5 3c ba 9a 9d bc
       -0.0077448883 -0.052758828 0.024048854 -0.019238818
0002e0 ae e5 e9 3d 2e 2f c3 bd da b0 dd bd 77 32 2a bd
       0.11420761 -0.09530483 -0.108247474 -0.041552033
0002f0 fa 2d 86 3d bc 27 02 be 25 78 19 3c 32 00 1f 3c
       0.06551738 -0.1271047 0.009367024 0.009704636
000300 74 94 0f 3d 35 12 25 bd ee 3f ae bd 25 b7 ec 3d
       0.035053685 -0.040300567 -0.08508287 0.115583695
000310 5f 3e cb bd 08 d7 8a 3d b7 36 40 bd 34 d1 76 3d
       -0.09924006 0.06779295 -0.04692718 0.060258105
000320 0f a4 46 3d a0 eb e0 bd 16 b1 ca 3d d0 a5 a9 bd
       0.048496302 -0.10982442 0.09897058 -0.08283579
000330 c4 94 e6 bd 87 4e a8 bd 59 a6 36 bd fa 06 64 bd
       -0.112588435 -0.08218103 -0.044592235 -0.055670716
000340 ac 4d 88 bd eb 1e 0d 3d 8b f8 a8 3c 31 1a 18 3d
       -0.0665544 0.034453314 0.020626327 0.037134353
000350 51 80 cb bd f2 1f d9 bd 35 a7 8b bc 76 ff d3 bd
       -0.09936584 -0.10601796 -0.017047504 -0.1035146
000360 4c 58 39 3d e9 13 8a bd d7 b9 9a 3d ae 65 f3 bc
       0.045250222 -0.06742079 0.075549774 -0.02971157
000370 3c ea 7c bd 64 bb de bc ee bb 2e bd 26 f9 8c 3c
       -0.06174682 -0.027188964 -0.042659692 0.017208647
000380 df a8 8e 3d 85 b3 02 be e0 df 8d bd 60 97 ed bd
       0.06965803 -0.12763794 -0.069274664 -0.11601138
000390 2d 27 af bd 74 8a 78 bb 31 77 42 3d d4 fa 8f 3d
       -0.08552394 -0.0037924321 0.04747695 0.070302635
0003a0 e1 a8 8c 3d 3a 25 6a 3d ee 43 fe 3d a2 ce 21 ba
       0.068681486 0.05716441 0.124153 -0.0006172453
0003b0 05 fc 13 bb 0b f6 95 3d 7c 40 f8 3d c6 3f 6b 3d
       -0.0022580635 0.073223196 0.121216744 0.057433866
0003c0 3b 25 46 3c 35 d7 d3 bd fc 75 c0 3c af 63 0a bd
       0.012093837 -0.10343782 0.02349376 -0.033786472
0003d0 f2 71 eb 3d c0 97 b8 bd a1 ad 1f bd a8 49 75 bc
       0.11496343 -0.09013319 -0.038983945 -0.014971174
0003e0 77 3e 8a bd c7 28 aa 3d 8a 67 0c 3d 49 b8 2f bd
       -0.067501955 0.08308559 0.03427843 -0.042900357
0003f0 8a 62 1d 3c 4a 90 94 bd b2 a8 b3 3d ee ad 4a 3d
       0.009606013 -0.072540835 0.087724105 0.04948228

lstm.bias_ih_l1 f4 [256]
000000 42 5d 82 bd 61 c5 6c 3d f5 64 7a 3d 61 75 91 3d
       -0.06365444 0.057805423 0.061131436 0.071024664
000010 36 ac b7 3d 97 43 a0 3d d7 e4 00 3d 25 19 8b 3d
       0.089683935 0.07825392 0.03146824 0.06791905
000020 2e 3c 03 bd fe 44 b7 bc c4 40 d8 bd c9 a1 ee bc
       -0.032039814 -0.022371765 -0.10559228 -0.02912988
000030 40 bf ce bd 91 65 06 be 7f 56 a4 3b 7d 28 31 bd
       -0.10095072 -0.13124682 0.005015194 -0.043251503
000040 56 3b 3e 3c 0a 33 ad 3d b5 72 36 bd 15 3e 29 3c
       0.0116108265 0.084570006 -0.044542987 0.010329743
000050 89 e4 be 3d 6c 64 e6 3d c7 40 b8 3b 61 2f 72 bc
       0.09320933 0.11249623 0.0056229564 -0.014781804
000060 d3 aa af 3d dd c5 a8 bd 17 5e 8f 3d e9 aa 3d bd
       0.08577504 -0.082408644 0.07000368 -0.04630557
000070 80 f2 88 3d 98 e5 d6 3d a0 5f f9 3d d9 c6 b4 bd
       0.06686878 0.1049301 0.12176442 -0.0882699
000080 a3 1d f1 bd c9 05 ae 3d d3 fd b7 ba 37 ea 98 bc
       -0.11773231 0.08497197 -0.0014037438 -0.01866637
000090 97 8f ea 3d e5 94 82 bd ce e4 f8 3d 5c de 17 3d
       0.11453169 -0.06376056 0.12153016 0.037077293
0000a0 0b 08 9a bd f0 ed bf bd 8e 18 b3 bd eb 4f 65 bd
       -0.07521065 -0.09371555 -0.08744918 -0.05598442
0000b0 f7 cf b7 bd f0 39 7a bc 3c 32 9d 3d 74 cb 92 bd
       -0.08975213 -0.015272602 0.07675597 -0.07167712
0000c0 a4 06 6a 3d 1e dd 14 3d b4 dc 04 39 1d 85 0e be
       0.05713524 0.036343686 0.0001267072 -0.13917966
0000d0 57 1e e4 3d 1a 0f 03 be 88 6c 0b bd 4b 9e 33 bd
       0.11138599 -0.1279873 -0.03403905 -0.04385213
0000e0 a9 87 8b 3d 5f fd e7 3d 19 d8 ae 3d f1 e1 b4 3d
       0.068129845 0.113276236 0.08537311 0.088321574
0000f0 87 d2 99 3d d7 6c 29 bd 44 cb 0a 3d f7 94 27 ba
       0.07510858 -0.041363563 0.033885255 -0.0006392742
000100 ef 58 b0 bc d9 a0 a6 3d 86 d1 08 be d5 d6 49 3d
       -0.021526782 0.08136148 -0.13361177 0.049277145
000110 41 7c d0 bd c8 cf cd bd c0 4e f1 bd c2 cc 21 3c
       -0.101799496 -0.10049397 -0.117825985 0.009875478
000120 64 57 f7 bd 56 0e fa 3d 48 77 18 bd 81 ea c4 3d
       -0.12077215 0.122097656 -0.03722313 0.096150406
000130 a9 c2 8f bd e7 53 9a 3d 94 61 da bc ec 2f 8b 3d
       -0.0701955 0.07535534 -0.026657857 0.0679625
000140 5e 43 19 bd 46 8e 45 bd 63 f2 08 bd 0e 38 5f 3d
       -0.037417762 -0.048231386 -0.033434283 0.054496817
000150 b4 7c 42 3d f9 6b 7a bd e3 7e 08 be 12 56 27 bd
       0.047482207 -0.061138127 -0.13329653 -0.040853567
000160 74 b1 26 bc 6e cd 54 bd f7 54 4b bd 5f e5 d3 bd
       -0.010174144 -0.051953726 -0.049641576 -0.103464834
000170 b7 36 cf bd a3 cb f5 bc 40 6b a3 bc 72 53 c7 bd
       -0.10117858 -0.030004328 -0.019948602 -0.09732713
000180 b3 6c 6d bd 4e 35 ba 3d e7 58 0e 3d a4 dd 6f bd
       -0.05796499 0.09092198 0.034752753 -0.058560982
000190 c3 b6 64 bd e8 79 36 3d bb 72 6c bd 27 5f 84 3d
       -0.055838358 0.044549853 -0.057726603 0.06463461
0001a0 cd a7 22 bd af 6d c5 3c 80 26 88 3c 05 64 18 3d
       -0.03971081 0.024100153 0.01661992 0.03720476
0001b0 10 4d ff 3b ac 85 3d bd 76 a4 05 3e 3b 9e 87 3c
       0.007791169 -0.046270058 0.13051018 0.016554942
0001c0 03 87 50 3d 64 2b c8 3d b5 b2 ab bd 47 59 04 be
       0.050910007 0.09773901 -0.08383695 -0.12924682
0001d0 68 99 d7 3d 97 f8 c4 bd 80 ef 4a 3c a2 b7 0a be
       0.10527307 -0.09617727 0.012386203 -0.13546613
0001e0 37 a2 71 3d 4b bf a9 bc cd db 94 bd be ec 48 3d
       0.05899259 -0.020721098 -0.07268486 0.0490539
0001f0 da 09 90 3d 9d fc bd 3c d2 f6 bb bd db b4 9d 3d
       0.07033129 0.023191744 -0.091779366 0.07700511
000200 dc af b7 3c af 69 87 bd e1 7d 53 bd e2 80 88 3d
       0.022422723 -0.066119544 -0.05163372 0.066652074
000210 60 10 67 bc 39 11 8f bd a9 ad 18 bd b7 e3 98 bc
       -0.014103025 -0.06985707 -0.03727499 -0.01866327
000220 2b 5a 23 3d c3 20 c1 3c 33 02 f5 3c 00 4a 8e ba
       0.039880913 0.023575192 0.029908275 -0.0010855794
000230 7c 79 28 3c 64 97 84 bd 10 f9 83 bc 3b 00 98 3c
       0.01028287 -0.06474188 -0.016109973 0.018554797
000240 02 f0 67 3d 01 28 c2 3d 91 fe 57 3d b5 ee 27 bd
       0.056625374 0.094802864 0.052733008 -0.040999133
000250 6a b0 28 bd cd c0 37 3d 36 7e 18 3c c0 39 da 3d
       -0.041183867 0.044861604 0.009307435 0.10655546
000260 8d a8 88 bd 06 85 92 3d 1e 7f fe bc c9 6c b0 3d
       -0.066727735 0.071542785 -0.031066474 0.08614499
000270 35 64 e2 3d a0 97 0a 3d ed d9 99 bb 89 95 61 3d
       0.11054269 0.033836007 -0.004695168 0.05507425
000280 83 8f 99 bc d4 84 ab bd d0 20 b2 bd 15 8a 79 3c
       -0.01874519 -0.08374944 -0.08697665 0.015230675
000290 13 c4 ba bc 32 5c 35 3c 71 66 74 bd 83 a7 72 bc
       -0.022798574 0.011069344 -0.05966801 -0.014810446
0002a0 ff 9e e7 bc 4f d3 48 bc 5f b8 a7 bc 99 96 94 3c
       -0.028274057 -0.012257411 -0.020473657 0.018138217
0002b0 8c 7c c5 3c e7 79 de 3d 99 42 3c 3d f2 23 b6 3d
       0.02410724 0.10863095 0.04596195 0.08893575
0002c0 f9 57 a5 3b 16 6d 88 3d 98 51 1f 3d 6b 0e a4 bc
       0.0050458875 0.066614315 0.038896173 -0.020026406
0002d0 68 7f f9 bc f8 9f e4 bc 02 f6 2b 3c 76 6f 15 bc
       -0.03045626 -0.02790831 0.010495665 -0.009120813
0002e0 2a 0e cd 3c b5 72 8f bd 00 44 ed 3c ee c6 70 3c
       0.025031168 -0.070043005 0.028963089 0.014695866
0002f0 db 54 65 3d 03 9c 22 bd 51 02 69 bc 2a f0 02 bb
       0.055989128 -0.039699566 -0.014221744 -0.0019979575
000300 ab 49 e1 3d 97 0e 4a bc ee 66 bd bd 4d c4 b4 bd
       0.11000379 -0.01233258 -0.09248148 -0.08826504
000310 31 b1 0e be 8e 59 49 3d 26 77 80 bd 72 9b e1 bb
       -0.1393478 0.04915767 -0.06272726 -0.0068849856
000320 d9 86 1d 3d 0b 05 e9 bd 56 98 df bd 85 1e a4 3d
       0.03845868 -0.11377915 -0.10917728 0.08013634
000330 b8 cc 23 bd c2 e0 d2 3d 9f 08 a5 bd 86 71 aa bc
       -0.039990157 0.102967754 -0.08058285 -0.020806085
000340 fe 3d 08 3e ca 61 82 bd 62 16 ae bc 27 03 5e 3c
       0.13304898 -0.06366308 -0.021250907 0.013550556
000350 31 73 18 bb d5 a5 e0 3d 0f b1 91 ba be ec 2e bd
       -0.0023262019 0.1096913 -0.001111539 -0.042706244
000360 4b 41 cc bd ce 16 c0 bd a9 fd 70 bd 35 f1 a8 3d
       -0.09973391 -0.0937935 -0.05883566 0.082491316
000370 cd 64 a5 3d a9 97 ab bd b2 7c 05 3b f0 4f d2 bc
       0.08075867 -0.08378536 0.0020368514 -0.025672883
000380 4e b3 1e bd 1b 55 98 bd c2 e2 0c 3d a7 55 e2 bb
       -0.038745217 -0.074381076 0.03439594 -0.006907183
000390 24 4f 4a bd 7c fc e0 3d 5b 01 7c bb 07 e7 c7 bd
       -0.04939188 0.109856576 -0.0038452956 -0.09760862
0003a0 ff 07 97 bc 2e 02 64 bd ff 56 88 bd 57 35 30 3d
       -0.01843643 -0.05566614 -0.06657218 0.04301962
0003b0 c9 f7 44 bc 2c 6d a9 bd 88 48 ee bd 1e 50 eb 3d
       -0.012021967 -0.08272776 -0.11634928 0.114898905
0003c0 57 dc c8 bd d8 d2 d2 3d 09 8f f7 bc 7f 93 53 bd
       -0.098076515 0.102941215 -0.030219572 -0.051654335
0003d0 23 43 ec bd c8 07 f1 bc af e8 69 bd 4b 12 d0 bb
       -0.11536243 -0.029422656 -0.05710667 -0.006349837
0003e0 ff 2f 17 bc 63 d6 77 bd 05 7b a3 3d 17 da 00 3e
       -0.009227752 -0.06050719 0.079824485 0.12583195
0003f0 4f 3f 79 bd 6c cb f6 bd f1 51 7f bc 79 c9 5f 3d
       -0.06085139 -0.120505184 -0.015583501 0.0546355
