models/models/predict_t8/model.pth (torch, 615602 bytes, 27 tensors)

lstm.weight_ih_l0 f4 [256, 1]
00000000: 554d 363d dca3 97bd 4fe7 4cbc 12cc 1ebe
00000010: 4b34 96bc d60f e1bd 8740 95bd 5523 97bd
00000020: d9bb 88bd 3276 703d e5fd b63b 60e9 f8bc
00000030: 8dbb a43c 294a 4bbd 12aa 2fbe c344 02be
00000040: c92e 093e dab0 2d3d cf1c e2bc 7994 3c3d
00000050: 1a01 bdbd c1cb a7bd 0fc9 f13c ff3c e83c
00000060: 9f05 c3bd 1869 bcbd 1613 cb3d c932 efbd
00000070: e44f 0e3e d915 9bbc ffcf 85bd f500 18be
00000080: 3209 6f3a 9548 613e d7cb 0b3d 5e7f f9bd
00000090: 5df8 23be a0ff c43d 68a1 1abd e183 e73d
000000a0: 7439 01be 165d 4c3e f0a7 5abd 5367 d8bd
000000b0: 3511 48bd 827f c83d bb1d 03be 3585 c13d
000000c0: cc03 9dbd 91f1 203e 881c 293d 1de7 653d
000000d0: fc51 24bb 9da4 603e 7d53 293d 0c32 253d
000000e0: 4b5b 9abd 876f 1f3d 4a43 74bd 3e32 1c3d
000000f0: 2aee 82bd 2b1f b8bd fee7 cebd 0984 793e
00000100: cf0e cf3d ec92 99bc 523f 1ebe 23cf 14be
00000110: 33d2 a4bb 3fe2 853d 22b7 673c 200f 24be
00000120: 5bf1 6b3d f238 ed3c 78f6 ea3d a6f9 0dbe
00000130: fd51 073e a2af 243e 6ab7 e6bd 8499 9fbd
00000140: 7ad1 3d3d c368 75bd 2397 fbbd cd8f b73d
00000150: cf14 23be 7ccf 57bd 6deb 793d 4e93 353e
00000160: 8bac 5f3d 486e bfbd bddc 0e3e bd90 45be
00000170: 9fd6 313e 51f1 71bd 2b56 b9bc fd0f 3ebe
00000180: c408 b23c d713 0a3e 364d 41bd 3478 1bbd
00000190: 8d9a cfbd d04c d23d 635e 1dbe 61cf 893e
000001a0: 0fbe 8fbd acdd 5b3e 1fa2 a2bc 0741 03be
000001b0: 52d7 90bc 9a5d 8b3d 44eb e93c a561 c73d
000001c0: e59c 00be b08b d83d b828 25be 61d9 1b3e
000001d0: 0b9a 4ebd b845 503e 1552 58be 6c90 2cbd
000001e0: aefa 0c3e 0383 77bc c46d 6cbc cc3b 0f3d
000001f0: 45f2 b6bc 4543 15be 61be 9fbd 39f8 8c3e
00000200: d44b 09be 3122 163c 2bb8 d33d a872 d13d
00000210: 14cb 263e 9cdb 133e a0a2 04be 84ff bf3d
00000220: f5ff 3ebe 5435 1abe 3271 40be 17f7 01be
00000230: f79f 343e 3b33 2abd 97c6 283e d7a3 583d
00000240: d737 2e3e 73ea 453e 57b0 3f3e ecec 213e
00000250: 55ff 1a3e bcb6 0c3e 1d1a dcbd 3c71 103e
00000260: 349f 083d e146 14be 8ff8 17be 1db8 153e
00000270: 5b44 1e3e 9f3c 4f3e 31e0 05bd 8853 c83d
00000280: 9000 38be 42d7 0a3e 23f2 233e 5d51 233e
00000290: f598 25be ab82 18be 34ef d13d daa2 e63d
000002a0: f92b 003e 1e01 353e 79a6 1e3e fe41 19be
000002b0: cce0 843c f556 ffbd adc6 113e afae 14be
000002c0: c8d1 eebd 0ee7 4c3e 8f54 bcbd bddd 313e
000002d0: b17d f53d c2b9 3fbe de68 2d3e 86de 213e
000002e0: 1446 dabd 8c09 1ebe 46a4 313e 78ba 3fbe
000002f0: ad01 af3d da33 0b3e b4a5 9ebd 8fd0 48be
00000300: f7dd 00be ae43 d23c f164 22bd 4f2f dbbc
00000310: 7291 10be b50e 94bd 3315 0fbe f552 863d
00000320: 2ae8 04be c742 ff3d 4dd1 e3bd 1346 a2bd
00000330: e6f6 243e 71c7 1cbb 8654 c2bd 0577 05bd
00000340: e61a 623d 6ff4 c6bd a259 5b3d ceca 933d
00000350: f674 24bd 9b69 c5bd c61d bc3d 24bb 153e
00000360: 9503 ffbd ffb3 07bb 886f c7bd 002c d1bd
00000370: c16f 943e bf13 8d3d 6a2f e9bc 2782 17be
00000380: 2139 00be 84ee 133d 5526 0dbe 57a0 333c
00000390: 14ec d83c 0e79 9abc e56e 48be 1143 bf3d
000003a0: d9d4 a53b edc6 6e3d f9ed 5dbc 17c6 35be
000003b0: 4557 ffbd 3ea4 653d bca3 1f3d 9da9 de3d
000003c0: 8751 94bd 6b3c 603e 23a8 a0bd eb7f b23a
000003d0: 6441 2dbd a5cd 663e a40d bdbd e728 0a3d
000003e0: d306 0cbd 0fe9 963c 1c0f b0b9 e27c e33c
000003f0: 77e5 6bbc b1b5 b3bd 0881 0abe f517 853e
0.044507343 -0.074043006 -0.01250632 -0.15507534 -0.018335482 -0.109893486 -0.07287698 -0.07379786
-0.06676454 0.05870647 0.005584466 -0.03038472 0.020108962 -0.04963127 -0.1715472 -0.12721543
0.13396753 0.042404987 -0.027601628 0.046040032 -0.09228726 -0.0819316 0.029514818 0.028349398
-0.095225565 -0.091997325 0.0991575 -0.116796084 0.13897663 -0.018931316 -0.06533813 -0.14844115
0.00091184967 0.22000344 0.034129944 -0.121824965 -0.16012712 0.09619069 -0.037751585 0.11304451
-0.12619573 0.19957384 -0.053382814 -0.105665825 -0.048844535 0.09789945 -0.1280431 0.09449235
-0.0766674 0.1571715 0.041286975 0.05612861 -0.002507328 0.21937795 0.041339386 0.04033093
-0.07536944 0.03892472 -0.059634484 0.038133852 -0.063930824 -0.0899032 -0.10102843 0.24366774
0.101102464 -0.018746816 -0.15453842 -0.14532141 -0.0050299405 0.06537294 0.014142783 -0.16021395
0.05760322 0.028957818 0.114727914 -0.13864765 0.1321487 0.16082624 -0.11265452 -0.07792953
0.04634235 -0.05991436 -0.122846864 0.08962975 -0.15925907 -0.052688107 0.061015535 0.17731974
0.05460791 -0.09347206 0.13951392 -0.19293495 0.17367028 -0.059068028 -0.022624096 -0.18560787
0.021732695 0.13484131 -0.047192775 -0.03795643 -0.101369 0.10268557 -0.15368037 0.2691603
-0.07018673 0.2147128 -0.019852696 -0.12817775 -0.017680798 0.068049625 0.028554566 0.09735421
-0.1255985 0.10573518 -0.16128814 0.15219642 -0.050439876 0.20339096 -0.21125062 -0.04212992
0.13767502 -0.015106919 -0.014430467 0.034969136 -0.02233232 -0.14576443 -0.07799984 0.2753313
-0.13407832 0.009163425 0.103378616 0.10226947 0.16288406 0.14439243 -0.12952662 0.093749076
-0.18652327 -0.15059406 -0.1879318 -0.12691914 0.17639147 -0.041552763 0.16482006 0.052890625
0.17013489 0.19327717 0.18719612 0.15813035 0.15136464 0.13741583 -0.10747168 0.14105695
0.033354953 -0.14480163 -0.14840911 0.14621015 0.15455763 0.20237969 -0.03268451 0.09781557
-0.17968965 0.13558677 0.16010337 0.15949006 -0.1617163 -0.14893596 0.102507025 0.1126153
0.12516774 0.17676207 0.15493192 -0.1496658 0.016220473 -0.124677576 0.14235945 -0.14519762
-0.11661106 0.20010015 -0.09195816 0.17369743 0.11986864 -0.18723205 0.16934535 0.15807542
-0.106578976 -0.1543333 0.17347822 -0.18723476 0.085452415 0.13593999 -0.07746449 -0.19610809
-0.12584673 0.025667038 -0.039647046 -0.026755957 -0.14117983 -0.07229368 -0.1397293 0.065587915
-0.12979189 0.12463909 -0.11123905 -0.07923522 0.1610981 -0.0023922587 -0.09488778 -0.03258421
0.055201434 -0.09714591 0.053552277 0.07216416 -0.040150605 -0.09639283 0.09185366 0.1462217
-0.12451855 -0.0020706651 -0.0973807 -0.102134705 0.2899151 0.06888532 -0.028464992 -0.14795743
-0.12521793 0.036116138 -0.13784154 0.010963521 0.026479758 -0.018856551 -0.19573553 0.09338964
0.005060774 0.05829518 -0.013545507 -0.17751347 -0.12467817 0.056064837 0.03897451 0.10872195
-0.072421126 0.21898048 -0.078445695 0.0013618445 -0.04229869 0.22539385 -0.09231117 0.033730414
-0.034186196 0.018421678 -0.00033580593 0.02776951 -0.01439797 -0.08774889 -0.13525784 0.2599484

lstm.weight_hh_l0 f4 [256, 64]
00000000: d6b1 c3bd ae40 39bd 230e bd3d 764b c13d
00000010: 81e2 58bd f614 383d ab27 ac3d 4a79 7e3d
00000020: 2d75 0f3e 9879 a3bc 1d1f 19bc 6a44 043c
00000030: 80e3 f93d ace1 7fbd d492 2b3d 2c22 bdbd
00000040: 1b53 a0bd 31ea 49bd e98d 2b3b 9566 833d
00000050: 6cd3 4e3a 4dbe 53bd 0457 3d3d af9d 81bc
00000060: 9e71 903d 4d2d e9bd be0c a03c 36b9 27be
00000070: 7ac0 0f3e 5cd8 93bd 1a2e 023e a938 a53d
00000080: 5d52 b93d 1282 903d b747 5abc f3a4 373d
00000090: a07f 0b3e cdef c1bd 8e05 3cbd c7f8 783c
000000a0: d74d 4f3d fe41 f8bc 9d10 79bd 33c2 1a3e
000000b0: 2344 eabd 9dfd 7dbd acf6 cebc 8ae0 92bd
000000c0: 896d 593d 2a13 d73d 1c28 ad3d 053e ce3c
000000d0: 3ca7 cd3d ce13 783d e9e5 5e3d 6e14 81bd
000000e0: 2978 e6bd 65a8 c73d 34bb 00be 79f5 e0bd
000000f0: 2a90 62bd 6a42 2fbd 5d69 f93d f118 3bbd
00000100: 1afa b7bd 30c3 543c e95f b23d b641 f83d
00000110: 12b4 c33b 701d 043e e72c 85bd 5dc3 f73d
00000120: 9abb 8f3d e2d8 20bd b86a f23d afec 8ebd
00000130: 38e5 9f3d 3712 51bd 3ab7 2dbc e6b5 8fbc
00000140: 82e5 ffbd 02b3 f13d 226b 853d d11c 75bc
00000150: 46e9 2a3d 8f21 ed3b 4b54 5abd 8058 a9bd
00000160: 91c2 173d fc7a 6abd 1dfb 843c b545 6a3c
00000170: 79f1 d3bd badb 85bd 23ef adbd a692 083e
00000180: 68e7 bf3d f1ab a93c c7bb abbc 8c0d 0a3d
00000190: daf9 a13c afe2 443d d970 183e 94fc b6bd
000001a0: f551 31bd 7fed a23d d0d0 a8bd 1452 a4bd
000001b0: 47b3 bdbd 33b1 b83d e002 45bd e1d0 97bd
000001c0: 136a 653d f000 1ebe 6064 b03a c433 553d
000001d0: e595 7fbd b9d9 ee3d 7f86 abbd f825 3f3d
000001e0: 94e8 b2bb 4312 cabd aade 95bd d4b9 fcbd
000001f0: 3259 093e 1c34 973b 11f1 fabc 282a 1a3e
00000200: 7aa2 f2bd 59a0 29bd 2018 44bd 54ce 04be
00000210: 4679 273d 2965 17bd 0147 cb3d 0e7e 31bd
00000220: d954 58bd 205b 0a3d 3b66 5a3c 9e60 0d3c
00000230: 8ca6 1f3b 1122 a0bd 063b bebc f6ba febd
00000240: 60f7 91bd f5ac 8d3d 642d bfbc 242b 9a3d
00000250: dde6 02bc 5248 0bbd 33df 623d 2a59 5d3d
00000260: 4bdd 32bd 3faf 2a3d 9b68 c33b 0897 b7bd
00000270: 5b92 613c 30ec b6bd f9b9 57bd 978f a13c
00000280: e3a6 bc3d 9400 94bd cee3 49bd 9d1d 6abc
00000290: a7b7 843d 5a63 383d 59ee 7abd 6fa2 aa3d
000002a0: b954 913d ca4b 42bd 7cb1 d53c 276d bcbb
000002b0: afb5 c63d 87e5 a3bd c70e 8c3d 679e 9a3a
000002c0: 2d0d fd3d 86f2 7d3c 5803 833d 31b5 d1bd
000002d0: 37fb 993d dbdc 293c f729 80bb b8c9 0dbe
000002e0: cd2f 863c 3670 99bc e622 11be da1a d83d
000002f0: 5571 c4bd 8415 20bd 1868 923d 5c72 f2bd
00000300: 027a bc3d ad31 08be 4df4 60bc cbd9 84bd
00000310: 0e60 783d dc79 8dbd 0f10 993c 8215 8dbd
00000320: 983d be3d e7ae df3d a39d 0e3d fe3c c4bd
00000330: 1bb2 b63d d293 e73c 3513 e0bd 319c c0ba
00000340: 9a13 d33d 4b6c 0bbe 9235 45bd 8c1c 2bbc
00000350: bcac 3b3d a561 27bd f7a2 223c a94e ed3c
00000360: 9469 20bd e1ff a2bc 2de9 46bd 4157 193d
00000370: 460d 553e e2dd 143d c443 d03c ef90 88bd
00000380: 6d58 753d d500 2e3e 57d0 41bd 5988 e6bd
00000390: c654 e23b 99af 37bd 219e e1bd 6369 fb3c
000003a0: 412c 33bb a542 f2bd a993 aebd 7b69 113e
000003b0: 91df 59bd d369 ffbb 5aa3 84bd bbfc b7bc
000003c0: f3c1 42bd 0e0e fd3b 94b0 663d b3e9 d13d
000003d0: d300 d6bd aed6 edbc bc74 dabd a332 593b
000003e0: 0322 07bd e584 8d3d 50c2 52bd 62b1 873d
000003f0: 829c f4bd 3db4 2a39 1914 b53d 31df 263d
-0.09555404 -0.0452277 0.09231212 0.09438221 -0.052950386 0.044941865 0.084060036 0.06212739
0.14009543 -0.019955441 -0.009345797 0.008072952 0.12201595 -0.062471077 0.041888073 -0.092350334
-0.07828351 -0.049295608 0.0026177114 0.0641605 0.00078897807 -0.051695157 0.046225563 -0.01582226
0.07052921 -0.113855936 0.019537326 -0.16379246 0.14038268 -0.07219002 0.12712899 0.08067448
0.09048913 0.07056059 -0.013322762 0.044835042 0.13622904 -0.094695665 -0.045903735 0.015196032
0.050611343 -0.030304905 -0.06080686 0.15113144 -0.11438777 -0.062009443 -0.025264107 -0.07171734
0.053082976 0.10501702 0.08454916 0.025176058 0.10041663 0.060565762 0.05441848 -0.06302725
-0.112533875 0.097489156 -0.12571412 -0.1098432 -0.055313267 -0.042787947 0.121782996 -0.045678083
-0.0898325 0.012985989 0.087097 0.12121908 0.005972394 0.12901855 -0.06502705 0.120978095
0.07018204 -0.039269336 0.11836761 -0.069787376 0.07807392 -0.05104276 -0.010602767 -0.01754279
-0.12494947 0.11801721 0.065145746 -0.014960484 0.041726373 0.0072366665 -0.053303044 -0.08268833
0.037050787 -0.057246193 0.016233021 0.014298846 -0.10348792 -0.0653605 -0.08492877 0.13337192
0.09370309 0.02071187 -0.020963563 0.033704326 0.019772459 0.048067745 0.14886798 -0.08934894
-0.04329105 0.07955455 -0.08242953 -0.08023468 -0.0926271 0.09018173 -0.048098445 -0.07412887
0.056009363 -0.15430045 0.0013457648 0.05205132 -0.06239881 0.11662621 -0.083752625 0.04666707
-0.0054598544 -0.098667644 -0.073178604 -0.123401314 0.13412932 0.004614366 -0.030632528 0.15055144
-0.11847396 -0.041412685 -0.04787457 -0.12969333 0.04088714 -0.03696171 0.09925652 -0.043333106
-0.052815292 0.03377831 0.013330038 0.008628992 0.0024360744 -0.07818998 -0.023221504 -0.12438004
-0.07127261 0.069177546 -0.023337074 0.0752776 -0.007989612 -0.034004517 0.05538864 0.05404011
-0.043668073 0.041671034 0.0059633977 -0.08964354 0.013767804 -0.08931768 -0.05266759 0.01972179
0.092115186 -0.07226673 -0.049289517 -0.014289287 0.064803414 0.045016624 -0.061262462 0.08331763
0.07096238 -0.04743556 0.026085608 -0.0057503167 0.09702622 -0.08002763 0.06838756 0.0011796475
0.12356029 0.015499717 0.06397122 -0.10239638 0.075186186 0.010367597 -0.0039112526 -0.13846481
0.016380215 -0.018730264 -0.14173469 0.105519965 -0.09591929 -0.03908302 0.071487606 -0.118382186
0.09202959 -0.133002 -0.013730121 -0.06486853 0.06063848 -0.069080085 0.018684415 -0.06888868
0.09289092 0.10922032 0.034818303 -0.09581946 0.0892069 0.028268728 -0.109411635 -0.0014694986
0.10306473 -0.13615529 -0.04814679 -0.010443818 0.04581903 -0.040864605 0.009926549 0.028968172
-0.039163187 -0.019897403 -0.048562218 0.037436727 0.20805845 0.036344416 0.025422938 -0.06668269
0.059898783 0.16992505 -0.04731783 -0.11256475 0.0069070784 -0.044845197 -0.11016489 0.0306899
-0.002733961 -0.11829118 -0.08524258 0.14200394 -0.053191725 -0.0077945977 -0.06476469 -0.022459378
-0.047548246 0.0077226227 0.05632074 0.10249653 -0.10449376 -0.029033031 -0.106667966 0.0033141754
-0.03299142 0.06910113 -0.051454842 0.0662563 -0.11943914 0.00016279607 0.08841724 0.040740196

lstm.bias_ih_l0 f4 [256]
00000000: 3f15 c03d 7177 343d 7267 bb3d 2dc9 8abd
00000010: 0275 743c 0e16 94bb 2eb7 e43d d7a3 073e
00000020: 222f 62bd 12de 903d cabd 103e f702 323c
00000030: e447 3a3d 281d bc3d f33b 3d3d daae e4bd
00000040: affb 7c3d 2586 093e 3b4c 64bd 7b1a fabd
00000050: e432 5b3d 1755 2a3d 2b53 df3d e7de e23d
00000060: b61c 083e 37c4 39bd 77b6 4e3c 0a01 99bd
00000070: 2089 d03c 0c49 043e 04db cd3d 1978 143d
00000080: 8f49 863d d1be 60bd 119d d7bc 4598 50bd
00000090: 1526 283d ffcb 67bd d97b dbbd 54fd e93d
000000a0: 1e65 283d dd72 083d a08f b63d 8f19 ce3d
000000b0: 475e d93c e8bf 123e d797 df3d e579 20bd
000000c0: 704c d23d 4a2b 2c3e 821c ad3d 9f75 7abd
000000d0: adac c8bc 094e 393d 93a7 0fbd be31 f73d
000000e0: b4ff 09bd adf1 cd3d 180d 143e 7f52 e0bc
000000f0: e32a 80bd 285b 5abd b15a ca3c ee62 3bbd
00000100: e12d b4bd 43b9 6dbd 6592 ad3d 8b35 8abd
00000110: 1e64 a2bd 03c1 a9bd 8c71 9e3d 858d 76bc
00000120: d556 dabc d675 1ebe 38b2 383c a3bb d0bb
00000130: 26f1 ac3d 2fd6 bbbc 86ac 4fbd 4af1 ed3c
00000140: ced9 03be 52fb e6bb 51de adbc 775d e2bd
00000150: f4aa 3b3c a18c 8f3d 1a20 50bd f3c1 c5bc
00000160: 1b9c e2bd 47bc 1f3c 7ff5 75bd c38b 85bd
00000170: 890d 6bbd 9af8 dfbc b206 b53d 7632 1c3d
00000180: 0f92 d73d f3b5 e0bd d397 e03d 3752 c4bd
00000190: fbd5 c3bc e6f3 d8bd b564 1b3d 2df6 bc3d
000001a0: 8242 a43d 8b66 5cbd 8524 203d 972a 933d
000001b0: dea7 dbbd 7e1e c23c 28ab 403d c63e 183d
000001c0: 92a3 acbc 1389 90bd c9ec d2bd 7dfb 84bd
000001d0: a9ee 6d3d 2008 81bd 27df ca3d 1632 a5bc
000001e0: 871a 3f3d 5671 83bd fd4e 3ebd b3f6 4b3d
000001f0: 9601 ed3c fd78 bd3d 4b4a 53bd f4c9 1abd
00000200: 7459 b0bd 7ad7 13bd 8e9b c83c 57c6 253d
00000210: 4ab9 3cbc 0472 e5bc a245 20bd 4948 7abd
00000220: ed0a 47bd 4b99 edbd 778f fb3c 4509 e5bc
00000230: 2be8 9fbd 9184 debd 316b 6cbc 4d37 20bc
00000240: 47f2 a4bc 2618 29bd e0ab d0b9 2a37 9bbb
00000250: e814 56bd a105 77bd b62d 5abd 2480 bcbd
00000260: 7b6f 99bc 247b 523d 0063 56bd 085b 773d
00000270: 9e36 e53d 2edf f63d b9d2 40bd 4b0b f63d
00000280: 4a72 f3bd de5c 71bd d450 0b3e 395c 6bbd
00000290: 0fb2 f6bd b32d 94bd debc 223c b5fe 57bd
000002a0: 0958 b6bc 7d1c a23d 15d1 f43d ebb8 c33c
000002b0: 38d4 a13d 2025 283d fa49 5fbd cd99 d5bd
000002c0: 74c3 e7bd 0426 e93d f21e 9ebd a500 a13d
000002d0: a390 86bb 5757 4cbd 597d 8f3d fea5 d63d
000002e0: 9955 ad3d 7a49 e3bd bdbb a03d 04a4 a0bd
000002f0: 348b 62bc b545 3f3d c450 3a3c 1b36 9c3d
00000300: 2230 343d 2d42 91bd 2bfe 2f3d 0bad 0e3d
00000310: a51f 9abc 3aa2 02bd 1eed c1bd 3718 6ebd
00000320: 839c bbbc 7148 ec3d e5c2 7f3c 5944 dcbd
00000330: 74f5 833d 06e4 11bd 0089 c13d 2b09 a8bd
00000340: 5dc7 f7bc 3ed1 a93c 11ad 4e3d 3fcc 6cbd
00000350: 9766 4fbd b854 48bd 6d71 9e3d fe3f cd3d
00000360: 2a80 953d 1b00 c7bd 18b3 113e 58ef b43d
00000370: 56fb a73b 3e07 1c3e 38fb aa3d 5a4c b53d
00000380: 03e4 72bc ef64 9c3c 425e 09bd 970a a1bd
00000390: 317b 543d e170 e93d 0e40 423d 753d cd3d
000003a0: 3ddd 83bb 7f7f 27bd dbd3 3cbd f7e0 ed3c
000003b0: a6d7 cbbd 4792 d43c 447d 873d c9a0 1abc
000003c0: e1f2 8a3d fd33 90bd 847c 933d 082b ff3d
000003d0: 60b6 353e c6be 133e b119 9a3d 6225 f23d
000003e0: e1bd 643c 4809 8fba 09ac a83d 79dc 43bc
000003f0: 6b55 67bd fa39 0d3e 8faa edbb b2bc adbd
0.09379052 0.04405922 0.0915059 -0.067766525 0.014920475 -0.0045192307 0.11167751 0.13246094
-0.05522073 0.070736066 0.14134899 0.010864965 0.045478716 0.091852486 0.04619975 -0.11166163
0.06176346 0.13430078 -0.05573676 -0.12212082 0.05351533 0.041585054 0.10904535 0.110776715
0.13292202 -0.04535314 0.012616745 -0.07470901 0.025456011 0.1291849 0.100515395 0.036247347
0.06556999 -0.054869477 -0.026320012 -0.050926466 0.041051943 -0.05659103 -0.107169814 0.11425272
0.041112058 0.033312667 0.08914113 0.10063469 0.026534213 0.14331019 0.10917633 -0.039178748
0.102684855 0.16813388 0.08452703 -0.06114733 -0.0244964 0.045240436 -0.03507192 0.120700344
-0.033691123 0.100558616 0.1445812 -0.027383087 -0.0625818 -0.05330959 0.024701448 -0.045748644
-0.08797813 -0.058038007 0.08475188 -0.06748494 -0.07929252 -0.08288767 0.07736501 -0.015048389
-0.026652733 -0.15474638 0.011272959 -0.0063700243 0.08444433 -0.02292928 -0.05070164 0.02904572
-0.12876055 -0.0070490027 -0.021224173 -0.11052983 0.011454333 0.07009245 -0.050811864 -0.024140334
-0.11064931 0.009749479 -0.060048576 -0.06520798 -0.057385955 -0.027340222 0.08839168 0.03813406
0.10525905 -0.10972204 0.10966458 -0.09585994 -0.023905745 -0.10593395 0.03793784 0.09226642
0.08020498 -0.05380873 0.039097328 0.07185858 -0.107253775 0.02369618 0.047038227 0.03716924
-0.02107409 -0.07057395 -0.102990694 -0.0649328 0.058088932 -0.06300378 0.09905844 -0.020165484
0.046656158 -0.064181015 -0.046462048 0.049795818 0.02893142 0.09251592 -0.051584523 -0.037790254
-0.08610812 -0.036094166 0.024488237 0.040472355 -0.011518786 -0.028008468 -0.039128907 -0.061104093
-0.048594404 -0.11601504 0.030708058 -0.027958522 -0.078079544 -0.10865129 -0.014429853 -0.00977881
-0.020135058 -0.041282795 -0.00039800908 -0.0047368007 -0.05226603 -0.060308103 -0.05326625 -0.092041284
-0.018729916 0.051386967 -0.052340508 0.06038955 0.11192058 0.12054287 -0.04707596 0.12013873
-0.11887033 -0.058926456 0.13605052 -0.057460997 -0.12045681 -0.07235279 0.009932725 -0.052733142
-0.022258775 0.0791559 0.11953942 0.023891887 0.07901806 0.04105103 -0.05451391 -0.10429726
-0.113165766 0.11384204 -0.07720746 0.07861451 -0.0041065975 -0.04988798 0.0700633 0.10480879
0.08463592 -0.11097999 0.07848308 -0.078437835 -0.013827134 0.046697337 0.011371795 0.07627507
0.043991216 -0.070927 0.042967003 0.034832995 -0.018813917 -0.031892993 -0.09469055 -0.05812856
-0.022901779 0.115372546 0.015610431 -0.10755224 0.06443301 -0.03561785 0.09449959 -0.08204874
-0.030246431 0.020729657 0.050458018 -0.05781197 -0.050634947 -0.04890892 0.07736478 0.10021971
0.07299836 -0.09716817 0.14228475 0.08834714 0.005126397 0.15237138 0.083486974 0.088524535
-0.01482487 0.019091098 -0.033537157 -0.07863348 0.051875297 0.11398483 0.04742437 0.100214876
-0.0040241764 -0.040893074 -0.04610048 0.029037936 -0.09953241 0.025948657 0.066156894 -0.009437748
0.06784607 -0.07041166 0.07201484 0.124593794 0.17745352 0.14428243 0.075244315 0.118235365
0.013961286 -0.00109128 0.08235938 -0.01195442 -0.056477945 0.13791648 -0.007252998 -0.084832564

lstm.bias_hh_l0 f4 [256]
00000000: ebea 7cbd 455c 8fbc caed 853d ab72 003e
00000010: 8ba6 843d 612b 91bc a332 88bc 0f68 3e3d
00000020: f09a 623d b06c 1dbd c648 903d 1cfb db3d
00000030: be8c 243d ee68 703d e997 33b9 05cf 23bd
00000040: d71b b33d 21d4 2d3e b204 4ebd 2f49 13bd
00000050: 77c5 c4bd a6c8 083e db77 a83d 34bf 4a3d
00000060: f46d b23d d568 00bc 3e90 053e 8590 95bd
00000070: ae99 cdbc 6931 0d3e 2131 fb3d 5150 f0bd
00000080: 8ad2 80bd 3ed2 393e 8886 983d e32a 993c
00000090: 4e91 b9bd 7914 d03d 6dd8 fe3b 8eed c5bd
000000a0: 68cf 183e 2dd2 9bbd b944 973d 95f2 4b3d
000000b0: d81c 88bd aa9a 89bd b0fb 6c3d 657f 913d
000000c0: 2bf5 343d 7a05 71bc 271c 8d3d e033 e03d
000000d0: 0d03 223e c07f 7d3c 2b27 9c3d e40d 483d
000000e0: b426 323a 7f91 86bd ee68 ae3d bb5e 74bd
000000f0: 42d6 a13d e391 60bd f80e f33a 7fc5 953d
00000100: 0bb8 b13c d33f fabb 1a49 893c 76f5 53bc
00000110: 18fe febd ec4d b9bb 5f50 873b 141a 95bd
00000120: 73f7 98bc 0060 67bc 79f1 25bd 4472 e9bd
00000130: d369 a5bd 09e9 e03d 7876 ccbd b632 ec3c
00000140: d04e f63c 6dd1 673d 6672 3fbd e5af 6fbc
00000150: ef7c cf3d 83f0 833b 67b8 87bd 7076 c43d
00000160: a0a1 fa3d 106f d23b 982a 0cbd ea14 f93c
00000170: c763 9d3c 4f6a 85bd f0b4 303c 13e4 d33c
00000180: d691 5c3d d5a0 8abd 5f54 e63d 1813 623d
00000190: 9622 b2bd 758d d2bc 2749 98bd 97e0 c2bd
000001a0: f0f7 55bc acc1 a23b 5b37 a3bd 4ef8 713c
000001b0: 3a35 dcbd 7404 8c3d 7163 e3bd a716 7f3d
000001c0: cf9e 05be e846 81bb 9843 c23d 20ba 0fbd
000001d0: 456d 5b3d 22d6 d2bd 73f4 b2bd 1b68 55bd
000001e0: 5b30 fcbd 1a93 da3d d67b 943b 5ec6 e73c
000001f0: 5bb5 9abd d8ac 433c 4500 ce3d 31f8 3bbd
00000200: d6d7 713d 340f 88bb 1820 cebb 187b dcbc
00000210: fdec c9bc cbd2 43bc e835 a5bd a5f6 223d
00000220: ea77 c9bc 08b7 a53c 0f17 81bd f031 cf3c
00000230: e76a df3d c5bd bc3d 2c2c fa3d c251 12bc
00000240: ea05 fabb 0972 b43d 4c02 4cbd e501 7dbb
00000250: 7705 8d3d d7f6 c23d f213 d6bb 4547 0c3e
00000260: e972 453d 240d aebc 3784 f7bc 449b 453d
00000270: 47fb efbd 6ef8 7d3d 7d1c 463d d9ac b9bd
00000280: 9b30 953d 108d 8c3d 9c7d 82bd 7bd2 0c3e
00000290: d7d8 983d 3838 923d 23ce 073d f194 a73d
000002a0: c1de 8d3d 1705 253d 1b34 bbbd 6e22 0dbe
000002b0: 7a3c b33c 14ce c0bd 4aeb 0b3e ecb0 4c3d
000002c0: baa1 4f3d 91f5 74bd ec59 663d 1ad5 dc3d
000002d0: 77f1 413d b2dc 2d3c 6e4d 013d c754 25bd
000002e0: 3781 fcbd dd2a 163d 226e c83c adf6 82bd
000002f0: 8071 8c3c fded 023c efa9 c3bb 55c9 c6bd
00000300: 6dad 1b3c df30 e2bd 573a 873d d11e 77bd
00000310: 3944 d0bd 3597 c83d 0201 acbd ce6c f0bc
00000320: 217c b6bc 1a02 15bd 312b 153e 5ed5 4ebc
00000330: ccd7 403e a39a adbd d257 f83d 911f b53d
00000340: 7cf4 a23d 5c65 4a3e cb93 83bb c527 023e
00000350: 3fe2 53bd 47b9 eb3d 5d7f 8e3d 5375 e13c
00000360: 7cb1 793d f368 92bd 3c0f 5d3d 71f4 2f3d
00000370: c99c 8abd 68c6 203d 78a8 443d 874b 81bc
00000380: 4e69 933d 0076 363e 035a 1abd 7803 f5bb
00000390: 8148 ecbc 0c14 c13d aef7 93bd 8d4c 62bb
000003a0: cc0d 94bd c9b1 41bd e92c d83d e1ae 82bd
000003b0: ff46 443d 7227 fc3d c550 a13c 688f a3ba
000003c0: 2f60 613d 09a6 0d3e 10f5 e7bd 1b7d d83d
000003d0: 77b6 e23d 8fc3 623c bb2b b1bc 7a4a 0f3c
000003e0: 6198 18bd 13b0 913d 394d 21bd daaf d93d
000003f0: 0491 1d3e 6e43 713b 18ad e3bd fb52 4cbd
-0.061747473 -0.017500052 0.06539495 0.12543742 0.06477078 -0.01772088 -0.016625708 0.046485957
0.05532354 -0.03843373 0.070451304 0.10741255 0.040173285 0.05869382 -0.00017127361 -0.03999235
0.087455444 0.16975452 -0.050297447 -0.035958465 -0.09607976 0.13357791 0.082259856 0.04949875
0.08712378 -0.007837494 0.13043305 -0.073029555 -0.025097694 0.1378838 0.1226523 -0.11734069
-0.06290157 0.18146607 0.07447535 0.018697208 -0.09060918 0.10160155 0.007777265 -0.096644506
0.14922869 -0.07608447 0.07386155 0.04979189 -0.066461265 -0.06718953 0.057857215 0.07104377
0.044179123 -0.014710778 0.06890135 0.10947394 0.15821476 0.0154723525 0.07624658 0.048841372
0.00067959283 -0.0657072 0.085161075 -0.059660655 0.079021946 -0.05482663 0.001854389 0.0731306
0.021694204 -0.007637003 0.01675849 -0.01293694 -0.12450808 -0.005655041 0.004129454 -0.07280365
-0.01867268 -0.014122009 -0.04051349 -0.113987476 -0.08076825 0.10981948 -0.099835336 0.028832775
0.030066878 0.05659621 -0.04673996 -0.014629339 0.10131251 0.004026474 -0.06626969 0.09592903
0.12237859 0.006421931 -0.034220308 0.03040548 0.019212617 -0.065144174 0.010785326 0.02586559
0.053850017 -0.067689575 0.11246561 0.05519399 -0.08698003 -0.025702218 -0.07435828 -0.09515493
-0.013059601 0.004966935 -0.079695426 0.014768673 -0.1075234 0.06836787 -0.11102951 0.062277462
-0.13048862 -0.0039452203 0.09485549 -0.035089612 0.053571004 -0.10294749 -0.08738031 -0.052101236
-0.123139106 0.10672589 0.004531364 0.028292831 -0.07554122 0.011943065 0.10058645 -0.04589099
0.059043728 -0.004152203 -0.006290447 -0.026914164 -0.024649138 -0.011952112 -0.080669224 0.039786
-0.024593312 0.020228878 -0.06303226 0.025292367 0.10909062 0.09215883 0.12215456 -0.008930625
-0.0076300995 0.08810813 -0.049806878 -0.0038605866 0.06885808 0.09519737 -0.0065331394 0.13699062
0.04820529 -0.0212465 -0.030214412 0.048243776 -0.11717849 0.0620045 0.048367012 -0.09066171
0.072846614 0.06862843 -0.06371614 0.13752167 0.07463234 0.07139629 0.03315557 0.08182705
0.069272526 0.040288057 -0.09140798 -0.13782665 0.021879423 -0.09414306 0.13663974 0.049973413
0.050691344 -0.059804503 0.0562381 0.107828334 0.04734942 0.0106117 0.031567983 -0.040364053
-0.12329333 0.03666197 0.024466578 -0.06394706 0.017143965 0.007991311 -0.0059711854 -0.0970637
0.009501797 -0.11044478 0.06602924 -0.060332123 -0.101692624 0.097944655 -0.0839863 -0.029348757
-0.022275986 -0.036378957 0.14567257 -0.012624113 0.1883232 -0.0847676 0.121261254 0.088439114
0.07956788 0.19765228 -0.004015421 0.12710483 -0.051729437 0.11509948 0.06957886 0.027521765
0.060960278 -0.07148924 0.053969607 0.042957727 -0.06768186 0.039251715 0.048012227 -0.015783085
0.0719782 0.17818451 -0.037683498 -0.00747722 -0.028843166 0.09427652 -0.072249755 -0.003453049
-0.07229194 -0.04728869 0.10555441 -0.06381012 0.04791927 0.12312211 0.019691834 -0.0012478651
0.05502337 0.13832869 -0.11326039 0.10570737 0.11069959 0.01384057 -0.021627298 0.008745784
-0.037254695 0.071136616 -0.039380286 0.10629244 0.1538735 0.0036813873 -0.111169994 -0.049883824

lstm.weight_ih_l1 f4 [256, 64]
00000000: 4dc7 8fbb 6854 cebd 5623 893d 0d58 8b3c
00000010: 36b4 b23d 842d 123d 64b3 a93d 717e 47bd
00000020: 1933 dfbc 6d84 023d d39a 71bd 52f4 aabd
00000030: 8d3a 8b3d 6676 ae3c 406b 97bd 5d16 abbd
00000040: c214 9a3d 775e 0e3d d4b8 9b3d fcc7 e6bc
00000050: afe0 a73d 0034 333d 58c9 67bd b677 a4bd
00000060: 00d7 97bc a69b 59bc 39c7 163b 2f00 c73c
00000070: 157c 2f3d 01a4 9bbd 3fb7 ebba b7fc 223d
00000080: aa6b 00be 0424 373e 1e98 f9bd e833 98bb
00000090: 9289 533d 5741 b6bb 5557 e8bd 2511 2d3d
000000a0: 6569 9e3d d125 a73d 6106 1e3e e525 f3bd
000000b0: a071 303c 9e73 a8bd af2e 9dbd a1a9 2e3b
000000c0: b845 d9bd 95eb 6fbd 8083 aebd 32f7 a8bd
000000d0: f59b f03c 3a20 73be 5b86 bbbd 83f3 003c
000000e0: 17b4 bf3d 81e9 793d 8d2a cc3d d2c1 1c3d
000000f0: 26b0 bf3d 4b2b 9e3d f823 6c3d cd1b b6bc
00000100: bd47 e6bd e176 bb3d f981 1abb 57a9 fd3d
00000110: f18a 49bc fc4e d73d fc48 81bc 1c92 633d
00000120: 5ee4 07be 30a8 b13b 5102 1e3c 3345 40be
00000130: a542 5bbd 5644 c7bd e647 d33b 3711 6b3d
00000140: 2d7e 223e 6be0 d3bc 481c 343e c19e dbbb
00000150: 1deb 7b3c dd02 2a3e ef88 9cbd 0a65 cd3c
00000160: 1d26 a93a 41ba 24be 6601 8abd dab9 a83b
00000170: a57e cfbc 4713 f2bc bd33 19bd 80f5 463d
00000180: cbf9 c1bd c184 7b3c c4a4 62bd 055a 68bd
00000190: dfd4 65bd 1ae3 11be 179a 363d 68f1 793d
000001a0: c503 0d3d 14db b33d 1652 ad3d 5109 45bc
000001b0: 306b 4f3b b8fc 57bb 68b0 a73c ebd2 43bc
000001c0: fef2 8fbd 957c 263d 258d 2dbc 455c ac3d
000001d0: 74a7 2a3e 2184 43be 80ad 013d afbf c2bd
000001e0: b91a bf3d 2f30 d63d 323d f0bd 113a 70bd
000001f0: 8865 083d 0390 ba3d 93fe fabd 43df 03bc
00000200: 24ed a43d e6f2 0fbe 613e 5b3c 1f11 083c
00000210: a3ec 8abd c131 983d 566f fd3d 61a8 96bd
00000220: 08ff a53d a8f0 5bbc 9bb5 95bd bc4a d03a
00000230: 44c0 17bc 125c a83c cd6b 18be 8499 fc3c
00000240: 2269 983d e63e 183d 3c4b 013d 115e 2f3d
00000250: e904 17bd 9ac8 acbc 198f 2b3e 9089 403d
00000260: 1b09 04be 431d e23d 99b8 3b3e 0a9d a1bd
00000270: 3f94 03bd 86e5 81be 37c5 163e abc0 a8bd
00000280: 9afe d63d bb18 edbc a133 e6bd 96ed 4bbe
00000290: 5a29 bcb9 d19e cfbc 6f52 74bd 1828 d8bd
000002a0: 54f4 c6bd 3e54 27be 5213 aa3d c412 4b3e
000002b0: 01f5 a3bd e432 c33d 77a1 033c 06b8 8b3d
000002c0: 2051 d43d becc b23c 377c 403d 3918 80bd
000002d0: 38ba cabd 2ab3 23be 2408 48bd cf5e dbbd
000002e0: f1ac 853d 1241 7a3b 4993 303c 1ec9 ec3d
000002f0: 1f84 5abc 7b75 79bc 677b a4bd 9046 17bc
00000300: 964b 043e b3f7 24bc 4e86 ac3d 1141 59bd
00000310: 521b 98bd af68 9abd 7cff a23c 7769 313b
00000320: d01a 99bd 8716 893d 1326 903d 2ff7 c93b
00000330: c9cb 933d a1d9 e9bd 8a30 163c 9cad f8bc
00000340: b079 81bb 0d70 90bd 6e18 e83d d624 ba3d
00000350: 05af 9e3d 4855 08be f741 e73d ab02 d53d
00000360: 4e02 96bd 0794 db3c 9b5e f43d d999 f63c
00000370: 4d1c d2bb bb67 99bc 1003 423d b473 17bd
00000380: 1b40 103d a17f 3c3e e952 babd 1951 94ba
00000390: 86d4 a03d 6fb5 49bd 8a0d c03d 865e 82bd
000003a0: 76ee e5bd e295 e1bd aa51 1e3d a2a6 89bd
000003b0: c9de 0f3a 0010 9d3d c345 0ebd e1e9 293e
000003c0: 904d 84bd 45e9 09be 83d1 9e3c 3597 c3bd
000003d0: 60ce 2a3d 2e09 ddbd a34a 00be 35f8 b6bd
000003e0: b46f 2d3c 5e0e 23bd b7db f4bc d327 213d
000003f0: 7789 cdbd f2c5 783d a116 3fbd 7820 9b3c
-0.004387772 -0.10074693 0.06696193 0.01700976 0.08725779 0.03568794 0.08286169 -0.04870457
-0.027246045 0.031864572 -0.058985543 -0.08347382 0.06798277 0.021296691 -0.07393503 -0.08353875
0.075234905 0.034758057 0.076036125 -0.028171532 0.08197152 0.043750763 -0.0565885 -0.080306455
-0.018535137 -0.013281738 0.002300693 0.02429208 0.042842943 -0.07599641 -0.0017983689 0.03979179
-0.1254107 0.17884833 -0.12187217 -0.0046448596 0.05164487 -0.0055619883 -0.11344782 0.04225268
0.07734946 0.0816151 0.15432121 -0.11872462 0.010769278 -0.08225177 -0.0767492 0.00266514
-0.10609001 -0.058574278 -0.085211754 -0.08250274 0.029371241 -0.23742762 -0.09156486 0.007870558
0.09360521 0.061013702 0.099690534 0.03827078 0.093597695 0.07723101 0.05765149 -0.022230053
-0.11244152 0.09153534 -0.0023576005 0.12385815 -0.012301193 0.10513112 -0.015781872 0.055559263
-0.13270709 0.005421661 0.009644107 -0.18776397 -0.053530354 -0.09729831 0.00644778 0.057389464
0.15868445 -0.025863847 0.17588913 -0.0067022745 0.01537588 0.16602655 -0.076433055 0.025072593
0.0012905035 -0.16086675 -0.06738548 0.0051491084 -0.025328944 -0.029550208 -0.037402857 0.04857397
-0.09471472 0.015351475 -0.055332914 -0.056726474 -0.056111213 -0.14246789 0.044580545 0.06102124
0.034427423 0.0878202 0.08462922 -0.012026147 0.0031649582 -0.0032957029 0.02046986 -0.011952142
-0.07028769 0.040646154 -0.0105927335 0.084160365 0.16665441 -0.19093372 0.031659603 -0.09509217
0.09331269 0.10458409 -0.11730422 -0.058649126 0.033299953 0.09109499 -0.122555874 -0.008048835
0.080530435 -0.14057502 0.0133815715 0.008304863 -0.06783416 0.07431365 0.12374751 -0.073563345
0.08105284 -0.013424076 -0.07310029 0.0015891413 -0.009262148 0.020551715 -0.14884873 0.03083492
0.074419275 0.03716936 0.03156589 0.042814318 -0.036869917 -0.021091748 0.16753806 0.04700619
-0.12894098 0.110407375 0.18332137 -0.07891281 -0.0321238 -0.25370425 0.14723669 -0.082398735
0.1049778 -0.028942456 -0.11240316 -0.1991485 -0.00035888964 -0.025344284 -0.059648927 -0.10554522
-0.09714571 -0.1634073 0.08304466 0.19831377 -0.08005715 0.09531191 0.008034102 0.06822209
0.10367036 0.021826144 0.04699346 -0.0625462 -0.098988 -0.15986314 -0.04883589 -0.10711443
0.065271266 0.0038185758 0.010777303 0.115617976 -0.013337164 -0.015225763 -0.0803135 -0.009233132
0.12919459 -0.010068822 0.08424054 -0.053040568 -0.07427086 -0.07539498 0.019897215 0.0027070919
-0.07475817 0.0669375 0.07038512 0.0061635 0.07216603 -0.114184625 0.009166846 -0.03035622
-0.003951274 -0.07052622 0.113327846 0.09089057 0.07748226 -0.13313782 0.11291879 0.104008995
-0.07324658 0.026803983 0.11932107 0.030102657 -0.006412065 -0.01872622 0.047366202 -0.036975577
0.035217386 0.18408062 -0.09097845 -0.0011315673 0.07853036 -0.049245294 0.09377582 -0.06365685
-0.112271234 -0.11014916 0.0386521 -0.06721236 0.00054882147 0.076690674 -0.0347345 0.16593124
-0.064601064 -0.13467892 0.019387012 -0.09550325 0.04170072 -0.107927665 -0.12528472 -0.089340605
0.010585714 -0.039808623 -0.029889924 0.03934462 -0.10035985 0.06073565 -0.04665244 0.01893638

lstm.weight_hh_l1 f4 [256, 64]
00000000: e936 04be 179b 503d 02be d13d 18da 88bd
00000010: df62 a7bd 6b39 b3bd 9ac5 703d 3cd3 153c
00000020: a0c3 703d 08aa d7bc 962d 933c 3a9e 6fbd
00000030: 340a e63d 2d47 a33d d1af 063e c958 27bc
00000040: a42f 973c 8d0b 673c 8ed0 d33d b5d9 e9bb
00000050: 56c4 9abc dab9 13bd fc1c b6bd 7e0a fbbd
00000060: ed15 c4bd ca3f fd3c 6234 8a3d 9283 d2bc
00000070: 517d 393d 191c e43d b68f 713c d2ee 733d
00000080: 4ee3 71bb c723 863d 4f32 bfbc 3dfb 3bbd
00000090: d768 883d 523b c5bd 9176 9a3c 7208 d1bd
000000a0: 318a e9bc 3047 313c 4eed a2bd 9e6d b7bd
000000b0: a600 93bd 455e 7f3d 0a2c 593b b123 143e
000000c0: df18 15bd 79f5 e13d d657 ab3a cdb0 b8bc
000000d0: 0d6c 303d 2b07 c33d fea4 5cbd 4f78 3b3d
000000e0: 9604 a13d fe37 db3d 6bbf f8bd 1a90 1abc
000000f0: 12db 013e 39f3 7cbd 597a 6c3d 5a93 e8bd
00000100: 8749 8abd faa3 0abe b237 1e3e 8dad b1bd
00000110: 9254 763d 5d6c bd3d a2c1 50bd 93cc 503d
00000120: 2447 73bd e0cd f93b b0a0 efbd 4a29 ba3b
00000130: 9670 803d a5d0 f2bd 540d 61bd bb0d c1bd
00000140: 5587 a1bd 46c4 82bd a27c a4bb 963c ab3d
00000150: 30c8 26bd f9aa c7bd d334 d63d ec12 3b3d
00000160: ede8 8fbd 92e8 d8bc 13b2 a8bb 4d11 c9bc
00000170: 822e 483d 9526 c43d e09b 47bd 070d ea3c
00000180: 88cc 8d3d bf11 62bd 4b7e a4bd dd69 0cbb
00000190: 0182 8a3d 7cde 063d 9f6a 54bd 2ed5 d6bd
000001a0: e324 0dbd 98d4 3b3b d71b a73a fc8c ecbb
000001b0: f9b9 f2bc bde6 1e3e 8421 953c 3e6e 3d3d
000001c0: 3ce1 bebd eff8 773c 3f08 85bd 8b1e 813c
000001d0: d19d 2abd 9521 4a3d 3346 223d 297b 66bd
000001e0: 6412 fabd a548 85bb ca98 02be 97ea 9a3d
000001f0: 9e85 b4bd 3f33 d8b9 ceff c2bd 7ef0 e2bc
00000200: c8e6 0a3e beca 153d 0f14 aebd 272f 6fbd
00000210: ca8f bbbd 4884 c13d 6980 eb3d cbc6 c43d
00000220: 642a 4d3d 14f1 96bd 81ca b9bd d6ca 893c
00000230: 43ae 0bbe a983 29be c887 123d 2290 b3bd
00000240: 2b8b 1abe 7a16 1b3e f6e4 6cbd 8d59 253d
00000250: 0e0e 943c 0cc0 90bd 6a9f 39bd d96c 583c
00000260: 5c0a 1d3e b5a4 9e3c dadc 0a3e 0484 3ebd
00000270: 755e 56bd 1803 5ebc 73ec 2abd fd79 953c
00000280: eae3 6cbd a1e3 11bd 0440 ebbd 1dcc 813d
00000290: 15cc cebd cf4e 603d 617a 3f3c b70d 483d
000002a0: 8b96 c73d 75d4 7d3d 29ea de39 2c0d 293e
000002b0: 99ca ba3d 2aa7 65bd b95c 6abd dc88 80bd
000002c0: 0285 13be cbcb 513d a49d fcbc b09d f23d
000002d0: b275 0fbd 7b4d fc3d 13c0 88bd 610c 013e
000002e0: 77ab 753c 49d4 113d 9b53 1bbe f6fa 1d3d
000002f0: cc6f f53d da62 9ebc ab3b 88bd 31f5 603d
00000300: f45f db3d ece6 d0bd 7867 353c 4ee9 ea3c
00000310: 9061 853d 7a77 92bd adfc d93d 39dd 003e
00000320: d48e 463d 3806 da3c f1aa 743d e756 633d
00000330: 950f 333d f8c6 a33d 91bc 013e f64c 923d
00000340: 127d ce3c 33cb 45bd 375b 94bd a70a 39bd
00000350: 527d 5fbd 91fa 433d 1101 cc3d 0a65 043d
00000360: 575b f23d 6df0 78ba feb9 87bd a7e5 bd3d
00000370: c18e 323d 614c e43c 88f9 4cbd c55b e33d
00000380: dc14 29bd bbf5 28bc 1a7f c33d 908c 6e3c
00000390: 1c57 ae3c fb30 92bd 8296 7e3d b0ca ef3d
000003a0: 70a6 8e3d 69b3 82bc 249f 77bd 385a 47bd
000003b0: 236f c2bc fcbb f2bd f85b b63c bbd4 81bd
000003c0: 3f94 06be f69f abbd a740 07be 520a c53d
000003d0: 5226 2bbd cc3c 353d 3fe3 243d cb8f f03c
000003e0: 6cba e2bd 1fc9 e1bd e507 82bd 6e8c dd3d
000003f0: 575a fdbc cc61 4a3c 2833 d43d 6fe1 7d3d
-0.12911572 0.050929155 0.10241319 -0.06682223 -0.08173155 -0.08751186 0.058782198 0.0091446005
0.058780313 -0.026326194 0.017966073 -0.058500506 0.11232415 0.0797256 0.13153006 -0.010214039
0.018455334 0.014101875 0.10342513 -0.0071365484 -0.018892448 -0.036065914 -0.08892247 -0.122578606
-0.095744945 0.030914206 0.067482725 -0.025697503 0.045285527 0.11138172 0.014743736 0.05955393
-0.0036909166 0.06549793 -0.023339419 -0.045893896 0.066606216 -0.09630455 0.018855365 -0.10206689
-0.028508278 0.010820195 -0.079554185 -0.08956455 -0.07177858 0.06234576 0.0033137822 0.1446674
-0.036400672 0.11033148 0.0013072442 -0.022545243 0.043071795 0.095228516 -0.053868286 0.045769032
0.07862203 0.10704039 -0.12145885 -0.009433771 0.12681225 -0.061755393 0.057733867 -0.1135623
-0.067523055 -0.13539115 0.15450934 -0.0867568 0.060139246 0.09249184 -0.050965913 0.050976347
-0.059394017 0.007623419 -0.117005706 0.0056811916 0.06271474 -0.11856202 -0.05494435 -0.09426447
-0.07887141 -0.063850924 -0.00501974 0.08361165 -0.040718257 -0.09749407 0.10459294 0.045672342
-0.07026849 -0.026478086 -0.005148181 -0.024544382 0.04887248 0.095776714 -0.04873264 0.028570665
0.06923777 -0.055192705 -0.08031901 -0.0021425404 0.067630775 0.03292702 -0.051859494 -0.104898795
-0.034459006 0.0028660651 0.0012749386 -0.007218955 -0.029629694 0.15517707 0.018204458 0.046247713
-0.09320304 0.015135034 -0.064957134 0.015761634 -0.04165441 0.049348433 0.03961773 -0.0562698
-0.12210539 -0.004067498 -0.12753597 0.07564276 -0.08814548 -0.00041236912 -0.09521447 -0.027702566
0.13564599 0.036570303 -0.084999196 -0.058394577 -0.09158285 0.09449059 0.11499102 0.09608229
0.050089255 -0.07370201 -0.09071828 0.016820353 -0.13640694 -0.1655413 0.035774022 -0.087677255
-0.15092151 0.15145293 -0.05783554 0.040368605 0.018073108 -0.0706788 -0.045318045 0.013209545
0.15335983 0.019365648 0.1356081 -0.04651262 -0.052336175 -0.013550542 -0.0417294 0.018246645
-0.057834543 -0.035617474 -0.114868194 0.0633776 -0.10097519 0.054762658 0.011686892 0.048841204
0.09745511 0.061970193 0.00042517603 0.16508931 0.09120674 -0.056067623 -0.057217333 -0.06276104
-0.14406207 0.051219743 -0.030836888 0.11846483 -0.035024352 0.12319466 -0.0667726 0.12602378
0.014994494 0.03560284 -0.15168612 0.038569413 0.11984214 -0.019334245 -0.06652006 0.054921333
0.10711661 -0.10200295 0.011072032 0.028675701 0.06512749 -0.071516946 0.10643897 0.1258439
0.048476055 0.026614293 0.059733335 0.0555028 0.043716032 0.07996935 0.12669589 0.071435854
0.025206123 -0.04828949 -0.0724396 -0.045176174 -0.054562874 0.04784638 0.09961141 0.03232292
0.11833828 -0.00094962755 -0.06627272 0.09272318 0.043593172 0.027868452 -0.05004266 0.11101488
-0.04127966 -0.010312493 0.09545727 0.01455988 0.021281771 -0.071382485 0.062155254 0.117085814
0.06965339 -0.01595469 -0.060454503 -0.048670024 -0.023734635 -0.118522614 0.022260651 -0.06339403
-0.13142489 -0.083801195 -0.13208257 0.09621109 -0.041784592 0.044247434 0.04025578 0.02936544
-0.110707134 -0.11024689 -0.06349162 0.108178005 -0.030926866 0.012352418 0.1036132 0.06198257

lstm.bias_ih_l1 f4 [256]
00000000: 8a52 483d 8fe7 ee3d 8909 94bd 0738 67bc
00000010: 731f b03d 0100 9cbd a9c6 573d d7fe 9d3c
00000020: 07de 9a3d a046 b9bd 040d 853d 218d 93bc
00000030: 47d7 37bd dcd7 8dbd bfb3 abbd 9392 983d
00000040: 330f 01bd 0036 89bd 33c6 12bd 5ccb bf3d
00000050: daaf db3d a5f0 8cbd 7613 dabc a3c0 413b
00000060: b093 a8bd 441a bdbd 3e7e a13d b183 d9bb
00000070: b7e9 f2bb 9911 103d a91a e43d cee0 94bd
00000080: 3381 b23d 5b92 c53d 70e5 3cbc c05c 9f3d
00000090: b17d db3d 8afc 673c 5896 74bc c126 f2bd
000000a0: 50e0 71bd dec7 7b3c 681c 90bc 169f 0d3e
000000b0: dca1 163d d8df 943d b92a 8839 3298 29bd
000000c0: 7288 d53d dc45 0fbc a04d e3bd 54fc 0dbd
000000d0: ff14 a7bd 8e49 93bd b8d0 523c 344e d0bd
000000e0: 9423 94bd 8db3 98bd 66b2 033e 8332 e8bc
000000f0: 733e b4bd f716 33bd 69c8 e43c 646c ff3d
00000100: 84fc 1dbe aabc 16ba f478 d63d 5005 fc3c
00000110: f3f4 a53d bd39 d03c cb36 aa3d 2b34 46bd
00000120: 480d d9bc ee57 cb3d b071 ba3d d688 f1bc
00000130: 2130 6d3d e473 8cbd 31b3 1b3e 033b b2bd
00000140: 2ba2 9b3d b915 84bd 5b65 d53d 8b5c 7f3d
00000150: 3041 a7bd 759d ff3d 0822 be3d f2f1 34bd
00000160: acbb 713d eed5 b8bd 9e6a 0f3d ae78 fd3d
00000170: 821a dfbd 2eba 013e 5a90 95bd 4a49 ddbd
00000180: b3ac aebd b07d 8bbd 4893 a13d 5bc6 43bd
00000190: 9873 003e 466d e53d 523f 4dbd 6c0e a33d
000001a0: 4d26 cabc ad84 04bd 1cb2 0cbd 53d3 04bd
000001b0: 0a13 f2bd 6d86 513d b6c4 103d b69e 5c3d
000001c0: d612 cd3b 1b82 903c da70 54bd 437b 033e
000001d0: 07f9 2b3d 6190 18bc 221f 0e3d 0674 563d
000001e0: 3a12 d8bd 6949 8ebd 4b7e cfbd 7e22 0a3e
000001f0: a54e be3a 0aae 873a 91d4 e2bd 0ae8 71bd
00000200: 361d 38bd 73f4 f93c 0f6c 8a3d 4ae2 92bd
00000210: 8337 043e f923 123c dca9 85bd dcf5 2f3d
00000220: d4e9 40bd 686a ee3d 973f a4bd f10f 0cbd
00000230: c67e 6ebd 3dd0 bebc 8320 01bd 8056 8ebb
00000240: 9b64 e8bc c2e7 983d 72c9 333a 5435 9cbd
00000250: f98a 063c 20d0 6dbd 03cf 7bbd f89f efbb
00000260: a4b7 e13c ce17 c03d 1eae 9b3c 9cf9 eb3d
00000270: db50 d7bb bcc6 5c3d 0003 5ebd 16bb 223d
00000280: 7815 743c bc5a e03c cddf 4bbc c857 0e3d
00000290: ad7f 153c b9b7 7e3d 09cd c0bd c935 183c
000002a0: 798c 553d 544a 62bd 9756 953d 9ea7 c33b
000002b0: 668e 0dbd 7f6c b23c cffe a63d e701 d53d
000002c0: 6b8d 3dbd 6fcc 4b3d 0cd4 9dba 2b7f e7bc
000002d0: 0dd4 453d 9b88 1fbd f757 1a3d 5c48 423d
000002e0: 3173 61bd 6659 51bd 78a4 63bd 136d 9abc
000002f0: a64f 003d a623 713d 8099 9abd 8684 753b
00000300: 9000 23bc aadb b7bd e01e b7bd d332 963d
00000310: cdec d9bb 2ec2 fd3d 6a98 013e 47ea 8e3d
00000320: 4fc3 44bd efbf bdbb b798 a13c c36b 7a3d
00000330: 9138 1bbe 53a7 51bd ec0d 63bd 18d1 6dbd
00000340: e5e5 023e a3b6 25bd d4ff 88bd 821b 43bc
00000350: 9632 2f3d 196f 423c 877e 29bd cca0 d23c
00000360: 202f e83d f16a d8bd 1418 a6bd fd6a ef3d
00000370: ca05 413c 84c5 77bc ca3e bebd 9402 a43d
00000380: 042a 983d 6053 eabd 5019 803d 0687 b4bd
00000390: ebd8 043e fbe5 b3bd e57a 03bd 3ba8 43bd
000003a0: 2838 e03d 3bde 88bd 292c 063e 6949 493d
000003b0: e467 7dbc c154 afbd 280d 253d 702e c9bc
000003c0: c283 afbd 9722 b7bc f36a 25bc 44ac 7c3d
000003d0: 0a7f 70bb 91c4 bbbd ff2b 093d 954d 503c
000003e0: a4b1 6a3d 2aec 2fbc 11d8 903d 6cc4 cf3c
000003f0: e856 d93d 541b 71bd 5709 19bd ad42 b9bb
0.04890684 0.1166526 -0.07228381 -0.014112479 0.085997485 -0.07617188 0.05267969 0.019286556
0.075618796 -0.09046674 0.06496623 -0.018011631 -0.04488304 -0.069259375 -0.08383893 0.07449832
-0.031508636 -0.06699753 -0.03583355 0.093649596 0.107269004 -0.06881837 -0.026620608 0.0029564283
-0.08231294 -0.092335254 0.07885407 -0.0066380133 -0.007413115 0.035173032 0.111378975 -0.072694406
0.08716049 0.09647056 -0.011529312 0.077813625 0.10717333 0.014159331 -0.014928423 -0.11823798
-0.05905181 0.015367476 -0.01759167 0.13830218 0.036775455 0.07269257 0.00025971772 -0.04140491
0.104264155 -0.008744683 -0.1109879 -0.034664467 -0.081583016 -0.07191764 0.012867145 -0.10171166
-0.072333485 -0.074561216 0.12861022 -0.028344398 -0.08800974 -0.043723073 0.027927594 0.12471846
-0.15428358 -0.0005750159 0.10472289 0.030764252 0.08103361 0.025418157 0.08311232 -0.048389595
-0.02649559 0.09928881 0.091037154 -0.029484194 0.057907227 -0.06858042 0.15205075 -0.08702662
0.075992905 -0.06449456 0.10419723 0.062344115 -0.081667304 0.124812044 0.09283835 -0.04417605
0.05901687 -0.09025179 0.035013787 0.123765334 -0.10893728 0.12668678 -0.073029235 -0.108049944
-0.085290335 -0.06811082 0.0788942 -0.04779659 0.12544096 0.11202483 -0.050109215 0.07961735
-0.024676466 -0.032353092 -0.034349546 -0.032428097 -0.11820038 0.05115359 0.03534385 0.053862296
0.006258349 0.017640164 -0.051865436 0.1283999 0.041985538 -0.009311766 0.03469766 0.052356742
-0.105503514 -0.069475956 -0.1013151 0.1348972 0.0014519288 0.001035155 -0.110757 -0.05905918
-0.044949733 0.03051207 0.06758892 -0.071720675 0.12911801 0.008919709 -0.06526539 0.04295908
-0.047097996 0.11641389 -0.08019941 -0.03419489 -0.05822637 -0.023292655 -0.031525146 -0.0043438077
-0.028368285 0.07466079 0.0006858326 -0.07627359 0.008211845 -0.05805981 -0.06147672 -0.007312771
0.027553387 0.093795404 0.019003924 0.115222186 -0.006570918 0.053900465 -0.05420208 0.0397292
0.014897697 0.027387016 -0.012443495 0.034751683 0.009124679 0.06218693 -0.09414107 0.009290167
0.05213592 -0.055246666 0.07291906 0.0059709093 -0.03455963 0.02178025 0.0815407 0.104007535
-0.046277445 0.04975551 -0.0012041344 -0.02825888 0.04829793 -0.038948637 0.037681546 0.04743229
-0.055041496 -0.051110648 -0.05557677 -0.018850839 0.03132596 0.058871888 -0.07548809 0.0037463023
-0.009948865 -0.089774445 -0.08941436 0.07333913 -0.0066505433 0.123905525 0.12655798 0.069782786
-0.048037823 -0.0057907025 0.01972614 0.061137926 -0.15158297 -0.051184963 -0.0554332 -0.058060735
0.1278301 -0.04045738 -0.0668942 -0.011908414 0.042772852 0.011867308 -0.04138043 0.02571144
0.113371134 -0.105672725 -0.08110061 0.11690328 0.011781165 -0.015122775 -0.0928932 0.08008304
0.07429889 -0.11441684 0.06254828 -0.08814816 0.12973373 -0.087841 -0.032099623 -0.04776786
0.10948211 -0.06683012 0.13102783 0.049142275 -0.015466664 -0.085610874 0.04029575 -0.024558276
-0.08570053 -0.02235536 -0.010096299 0.061687723 -0.0036696815 -0.091683514 0.033489224 0.0127138095
0.057298318 -0.010737458 0.070724614 0.025362216 0.10612279 -0.058863953 -0.037362423 -0.0056537003
