data/models/AAPL/predict_t8/model.pth (torch, 615602 bytes, 27 tensors)

lstm.weight_ih_l0 f4 [256, 1]
00000000: ea80 22be 5175 053e 9778 0fbe 6bf1 cc3d
00000010: 9d08 04bc db92 8b3c d67b 52bd 1675 bd3d
00000020: 5a89 893d 61c2 99bd ce68 d83d 0df0 0f3d
00000030: ff5b 813b 003e b4bd 3f2b 97bd 1ebd fcbd
00000040: 980c 843d 9a63 55bc cffd 0bbd 9afc eebc
00000050: e967 413e 2ab0 4bbd 359e 24bd 8e22 64bd
00000060: 748f 3f3d 8268 183e 206c 5e3b 6579 6a3d
00000070: 286b 21be f66c 99bd 793f 163d 0058 8fbd
00000080: 0b3e 093e ff3e ecbd 9b11 7fbc 7eb8 083e
00000090: 1876 63bd f26f 353e d684 9a3d f1fb cbbd
000000a0: c57b 32bd 1b75 fd3c c8e1 b4bd 5931 be3c
000000b0: bd6d bf3d d3a6 65bd 09bf 7ebd b166 8f3d
000000c0: 47e5 aabc 5fac 9d3d 348f 473d 09a9 f23d
000000d0: e0db 1bbe 9359 1b3e 468d 70bc 584a adbd
000000e0: 04f9 203e 8e16 e9bd 2ee5 ef3c 008b d43b
000000f0: 2031 363d 9d11 623d ab41 07be 651f d73d
00000100: 349f 7ebc 715b 9f3d 24a6 12be a024 a6bd
00000110: 0ecc 9fbd 79de 14bd 136f ffbd ac52 4c3d
00000120: 95bf 343d b7df 793b f6f9 003d 17f3 cbbd
00000130: c3bc d6bc 2f82 f5bd dda0 1bbe ffca 893d
00000140: f5e1 dabd 65e3 6a3d 4ede 1dbe af10 a23d
00000150: b5a6 fd3d 2157 83bc 90a6 af3d 50f4 5d3d
00000160: 9efe 16bd 6760 903b 8b83 2b3e f766 3abd
00000170: 06f6 19be 5106 423b 088b 153e dbef 18be
00000180: 9f3c 8bbd 2f87 20be 83f5 77bd 6cfe d83c
00000190: 1416 9cbc dac8 de3d 80de a0bd fa48 a33d
000001a0: 5c58 a43d 21c0 83bd 6f62 fdbd d882 84bd
000001b0: 4a36 f0bd 7303 943d 9730 fcbd 66da b03d
000001c0: e7f8 a5bd 79a8 273c b606 15be 822f 153d
000001d0: 5a92 9b3b c0bc 8c3c d477 8a3d 5e20 ae3d
000001e0: bbea 30bd e3da 5a3d 1172 e03d f3c5 b63d
000001f0: c94f d23d 8824 ff3b 655b babd 215f 0f3e
00000200: a5fe b43d c040 35be 81ff 23be c3a3 363e
00000210: 385d 9b3d 5358 59be 3415 16bb 9b52 7abd
00000220: 2690 1c3e 208b ffbd 4e23 3dbe ebdc cebd
00000230: eea8 1cbe 6f74 8fbd bc79 9e3d 1bf6 6f3d
00000240: 3a47 163e 7a31 14be acb8 cfbd f8ea 36be
00000250: 366b d23d f46a 283e fc07 e0bd 7b00 7f3d
00000260: 90b8 d1bd e5ab 12be c46d 423e 74f2 47be
00000270: e018 a43d 4e9f 2c3e efb7 c8bd b819 3cbe
00000280: fbe4 2abe 46fb c9bd b1b2 33be 8d9e d43d
00000290: dcb4 25be 3d6a 1dbe e82d 40be 0884 09be
000002a0: c2d3 07be b64a 2fbe f694 e7bd fe35 01be
000002b0: 423e 463e b645 72bd 37d6 063e f460 113e
000002c0: 3a73 b03d 05a1 c1bd 22d1 3abe 6c5e 213e
000002d0: 45a3 30be bf2e 1ebe 3c0c 323e f267 0c3e
000002e0: 39c7 b13d a86f ec3d 8506 123e 6d34 62be
000002f0: c9d0 f9bd 88bc 7c3d 23ee eb3d e0e4 1dbe
00000300: 9768 3a3d b15e dc3c fad1 583d 2fbc 8a3d
00000310: 5416 23be c18d 91bb cbc4 30be 6cb3 a8bd
00000320: 4470 563d 5f50 cc3c 85d9 103e 6478 a0bd
00000330: 2a8b 14be a755 74bd ca0c e5bd 91be 1fbe
00000340: b5ef 55bd 992f aebd 1812 11bd 1255 6abd
00000350: 053b ae3d 4bfe 95bd d620 d6bc 80c1 3dbd
00000360: ed2a bbbd 2396 0f3e 5728 3a3e c91d 5bbd
00000370: 1080 913d 86b5 8ebd 3f52 563e 21e1 2cbe
00000380: b175 d83d 30a7 353d a65c 80bd 2cfc be3d
00000390: 3b56 c5ba a5ed 2bbc 0eb9 9c3d cb01 8bbd
000003a0: a522 8abd b288 6ebd 14d6 ebbd cdee 97bd
000003b0: bc77 b33c 4a27 b03d c5f2 863d 20aa 15bc
000003c0: c889 3b3b 6269 15bc e7d6 4bbd eff1 2f3e
000003d0: 6a35 713b 53e2 4ebb f266 44bd 48aa c23d
000003e0: ee57 613c 7e3a bbbd a209 503e 8732 703d
000003f0: 4edd 2a3e 9d06 d9bc ac6f adbd 6fcc 48bd
-0.1586949 0.13033034 -0.14010845 0.10006984 -0.008058694 0.0170378 -0.05138763 0.09250848
0.06715651 -0.07507778 0.10566865 0.03514104 0.0039477344 -0.08800888 -0.073812954 -0.12340759
0.064477146 -0.013024235 -0.034177598 -0.029173184 0.18887295 -0.04972855 -0.04018994 -0.055697016
0.046767667 0.14883617 0.003393896 0.057244677 -0.15763533 -0.07491486 0.036681626 -0.069992065
0.13402574 -0.11535453 -0.015568162 0.13351628 -0.055532545 0.17718485 0.07544868 -0.099601634
-0.043575067 0.03093963 -0.08832127 0.02321689 0.09347103 -0.0560673 -0.062193904 0.07002009
-0.020861281 0.07698893 0.048720554 0.11848647 -0.15220594 0.15170889 -0.01468212 -0.084614456
0.15719992 -0.11381255 0.029284086 0.0064862967 0.044480443 0.05519258 -0.13208644 0.10504035
-0.015540887 0.07781113 -0.1432119 -0.081124544 -0.07802592 -0.03634498 -0.124723576 0.04988353
0.04412802 0.003812773 0.03148838 -0.09958475 -0.026213055 -0.11987721 -0.15198083 0.067281716
-0.10687629 0.057345767 -0.15416834 0.079133384 0.123853125 -0.016032757 0.08576691 0.054188073
-0.036863916 0.0044060233 0.16749398 -0.04550835 -0.15035257 0.0029605816 0.14603817 -0.14935248
-0.06798672 -0.15676568 -0.060536873 0.026488505 -0.019053496 0.10878153 -0.078549385 0.079729035
0.08024666 -0.0643313 -0.1237229 -0.06470269 -0.11729105 0.072272204 -0.12313955 0.08635406
-0.08104115 0.010233038 -0.14553341 0.03642226 0.004747671 0.017179847 0.06761137 0.08502267
-0.043192606 0.053431403 0.109592564 0.089244746 0.10269124 0.0077863373 -0.090994634 0.14001133
0.08837632 -0.17700481 -0.16015436 0.17835908 0.075861394 -0.212251 -0.0022900822 -0.061113935
0.15289363 -0.12477708 -0.18470499 -0.101007305 -0.15298817 -0.0700463 0.07738063 0.058584314
0.14675608 -0.14471999 -0.10142645 -0.17863071 0.10274355 0.1644705 -0.10939023 0.062256318
-0.10240281 -0.14323385 0.18987185 -0.19526082 0.08012557 0.16857645 -0.098007075 -0.18369186
-0.16688912 -0.0986238 -0.17548634 0.10381804 -0.16182274 -0.15372558 -0.18767512 -0.13429272
-0.13264373 -0.17118344 -0.11307709 -0.12618253 0.19359687 -0.059148513 0.13167654 0.14197141
0.08615728 -0.0945454 -0.1824384 0.15758675 -0.17249782 -0.1544752 0.1738748 0.13711527
0.08680577 0.11544734 0.142603 -0.22090311 -0.12198026 0.061703235 0.1152003 -0.1541934
0.0455099 0.026900621 0.052934624 0.067741744 -0.15926486 -0.004441947 -0.1726257 -0.08237347
0.05235316 0.024940668 0.14145477 -0.07835463 -0.14506212 -0.059651997 -0.1118408 -0.15600039
-0.052230556 -0.08505172 -0.035417646 -0.057210036 0.08507351 -0.07323893 -0.026138704 -0.046327114
-0.09139047 0.14022116 0.18179451 -0.053495202 0.07104504 -0.069682166 0.20929812 -0.16882755
0.10569323 0.044348896 -0.06267671 0.09325442 -0.0015055606 -0.010493671 0.07652484 -0.06787451
-0.06744889 -0.05823583 -0.115154415 -0.074185945 0.02190768 0.08601244 0.06589273 -0.009134799
0.002861606 -0.0091193635 -0.049765494 0.17182134 0.003680552 -0.0031568005 -0.04794974 0.09505135
0.013753874 -0.09142016 0.20316175 0.058641937 0.16685984 -0.026492411 -0.08468565 -0.049023088

lstm.weight_hh_l0 f4 [256, 64]
00000000: ae2b 953d 4b36 3d3c f594 e73d 640a 463b
00000010: fc25 30bc 0394 1d3e 4fe1 d33c 75d5 a63d
00000020: 0ef8 dfbd 104e 6dbd a15f 953d 7f2f ac3d
00000030: af27 e03d 2a96 5e3d bf02 73bd 4c6a ee3c
00000040: feb9 eebd 6682 6fbd 7219 ccbd 26be 81bd
00000050: c11d 8f3d 8a77 adbc 16cb cbbc f8c2 abbd
00000060: d33d b73c 12d3 a13d db0a a13d 7c83 c13c
00000070: f9e1 413d d0fc acbd 2acc 05be c61e 073d
00000080: 291a cf3d 840f 613d 9bec 76bd 4650 883d
00000090: 06a7 ea3c f1c1 aabd fe06 dcbc c33a 26bd
000000a0: 1ae2 c4bd 267f 1c3d bb52 27bd cad2 f03c
000000b0: d56c d3bc 071b 07bd 5e93 19bd 65ec e0bd
000000c0: 7b35 94bd d89c 53bd 705e c2bc ecd0 9cbd
000000d0: bbd2 ad3d 8ba4 8d3d b2cc 683b 5564 85bd
000000e0: c23f 44bc 5aee a33d 6094 133e 1f83 163d
000000f0: 72ca 75b9 0c7c 91bd 583f babd dc0a 043e
00000100: 97e3 ebbd eb66 aa3d 1100 223e 68a8 b03d
00000110: 1374 843c 2a8c 8fbd 3765 66bd 4eae c9bd
00000120: d4ea 41ba c5b8 64bd a443 dc3d ed0c 463e
00000130: 3e7e 163e 4ec0 a33d b010 1ebe 4958 89bd
00000140: af3d 033d 2120 283e eb8d 2d3e 6141 cbbc
00000150: 9c43 843d 6248 f93c e652 ebbc a855 b63c
00000160: 9dc5 3ebd e7a7 463d 3885 eb3c c7f6 e5bd
00000170: 039c b5bd 3f32 18bc 6e41 c43d 3f8f d63d
00000180: 325a 69bd ad3a 0a3e cea5 c1bc 7337 093e
00000190: 0990 ef3d bace c73d cf9f a23d bd99 283e
000001a0: 0da4 1ebc 4060 07bd d390 c3bc 4b93 273e
000001b0: ff05 15bd 257f 85bd 8f9a fabb b0cd 143e
000001c0: 24c7 93bc ef94 a33d 0727 a0bd db42 283e
000001d0: 0e74 303d 7651 dfbd 5c06 993c bdfa a4bc
000001e0: aa44 bd3d 6311 093d 5a75 92bc baa5 02be
000001f0: 65cb 453d 6962 9e3c 69d2 0abe c01c 6bbd
00000200: 5962 873d ed38 41bc 9e33 abbd 2fd5 cdbc
00000210: 15ef 463d d2ff ffbb a059 07be 137a c4bd
00000220: 4601 0a3e dc68 b83d eef8 15be c192 c7bd
00000230: 4467 73bd 3e93 aa3d a686 e1bd 7529 8aba
00000240: f5b5 013e 1dd4 1dbd fcd0 7f3d 4e2f 0cbe
00000250: 5a4a 0c3c b5aa 2c3b 2e7a 533c e4ac c53d
00000260: 2e51 e5bd b499 f3bd dd90 8b3c baa8 e93d
00000270: 3518 723d 9fb3 60bc 2df2 afbd a55c 3bbd
00000280: 8979 54bd 80b2 87ba 5e15 febd 33d0 1b3d
00000290: 8f84 e6bd 1c67 64bd 7d88 993d bfb0 a5bd
000002a0: a635 983d 6158 c53d a9c2 eebc b23a e4bd
000002b0: 31ba 1cbd 62ab 783d 713f 723c ccd2 dbbd
000002c0: 09e5 34bc c260 d93d ad1d 07bd e22f b23d
000002d0: 4b72 893c eb5b eb3c 98c9 ec3d 5f8f ab3d
000002e0: 6ce2 133e aaa8 b0bd 5602 993a 771f 1ebe
000002f0: 88bb 77bc 7eef 7abc c0fc b83d 5e12 073e
00000300: 5fea 81bd aaac 31bd 5e63 183e 61f4 41bd
00000310: a755 06be ee30 26bd c849 0fbd cc9b 44be
00000320: 59c5 b03c ccd2 08bc bfb4 9b3c 9f59 cc3d
00000330: 93ce 813d d69c 943d 143d dbbc e867 efbd
00000340: ea75 5dbd f4ab 363e 8f5d 04bd 2dcc 753c
00000350: 4ef8 ee3d e9b9 19be bdc1 153e cff1 cbbd
00000360: 624a db3c c929 3bbe b66a bc3d 3c6a 18be
00000370: e677 54bd c014 0dbd 8c1b 74bd 021e 893d
00000380: 0854 f3bd 112c 15bd a254 03bd ebb9 6d3e
00000390: 7204 0c3e 393a 1dbd e5dd b4bc 71b8 ca3d
000003a0: 096b c33d 6efb dfbc 7c57 c5bd 3433 c13d
000003b0: 9f7e 523c a07a e1bb af8a 98bd 8366 143e
000003c0: 7a96 953d 31a6 19be 1b7b c23d ba57 993d
000003d0: 899e d13d d033 38be 793a b43d 03ac 0a3e
000003e0: f179 693e 4cd7 1abe e9c5 823d 8e16 38bd
000003f0: 225a 24be fd00 ff3c eb1c 8dbe acc9 efbd
0.07283722 0.011548589 0.11307708 0.0030218596 -0.010751244 0.15388493 0.025864271 0.081461824
-0.109359846 -0.057935774 0.072936304 0.08407497 0.10945069 0.054342426 -0.05932879 0.02910342
-0.11656569 -0.058473967 -0.09965791 -0.06335096 0.06988097 -0.021175165 -0.024877112 -0.08386797
0.022368347 0.079015866 0.07863399 0.023622267 0.047334645 -0.08446658 -0.13066164 0.032988332
0.101124115 0.054946437 -0.06028424 0.06655936 0.028644096 -0.08337773 -0.026858803 -0.040583383
-0.09613438 0.038207196 -0.040850382 0.029397387 -0.025808731 -0.03298476 -0.037494056 -0.10982589
-0.07236763 -0.05166325 -0.023726672 -0.07657036 0.08487459 0.0691615 0.0035522399 -0.065132774
-0.011978092 0.08004446 0.1441207 0.03674614 -0.00023440438 -0.07103738 -0.09094113 0.12894768
-0.11518019 0.08320411 0.15820338 0.08625871 0.01616863 -0.07009156 -0.05624887 -0.09847699
-0.0007397358 -0.055840272 0.10755089 0.19340868 0.14696595 0.079956636 -0.15436053 -0.06706292
0.032041248 0.16418506 0.16948669 -0.024811449 0.06458208 0.030430023 -0.028726052 0.022257641
-0.046575177 0.048499968 0.028750047 -0.1122871 -0.088676475 -0.009289323 0.09582792 0.10476541
-0.056970783 0.13498946 -0.023638632 0.13400058 0.116973944 0.09756227 0.07940637 0.16464897
-0.009682667 -0.033050776 -0.023872769 0.16364782 -0.03638267 -0.065183915 -0.0076478194 0.14531589
-0.018039294 0.07987391 -0.07819944 0.16431753 0.04307943 -0.10904209 0.01867979 -0.020139093
0.09241612 0.033463847 -0.017878223 -0.12758532 0.048289675 0.019334035 -0.13556828 -0.057400465
0.06610555 -0.011793357 -0.083594546 -0.025126068 0.04856785 -0.0078124786 -0.13217783 -0.09593596
0.13477048 0.09004375 -0.1464574 -0.09744788 -0.059424654 0.083288655 -0.1101201 -0.001054092
0.12667067 -0.038532365 0.062455162 -0.1368992 0.008562649 0.0026346867 0.012907548 0.09652117
-0.111971244 -0.11894551 0.01703685 0.11409135 0.059105117 -0.0137147 -0.08591113 -0.04574265
-0.051873717 -0.001035288 -0.12406419 0.03804035 -0.11255752 -0.055762395 0.07496736 -0.08090352
0.074321076 0.096359976 -0.029145556 -0.11144008 -0.038263503 0.06071032 0.014785633 -0.10733566
-0.011040934 0.10614158 -0.032987285 0.08700539 0.016778132 0.028730353 0.115618885 0.08376955
0.14441842 -0.0862592 0.001167367 -0.1544169 -0.0151203945 -0.015315888 0.09032583 0.131906
-0.06343531 -0.043377556 0.14881656 -0.0473522 -0.13118611 -0.040574007 -0.034982473 -0.19200057
0.021578478 -0.008351039 0.019007085 0.09978031 0.06338229 0.072564766 -0.026762523 -0.116897404
-0.05406753 0.17839032 -0.032315787 0.015002293 0.11668454 -0.15012325 0.14624687 -0.09958231
0.026768867 -0.18277659 0.09200041 -0.14884275 -0.051872157 -0.034443617 -0.059596583 0.06695177
-0.11881262 -0.036418978 -0.032063134 0.23215453 0.13673571 -0.038385604 -0.022078464 0.09898461
0.095419 -0.02734157 -0.09635827 0.09433594 0.012847572 -0.006881073 -0.07448327 0.1449223
0.07304092 -0.15004803 0.09496137 0.07487436 0.10235316 -0.17988515 0.08800215 0.1354218
0.22800423 -0.15121192 0.063854046 -0.044943385 -0.16050008 0.031128401 -0.27561125 -0.11708388

lstm.bias_ih_l0 f4 [256]
00000000: 50e9 8cbd b04d 9fbd 6230 2abc 1786 9b3e
00000010: ba9b 773d 9630 8e3d 8413 08be aa4f 3e3c
00000020: 8034 f23c 5976 3d3e 9322 dd3d be99 65bd
00000030: 4406 ae3b e7e3 db3d 0280 193d b0f1 0a3e
00000040: 488f 153d e4c8 003e 3047 4f3c bc7d 9f3d
00000050: eb8f 483d 8b5d 793d 4e75 753d 475d 5b3d
00000060: 3cab 84bd 0361 033e bfb1 1a3e 5a2c 7fbd
00000070: a159 95bc c1ec 74bc 0109 b23c 3d69 083e
00000080: 36bd 62bc 2c06 5e3d 78f1 5f3d 2bb4 cb3c
00000090: 3815 31bd cec8 953c 5f57 3a3e 35d7 51bd
000000a0: e08e 903d 09c8 813d 2c07 11ba 78f4 053e
000000b0: 51fa 003e 6c16 8abd 7bb7 0c3e 4688 053e
000000c0: df1c 47bd 4786 be3d 2050 d73d b70f dcbc
000000d0: 25e1 d13d 69ee 81bd d46b 8c3d 09ce 083d
000000e0: 0962 aebd 3532 5039 2bc2 21bd 7778 cc3d
000000f0: 8a85 94bd 4535 be3d 9345 a4bd b7b4 c73d
00000100: 7f77 f13d ba00 40bd 2efd 76bd e98b 183e
00000110: 2b8b 87bc 2319 dcbd 69ed a63d a0f9 8e3d
00000120: 2f8a 74bb 86e9 01be 5eb5 a4bd 6c70 dabd
00000130: 3c12 3ebd 401b 09bd 01c4 d7bd 1942 453d
00000140: ac15 57bc 747f 9dbd bd7b a6bd 3a35 5a3d
00000150: abec d1bd 79ae 09bc cf24 c1bd 815d 01be
00000160: d647 afbd eb40 ca3d fe63 41bd 5516 acbd
00000170: 7d6f fdbd 6dff df3d a8a6 cabd 6e53 d5bd
00000180: dfcd 3b3d 386e d83d f985 94bd 4aad 543d
00000190: 9280 733c 5999 b4bc 2652 983d f8b8 2f3d
000001a0: ab83 b8bd abe7 44bb 62cd da3d 4aa6 a0bd
000001b0: fc6a 33bb 0b3f ef3d f320 a0bd 523a 553d
000001c0: 721a d63d b869 27bd a0b9 4c3d 8200 28bc
000001d0: 579f a4bd d35a a23d 0e54 86bd bd5f 03be
000001e0: 72a0 8fbd 92fd d5bd 76c9 5d3d 4c5e 8fbd
000001f0: d556 a33d afaa b2bd 33ad 303b 05fa 973d
00000200: db92 753d 63ca d2bd 3d72 4d3d 88ea c43d
00000210: 7f6e 61bb cd9a 27bd a7fd 5abc 557f 05bd
00000220: 570c f1bc 4ef8 83bd 1c0c 32bb 0475 b33d
00000230: dcd8 c73d 2014 04bd 9d27 eabd a366 d5ba
00000240: 914c 5b3c 7098 05bd 76c9 42bd d5ba 34bc
00000250: 5e50 8bbc c13f 78bd b6ba 1d3d 970f 26bd
00000260: 5d3f 10bd 1d3b a8bd 3f99 0f3d bf43 88bd
00000270: 440d 063d f809 e7bd 3868 76bc 6fbd 0c3d
00000280: 52c8 d4bc cbfd 2bbd 8649 f2bd 3cc6 dc3d
00000290: 2c43 afbc 6654 da3c fd72 b8bd 28b7 973c
000002a0: ff38 1cbc ece2 17bd b948 aa3d ad98 993b
000002b0: af6c cb3d f9ae a73d 9583 87bd a381 383d
000002c0: 6cfc c53c 0fb5 26bd db62 383c afe1 a6bd
000002d0: dc8f 163d a867 a6bd e81f 9cbc c786 eb3d
000002e0: 5b8e 253d 263b 953d c180 8c3d 716e debd
000002f0: 3421 4b3d 53b7 c0bd c4a7 80bd 17fa 7cbd
00000300: feab a53b a53b 013b aea2 b6bc 2acf 773e
00000310: a4c4 58bd 1e50 0b3e a1dd 4ebd 9b95 8cbd
00000320: bfaf 263d bb79 f1bc 15bb b93c fe8f 0fbd
00000330: 7dbe 073d d412 6d3d 433a 5a3a fab6 ad3d
00000340: eed4 373d 6544 823b 479b d03d 9fd1 b53d
00000350: 12a6 a9bd 48e3 85bc da6b d9bc 835d 87bc
00000360: ad1b e23d c386 2dbc e39b 0c3e feaf bbbb
00000370: e671 15bc 6281 a13d 82bf 333d fab4 99bd
00000380: 5e01 2abb d0e7 54bd a62b 11bc 6d78 933d
00000390: caca 87bd 6d36 8a3d 08b0 d43d e072 d23b
000003a0: b835 51bd 141f 843d 9d7c f13d 8250 823c
000003b0: 9123 07bc b0c8 96bd 83df 2d3d 463d 9b3d
000003c0: c2f2 d13c ad6b 413d ff5f abbc 2709 343e
000003d0: d474 49bd 85eb 063e ce53 40bc a387 6abd
000003e0: c409 77bd 28fe 8a3d 08a5 3bbd 5b65 ff3c
000003f0: 411d 58bd c41e a23d d09b cebc 3a47 d6ba
-0.06880438 -0.077784896 -0.010387512 0.3037574 0.060451247 0.06942861 -0.13288695 0.011615673
0.02956605 0.18502177 0.1079761 -0.056054823 0.0053108055 0.10736828 0.037475593 0.13568759
0.036513597 0.12576634 0.01265125 0.07787654 0.048965376 0.060880225 0.059926324 0.053555753
-0.06477973 0.12829976 0.15106867 -0.062298156 -0.018231215 -0.014949025 0.021732809 0.13321395
-0.013839057 0.054205105 0.054673642 0.024866184 -0.043233126 0.018284228 0.18197392 -0.051230628
0.07058501 0.06336982 -0.000553238 0.13081539 0.12595488 -0.06742558 0.13741867 0.13040265
-0.048611518 0.09302955 0.105133295 -0.026862962 0.10248021 -0.06344301 0.06856504 0.033399615
-0.085147925 0.0001985513 -0.039491814 0.09983914 -0.07252033 0.09287504 -0.08021083 0.097512655
0.1179037 -0.046875693 -0.060300045 0.14897121 -0.016545853 -0.10746982 0.08150751 0.06981206
-0.003731381 -0.12686738 -0.080424055 -0.10665974 -0.04640411 -0.033473253 -0.10535432 0.04815874
-0.013127726 -0.076903254 -0.0812907 0.053273417 -0.10250219 -0.008403414 -0.09430849 -0.12633325
-0.085586235 0.09875663 -0.0472145 -0.08402697 -0.1237478 0.109373905 -0.098950684 -0.104163036
0.04585063 0.105678976 -0.07252116 0.051923074 0.0148621965 -0.022045778 0.074375436 0.04290101
-0.09009489 -0.0030045311 0.10683705 -0.07844217 -0.0027377 0.11681946 -0.078187846 0.05205757
0.10454263 -0.040872306 0.049981713 -0.010254027 -0.08038204 0.079274796 -0.06559001 -0.1282949
-0.070130244 -0.10448755 0.054147206 -0.070004076 0.07975546 -0.087239616 0.0026958704 0.07420734
0.059954505 -0.102925085 0.050157774 0.09615046 -0.0034398136 -0.040919114 -0.0133661395 -0.032592136
-0.02942483 -0.06443845 -0.0027167862 0.08762553 0.097581595 -0.032245755 -0.11433337 -0.0016281198
0.013384954 -0.03261608 -0.04755541 -0.011030872 -0.017006095 -0.060607675 0.03850814 -0.04054221
-0.035216678 -0.082144 0.035058256 -0.066535465 0.032727495 -0.11281198 -0.015039496 0.034360345
-0.025974426 -0.041990083 -0.1183043 0.10779998 -0.021394335 0.026651572 -0.09006307 0.018519953
-0.009535073 -0.037081644 0.08314652 0.00468739 0.09932839 0.0818767 -0.06616894 0.045045506
0.024168216 -0.040700015 0.011254038 -0.081485145 0.03675829 -0.081252396 -0.019058183 0.11500316
0.040418964 0.07286672 0.06860495 -0.10860909 0.04959221 -0.09409966 -0.06281999 -0.06176194
0.0050559035 0.0019719389 -0.022294369 0.2420012 -0.052921906 0.13604781 -0.05050433 -0.068644725
0.04069495 -0.02947699 0.022672215 -0.03504943 0.03314065 0.057879284 0.0008324722 0.08482166
0.0448808 0.0039754384 0.10185867 0.08877873 -0.082836285 -0.016343728 -0.026540685 -0.016524082
0.11040435 -0.010591212 0.13731341 -0.005727767 -0.009121394 0.07886006 0.043883808 -0.07505222
-0.0025940756 -0.051978886 -0.008860504 0.07200704 -0.06630476 0.06748662 0.10385138 0.0064223856
-0.05107662 0.0645124 0.11791346 0.01590753 -0.008248226 -0.07362497 0.042449486 0.07580046
0.025628451 0.04722183 -0.020919798 0.17581616 -0.04918368 0.13175781 -0.011738731 -0.05725826
-0.060312048 0.06786758 -0.045811683 0.03117626 -0.052762274 0.07916024 -0.025220782 -0.0016348131

lstm.bias_hh_l0 f4 [256]
00000000: 86c7 0d3e 6e96 90bd ea76 c3bc 0558 6b3e
00000010: 4e4c af3d 5d09 9f3c 9edf a5bd 3828 38bd
00000020: 59f7 953c 5b8d 353e 23cf 853d 2f9a 0e3e
00000030: b95a e73c d7a0 36bd 041d c23c 9f1a c3bb
00000040: 8ba2 3dbb fabb 1c3e 47a2 24bd a721 e23d
00000050: 601a 003e e05c 26bd 9f49 003e 3576 97bd
00000060: c257 ef3d afc3 40bd 35a7 1e3e 2b0a 033d
00000070: a3db 0b3e c356 37bd 1884 763b f354 ff3d
00000080: 1f8f 943d 90e7 d3bc e387 55bd 3ef0 87bd
00000090: f529 0a3e 91b8 a83d 51b5 b93d 5e65 b6bd
000000a0: f367 be3d e316 1f3e 3d55 363c a856 ba3d
000000b0: a630 f83c d7b2 bfbc acad 32bd e49a 243e
000000c0: 634d f13d 2682 b0bc 8cb2 0f3e 4d6a 973d
000000d0: 7906 f1bc c719 183e a404 1e3d 5bb1 1b3e
000000e0: 2fc4 a3bd 2cea 7cbd ef26 0a3c 1510 e83d
000000f0: 2041 163b fd9a 013e c5e0 573d 0c50 ef3d
00000100: 9c35 1b3d 11d0 c23d 13f2 81bd a6d5 d33d
00000110: 9aea d93d a164 f8bd 0dac c33c 3f50 81bc
00000120: 6659 cfbd 0f00 b93d 2cfd a4bd 53f2 b0ba
00000130: a9bb 16bd f8be ad3d 7d52 c4bd 5283 7e3d
00000140: 68fd 22bd 47c1 f1bd 746f dfbd 5f43 b1bc
00000150: b95c ea3d e2de e53d 57d8 cdbd 4f4a 39bd
00000160: 420c 9ebd 7fb0 97bd 88b1 5abd 9b17 dbbd
00000170: de1c 9dbd 570f 183d f79e 1abd 2c94 693c
00000180: 6045 c0bd a785 81bd 6fdb a1bd 2e15 dfbd
00000190: 2f47 9e3d 7a29 00be 909e a7bd 33e0 c03d
000001a0: bb86 a8bd 3953 5bbd 6a62 813d 4858 103d
000001b0: bc59 5ebc d137 31bd 9aae a1bd eeea c43c
000001c0: 8bed 35bb e251 a23d 97cd 96bc f9f0 de3d
000001d0: 057c 733d baf4 18bd 3b82 03bd 2bc9 1bbd
000001e0: a327 ddbd 52eb 9cbd fa81 ecbd 641f aebd
000001f0: 8d43 1ebc 77be c83d b963 41bc fd88 d2bd
00000200: 5f4f cabd b0d5 68bc aaf5 dd3c 4c5e cebd
00000210: e785 b2bd 770e 01bd 95d5 a0bd c052 6ebd
00000220: a40b d83c 4f42 353d 602d 80bc aecb 63bd
00000230: 128a 793b b151 8e3d 1bc8 d33d d1e5 80bc
00000240: be8a babd aff1 b13d 02bf b13d 2ff2 87bd
00000250: 6068 853d 00dd a3bd ef13 afbc 4b97 cbbc
00000260: f15b 593c 12d1 9ebc ae04 843d 5e53 09bd
00000270: 5232 bcbd c03a dd3d fd36 acbd 3837 073d
00000280: 9e3c 4bbd 9912 1f3d 5c6f 0c3d 364a 22bd
00000290: c15f 923d 336f ebbc 3f27 503d 777b ab3d
000002a0: 66c6 c5bc 5850 013d 17b6 8fbd 24d4 3b3c
000002b0: 8dbe a4bd c980 f0bd 4d58 133d 1ff7 31bd
000002c0: a6d8 d1ba f030 94bd e409 813c 251a b13d
000002d0: a9da 853d 06f5 713d e59a 34bd 2226 b6bd
000002e0: 375b 243d 7c17 e1bd 9671 febc 75ad b83c
000002f0: 332b 9bbd cd6f f93d c418 18bd 08df 753c
00000300: db75 443c ea3e 8fbd acf9 1fbd 78f3 993e
00000310: e06e 69bd 9ad3 a0bb e02f 94bd 3d27 48bc
00000320: 3ed7 1a3c d98d e3bb 758e 873d d4bf 1abc
00000330: eacc 5ebd 86a0 6dbd e932 5cbd 86e4 9b3d
00000340: 4e14 483c 9f68 363c e1af de3d 4860 1e3e
00000350: 15a1 eabc 511e b4bd 578e 053e 67d2 6c3d
00000360: d3f7 923d c438 693d 8f50 093e b2b3 1f3e
00000370: ad12 05bd 5b84 1d3d 1c75 86bb b4bf eb3d
00000380: ebba 5f3d 3492 89bd c9a2 fcbc cb79 2a3d
00000390: a4c0 d83d 23bb 163c 31c2 813d 5001 2ebc
000003a0: bef4 8bbd 2d62 0f3e efc6 f53c 046c 213d
000003b0: e1b7 f7ba d4d2 353d 6c16 6dbd 4b3f b93d
000003c0: 5851 63bd b658 29b9 7be9 bd3d 5540 303e
000003d0: 9a71 d63d fc06 2c3b 4d5c c13d fbd7 f8bc
000003e0: 9289 34bd 1a00 c03d 36f7 723c 50bc 9b3d
000003f0: 0e67 f63c c32f 77bd 4ceb a33d 3639 463d
0.13845643 -0.07059942 -0.023860414 0.22982796 0.08559476 0.019413644 -0.08099292 -0.04496023
0.018306421 0.17729704 0.06533649 0.13926004 0.028241502 -0.044586983 0.023695476 -0.005954101
-0.0028935994 0.15306082 -0.040193822 0.11041575 0.12510061 -0.040615916 0.12528084 -0.07395593
0.1168666 -0.04706162 0.15493472 0.03199212 0.13658004 -0.044760477 0.0037615355 0.12467375
0.07253861 -0.025867254 -0.052131545 -0.066376194 0.13492568 0.08238328 0.090677865 -0.08906053
0.092971705 0.15536074 0.011128721 0.090985596 0.030296635 -0.023400707 -0.043622658 0.16074711
0.117823385 -0.021546435 0.14032954 0.07393322 -0.029422032 0.14853583 0.038578644 0.15204374
-0.079964034 -0.06174676 0.008432134 0.113311924 0.0022927 0.1265678 0.05270459 0.116851896
0.037892923 0.09512342 -0.06345 0.103434846 0.1064045 -0.121285684 0.023885751 -0.015785335
-0.10124473 0.09033214 -0.08056101 -0.0013499953 -0.03680006 0.0848369 -0.09586046 0.062136956
-0.03979245 -0.11804443 -0.1090993 -0.02163857 0.11443467 0.11224152 -0.10051029 -0.04523688
-0.07717182 -0.07406711 -0.053391963 -0.10697862 -0.076715216 0.037124004 -0.037749257 0.014256518
-0.09388232 -0.0632432 -0.07903182 -0.108927116 0.07728421 -0.12515822 -0.0818454 0.094177626
-0.08228823 -0.053546164 0.06317599 0.03524044 -0.013571199 -0.04326612 -0.07894631 0.024037804
-0.0027759995 0.07925774 -0.01840858 0.10885806 0.059444446 -0.037342764 -0.03210662 -0.038033646
-0.10798576 -0.07662071 -0.115482286 -0.08502081 -0.00965966 0.09801953 -0.011803561 -0.10280035
-0.0987842 -0.014211103 0.02709468 -0.100765795 -0.08716946 -0.031507935 -0.078532375 -0.058184385
0.026372738 0.04425269 -0.015646636 -0.055614166 0.003807668 0.06949175 0.103409015 -0.015734585
-0.09108494 0.086886756 0.0867901 -0.0663799 0.065140486 -0.08001137 -0.02137181 -0.024852416
0.013266549 -0.019386802 0.06446205 -0.03352677 -0.09189285 0.10802221 -0.08408926 0.033011645
-0.049618356 0.038836095 0.034285888 -0.039621554 0.0714717 -0.028739547 0.050818678 0.083731584
-0.024142455 0.031570762 -0.07017153 0.0114641525 -0.08044157 -0.11743314 0.035972882 -0.043448564
-0.0016010001 -0.072358966 0.015751787 0.08647565 0.06535847 0.059071563 -0.04409303 -0.08893992
0.04012605 -0.109908074 -0.031060021 0.022543648 -0.07576599 0.121795274 -0.037132993 0.015006788
0.01199099 -0.06994422 -0.039056465 0.30068564 -0.056990504 -0.0049080374 -0.07235694 -0.012216386
0.009450732 -0.0069444 0.066189684 -0.009445149 -0.05439464 -0.058014415 -0.05375949 0.07611947
0.012211872 0.011133342 0.1087339 0.15466416 -0.028641263 -0.08794845 0.1304258 0.057817843
0.07176175 0.0569389 0.13409637 0.15595892 -0.032488514 0.038456302 -0.004103316 0.11511174
0.05462162 -0.06717339 -0.03083934 0.041620057 0.10583618 0.00919989 0.06335867 -0.01062043
-0.0683379 0.14002295 0.030002085 0.039409652 -0.0018899405 0.044390514 -0.05788271 0.09045275
-0.055497497 -0.00016150143 0.092730485 0.1721204 0.104708865 0.002624928 0.09441433 -0.030376425
-0.04407651 0.09375019 0.0148294475 0.07604277 0.030078437 -0.060348283 0.08003864 0.048394404

lstm.weight_ih_l1 f4 [256, 64]
00000000: 62a8 5f3d 15c2 293e ec1a 673d 77db 35be
00000010: 1599 b3bd 43bd 323b 8783 933c 8728 55bd
00000020: 3022 15be 24ac 8c3d 934c aebd 8f45 a0bc
00000030: c453 e33d beda 9c3b 4cab 36bc 11f6 9ebd
00000040: 5a0d c53c e4aa a93b b4a9 d8bc c52e 1a3e
00000050: bcf9 e2bd ac7c cdbd 5515 7a3b 3ea9 743d
00000060: 0f9f 81bc 5b57 d33d f2f4 30be 33d6 1b3e
00000070: 89a1 cfbd 6e40 c2bc 4d4f 093e 5bd0 b8bd
00000080: 6678 9cbc 08ac b33d 86a0 1e3e 13d4 b03c
00000090: 2d75 90bd a98f a4bd 3852 a1bd b2be 1ebd
000000a0: 99a5 283d eb51 8fbd 4025 eb3d 1562 0f3e
000000b0: d1c9 76bc e28d 893d 34d4 10be b379 adbc
000000c0: 303a ec3c a515 df3d f6c8 043d 9db1 84bd
000000d0: 8e25 87bd 34f5 04bd 619c c23d 0956 f0bd
000000e0: 48e9 523d 2d40 153c 6a63 6a3d 6061 df3d
000000f0: c82f 6c3d f276 e3bd 2257 c13d e57b 0cbc
00000100: fc94 603c eba0 a1bd 8c9b b3bd 995f 3f3c
00000110: 1b03 bc3c 5c3c 80bd 7a20 5cbd 5196 143d
00000120: 81c5 34bd 0bea b0bd 4dac 29bc a487 b6bc
00000130: 8374 8bbd a2d7 d4bd 99c1 d13c 53e8 a6bd
00000140: 08fc c6bc e544 68bc 3ea6 a43d 0cce 4e3d
00000150: d9c8 84bd 7892 ad3d 81cb b5bd aa6f 6a3d
00000160: 9e4b 84bd fffa a4b9 cfb0 1a3e f655 f9bd
00000170: e8fb b7bd 3ab9 e73d 3d98 90bd 1204 a73d
00000180: 8ae3 13be 85f7 ef3d bd44 fd3b 75ad 943d
00000190: d22e 3d3d 1466 68bd 39ba 5cbd 2109 e0bb
000001a0: cf38 f0bc d435 4dbd c790 e8bd 2055 5ebd
000001b0: 08e5 823d 960f 5cbd 0f14 ba3d 33d6 2b3e
000001c0: fc0f fd3d 1db1 c33c 6595 363d fac9 933d
000001d0: 9c7c 933c 806a 533c d8af 333d 3893 a83d
000001e0: 7d24 04bd 6682 c1bc 4641 29bd a0b7 eebd
000001f0: 25fc 04be 1885 a7bb 7319 a4bd a9ca 823d
00000200: 2014 b4bd f6d4 25be 4cad e63c e4f6 f23d
00000210: 7c1c cfbd 7fa0 113d 0c79 b43c ad71 62bd
00000220: 6bd9 b73d ee4d 243d 8213 93bc 5669 85bd
00000230: b636 27bc 09fe a23d b347 2abd 44f0 dabc
00000240: 178a 9f3d d7ee f43d 7c9d 03bd 9811 07bd
00000250: b9b8 43bd 7db4 9dbd c305 a0bd dbf4 113c
00000260: 8587 a23d cb27 9cbd b205 8bbd 01e8 fabd
00000270: 2a37 fcbd e631 15bc 84e6 5f3d 4eb6 dfbd
00000280: 4cd5 d1bd ed40 f1bc fadb 02bd 3096 f93d
00000290: 491b a1bc 0a94 9bbc aa48 443d f605 993c
000002a0: 9093 a43d fba4 d6bc 223b 313d 618c 9e3d
000002b0: 3f5d 49bd 8dfe 8f3d 6d51 06be 3d0a 9c3d
000002c0: 279b 5d3d 2542 f83c cb01 9a3d 696b 97bd
000002d0: a8cb 643d fa1d 29be 49fe c33d 140c 18bd
000002e0: 255b 843d 8dfe bcbd 165a 053b 7275 a4bd
000002f0: 2dd6 76bd b72e 96bd 56a6 3cbd e5a3 8b3d
00000300: 8dc1 5d3d 22c0 a2b9 1eb6 053e 3a70 ed3c
00000310: 1546 6abd cd70 20bd be34 81bc d4c6 06be
00000320: ffe5 5c3d d555 643d 4177 c2bd eed2 db3c
00000330: c27e 8c3d cdf0 a93d 1b32 bb3c b0e1 943c
00000340: 3350 dc3d 3954 913c 6ad2 d83d f2ba d3bd
00000350: 8269 043e 447c cdbd e986 a23b 6539 ecbd
00000360: d0d3 8abd 3acc 9e3c 6b2a f9bd b285 44bd
00000370: 9824 c83d d699 653d e234 2a3c be79 ef3d
00000380: c265 2e3c 97ef e93d 673b 5d3d a2de cabd
00000390: a6fa c5bd 32a6 d5bd 0804 edbc f2bc 6cbd
000003a0: 8774 09bd d2e1 03bd 02ab 033e 7c3e cabd
000003b0: 87ba f4bd 3568 f53c d9a4 cdbc 7aa9 c93d
000003c0: 63df febd bc28 21be 76c4 933c d7cf 02be
000003d0: 737c 07bc 4488 cbbd 579e 763d 4d2b c03d
000003e0: fb29 773c cdc9 453c 8c57 b93d 63c1 323d
000003f0: c496 ab3d 00d6 54bd d049 28bd f2a8 9d3c
0.05460394 0.16577943 0.05642216 -0.177595 -0.087694325 0.0027273453 0.018007053 -0.052040603
-0.14563823 0.06868771 -0.08510699 -0.019564418 0.110999614 0.0047868183 -0.011149239 -0.07761777
0.024054218 0.0051778425 -0.026448108 0.15056904 -0.11082789 -0.10033545 0.0038159688 0.059731714
-0.015822915 0.10319396 -0.17280939 0.1521843 -0.10138232 -0.023712363 0.13409157 -0.09024116
-0.01910038 0.08773047 0.15490922 0.0215855 -0.070535995 -0.080352135 -0.0787701 -0.03875608
0.04117355 -0.069980465 0.11481714 0.14002259 -0.015062765 0.06716515 -0.14143449 -0.021176195
0.02883634 0.108928 0.032418214 -0.064791895 -0.0659896 -0.032460406 0.09502483 -0.1173516
0.051492006 0.009109539 0.057223715 0.10907245 0.057662755 -0.111066714 0.094404474 -0.008574461
0.013707396 -0.07892021 -0.087699026 0.011680507 0.0229507 -0.06261513 -0.05374191 0.036276165
-0.044133667 -0.0863839 -0.010356021 -0.022281475 -0.06809332 -0.10392691 0.02560501 -0.08149781
-0.0242901 -0.014176582 0.08039521 0.05048947 -0.06483621 0.08475202 -0.08876706 0.057235397
-0.06459735 -0.00031467524 0.1510651 -0.12174599 -0.08983594 0.11314626 -0.07060287 0.08155073
-0.14442268 0.117171325 0.0077291415 0.07259647 0.04618723 -0.056737974 -0.053888533 -0.0068370258
-0.029323963 -0.050100163 -0.11355739 -0.0542804 0.063913405 -0.0537258 0.09085857 0.1678093
0.123565644 0.023888165 0.044576067 0.07216258 0.018003754 0.01290381 0.04386887 0.08231205
-0.03226136 -0.02362175 -0.041322015 -0.116561174 -0.1298681 -0.0051123016 -0.080126666 0.063863106
-0.08792901 -0.1619452 0.028158806 0.11863497 -0.10112855 0.03555345 0.022030376 -0.05528419
0.08977016 0.040113382 -0.017953638 -0.06514232 -0.010205915 0.079586096 -0.041572284 -0.026725896
0.077900104 0.119596176 -0.03213261 -0.032975763 -0.047783587 -0.07700441 -0.07813599 0.008908476
0.079360045 -0.076247774 -0.06788196 -0.122512825 -0.12315209 -0.009106135 0.054663196 -0.10923444
-0.10245761 -0.029449904 -0.031948067 0.12186849 -0.01966633 -0.018991489 0.04792086 0.0186796
0.08035958 -0.026201716 0.043269284 0.07741619 -0.049161192 0.070309736 -0.13116999 0.0761914
0.054103043 0.030304978 0.07519873 -0.07393534 0.055858284 -0.16515341 0.095699854 -0.037120894
0.06462697 -0.09228239 0.0020347885 -0.080302134 -0.060262848 -0.07333129 -0.046057068 0.0681837
0.054139663 -0.00031042198 0.13057753 0.028984178 -0.05719574 -0.039170075 -0.01577222 -0.13161784
0.05393028 0.05574592 -0.09495402 0.026833978 0.06860115 0.08297882 0.02285104 0.018174022
0.10757484 0.017740356 0.10587008 -0.10338391 0.12930873 -0.100334674 0.00495993 -0.11534385
-0.06778681 0.019384492 -0.12166294 -0.047979064 0.09772605 0.056054913 0.010388585 0.11693142
0.010644378 0.11422651 0.05401173 -0.09905745 -0.09666948 -0.1043209 -0.028932586 -0.05779738
-0.033558395 -0.03219778 0.12858203 -0.09875199 -0.1194964 0.029956916 -0.02510302 0.09846778
-0.124449514 -0.15738195 0.018038016 -0.12774597 -0.008269417 -0.099381 0.0602096 0.09383259
0.0150856925 0.012072039 0.09049901 0.04364146 0.08378366 -0.0519619 -0.041086018 0.019245598

lstm.weight_hh_l1 f4 [256, 64]
00000000: eacd 233c 6956 fb3d 8f77 713d 7511 a8bd
00000010: 5b82 073d 1638 70bc a990 c6bd a266 33bd
00000020: b5af c4ba 3c9e 55bd 3cc5 f2bd ecfc fcbd
00000030: 3ccf b43d 0434 263d 3e70 c83d ccf0 93bd
00000040: 77fc 1a3e 7baf 323d f70c c3bd b08d 8cbd
00000050: ba49 923d d645 bc3b e45d af3d feec 323d
00000060: 8dde 0fbe e2c6 e23d 26f9 bcbd c2a5 ddbd
00000070: 9a2c 233d d810 adbc 3082 0ebe deb0 23bd
00000080: 2db0 36bd e497 003d 6736 8abd 69b7 ad3d
00000090: c74b 993d 0406 14bd bbd1 bcbd 58f3 94bd
000000a0: 86a9 52bc e3eb 8ebd 29c0 0f3d 6ef4 f93c
000000b0: f4a7 143b dd41 483d 3810 dd3d eff4 7dbc
000000c0: dd52 f03d e421 c23d 72d7 6dbd 321e f03c
000000d0: 3864 99bd 68a1 57bd 227b f63c 4a45 223d
000000e0: 1994 063e 3152 65bd cc44 b43d 8ce2 d0bc
000000f0: 2eac dd3d 8965 e53d d647 ccbd 5610 56bd
00000100: b228 88bd fef5 433d 2a23 083e ef4b bebd
00000110: 1c21 69bd e241 fc3d 2a6e b93a 9965 90bd
00000120: 61d1 ed3c ddb9 afbd 7608 babc 63eb b93c
00000130: 0271 b4bc d74a a73d afbc 98bb 97c5 9abd
00000140: 59bc b23d 589b afbb bb9e 193e f5a8 833d
00000150: 89b3 a4bd f699 373d ebea 803d 645b 0f3e
00000160: 763a 0a3d 1209 cd3d a8ac b03d e920 babd
00000170: 5d2b 4d3d 5557 b5bb 5602 013d df62 47bd
00000180: 4746 f73d 0442 203d c7cf aabc 8fe7 b73b
00000190: bbc1 693d 58cd 8b3d d0e6 873c f47e 50bd
000001a0: 9fd1 8e3d d362 d8bd fafc 463d 94ea 8bbd
000001b0: 0b93 80bd e7a9 603d 27bc 88bd d0ee 00bd
000001c0: 806f cfbd 2bcc 97bd 9fce f5bc 8c13 b7bc
000001d0: 2738 6fbd 9406 b9bc 202e dcbc 4f85 debd
000001e0: 5abd 4c3c 1017 973c bb44 0abe a273 05be
000001f0: f746 9cbd 002e bdbc 9f9d 04be bb9d 14be
00000200: f575 d7bd 8946 52bd ebe6 bc3d 5b6a d7bd
00000210: 2de0 933c ccb8 78bd 58e8 51bc 75ba 593d
00000220: b576 a13d 8bb7 6abd 3224 89bc ee6e af3d
00000230: 8ffa 1dbe 9012 513d cb92 e73d c50d b23d
00000240: 7635 34bd f1c9 0cbe f6e3 babc c2dc 363d
00000250: 28b3 8bbd 6a68 50bc 4b7b 04be 0b0c c33d
00000260: 08a8 1a38 7d07 16bd cb10 0fbb 2421 24be
00000270: a8f7 c7bd a849 d9bd 50c8 91bd b2e5 803d
00000280: 16a8 b3bd 48b1 1c3d 974d dbbc 1fd6 863d
00000290: 9c79 fcbd c8aa d3bd 756f 75bd 49a0 5bbd
000002a0: abcb ea3d fca6 c4bc 2556 fb3a 1d54 39bd
000002b0: 8e2d 673d 92fc 223b 2fe9 59bb 7722 1bbd
000002c0: 3c6f f93d 9b6e 0a3e ab30 e93c 13eb 93bd
000002d0: 6f42 05bd 5c9f 6f3c c691 04be d409 00be
000002e0: 5406 cf3d 0fcc 71bd f2dd 0cbe 3c09 96bd
000002f0: f3ad 56bd b8b7 d5bb 78aa 9dbd df95 9b3d
00000300: 43a7 393d 8d17 9d3d 5f7e c93d 705b debd
00000310: 5a2c e53d 527b 783d a7a5 873d dce1 9c3d
00000320: 7df0 2dbd 09c7 00be b382 d33c c753 833d
00000330: 761f 453d fb73 ca3d e311 7abd 8e9e e83d
00000340: 836f 383e 4bd1 bbbd 4fb5 b2bd 8ca5 433d
00000350: 387e 8e3c e2b7 313d efd9 e9bd 5585 07be
00000360: dc32 9c3d 75a6 8fbd 1214 fe3d 06fb c8bc
00000370: 3bac 14bd e862 0dbe 635c aabd 51e3 adbd
00000380: a464 a0bd aa90 a2bc e739 c2bd 0c41 ca3d
00000390: 4e01 d73d a716 bc3d 9ed7 a03a a3a6 e03d
000003a0: bdfc 403d fa92 16be dae7 a5bd 99c6 0ebe
000003b0: 8d94 493d b66f f9bb 6d65 81bd 7ca1 82bc
000003c0: 14a5 243e c6c0 1d3e 68d0 a13d b09d 56bd
000003d0: 5a44 c8bd 306b 203d 2eaf a4bd 4e8e 91bd
000003e0: 353a 57bd f356 49bd a8dc e3bd b629 dabd
000003f0: 9fac dc3c f847 a33d 94ad e4bd a4b0 c73d
0.009997824 0.12272341 0.05895191 -0.08206455 0.0330833 -0.014661809 -0.096955605 -0.04379905
-0.0015005978 -0.052152857 -0.11854026 -0.123529285 0.08828589 0.04057695 0.097870335 -0.07223663
0.1513537 0.043624382 -0.09523957 -0.06862962 0.071429685 0.00574563 0.0856283 0.043683045
-0.1404974 0.1107309 -0.09227209 -0.108226314 0.039837457 -0.021126196 -0.1391685 -0.039963596
-0.044601608 0.031394854 -0.06748658 0.08482248 0.074851565 -0.03613855 -0.092196904 -0.07272977
-0.0128578 -0.069785856 0.035095368 0.030512061 0.0022683116 0.048890937 0.10794109 -0.015500291
0.11734555 0.094791204 -0.058066793 0.029311273 -0.07489818 -0.052644163 0.030088011 0.03961686
0.13142432 -0.055986587 0.088021845 -0.025498651 0.10823856 0.11201007 -0.09974639 -0.052261673
-0.06648387 0.04784202 0.13294664 -0.09291827 -0.05691634 0.12317254 0.0014147211 -0.07050628
0.029030504 -0.085803725 -0.022709113 0.022695249 -0.022026543 0.081685714 -0.0046611647 -0.075572185
0.08727331 -0.0053590946 0.15001957 0.0642871 -0.08042056 0.044824563 0.06294807 0.13999707
0.03374716 0.10011496 0.086266816 -0.09088308 0.050090183 -0.0055340924 0.03149637 -0.048678275
0.12073951 0.039125457 -0.02085103 0.0056123207 0.05706952 0.068262756 0.016589552 -0.050902322
0.06973576 -0.10565724 0.0485811 -0.068318516 -0.06278046 0.05484953 -0.06676512 -0.03147775
-0.10128689 -0.07411989 -0.030005751 -0.022348188 -0.05840316 -0.022586145 -0.026877463 -0.1086527
0.012496317 0.018443614 -0.13502781 -0.13032392 -0.07630723 -0.023093224 -0.12950753 -0.14513294
-0.105205454 -0.0513368 0.092237316 -0.105183326 0.018051231 -0.06072311 -0.012811743 0.053156335
0.0788397 -0.057303946 -0.016740892 0.0856608 -0.15427612 0.051043093 0.113072954 0.086940326
-0.043996297 -0.1374891 -0.022813778 0.044644125 -0.06821281 -0.012720207 -0.12937658 0.095237814
3.6872952e-05 -0.036628235 -0.0021830078 -0.16028267 -0.097640336 -0.10609752 -0.07118285 0.06293811
-0.08772294 0.038255006 -0.026770396 0.06583809 -0.12327883 -0.10335308 -0.059920747 -0.053619657
0.11464628 -0.024005406 0.0019175453 -0.045246232 0.05643993 0.0024869782 -0.003325056 -0.037874665
0.121794194 0.13518755 0.02846559 -0.07222571 -0.03253406 0.014625397 -0.12946233 -0.12503749
0.10108629 -0.059032496 -0.1375654 -0.0732598 -0.052411985 -0.006522145 -0.0769853 0.07596945
0.04532553 0.076705076 0.098385565 -0.10857284 0.111901 0.060664482 0.066233926 0.07660267
-0.042465676 -0.12575926 0.025819158 0.06412464 0.048125707 0.09885403 -0.061052214 0.11358367
0.18011288 -0.09170779 -0.08725988 0.0477653 0.01739417 0.043388255 -0.11418521 -0.13234456
0.07626888 -0.07014171 0.12406172 -0.02453376 -0.036297064 -0.13807261 -0.083184026 -0.08490623
-0.07831696 -0.019844372 -0.094837 0.09875688 0.10498296 0.09184008 0.001227129 0.109692834
0.04711603 -0.14704505 -0.08100863 -0.13942946 0.049213935 -0.007612194 -0.063181736 -0.015946142
0.16078597 0.15405568 0.079010785 -0.052396476 -0.09778662 0.039164722 -0.080412254 -0.071072206
-0.052545745 -0.049155187 -0.11126071 -0.10652487 0.02693778 0.07972711 -0.1116592 0.097504884

lstm.bias_ih_l1 f4 [256]
00000000: 6aff 473c 3b17 fc3d 3b62 1a3d 6788 b03c
00000010: 52e9 99bd 155a 9c3d 7032 9ebd e1ea a6bd
00000020: 4855 ebbd 9d8c 49bd 6fe9 2abd e6a0 1e3d
00000030: 2536 333d 8c14 a03c 72b3 963d 8ffb dbbc
00000040: d40f 81bd a43a 423d 0d04 b0bc f9f5 303e
00000050: 650b c73d 71b0 cb3d f2e4 9d3d c180 083d
00000060: 3116 49bd 5429 16bd e117 383e 0ba9 2e3e
00000070: cbeb 123e 5f30 5ebb 9fe4 8ebc 470d e83d
00000080: f681 e03d f564 b33b 7e00 d93d 63d5 adbd
00000090: f847 0a3e 0273 883d ae87 9e3d 01b8 6b3d
000000a0: 9325 c23c b80a bebd 6886 ee3d ecfc d1bd
000000b0: b932 073e a021 ee3b 6a51 cfbc 38c0 083d
000000c0: 4749 98bd 53b8 043c e610 b43d 7052 e43c
000000d0: 79a4 a43d 3720 fdbd 69d0 f73b 5b74 f23c
000000e0: 07ba 8f3d 8ece c73d a96f 1bbb a654 393d
000000f0: 65f9 5cbd 85bd a6bb 254d f0bb 5fcb 8cbd
00000100: 5aef 723d a2b5 c1bc 26b8 973d e275 a7bd
00000110: d804 ad3d b635 453d 1040 f63d e8eb 6e3d
00000120: 37cc f93a 7209 c33d db04 053d 0f3b f33c
00000130: e7dc afbd 5b28 36bd 0301 46bd f8ff fcba
00000140: 38c1 8dbd 5aa1 533a 1a6f e33d 2faf cb3c
00000150: 21ae 253d 213e a7bd 1ed4 c3bd 56b8 3bbd
00000160: 7c06 06bc c7fe 46bd 3ddb f13d 46e1 163d
00000170: 7c67 60bd 2b8b cebd cc0e 653d ed28 b03d
00000180: 5813 d2bd 0e3a ebbd fbe8 3abc 8425 083d
00000190: 61cc 833d 43a3 0d3d 94cc d23d 85b7 343d
000001a0: 9464 593d 42e7 933d 11b6 74bd 1db3 3d3d
000001b0: f69d ee3b 4806 f23d 00ee a63d a5e2 b9bd
000001c0: 8496 e53d f010 25bd 9efe cbbd 82d5 8dbd
000001d0: 5222 ca3d 10e5 febd 9186 723c 0e33 9a3d
000001e0: 0275 a63b 6b30 f13c f9f4 b6bd be9e 043d
000001f0: 54be 96bd 9151 c7bd 9922 97bd 3b3f e83d
00000200: f7e0 afbd ef22 273d c09b d93c 2755 863c
00000210: 324a 773d e66b 243d 33a0 c63d 1220 b53c
00000220: 595c 3d3d 5c41 d4bd 5cd6 993d 49a3 853d
00000230: 1db8 e7bd 8546 c33d da5b dfbd 7fcd 4d3d
00000240: 1984 f3bc 1d96 acbd ca9a c0bc 83c8 693b
00000250: 6cad dfbd 52d8 a53d 74cf d23d 6ffb f4bd
00000260: f590 a5bd c88a aebd 4e8c 813d 76b4 09be
00000270: 3b57 503d f57f b5bc e980 883d 39c6 803d
00000280: ed06 cd3c d182 343d f0b2 313d af09 ea3d
00000290: b919 983d 67a1 753c c133 a7bd dd29 80bd
000002a0: 9faa ddbd c5ce 2abd 0d7f 2cbd 4fc7 d7bd
000002b0: ca9b 323d cfc6 a2bd 882d e5bc ceb9 80bc
000002c0: 64f4 f03c 3fd4 9e3d ec17 c9bc 27f2 073d
000002d0: c0cc 093d ddbe 89bd 4740 00be 3817 7ebd
000002e0: 9f91 fe3c d086 b93d 0ee9 59bd 44ea 5fbd
000002f0: 57b5 8e3d e12f b03d ed81 1abc 78cd 82bc
00000300: 6736 153d bb20 193e 5bd9 343e 757f 4c39
00000310: 7db0 da3c 1fda 9fbd 7718 ab3d 9f37 0e3e
00000320: 018f 4e3c 78b3 7d3d 3427 c63d 292c dfbd
00000330: 2f7f b3ba fc7c 3fbd 6ab2 d0bc 92d5 4b3d
00000340: c1f8 eb3d 5bd1 a03d 4223 d3bb 57a2 21bd
00000350: 2762 0d3d bd59 b3bd 5dce 103e 4f04 c23d
00000360: 16d2 6a3d 78d1 68bd a689 aa3d 0c82 9cbd
00000370: 5351 8b3c d798 0fbd f903 7fbd 16b7 adbc
00000380: 209f 08bd c363 143d e366 093e 000d e5bb
00000390: 941f 283d d7c3 ac3b 7172 79bd 0a8f 2a3d
000003a0: 4561 36bd 8ad3 c63d 4028 0f3e 18e0 aebd
000003b0: 6ef4 533d 46e4 0f3e 44e1 1fbd 3181 e53d
000003c0: 53f0 af3c 84cc 373b d98b 0b3d fe85 fd3d
000003d0: bfad 56bd 9d58 8dbd 7df3 1dbd 3790 3a3d
000003e0: 55fe c53d 37f8 91bd 0a18 d7bd 3afe 71bd
000003f0: a8bc e53b c712 e33d dc59 2d3e 1d85 b6bd
0.012206892 0.12309118 0.037691336 0.021549417 -0.075152054 0.07634369 -0.07724464 -0.08150268
-0.114908755 -0.049206365 -0.041726526 0.038727663 0.043752808 0.019541048 0.07358445 -0.02685335
-0.06301847 0.047419205 -0.021486307 0.17281331 0.0971897 0.09945763 0.077096835 0.033325914
-0.04909343 -0.036660507 0.17977859 0.17056672 0.1434776 -0.0033903343 -0.017443 0.113306575
0.10962288 0.0054746815 0.10595797 -0.08487966 0.13504016 0.06662561 0.077407226 0.057548527
0.023699557 -0.09279388 0.1164673 -0.10253319 0.13202943 0.007267192 -0.025307376 0.03338644
-0.074358515 0.008100587 0.087922856 0.02787134 0.08039183 -0.1235966 0.007562686 0.029596498
0.07017904 0.09756194 -0.0023717678 0.045246743 -0.05394878 -0.0050885105 -0.007333415 -0.068747275
0.059310295 -0.02364618 0.074081704 -0.08176781 0.084481895 0.048146926 0.12023938 0.058330446
0.0019058053 0.09523286 0.032475334 0.029691247 -0.08587056 -0.04447208 -0.04834081 -0.0019302359
-0.06921619 0.00080730545 0.11105175 0.024863807 0.040449265 -0.08166147 -0.095619425 -0.045830093
-0.008180257 -0.04858282 0.118093945 0.03683593 -0.05478619 -0.10085138 0.055922315 0.08601556
-0.10257596 -0.114856824 -0.011408086 0.033238903 0.064354666 0.034579527 0.102929264 0.04412033
0.053074434 0.07221843 -0.059743945 0.046313394 0.007282014 0.11817604 0.08150864 -0.09076432
0.11210349 -0.040299356 -0.09960674 -0.06925489 0.09869827 -0.12446034 0.014802591 0.07529269
0.0050798664 0.029442033 -0.089334436 0.03237795 -0.07360521 -0.097323544 -0.07379646 0.11340185
-0.085878305 0.0408048 0.026563525 0.016398026 0.060373493 0.040141962 0.09698524 0.022110019
0.046230648 -0.10364029 0.07511589 0.06525285 -0.11314414 0.09534935 -0.10906191 0.050244804
-0.029726075 -0.08427069 -0.02351131 0.0035672493 -0.109217495 0.080979005 0.10293475 -0.1196202
-0.08084289 -0.08522564 0.06325589 -0.13447747 0.05086444 -0.022155741 0.06665213 0.06287808
0.025027717 0.04407007 0.04338354 0.11427628 0.07426781 0.014992095 -0.08164168 -0.06257985
-0.10823559 -0.041701097 -0.042113353 -0.10536062 0.043605603 -0.07948076 -0.027975813 -0.015713599
0.02941341 0.077553265 -0.02454754 0.03318992 0.03364253 -0.067258574 -0.1252452 -0.062033862
0.031075297 0.090589166 -0.053200774 -0.054666772 0.069681816 0.08602882 -0.009430391 -0.015967116
0.036428835 0.14953892 0.1766104 0.00019502437 0.026695484 -0.07805275 0.08354276 0.13888405
0.012607337 0.061938733 0.09675446 -0.10897095 -0.001369452 -0.046750054 -0.0254757 0.049764223
0.115220554 0.078524314 -0.006443412 -0.03946146 0.034517433 -0.087573506 0.14141221 0.09473478
0.05732926 -0.05684039 0.083270356 -0.07641992 0.017006552 -0.03505787 -0.062259648 -0.021205466
-0.03335488 0.036227953 0.13418154 -0.006990075 0.04104574 0.0052723694 -0.060900155 0.04164032
-0.044526357 0.097083166 0.13980198 -0.08538836 0.05174678 0.14051923 -0.03903319 0.11206282
0.0214769 0.0028045485 0.034068916 0.123790726 -0.05241179 -0.06901667 -0.038562287 0.04554769
0.096676506 -0.07127421 -0.10502632 -0.05908034 0.007011015 0.11087566 0.1692881 -0.08912108

lstm.bias_hh_l1 f4 [256]
00000000: 2b7c cfbd 2ece 203e c388 cdbc 5826 0abc
00000010: 4f83 1d3d e07b dd3d 9c73 5c3d 44f9 2ebc
00000020: 9b62 413d 9826 99bd a2aa 1f3e 5dd1 3cbd
00000030: 911e 823d 67fa 42bd 024b 1f3d c564 2a3d
00000040: 36dc e53d 728c b63d 5742 503d 61d0 933c
00000050: 9fe1 c83d 6162 4bbd 8478 313c 30f1 f23d
00000060: 51ca 053e 1c1f 30bd 5ce6 acbc 906c 6b3d
00000070: b0b4 ebbc 53f8 b6bd a9ba d33d 692b 173e
00000080: d8cf 99bd bd0c e9bc 8718 1a3e 4b46 80bb
00000090: 37b6 9bbd c11d 473d c401 cc3d 7ae7 013d
000000a0: e83a c53d ec14 913d ab46 e73c b834 c33d
000000b0: 3d8b 2fbd cdc0 283e bb6b b03c b664 023e
000000c0: 1340 c6bd 4f47 983d bd30 903d aba7 933d
000000d0: 5721 c03d 6f7b 353d c3e6 8bbc 97c2 123e
000000e0: 5341 a83d 8215 933d 55c5 193e ad2f 1e3d
000000f0: 63d5 15bd fde0 4dbd 1a9b 03bd 129b 86bc
00000100: a444 bdbd 419c 963d 54ed d43d bc79 13bd
00000110: 3221 963d f674 313d d5c2 a7bd 68eb eb3d
00000120: 59f2 cfbc d481 503d c00e dcbd 2386 cfbd
00000130: 9b56 483d 27d9 873c e81d 973d 22c7 b4bc
00000140: f821 babc eb54 dabd 4f21 42bc 8f63 c33d
00000150: 2ad2 02be 471e 9c3d 923d c0bd 0bc5 e43d
00000160: 331a c13d c78b 1dbd 3dab 4fbd 0504 9fbc
00000170: 88ff e6bc 5aaf 20bd 5ecd a1bd ebad c6bd
00000180: 247f d03d 44ca dc3d b04a c43d 5e31 023e
00000190: 0ef8 193d 4300 6c3d 1941 83bd 2b1b f6bc
000001a0: 3c4e ee3d f195 48bd 6579 463d 78e6 f2bd
000001b0: be53 853d faac 843d 5880 ec3d 3d7b 2c3d
000001c0: 4abb 893d 4c07 6ebd 1301 7a3d 1207 a23d
000001d0: 0975 b5bc e370 03bd f084 8e3d 9489 b9bd
000001e0: d82e 58bd 00a1 c13d ae86 0c3e 71e7 7f3d
000001f0: 053b e3bd 9523 4b3d 430b 72ba 3f2b 80bd
00000200: 2182 1dbd 8a01 c23d ee1b 45bc 8945 0dbd
00000210: 4e13 7fbd 65ce 08bb 736a e1bd 02a7 253d
00000220: f874 8b3d 44c3 c33d a64e ecbd 745c 2f3d
00000230: bf79 cdbd 874d 7d3d 0c14 c03d 7d5c 403d
00000240: 69a4 f83d a51e 8a3d 74c7 4c3d 0585 683a
00000250: 49dc 473d 7484 023d 2c54 dcbd 6d99 da3d
00000260: 5f26 9ebd 01e8 013e 11b7 96bc bd80 413d
00000270: 9c3f 66bd ed04 8ebd f5c1 f1bd 11a4 833d
00000280: 94d4 9a3d 8461 bcbd 6945 94bd dd75 98bd
00000290: 6ff4 adbd 0656 6ebd 0a53 833c 3905 a6bd
000002a0: 076a ba3d 5e22 3fbd b078 7bbc b6d1 643d
000002b0: 4fe1 e2bd 9579 df3d 0d79 dabc 9175 453d
000002c0: 9625 713d e785 003d 3a97 303d 81d4 9b3c
000002d0: c2cd 4fbd 859b 9e3d bdbf dd3d 8742 6cbd
000002e0: bb93 c23d 7a64 bfbc 9751 d0bd 32bf 853d
000002f0: b632 e63d 752e ea3c 362b bcbd fdc5 8fbd
00000300: 44bb 093e 16f3 33bd 5d14 1e3d 3f64 c63c
00000310: 85cc bf3d 2971 1b3c d0c9 693d ed98 a4bd
00000320: eedb 503d 5d9e b9bc f3f5 81bd d5d6 9ebc
00000330: ef60 923d 1ada a7bd 746f e73d b56c e1bc
00000340: f4e1 97bd f22d 8f3d 7b9b 0dbd 8ba7 0e3e
00000350: 37e8 093d 2de5 79bb 409b 9dbc e4c9 edbc
00000360: 4c6d a4bd eb70 da3d 0580 013e 464c 2ebd
00000370: 35df 973d 7a17 163e 8b02 cd3d 55ee 7f3d
00000380: 901c 27bd 5568 0d3e 9e24 dabb f87a 1f3e
00000390: 9881 423d 199d 9f3d d538 83bc 8546 66bd
000003a0: ec0e ab3d e030 cdbd a82a d23d 18c5 b03d
000003b0: 3aee 473d 62e8 c03d 8678 9a3d 3fe1 b33d
000003c0: 0cba 9cbd 0226 ea3c d7bb 6e3d 3095 8dbd
000003d0: ffef 023e 1d53 72bd 6815 e63d c9e0 e43d
000003e0: 99dc e0bd abd4 013e 5e86 bf3d 0e0a 26bd
000003f0: cdba 513d 4944 d6bd 2c4a 39bd 1c46 0d3e
-0.10131105 0.15703651 -0.025089627 -0.008431993 0.038455304 0.10814643 0.05382119 -0.010679547
0.047213178 -0.07478064 0.15592435 -0.046098102 0.06353486 -0.047602084 0.038889892 0.041600008
0.112236425 0.089135066 0.050844517 0.018043699 0.09808659 -0.04965437 0.010831956 0.11862409
0.13065459 -0.04299842 -0.021105938 0.05747658 -0.028772682 -0.08934083 0.10338337 0.14762653
-0.07510346 -0.028448457 0.15048419 -0.0039146296 -0.07603114 0.04861236 0.09961274 0.031714894
0.09630376 0.07084069 0.02823194 0.0953154 -0.042857397 0.16479798 0.021535745 0.1273373
-0.0968019 0.07435476 0.07040546 0.072097145 0.09381359 0.04430717 -0.01707781 0.14332043
0.082155846 0.07181837 0.15016682 0.038619686 -0.036580455 -0.050263394 -0.03213034 -0.016431365
-0.09241608 0.07354022 0.10396829 -0.036004767 0.0733055 0.043324433 -0.08191458 0.115195096
-0.025384115 0.050905064 -0.10745001 -0.101330064 0.04891072 0.016583038 0.07378751 -0.02206761
-0.022721276 -0.10660728 -0.011848762 0.09540474 -0.12775484 0.076229624 -0.093867436 0.111703955
0.09428825 -0.03846338 -0.050700415 -0.019411096 -0.028198019 -0.03922973 -0.07900499 -0.09701141
0.101805 0.107807666 0.09584558 0.12714145 0.03759008 0.057617437 -0.06408901 -0.030042252
0.11636016 -0.04897112 0.048455615 -0.11860365 0.06510113 0.06478305 0.11547917 0.042109717
0.06725176 -0.058112428 0.06103618 0.07911505 -0.022150533 -0.03209008 0.069589496 -0.09059444
-0.05277905 0.094545364 0.13723251 0.06247658 -0.110952415 0.04959448 -0.00092332455 -0.062582485
-0.03845418 0.0947295 -0.012030585 -0.034490142 -0.06227427 -0.0020874974 -0.11006632 0.040442474
0.068094194 0.09558728 -0.115384385 0.04281278 -0.10032987 0.061841514 0.09378824 0.046963204
0.12140734 0.06744126 0.0499949 0.0008869919 0.048794065 0.0318646 -0.10758242 0.10673795
-0.077221625 0.12686159 -0.01839784 0.047241915 -0.056213006 -0.06934533 -0.118045725 0.064277776
0.07560077 -0.09198287 -0.072398014 -0.07444356 -0.08493888 -0.058187507 0.016030807 -0.08106465
0.09102254 -0.046663634 -0.015348598 0.05586406 -0.110781305 0.10911862 -0.02666905 0.048207823
0.058873735 0.0313777 0.04311297 0.019022228 -0.050733335 0.07744507 0.10827587 -0.057680633
0.095008336 -0.02336334 -0.10171812 0.06530608 0.11240141 0.028586606 -0.09187929 -0.07020185
0.13450342 -0.043932997 0.03859364 0.024217723 0.09365181 0.009487429 0.05707723 -0.08036981
0.05099099 -0.022658521 -0.06345739 -0.01938955 0.07147395 -0.081958964 0.11300555 -0.027517656
-0.07416144 0.06991185 -0.034572106 0.139311 0.033668723 -0.0038130984 -0.019239068 -0.029026933
-0.08028659 0.10666069 0.12646492 -0.04255321 0.0741562 0.14657393 0.10010251 0.06248315
-0.040798724 0.13809331 -0.006657197 0.15574253 0.04748687 0.07793636 -0.01601831 -0.056219596
0.083524555 -0.10019088 0.10262042 0.08631343 0.048811175 0.094193235 0.07542519 0.08783197
-0.07652673 0.028582577 0.058284607 -0.06913221 0.12786864 -0.059161294 0.11234552 0.11175687
-0.10979576 0.12678783 0.093518004 -0.040536933 0.051203538 -0.10462243 -0.04523675 0.13796276
