data/models/MSFT/predict_t1/model.pth (torch, 615602 bytes, 27 tensors)

lstm.weight_ih_l0 f4 [256, 1]
0	0x3e0f1e50	0.13976407
1	0x3c50d563	0.012746188
2	0x3d43ae72	0.047773786
3	0x3ba35ce8	0.0049854405
4	0xbb975e0f	-0.004619367
5	0xbd42b375	-0.047534425
6	0xbe2601c4	-0.16211611
7	0x3ae39fbf	0.0017366334
8	0x3d978d1e	0.07399963
9	0xbe0af472	-0.13569811
10	0x3dbc7e19	0.09203739
11	0xbd7ef4dc	-0.062245235
12	0xbcae8ce1	-0.02130741
13	0xbd7a0fc2	-0.061050184
14	0xbe18608d	-0.14880581
15	0xbd6a3729	-0.05718151
16	0x39cf871f	0.0003958279
17	0xbdd1fc64	-0.10253218
18	0x3d3efd34	0.046628192
19	0xbda8d472	-0.08243646
20	0xbdfc48e6	-0.12318592
21	0x3d6f2a6a	0.05839006
22	0x3c97afbc	0.018516414
23	0xbe2da538	-0.16957557
24	0x3d20cfe0	0.039260745
25	0xbe11ab7d	-0.14225574
26	0xbea079cf	-0.31342933
27	0xbe30a644	-0.17250925
28	0xbd12e967	-0.03586712
29	0x3cbb48bf	0.022861836
30	0xbdf2f0ba	-0.11862321
31	0x3d885c45	0.06658224
32	0xbc40f86c	-0.011777978
33	0x3e05d789	0.13070501
34	0x3c032c7d	0.008006212
35	0x3c90a67a	0.017657507
36	0xbe1253ca	-0.14289775
37	0xbdd62730	-0.10456693
38	0xbded0cfa	-0.11574741
39	0xbd0e8e2d	-0.03480356
40	0xbdd391bb	-0.1033053
41	0xbcc6841e	-0.02423292
42	0x3cf5d4f0	0.030008763
43	0xbe14e7e7	-0.14541589
44	0x3ce59e80	0.02802968
45	0xbbf237ac	-0.0073918905
46	0xbd2a81e9	-0.0416278
47	0xbddaf4b7	-0.10691207
48	0xbe01463c	-0.12624449
49	0xbdbc47fe	-0.09193419
50	0x3e68a0ca	0.22717586
51	0xbd1ea45c	-0.038730964
52	0xbe2f6bf5	-0.17131026
53	0x3c6a3142	0.014293971
54	0xbda4eb71	-0.080527194
55	0xbe0ded95	-0.13860162
56	0x3c7aa158	0.015297256
57	0x3e3e2b6b	0.1857125
58	0xbd963ba3	-0.073355936
59	0x3ce43aea	0.027860124
60	0x3e09da2d	0.13462134
61	0xbe3e7e11	-0.18602778
62	0xbdee1127	-0.11624365
63	0x3e06e67a	0.13173857
64	0xbd8493e6	-0.06473522
65	0xbda7a968	-0.081866086
66	0xbe0dd70a	-0.13851562
67	0x3e4bea56	0.19913611
68	0xbe2103ce	-0.15724108
69	0xbdec2661	-0.11530758
70	0xbe14a52f	-0.14516138
71	0x3d8dd379	0.06925101
72	0x3e378d56	0.17925009
73	0xbd18632d	-0.037203956
74	0x3dbdbee9	0.09264929
75	0xbcab8ce6	-0.020941209
76	0x3df5089f	0.11964535
77	0x3d05df40	0.03268361
78	0xbe185827	-0.14877377
79	0xbd1f498e	-0.038888507
80	0xbd055f0f	-0.032561358
81	0x3d68f6db	0.056876045
82	0xbdc90a96	-0.09816472
83	0x3cf7340d	0.030176187
84	0x3ded3a9d	0.11583445
85	0x3e52d3b9	0.20588578
86	0x3cebfbef	0.028806655
87	0xbcc5051d	-0.02405029
88	0xbcf3fc50	-0.029783398
89	0xbe00ad16	-0.12566027
90	0x3e29b7fa	0.16574088
91	0x3d8d6235	0.06903497
92	0xbcce2e4f	-0.025168566
93	0xbd0973a7	-0.03355756
94	0xbd4360fd	-0.047699917
95	0xbd9b5d82	-0.075861946
96	0x3cfad5da	0.03061955
97	0xbd95b32e	-0.073095664
98	0x3da5e9f5	0.081012644
99	0xbd9471f2	-0.07248296
100	0x3e13f039	0.14447106
101	0x3d0df8e0	0.034661174
102	0xbad1e740	-0.0016014352
103	0x3d7562cd	0.059908677
104	0xbe3c218c	-0.18372172
105	0x3dd686aa	0.10474904
106	0xbc732a2e	-0.014841599
107	0xbdbf38ce	-0.093370065
108	0xbe2ec1ac	-0.17066067
109	0xbe01793d	-0.12643905
110	0x3e35339f	0.17695473
111	0xbd5276d5	-0.05138286
112	0x3d2a6721	0.041602258
113	0x3d8e32a4	0.06943253
114	0x3e2708e8	0.16311991
115	0x3e8ae285	0.27125946
116	0xbe079025	-0.1323858
117	0xba79ac26	-0.00095242483
118	0xbd672ccc	-0.056439206
119	0x3d2197db	0.03945146
120	0x3d190e08	0.037366897
121	0x3e5901dd	0.21192117
122	0xbd6ece25	-0.058302063
123	0xbc21f907	-0.009886033
124	0x3d896fea	0.06710799
125	0xbd4de9c2	-0.050271757
126	0x3de7dd9b	0.11321565
127	0xbd4077e5	-0.04698934
128	0xbd797790	-0.06090504
129	0x3e22463a	0.15847102
130	0xbe4cda6b	-0.20005195
131	0xbe280bd5	-0.16410764
132	0xbdf856e4	-0.12125948
133	0x3deba098	0.1150524
134	0xbd8c8f69	-0.06863291
135	0x3d490750	0.04907924
136	0xbe425622	-0.1897817
137	0x3e5d0003	0.21582036
138	0xbd188d19	-0.037243936
139	0x3d84f8d5	0.064927734
140	0x3e66309e	0.22479483
141	0xbe12fdba	-0.14354602
142	0x3e2037a4	0.15646225
143	0x3e57ddfc	0.21080774
144	0xbe3ba4c0	-0.18324566
145	0xbcf16602	-0.029467586
146	0x3e342130	0.17590785
147	0xbe5ffa0f	-0.21872734
148	0x3e313aa8	0.17307532
149	0xbe312d65	-0.17302473
150	0xbc0fc86b	-0.008775811
151	0x3e14eadf	0.14542721
152	0x3d30e1d4	0.043184116
153	0x3e0a67e2	0.1351619
154	0xbead7364	-0.338771
155	0xbe391aa3	-0.18076567
156	0x3e1d203b	0.15344326
157	0x3df6a21f	0.12042641
158	0xbdfb250b	-0.12262925
159	0xbe2ce0ce	-0.16882631
160	0x3e3e7580	0.1859951
161	0xbd03de66	-0.032194518
162	0x3e37c4d1	0.17946173
163	0x3d4f0876	0.05054518
164	0x3e3a7eed	0.18212481
165	0x3df7e99d	0.12105105
166	0x3e11fa42	0.14255622
167	0x3e002bca	0.12516704
168	0xbe07c59b	-0.13258974
169	0xbe68621d	-0.22693677
170	0x3e150124	0.14551216
171	0xbe29cf13	-0.16582899
172	0x3e25caee	0.16190693
173	0x3e4e530b	0.20148866
174	0x3e59cc67	0.2126938
175	0xbe38826e	-0.18018505
176	0x3e267fe2	0.16259721
177	0xbe0140b4	-0.12622339
178	0xbe43f961	-0.19138099
179	0xbe27193e	-0.16318223
180	0x3e21d46b	0.15803687
181	0x3e45e29b	0.19324724
182	0x3ddc284e	0.10749875
183	0xbd5fe549	-0.054662023
184	0x3df49d01	0.119440086
185	0x3e0cf54c	0.13765448
186	0xbe2c753e	-0.168416
187	0x3e514b45	0.2043887
188	0xbe0beb38	-0.13663948
189	0x3d5620ee	0.052277498
190	0xbe2225b7	-0.158347
191	0x3cd82947	0.02638687
192	0x3d89417e	0.06701945
193	0x3d189d49	0.037259374
194	0xbccf1dfe	-0.025282856
195	0xbc812bc3	-0.015767938
196	0xbe387c41	-0.18016149
197	0xbdf823ac	-0.12116179
198	0xbcb964ea	-0.022631127
199	0x3bfe6e46	0.0077646105
200	0x3d0078c8	0.031365186
201	0xbe58bcf1	-0.21165825
202	0xbdfd0e35	-0.123562254
203	0xbd2e5d76	-0.0425696
204	0x3c52bc5a	0.012862289
205	0xbdd0d803	-0.10197451
206	0xbe086a06	-0.13321695
207	0xbd800993	-0.06251826
208	0xbd565258	-0.052324623
209	0x3d24d90c	0.040246055
210	0xbe367db3	-0.17821388
211	0xbc35db03	-0.01109958
212	0xbd0890c9	-0.033341203
213	0x3e03fc3b	0.12889187
214	0xbd182b71	-0.037150804
215	0xbcf1a5cf	-0.029498009
216	0x3cd68b15	0.026189366
217	0xbe19e42e	-0.1502845
218	0xbe2302e6	-0.15919074
219	0xbe161c42	-0.14659217
220	0xbe0107aa	-0.1260058
221	0xbe3a968d	-0.18221493
222	0xbd336fb2	-0.043807693
223	0xbe0c4e1a	-0.13701668
224	0xbd01370c	-0.031546637
225	0x391a88fa	0.00014737612
226	0x3d13ddcf	0.036100205
227	0xbe296091	-0.16540743
228	0x3d417830	0.04723376
229	0xbe01548f	-0.12629913
230	0xbcde46fa	-0.027133454
231	0xbdaf9c7d	-0.0857477
232	0xbd0ed918	-0.034875005
233	0xbdce50b7	-0.10073989
234	0xbe17e3d1	-0.14832999
235	0xbe4cb1d1	-0.19989707
236	0xbcad2c6c	-0.021139346
237	0xbdb6c567	-0.0892437
238	0xbd1c1011	-0.03810126
239	0xbdf1665b	-0.11787101
240	0xbe1cc165	-0.15308149
241	0xbdaab3e3	-0.08335092
242	0x3dc4f6c8	0.09617382
243	0x3e29ce30	0.1658256
244	0xbe2c77ae	-0.16842529
245	0xbdf5999e	-0.11992191
246	0xbcef3f38	-0.02920495
247	0xbd440a54	-0.047861412
248	0xbd877d40	-0.066156864
249	0x3e76352d	0.24043722
250	0xbe285ab1	-0.16440846
251	0xbca8e67a	-0.020617712
252	0x3d0b2ec7	0.033980157
253	0xbe15aadb	-0.14615957
254	0x3d9aec9e	0.075646624
255	0xbc9c8e89	-0.019110935

lstm.weight_hh_l0 f4 [256, 64]
0	0x3cc604bd	0.024172181
1	0x3dca8a42	0.09889652
2	0x3d24e269	0.040254984
3	0xbddf6820	-0.10908532
4	0x3d4cd4d5	0.05000766
5	0x3d6a5282	0.05720759
6	0x3b943603	0.0045230403
7	0x3dea4606	0.11439137
8	0xbd036479	-0.03207824
9	0x3dfbb900	0.12291145
10	0x3da662c2	0.08124305
11	0x3dadff05	0.08495907
12	0xbe00b693	-0.12569647
13	0x3d79efd4	0.061019734
14	0x3c469044	0.012119357
15	0x3e17148d	0.14753933
16	0xbda78f6d	-0.08181653
17	0x3d2226d9	0.03958783
18	0x3d8e50a6	0.06948976
19	0x3d015cbe	0.031582586
20	0x3d591acf	0.053004082
21	0xbdc9a82e	-0.09846531
22	0x3d8e191e	0.069383845
23	0x3ddf453b	0.109018765
24	0xbd791472	-0.060810514
25	0xbc1cfbca	-0.009581516
26	0xbd3b7bf4	-0.045772508
27	0x3c814304	0.015779026
28	0x3c7823b2	0.015145229
29	0x3d7bf392	0.061511584
30	0x3cda891d	0.026676709
31	0x3da131c0	0.07870817
32	0x3db3ce22	0.08779551
33	0x3ddb2f6b	0.10702404
34	0x3da2548f	0.079262845
35	0x3df39506	0.11893658
36	0x3cfe1525	0.031015942
37	0x3cf53b3c	0.029935472
38	0xbd528ec4	-0.051405683
39	0xbd025451	-0.03181869
40	0xbbb423ce	-0.0054974323
41	0x3d9502fc	0.0727596
42	0xbc0a1cdb	-0.008429731
43	0xbc1f2242	-0.009712758
44	0x3d9729c1	0.07381011
45	0xbd9539ed	-0.07286439
46	0x3ddab6a6	0.10679369
47	0x3da59ec1	0.080869205
48	0x3ddbf245	0.107395686
49	0xbda0dfcb	-0.07855185
50	0x3c7c4843	0.015398088
51	0xbd70de7c	-0.058805928
52	0x3e0d8803	0.13821416
53	0x3ca5874a	0.020206112
54	0x3dc2ec3c	0.095177144
55	0x3d435635	0.047689635
56	0xbdb945db	-0.09046527
57	0x3cbfb25d	0.02340048
58	0xbd2280dc	-0.03967367
59	0x3e312b24	0.17301613
60	0x3d3b346d	0.045704294
61	0x3d21ee7c	0.039534077
62	0xbe1ba94a	-0.15201297
63	0x3daa61bf	0.08319425
64	0x3d87404b	0.0660406
65	0x3c2a7097	0.01040282
66	0x3ccfb3a8	0.025354221
67	0xbb1a9be7	-0.002359146
68	0xbcb496f5	-0.022044638
69	0xbe0d6971	-0.13809754
70	0x3d7aa922	0.061196454
71	0x3d519a11	0.05117232
72	0xbde5eee2	-0.11227204
73	0xbe0e9dbb	-0.13927357
74	0xbde69c71	-0.112603076
75	0xbe04091e	-0.12894103
76	0xbcfa7411	-0.030572923
77	0xbdd7ce3d	-0.10537384
78	0x3d846101	0.064638145
79	0x3d87f0a2	0.06637694
80	0xbd2b19f8	-0.041772813
81	0xbde686cf	-0.112561814
82	0xbd873ce4	-0.06603411
83	0xbdd08768	-0.10182077
84	0x3d946056	0.07244937
85	0xbd183bee	-0.03716653
86	0x3df4897d	0.11940286
87	0x3dab3ca0	0.08361173
88	0x3dd02bfc	0.10164639
89	0x3c8124f9	0.0157647
90	0xbdd4c36b	-0.103888355
91	0x3e078e80	0.13237953
92	0xbdc8b221	-0.097996004
93	0x3c3d34ef	0.011548265
94	0x3cf31b8d	0.029676223
95	0xbdeb7e76	-0.1149873
96	0xbda44a74	-0.08022013
97	0xba98e4e4	-0.0011664894
98	0xbc0bebf0	-0.008540139
99	0x3cc71218	0.02430062
100	0x3e0a7957	0.1352285
101	0xbe133f50	-0.1437962
102	0xbd79157a	-0.060811497
103	0x3da6f04d	0.081513025
104	0x3e117379	0.14204206
105	0x3cc0ecec	0.023550473
106	0xbd10136c	-0.035174772
107	0xbbe8f4cc	-0.00710926
108	0x3c4431ac	0.011974733
109	0x3d2d0035	0.042236526
110	0xbd619527	-0.055073883
111	0xbd2bd2b3	-0.041948985
112	0x3d810ad1	0.06300891
113	0x3d0a1db7	0.033719745
114	0xbe4f5e49	-0.2025081
115	0xbd4dd848	-0.05025509
116	0x3b204870	0.0024457239
117	0x3d34905e	0.04408299
118	0x3db09d35	0.08623735
119	0xbc96f664	-0.018428035
120	0xbdf6b076	-0.12045376
121	0x3e32f635	0.17476733
122	0xbdb8621a	-0.090030864
123	0xbd1739d5	-0.036920387
124	0xbce47caa	-0.027891476
125	0x3ddad5a8	0.10685283
126	0x3dc81999	0.09770507
127	0x3926294a	0.00015846375
128	0xbe171124	-0.14752632
129	0xbbc6049c	-0.00604303
130	0x3e105f56	0.14098868
131	0x3d23c562	0.03998316
132	0x3d92ac83	0.0716181
133	0xbcc7eeb8	-0.024405822
134	0xbc0c6e42	-0.008571209
135	0x3d3f0d89	0.046643768
136	0xbd5c8305	-0.053835887
137	0xbd624995	-0.055245955
138	0x3c90714e	0.017632153
139	0x3dd27691	0.10276521
140	0x3d80a54b	0.06281527
141	0xbdbde172	-0.09271516
142	0x3c3f19c8	0.011663862
143	0x3bdb4eaa	0.006692727
144	0xbd434c8c	-0.047680423
145	0xbdaaa18e	-0.08331595
146	0x3d24390a	0.04009346
147	0x3c8a6716	0.016894858
148	0x3dda1509	0.106485434
149	0xbe1595a3	-0.14607863
150	0xbdb3446a	-0.08753283
151	0xbe04f024	-0.12982231
152	0x3db3206d	0.08746419
153	0xbd8825d4	-0.0664784
154	0xbdeb023f	-0.11475038
155	0xbd00c9b7	-0.03144237
156	0xbcf2a58a	-0.02961995
157	0xbb86604d	-0.0041008354
158	0x3cf402e1	0.029786529
159	0xbd9e79ff	-0.07738113
160	0xbc57fb60	-0.013182491
161	0xbdaa0ac8	-0.083028376
162	0xbb998977	-0.0046855765
163	0xbd3f668f	-0.046728667
164	0xbd9a159f	-0.07523655
165	0xbdc9805f	-0.09838938
166	0x3c62591c	0.013815191
167	0xbd3a7da7	-0.045529988
168	0xbc203570	-0.0097783655
169	0xba7d299b	-0.0009657384
170	0xbcc7b113	-0.024376428
171	0x3e04264d	0.12905236
172	0x3db669a4	0.08906868
173	0x3c83f7e5	0.016109416
174	0xbdaaec33	-0.08345833
175	0xbc163d0c	-0.009169828
176	0x3d595b59	0.05306563
177	0x3d025a59	0.031824443
178	0xbdf93116	-0.121675655
179	0xbd3bedb6	-0.045880996
180	0xbd9d642c	-0.07685122
181	0xbde9f59a	-0.11423798
182	0x3d90c720	0.0706923
183	0x3d8df3a9	0.0693124
184	0x3de92304	0.11383632
185	0xbb942f9d	-0.0045222775
186	0xbc81afb6	-0.015830856
187	0xbcd11c1d	-0.0255261
188	0xbdbbac8e	-0.091637716
189	0x3d3d553d	0.046223868
190	0x3da15ac7	0.078786425
191	0x3d6f0fe9	0.058364782
192	0xbd435a7c	-0.047693714
193	0xbdead869	-0.11467058
194	0x3e18503d	0.14874358
195	0xbe16ff34	-0.1474579
196	0x3d7ecf64	0.0622095
197	0xbe246942	-0.16055778
198	0x3d9195e2	0.07108666
199	0xbdf77f39	-0.12084813
200	0x38c10d43	9.205427e-05
201	0xbb9999cd	-0.004687524
202	0x3dc41fe1	0.09576393
203	0xbd01ec04	-0.031719223
204	0x3cc898d6	0.02448694
205	0xbd15817b	-0.036500435
206	0xbce845e2	-0.028353635
207	0xbc0a4452	-0.00843914
208	0x3d1b5387	0.037921455
209	0xbe18d44f	-0.1492474
210	0x3b2adf10	0.0026072897
211	0x3d54ae66	0.05192413
212	0x3dcc1d86	0.09966569
213	0xbdf4702b	-0.11935457
214	0x3de4e818	0.11177081
215	0xbe2232a2	-0.15839627
216	0xbe3ff388	-0.18745244
217	0xb9f7d8f4	-0.00047273154
218	0xbe209bce	-0.15684435
219	0x3db0f64f	0.0864073
220	0x3ca9f299	0.020745562
221	0xbdb31a2a	-0.08745225
222	0x3d744aaa	0.059641518
223	0xbd789c27	-0.060695793
224	0xbdabe170	-0.08392608
225	0xbc81d5c5	-0.015849004
226	0x3e07c14f	0.13257335
227	0xbdd99ad0	-0.10625231
228	0xbcc2f669	-0.023799138
229	0x3d21bf8d	0.039489318
230	0xbda5f608	-0.08103567
231	0xbdaed590	-0.085368276
232	0x3d2cb5f4	0.04216571
233	0x3c077efa	0.00827002
234	0xbe4974ce	-0.19673464
235	0x3e065e26	0.13121852
236	0xbe247f83	-0.16064267
237	0xbdb436db	-0.08799525
238	0x3d559ba1	0.052150372
239	0xbc187f28	-0.00930766
240	0xbdb25db0	-0.08709276
241	0x3d8f9639	0.070110746
242	0x3da906d4	0.082532555
243	0xbd4de2b3	-0.050265025
244	0x3d48ffe6	0.04907217
245	0x3db55ba6	0.08855371
246	0x3d1e10fd	0.03859042
247	0x3e466c02	0.19377139
248	0xbd2b3d69	-0.041806612
249	0x3d999623	0.074993394
250	0x3d29345d	0.041309703
251	0xbdf87bf7	-0.121330194
252	0x3d10db8c	0.035365626
253	0xbdd69fb8	-0.10479683
254	0xbcdc0c3c	-0.026861303
255	0x3d769df5	0.060209233

lstm.bias_ih_l0 f4 [256]
0	0xbd8f56ec	-0.06999001
1	0x3ddf02ec	0.10889229
2	0x3dee5f5d	0.11639283
3	0x3e564f68	0.20928729
4	0xbde25735	-0.1105179
5	0x3d78d098	0.060745806
6	0x3dd78d89	0.105250426
7	0xbd566f64	-0.052352324
8	0xbc8cdea9	-0.017196016
9	0x3d5f69b7	0.054544177
10	0xbc7eee56	-0.015559753
11	0x3cb5b259	0.02217977
12	0x3e7bf5dd	0.24605508
13	0x3e0b403f	0.13598727
14	0xbca6afd4	-0.020347513
15	0xbb166837	-0.00229503
16	0x3de25adc	0.11052486
17	0x3dc75af8	0.09734148
18	0x3c2e5101	0.01063943
19	0x3e6e1fa2	0.23254254
20	0xbd8f1841	-0.06987048
21	0x3da0f78e	0.07859717
22	0x3de3c31b	0.11121198
23	0x3d9f7b0a	0.0778714
24	0xbdbfe867	-0.09370499
25	0x3bd02bc9	0.006352876
26	0x3f28e407	0.6597294
27	0xbc8ad7f3	-0.016948676
28	0x3cb30914	0.021854915
29	0x3dac4b1e	0.08412765
30	0x3d1d3650	0.038381875
31	0x3d9a1642	0.075237766
32	0x3ce6afad	0.02815994
33	0xbdf2bb01	-0.118520744
34	0xbd6bc2d4	-0.05755885
35	0xbd9f47a8	-0.07777339
36	0x3dea6e21	0.11446787
37	0x3db08645	0.0861936
38	0xbd5b388f	-0.053520735
39	0x3da6c6d5	0.08143393
40	0x3d22bbcd	0.039729882
41	0x3ea9713e	0.3309421
42	0xbd15137c	-0.036395535
43	0xbdb88014	-0.09008804
44	0x3dcc5748	0.09977585
45	0x3dcdc048	0.1004644
46	0x3d5ae477	0.053440537
47	0x3cd17881	0.025570156
48	0x3dc0953a	0.09403463
49	0x3e1b5e93	0.15172796
50	0x3d31ba7b	0.043390732
51	0x3df883bb	0.121345006
52	0xbda98973	-0.082781695
53	0x3c86e8f1	0.016468497
54	0x3c6ee6b4	0.014581371
55	0xbd80c65f	-0.06287836
56	0x3dfa3f49	0.12219102
57	0x3d249292	0.040178843
58	0xbd55a6e9	-0.05216113
59	0x3d9d40a1	0.076783426
60	0x3d6a20e6	0.05716028
61	0xbd2dd6d0	-0.04244119
62	0x3c790046	0.015197819
63	0xbce9ef52	-0.0285565
64	0xbc7a35e6	-0.015271639
65	0x3c7fb383	0.015606764
66	0x3c2e30e0	0.01063177
67	0x3d8c4a73	0.068501376
68	0x3d25d29d	0.04048406
69	0xbdf4fd59	-0.11962385
70	0xbe0d484c	-0.1379711
71	0xbd6db5fe	-0.05803489
72	0xbdff5767	-0.124678425
73	0x3d80b970	0.062853694
74	0xbd896f86	-0.067107245
75	0x3d3184c4	0.043339506
76	0xbe1bd07d	-0.1521625
77	0x3df1903f	0.11795091
78	0xbd9583a0	-0.07300496
79	0xbdcde99c	-0.10054323
80	0xbdd62a50	-0.10457289
81	0x3be6573d	0.0070294426
82	0x3cdfb18e	0.027306344
83	0xbdf7cfc2	-0.121001735
84	0x3dd489f0	0.10377872
85	0xbd686534	-0.05673714
86	0xbcfaa804	-0.030597694
87	0xbdf587c9	-0.119887896
88	0xbdae358e	-0.085063085
89	0xbdf4e839	-0.119583555
90	0xbdb6704f	-0.0890814
91	0xbd887282	-0.06662466
92	0xbdfc531a	-0.12320538
93	0xbcdb4c48	-0.026769772
94	0x3c1b6e7d	0.009486792
95	0x3c9a3302	0.01882315
96	0x3dada9de	0.08479665
97	0xbd9e1ee4	-0.07720736
98	0xbdc4fbbc	-0.09618327
99	0x3dc030f8	0.0938434
100	0x3def9802	0.11698915
101	0x3dc157a3	0.094405435
102	0xbdb6344d	-0.08896694
103	0xbde3fdfb	-0.11132427
104	0xbdd1b8cc	-0.10240325
105	0xbe294cfd	-0.16533275
106	0xbb0dc27a	-0.002163081
107	0x3d14be33	0.0363142
108	0x3d51143d	0.05104469
109	0xbd44aa85	-0.048014183
110	0xbe0cd4e1	-0.13753082
111	0xbd20ecb6	-0.039288245
112	0xbd9cb7c4	-0.07652238
113	0xb9fedefa	-0.00048612786
114	0xbdfadafe	-0.12248801
115	0xbe18053f	-0.14845751
116	0xbda96f80	-0.0827322
117	0x3d87892c	0.0661796
118	0xbe008c4c	-0.12553519
119	0x3d2e6584	0.04257728
120	0x3dbc5e70	0.091977
121	0xbe015b63	-0.12632518
122	0xbde8eae5	-0.113729276
123	0x3d93839c	0.07202837
124	0x3d808ba4	0.06276634
125	0x3dd5ee56	0.104458496
126	0xbdbc9129	-0.092073746
127	0x3d9f2906	0.077714965
128	0xbd89afb6	-0.06722967
129	0x3d7f03ce	0.062259488
130	0xbd004981	-0.0313201
131	0x3d9aae98	0.07552832
132	0xbd060ec9	-0.032728944
133	0x3cebc49a	0.02878027
134	0x3d83ffce	0.06445275
135	0xbbb09974	-0.005389387
136	0xbdeedf86	-0.116637275
137	0x3d86c374	0.065802485
138	0xbb65fbc2	-0.0035092686
139	0xbdb2d053	-0.08731141
140	0x3dd77cae	0.10521828
141	0xbd950525	-0.07276372
142	0x3ca077f9	0.019588457
143	0xbd721077	-0.059097733
144	0xbcbeb554	-0.023279823
145	0xbdd437ed	-0.103622295
146	0xbcb98121	-0.022644581
147	0xbd643bf5	-0.055721242
148	0x3cfdc104	0.030975826
149	0xbdbad1fb	-0.09122082
150	0x3dd55996	0.10417478
151	0x3d334163	0.04376353
152	0xbd8599a2	-0.06523444
153	0x3d47f6be	0.048819296
154	0x3d57d8d7	0.05269703
155	0x3da0373a	0.07823034
156	0xbb93d91a	-0.0045119645
157	0xbca37766	-0.019954395
158	0xbcea8207	-0.028626455
159	0x3be37734	0.0069417004
160	0xbd1d11e0	-0.038347125
161	0x3ca12fa4	0.019676037
162	0xbd0e194e	-0.0346921
163	0x3c7fc0cb	0.01560993
164	0x3db8b2c7	0.09018474
165	0x3d28b225	0.041185517
166	0xbd02fa5f	-0.031977054
167	0xbd33072a	-0.043708004
168	0x3d9afbbb	0.07567545
169	0xbdc36426	-0.09540586
170	0xbdac7194	-0.08420101
171	0x3d68e402	0.05685807
172	0x3c449d76	0.012000432
173	0xbd792667	-0.06082764
174	0xbce82715	-0.028338948
175	0xbb7e4caa	-0.003880302
176	0xbd88436d	-0.066534854
177	0xbb94696a	-0.004529168
178	0xbddbd5f4	-0.10734168
179	0x3d715a8a	0.058924235
180	0x3d5d9070	0.054092824
181	0x3d910ebe	0.0708289
182	0x3c178ba2	0.0092496
183	0x3d91c696	0.071179554
184	0x3d485e9e	0.04891836
185	0x3c6ae52b	0.014336864
186	0xbbcb4a4e	-0.006203926
187	0xbd9ae498	-0.07563132
188	0xba1ec766	-0.00060569344
189	0xbd8c1938	-0.068407476
190	0xbd50aee9	-0.050948057
191	0x3de068ec	0.10957512
192	0xbd3005c2	-0.04297424
193	0x3dbaf463	0.09128644
194	0x3e0e5ff4	0.1390379
195	0x3e3b385b	0.18283217
196	0xbce1f0f3	-0.027580714
197	0x3ddc9473	0.10770502
198	0xbb1780a3	-0.0023117445
199	0xbd9007b7	-0.070327215
200	0x3d45968e	0.048239283
201	0xbd29280b	-0.041297954
202	0x3dbb73ca	0.091529444
203	0xbd69f665	-0.057119746
204	0x3e42b7f8	0.19015491
205	0xbd3f3874	-0.046684697
206	0xbc1603a3	-0.0091561405
207	0x3d963ce7	0.07335835
208	0x3b5e8a85	0.0033957076
209	0xbdd5daa6	-0.104420945
210	0x3da31560	0.07963061
211	0x3e7bafdf	0.24578808
212	0x3cf240a6	0.029571842
213	0x3df6e1e5	0.12054805
214	0xbcf78467	-0.030214502
215	0x3a3e5ddc	0.0007261911
216	0x3e065ecc	0.131221
217	0xbd6b9781	-0.057517532
218	0x3f1a0fee	0.60180557
219	0x3c17902f	0.009250685
220	0x3db42d00	0.087976456
221	0x3d0e28c4	0.034706846
222	0x3d2e912b	0.04261891
223	0xbcd85e9f	-0.026412306
224	0x3d0df7fe	0.034660332
225	0x3d87268a	0.065991476
226	0x3dad4013	0.08459487
227	0x3e0b5ca9	0.13609566
228	0x3e7f5422	0.24934438
229	0x3b6fb292	0.0036574942
230	0x3db0b84e	0.08628903
231	0x3c8a8bd2	0.016912375
232	0x3d1db85a	0.03850589
233	0x3dea31ec	0.11435303
234	0xbd3b1b86	-0.045680545
235	0x3d32f5ce	0.04369145
236	0xbd43af3e	-0.047774546
237	0x3e087e0e	0.13329336
238	0x3e5ad7d9	0.21371402
239	0xbd1ffdb6	-0.039060317
240	0xbd563ebc	-0.052305922
241	0x3dba17c5	0.09086565
242	0x3ddd6740	0.10810709
243	0x3df30cb1	0.11867655
244	0xbd9635f9	-0.07334513
245	0x3d205ee6	0.039153002
246	0x3dfa80f5	0.12231628
247	0xbdf8cf85	-0.12148956
248	0x3dfdd028	0.12393218
249	0xbc5d4b88	-0.013506778
250	0x3e2b6ad5	0.16739972
251	0x3d857fba	0.065185025
252	0xbca594d1	-0.020212563
253	0xbce325f7	-0.027728064
254	0x3e216769	0.15762104
255	0xbb7dbf46	-0.0038718744

lstm.bias_hh_l0 f4 [256]
0	0x3cf4d8d0	0.02988854
1	0x3de33c02	0.1109543
2	0x3ba59ce6	0.005054104
3	0x3d37590a	0.04476265
4	0x3d9c4a49	0.07631356
5	0x3dec2667	0.11530762
6	0xbdaf7f9c	-0.085692614
7	0xbca1f1eb	-0.019768676
8	0x3c03f04b	0.008052896
9	0xbd2799ac	-0.040918037
10	0xbcc06bbd	-0.023488874
11	0x3d041b24	0.032252446
12	0x3eb40936	0.35163277
13	0x3df05294	0.117345005
14	0x3e0f57f4	0.13998395
15	0x3d1d3f50	0.038390458
16	0xbd6dbc9a	-0.058041193
17	0x3d1006ee	0.03516286
18	0x3c886ec5	0.016654382
19	0x3e6b2be2	0.22965959
20	0x3dbec6e6	0.093152806
21	0xbd321c2c	-0.043483898
22	0x3cfeecf5	0.03111885
23	0x3b87f87b	0.004149494
24	0xbda5dd21	-0.080988176
25	0x3e007e4c	0.12548178
26	0x3f29d6aa	0.66343176
27	0x3dadeb26	0.08492117
28	0x3d441b53	0.04787762
29	0xbd4f8aaf	-0.05066937
30	0x3dc456bb	0.09586855
31	0x3df49eb2	0.11944331
32	0xbd69c78a	-0.05707506
33	0x3c254039	0.010086113
34	0x3c9a67cf	0.018848328
35	0xbc8dd17a	-0.0173118
36	0x3dcfeaf3	0.10152235
37	0xbd417a30	-0.047235668
38	0x3d7af69f	0.061270352
39	0x3ca7552d	0.020426357
40	0x3c28d98d	0.010305774
41	0x3e85be3d	0.26121703
42	0x3d0614ce	0.032734685
43	0xbb9ae75a	-0.0047272863
44	0x3db2cfec	0.08731064
45	0x39ddb48b	0.0004228692
46	0x3e5ce2fa	0.2157096
47	0x3df40134	0.11914292
48	0x3b298dbb	0.0025871831
49	0x3ddd6c78	0.108117044
50	0x3d89f285	0.0673571
51	0x3e0c807f	0.13720892
52	0xbd783d02	-0.060605057
53	0x3e32aa08	0.17447674
54	0xbd4b3278	-0.049608678
55	0xbcb39352	-0.021920834
56	0xbd3aa366	-0.045565985
57	0x3e104f2c	0.14092702
58	0x3dea2853	0.114334725
59	0x3df732ab	0.12070211
60	0xbcb366db	-0.021899631
61	0xbdc0dddf	-0.094173186
62	0x3ce60625	0.028079102
63	0xbe122b23	-0.14274268
64	0xbd913d63	-0.07091787
65	0xbdd57b45	-0.104239024
66	0x3daa6507	0.08320051
67	0x3d9b6166	0.07586937
68	0xbddab55d	-0.106791236
69	0x3d797824	0.06090559
70	0xbc351379	-0.011052006
71	0xbded74fa	-0.11594577
72	0x3db5a445	0.088692226
73	0xbcedd7a3	-0.029033488
74	0xbe0cf33d	-0.13764663
75	0xbda8e254	-0.08246294
76	0xbe052110	-0.13000894
77	0xbd361ae8	-0.044459254
78	0x3da237db	0.0792081
79	0xbdd86aa1	-0.10567213
80	0x3da10984	0.07863143
81	0x3dcdaf8b	0.10043248
82	0xbcaae7f5	-0.020862559
83	0xbd630429	-0.05542389
84	0x3a8d1420	0.0010763444
85	0x3dc68c48	0.09694725
86	0xbb994922	-0.0046779076
87	0x3cde3563	0.027125066
88	0x3d95be42	0.073116794
89	0xbdf3826d	-0.11890111
90	0xbe6ef110	-0.23334146
91	0xba34e8d4	-0.0006901149
92	0xbd2c0ecc	-0.0420063
93	0xbe06b814	-0.13156158
94	0xbd967eba	-0.0734839
95	0x3d89f784	0.06736663
96	0x3da61dc1	0.08111144
97	0xbd7cc35e	-0.061709754
98	0x3d77ca39	0.06049559
99	0xbd09386c	-0.033501074
100	0xbdd745c5	-0.10511354
101	0xbe06bf0b	-0.13158815
102	0xbd674e33	-0.05647106
103	0xbd28fada	-0.041254856
104	0x3d2f541d	0.042804826
105	0x3da2ed4f	0.07955419
106	0x3dc10860	0.094254255
107	0x3da040a6	0.07824831
108	0xbdc68987	-0.096942
109	0x3d485f23	0.048918854
110	0x3c6a436b	0.0142983
111	0xbd95fb89	-0.07323367
112	0x3b6f250d	0.003649059
113	0x3d4c9fe8	0.049957186
114	0xbc3b3add	-0.011427608
115	0xbde7f770	-0.11326492
116	0xbd9715bc	-0.073771924
117	0xbd25d37e	-0.040484898
118	0xbdf5d8c0	-0.120042324
119	0x3ca3eaaa	0.020009357
120	0xbe1d384a	-0.15353504
121	0xbdbc2ff8	-0.09188837
122	0x3cf4aab4	0.029866554
123	0x3d292d90	0.041303217
124	0xbe1e1f7e	-0.15441701
125	0x3d596a59	0.053079937
126	0xbd28d8cf	-0.04122239
127	0xbe0f2e3c	-0.13982481
128	0xbcc6ab7b	-0.02425169
129	0xbbcf7694	-0.0063312743
130	0x3d8b794b	0.06810244
131	0xbdc166ac	-0.09443411
132	0x3d6c71f6	0.05772587
133	0xbd7cff09	-0.061766658
134	0x3dab1066	0.08352737
135	0xbd8e74cc	-0.06955871
136	0x3d563a69	0.052301798
137	0xbd67bba0	-0.056575418
138	0x3d87d719	0.066328235
139	0xbda806f6	-0.08204453
140	0xbd84a18e	-0.064761266
141	0x3c7e1ef6	0.015510311
142	0xbc82147c	-0.015878908
143	0xbd7430f6	-0.059617005
144	0xbd14de1a	-0.036344625
145	0xbdc77a59	-0.09740133
146	0x3bbb8b7b	0.0057234145
147	0x3c282f68	0.010265209
148	0x3d7afcaa	0.061276115
149	0xbcd59f9f	-0.02607709
150	0x3ca9b3be	0.02071559
151	0xbd38e0b0	-0.045136154
152	0xbdade37a	-0.08490653
153	0xbd240f95	-0.040053923
154	0xbda5f0a9	-0.08102543
155	0xbdaaaea2	-0.0833409
156	0x3d922546	0.071360156
157	0x3bf34d43	0.007424982
158	0xbcba260d	-0.022723222
159	0xbdc99a1e	-0.09843849
160	0xbd8604b9	-0.065438695
161	0x3ccf5cf5	0.02531288
162	0x3d982e6a	0.07430728
163	0xbdab25ee	-0.08356844
164	0xbdb9a497	-0.09064596
165	0xbd5997b2	-0.053123184
166	0x3da592bf	0.0808463
167	0x3d0d0621	0.034429673
168	0xbd0ec1f0	-0.034852922
169	0x3d8708f5	0.06593505
170	0xbd24c38f	-0.04022556
171	0x3bbf559a	0.005839062
172	0xbbbf34d2	-0.005835154
173	0x3dafc20f	0.085819356
174	0x3d856029	0.06512482
175	0x3c85fd83	0.016356235
176	0x3da456c9	0.080243655
177	0xbd4d012d	-0.05004995
178	0x3c658e6f	0.01401101
179	0xbdd84ded	-0.10561738
180	0xbdacfe6e	-0.08446966
181	0xbbb9d844	-0.005671533
182	0x3b84b7f1	0.004050248
183	0x3d420b18	0.04737386
184	0xbc768340	-0.015045941
185	0xbcf4f04e	-0.029899742
186	0xbdb0ac36	-0.08626597
187	0x3dc56df4	0.096401125
188	0xbdd9d2e6	-0.10635929
189	0x3d6ed847	0.058311727
190	0x3d5a2b3b	0.053263884
191	0x39e67536	0.00043956348
192	0x3d31e4ec	0.043431208
193	0x3a6e6c35	0.00090951036
194	0x3d825d73	0.0636548
195	0x3e3ca813	0.1842349
196	0x3dbc43e6	0.09192638
197	0x3dbbf61f	0.09177803
198	0x3d67105e	0.056412093
199	0xbd072db8	-0.033002585
200	0x3983ee89	0.0002516399
201	0xbd2937e7	-0.04131308
202	0xbd2058dc	-0.039147243
203	0x3ca419f0	0.0200319
204	0x3e922016	0.28540105
205	0x3cde9af5	0.027173499
206	0x3dc04d26	0.09389715
207	0xbdb86331	-0.09003294
208	0x3d20c725	0.03925242
209	0x3d97b1cc	0.07406959
210	0x3e07be56	0.13256201
211	0x3e4da307	0.20081721
212	0xbd3d648e	-0.046238475
213	0xbd3c1873	-0.045921754
214	0xbbb8dbf0	-0.005641453
215	0x3d33014f	0.04370242
216	0x3de3cbb7	0.1112284
217	0xbdb462be	-0.08807896
218	0x3f182ab4	0.5944016
219	0x3e2ea4be	0.17055032
220	0x3cf82f6c	0.03029605
221	0x3d4a7d41	0.049435858
222	0xbd93d2b6	-0.07217924
223	0x3cd9d632	0.026591394
224	0xbd03babf	-0.032160517
225	0xbca66a22	-0.02031428
226	0x3da8d988	0.08244616
227	0x3e0db25b	0.13837568
228	0x3e523e34	0.20531541
229	0xbd8b4158	-0.06799573
230	0x3db068d1	0.08613742
231	0x3e0b33e2	0.1359401
232	0x3dd27dfc	0.10277936
233	0x3e90cc33	0.28280792
234	0x3d74f500	0.059803963
235	0xba88fecb	-0.0010451911
236	0xbda2b59f	-0.07944798
237	0x3e10bafc	0.14133829
238	0x3e8c3c1b	0.27389607
239	0x3e106155	0.14099629
240	0x3db4097f	0.08790874
241	0xbd1940cf	-0.037415322
242	0xbda10b96	-0.07863538
243	0x3e0aad55	0.13542683
244	0xbd5d8506	-0.05408194
245	0x3db54a2d	0.088520385
246	0x3da73e91	0.081662305
247	0x3cf9f7c4	0.030513652
248	0x3db26afe	0.087118134
249	0xbd46faaa	-0.048578896
250	0x3e0226a9	0.1271006
251	0x3da2cbf3	0.079490565
252	0xbd09cb61	-0.033641223
253	0xbccecb07	-0.025243295
254	0x3ccea7e9	0.02522655
255	0xbd0e39a7	-0.03472295

lstm.weight_ih_l1 f4 [256, 64]
0	0xbdc440aa	-0.09582646
1	0xbe03b41a	-0.12861672
2	0x3d4c4f2e	0.0498802
3	0xbd2b144e	-0.04176741
4	0x3d8191f9	0.0632667
5	0x3d82aeb9	0.06380982
6	0x3da507f3	0.08058157
7	0x3b312b63	0.0027033917
8	0x3e10b6a8	0.14132178
9	0x3d7fb4f7	0.06242844
10	0x3d05615c	0.032563552
11	0xbde814af	-0.1133207
12	0xbe0a0838	-0.13479698
13	0x3d8570a5	0.06515626
14	0xbdb1cac3	-0.08681252
15	0x3d0b5674	0.034017995
16	0x3dee35db	0.11631366
17	0x3d0f264b	0.03494863
18	0x3d412f50	0.04716426
19	0xbcdb9578	-0.02680467
20	0x3dc4fcd9	0.09618539
21	0xbd99db6b	-0.07512554
22	0x3df8abe5	0.12142161
23	0xbdeeffb5	-0.11669866
24	0xbd7adbe1	-0.06124485
25	0xbdcb5bc4	-0.09929612
26	0x3e1168e2	0.14200166
27	0xbcfe2269	-0.031022267
28	0xbdc9e2e4	-0.09857729
29	0xbc6ac3f9	-0.01432895
30	0x3cf2f123	0.029655999
31	0x3dffe067	0.12493973
32	0x3d950118	0.07275599
33	0xbdeb2d6a	-0.114832714
34	0xbd8bddb2	-0.068293944
35	0x3d315e6f	0.04330295
36	0xbd5f9fdd	-0.054595817
37	0x3d70c4b4	0.05878134
38	0x3cd985b9	0.026553022
39	0xbc88723c	-0.016656034
40	0x3e2f9cc9	0.17149653
41	0xbd67f9a3	-0.056634557
42	0xbddf80ac	-0.10913214
43	0xbd3fff64	-0.04687442
44	0xbd98cfd1	-0.07461513
45	0xbdb88528	-0.090097725
46	0x3d63f83a	0.05565665
47	0x3c5a6cc2	0.013331594
48	0x3d8ce3f9	0.0687942
49	0xbb054e6b	-0.002034093
50	0xbd44a917	-0.04801282
51	0xbcc6930a	-0.024240036
52	0xbe15868d	-0.14602108
53	0xbd5f3669	-0.05449525
54	0xbd809b55	-0.06279627
55	0xbdca6f22	-0.09884478
56	0xbdb50444	-0.08838704
57	0x3df7ed5b	0.12105819
58	0x3e1624ac	0.14662427
59	0xbd505d3e	-0.050870173
60	0xbde07f6d	-0.109618045
61	0xbd4804dc	-0.04883276
62	0xbae0f36d	-0.001716239
63	0x3df2849b	0.11841699
64	0x3d4ac153	0.049500775
65	0x3c8d9765	0.017284105
66	0x3d04a6f0	0.032385767
67	0x3d6c2ec6	0.057661794
68	0x3c67f7fc	0.014158245
69	0xbe145b19	-0.14487876
70	0xbd54b643	-0.05193163
71	0xbdbcfb8a	-0.09227665
72	0x3d9fcb55	0.078024544
73	0x3d1ca0fa	0.038239457
74	0x3d2b3aad	0.041804004
75	0xbe035d70	-0.12828612
76	0x3d07f15d	0.033189166
77	0x3d173efc	0.0369253
78	0xbd18c11e	-0.037293546
79	0x3d51c7a3	0.05121578
80	0xbd063253	-0.032762837
81	0xbd6d072f	-0.05786818
82	0xbcae1d02	-0.021254066
83	0x3df7ceb2	0.12099971
84	0xbdfb352e	-0.122660026
85	0x3e2cd6b3	0.16878776
86	0xbd707174	-0.058701947
87	0xbd88b1a1	-0.06674505
88	0x3d4b185f	0.04958379
89	0x3d94f743	0.07273724
90	0xbaa59695	-0.0012633378
91	0x3d9f09e2	0.07765557
92	0xbd594637	-0.053045478
93	0x3d0c19b0	0.034204185
94	0x3d781d70	0.06057495
95	0x3dbaa12e	0.09112774
96	0xbe153087	-0.14569293
97	0xbdbf2c81	-0.0933466
98	0xbd48dede	-0.049040668
99	0xbd7f4737	-0.062323775
100	0xbe11d9b7	-0.14243208
101	0xbd1adeb4	-0.037810043
102	0x3d283cbf	0.041073557
103	0xbd43647d	-0.047703255
104	0xbc1611dc	-0.009159531
105	0xbca925a0	-0.020647824
106	0x3dc02227	0.09381514
107	0xbc5ff12c	-0.01366834
108	0x3d7194d9	0.058979843
109	0x3d197d0c	0.03747277
110	0xbde2bbbf	-0.11070966
111	0x3db1daff	0.08684348
112	0xbcb963bb	-0.022630563
113	0x3d1f0503	0.03882314
114	0x3ce4ca89	0.027928608
115	0x3ddef11a	0.1088583
116	0xbd4b8669	-0.04968873
117	0xbd2ec938	-0.042672366
118	0x3b3f43b1	0.0029184634
119	0x3e02bc6f	0.12767194
120	0xb9342226	-0.00017178859
121	0x3e1160d6	0.14197096
122	0x3ce8a8d4	0.028400816
123	0x3c6331c9	0.01386685
124	0xbdb7af6c	-0.08969006
125	0xbc19439b	-0.009354497
126	0x3c9d1e58	0.019179508
127	0x3dea4522	0.11438967
128	0x3d952b90	0.072836995
129	0xbe15de59	-0.146356
130	0xbd4d8b31	-0.05018157
131	0x3e191280	0.14948463
132	0x3e1abefb	0.15111916
133	0xbd922ed4	-0.07137838
134	0xbdb64d0e	-0.08901416
135	0xbd7ef6b3	-0.06224699
136	0xbd51bbf9	-0.051204655
137	0x3c817299	0.015801715
138	0x3dacc30d	0.084356405
139	0xbd942b59	-0.072348304
140	0xbd75e8cb	-0.06003646
141	0xbd0dfab2	-0.03466291
142	0x3d2860e5	0.04110803
143	0xbdc791cb	-0.09744605
144	0xbd4a5e8b	-0.04940657
145	0x3da6fb92	0.08153452
146	0x3c66d2d8	0.014088355
147	0x3d038d64	0.032117262
148	0xbc925729	-0.017863827
149	0x3ded4b65	0.11586646
150	0xbcbf2bd5	-0.02333633
151	0xbd53e1a6	-0.051728867
152	0x3daad39c	0.083411425
153	0xbd869d83	-0.06573012
154	0x3e1a3a36	0.15061268
155	0x3e1684d4	0.14699107
156	0x3c249511	0.010045306
157	0xbdccfa1e	-0.100086436
158	0x3dad5adc	0.08464596
159	0x3dcd0dc5	0.10012392
160	0x3d8c2b6e	0.06844221
161	0xbc443f4e	-0.011977984
162	0xbd791e30	-0.060819805
163	0xbdeb3ccb	-0.11486205
164	0xbd9832a2	-0.074315324
165	0xbb8fa603	-0.004383804
166	0xbe145f1d	-0.14489408
167	0xbd97b7f3	-0.074081324
168	0xbda20ec9	-0.07912976
169	0x3e0d4d56	0.13799033
170	0x3ab8cb44	0.0014098664
171	0x3e12b13d	0.14325424
172	0x3d520bfe	0.051280968
173	0x3d2daa38	0.04239866
174	0xbdb31a8f	-0.087453
175	0x3c4abc71	0.0123740295
176	0xbe2739ff	-0.16330718
177	0x3dbf4546	0.09339385
178	0x3a95d017	0.0011429813
179	0x3de0d684	0.109784156
180	0xbc073446	-0.008252209
181	0xbd80bbb8	-0.062858045
182	0xbde133d0	-0.109962106
183	0x3d9a1859	0.07524175
184	0xbd9a65ac	-0.075389236
185	0x3da0bca3	0.078484796
186	0x3d82c733	0.063856505
187	0xbd4ec6f3	-0.0504827
188	0x3ddfc433	0.10926094
189	0x3cf7c929	0.030247288
190	0x3e30ae65	0.17254026
191	0xbdea9f25	-0.11456136
192	0xbd966e60	-0.07345271
193	0xbd726a90	-0.059183657
194	0x3d0f7146	0.035020135
195	0x3cd27d6a	0.025694568
196	0xbd308c32	-0.04310245
197	0xbd5abd2b	-0.05340306
198	0x3dd43748	0.103621066
199	0x3d30bb7c	0.04314755
200	0x3de26c46	0.11055808
201	0x3d3d940d	0.04628377
202	0xbbb9af8c	-0.005666679
203	0xbde1f0b1	-0.11032236
204	0xbd6508df	-0.055916663
205	0xbd1f0f3f	-0.0388329
206	0xbd829f3e	-0.06378029
207	0xbd957f36	-0.07299654
208	0x3d747016	0.059677206
209	0xbd9a5b55	-0.075369515
210	0xbc5c7f8f	-0.013458147
211	0x3d018dc8	0.031629354
212	0xbdd8fcbb	-0.105950795
213	0x3d7142d8	0.058901638
214	0xbbe5582d	-0.0069990368
215	0xbd647ff8	-0.055786103
216	0x3bd7353b	0.006567625
217	0x3d98aadc	0.07454464
218	0x3d0f0f1b	0.034926515
219	0xbd4c087d	-0.049812783
220	0x3cfcc617	0.030856175
221	0xbd91ddb7	-0.07122367
222	0x3d9e5e8b	0.077328764
223	0x3d64a4f7	0.055821385
224	0xbcc2ef88	-0.023795858
225	0xbdefe9fe	-0.11714552
226	0x3d5a9309	0.05336288
227	0xbddf51ba	-0.1090426
228	0xbd7d5f39	-0.06185839
229	0xbd430594	-0.04761274
230	0xbde66c8a	-0.11251171
231	0x3d0f5ade	0.034998767
232	0x3d0a3985	0.03374626
233	0xbd2ae65b	-0.04172359
234	0xbd670872	-0.05640454
235	0xbceadfd4	-0.028671183
236	0x3d99cad7	0.07509392
237	0x3d65134c	0.055926606
238	0xbdaa80d9	-0.08325357
239	0xba870e5f	-0.0010303966
240	0xbdb8c70f	-0.090223424
241	0x3d9337e6	0.07188396
242	0xbcd1da92	-0.025616918
243	0xbdb7c95c	-0.08973953
244	0x3c27a2b4	0.010231663
245	0xbdc06eca	-0.09396131
246	0x3d95f7aa	0.07322629
247	0xbdb7351e	-0.08945678
248	0x3b88630e	0.004162199
249	0x3e3102f9	0.1728629
250	0x3e17ca19	0.14823188
251	0xbe2a1e42	-0.16613105
252	0xbc1b7fa5	-0.009490882
253	0x3d93dc82	0.07219793
254	0x3e26b9c3	0.162818
255	0x3dd83e39	0.10558743

lstm.weight_hh_l1 f4 [256, 64]
0	0xbdd6b3d9	-0.10483522
1	0xbd0fa078	-0.035065144
2	0x3be03c8c	0.0068431552
3	0xbdf4d92e	-0.11955486
4	0x3c24945a	0.010045135
5	0x3cfd0c69	0.030889707
6	0x3cff1862	0.031139556
7	0xbd6cdee8	-0.057829767
8	0x387d1909	6.0343216e-05
9	0xbd1eb613	-0.03874786
10	0x3d20cc30	0.03925723
11	0xbd2250b3	-0.039627742
12	0x3cbc4a73	0.022984719
13	0xbe0e919d	-0.13922735
14	0x3d8586b9	0.06519837
15	0xbc14a432	-0.00907235
16	0xbd270271	-0.040773813
17	0x3bd6b058	0.0065517835
18	0x3da9f8fa	0.08299442
19	0x3ddf3a11	0.10899747
20	0x3c81baf0	0.015836209
21	0xbd08bf81	-0.033385757
22	0x3d7c46bd	0.0615909
23	0x3e0b5481	0.13606454
24	0xbccbc6b6	-0.024875026
25	0xbd8dea14	-0.069294125
26	0xbdac9452	-0.08426727
27	0xbd8b45a7	-0.068003945
28	0x3dcdba25	0.1004527
29	0x3d3f7262	0.046739943
30	0xbdee15cb	-0.116252504
31	0x3da975e7	0.08274441
32	0xbc5a02b2	-0.013306307
33	0x3de31873	0.11088648
34	0x3a6cda46	0.0009035211
35	0xbde2f426	-0.11081724
36	0xbdbfb6ae	-0.09361015
37	0xbd069b48	-0.03286293
38	0x3c8b9227	0.017037464
39	0x3ce2f8c4	0.027706511
40	0xbb5cd73a	-0.003369762
41	0xbd349c2d	-0.044094253
42	0xbd046274	-0.032320455
43	0xbdb09500	-0.086221695
44	0x3bcfcc69	0.0063415063
45	0x3d78cc4e	0.060741715
46	0xbdf4e9a3	-0.11958625
47	0xbce338d3	-0.027737057
48	0xbd4fabe6	-0.050701044
49	0x3cc8eea5	0.024527857
50	0x3c001a5a	0.007818783
51	0x3d327dd5	0.043577034
52	0x3dc419a9	0.09575207
53	0x3dd0dfbd	0.10198925
54	0xbbf16440	-0.007366687
55	0x3ba628f5	0.0050708004
56	0x3db13e31	0.0865444
57	0x3de19c0d	0.110160924
58	0x3dbf8899	0.09352226
59	0xbd1f8fe8	-0.0389556
60	0xbdbb66c2	-0.09150459
61	0x3d966605	0.073436774
62	0x3dfceac1	0.12349463
63	0xbd90f4a2	-0.0707791
64	0x3de966c7	0.11396556
65	0xbdd3b0d4	-0.10336462
66	0xbc8eb661	-0.01742095
67	0xbd041ad5	-0.03225215
68	0x3deb126f	0.11478125
69	0x3da08e9c	0.078397006
70	0xbd73f0f3	-0.05955596
71	0x3c9bab09	0.019002454
72	0xbddc4a91	-0.1075641
73	0xbd86ea51	-0.06587661
74	0xbe099c2f	-0.13438486
75	0x3d94b401	0.072608955
76	0x3c98e40b	0.018663427
77	0x3d55d3c1	0.052203897
78	0x3db3370c	0.08750734
79	0xbcc32e13	-0.02382568
80	0x3cea17ba	0.028575767
81	0xbd0d2fb2	-0.034469314
82	0x3c939445	0.018015036
83	0x3df0c578	0.11756414
84	0xbcc76782	-0.024341349
85	0xbbb76766	-0.005597043
86	0xbe149df9	-0.14513387
87	0x3da7904e	0.08181821
88	0xbdc23c79	-0.094841905
89	0x3ce2fd6f	0.027708737
90	0xbdd63c85	-0.10460762
91	0xbdf8ee4d	-0.12154827
92	0x3d3fa261	0.046785716
93	0x3d75e682	0.060034283
94	0x3d20c4e5	0.039250273
95	0x3bf2611d	0.0073968307
96	0xbdbec8f4	-0.093156725
97	0xbde32d87	-0.11092668
98	0x3d04a21e	0.03238117
99	0x3c21d62f	0.0098777255
100	0x3db83bf4	0.0899581
101	0xbdc002a8	-0.09375507
102	0xbc4ac88c	-0.012376916
103	0xbd2f6e80	-0.04282999
104	0x3ceb0ad0	0.02869168
105	0x3ddb8899	0.10719413
106	0xbd9b9b82	-0.0759802
107	0xbdcef550	-0.101053834
108	0x3d037862	0.032097228
109	0x3dea2510	0.1143285
110	0xbd2c5188	-0.04206994
111	0x3bbf23c4	0.005833121
112	0x3dff52d8	0.12466973
113	0xbde53e46	-0.11193518
114	0xbdc2d104	-0.09512523
115	0xbdbac18f	-0.091189496
116	0xbc0d7b9f	-0.008635431
117	0xbdc3e6eb	-0.095655285
118	0xbd260b10	-0.040537894
119	0x3d125d4d	0.03573351
120	0xbd982867	-0.07429581
121	0x3c407eb2	0.0117489565
122	0x3dfa533f	0.12222909
123	0xbdef1207	-0.1167336
124	0xbca2903c	-0.019844167
125	0x3cef2897	0.02919416
126	0xbd111253	-0.035417866
127	0x3de21383	0.11038878
128	0x3cfbfbd4	0.03075973
129	0xbd85fe86	-0.06542687
130	0xbdfd5140	-0.12369013
131	0xbda4333a	-0.08017583
132	0xbd7536f6	-0.059866868
133	0x3cdc0a46	0.026860368
134	0x3ddac457	0.1068198
135	0x3dbbca9e	0.091695055
136	0x3c6de755	0.014520486
137	0xbd4b0e7e	-0.049574368
138	0xbda5905b	-0.08084174
139	0x3d8a5b53	0.067557
140	0xbde85763	-0.11344793
141	0xbdb741f2	-0.08948125
142	0xbd85277b	-0.06501671
143	0xbdd098f6	-0.10185425
144	0xbd77e88a	-0.0605245
145	0x3c0e4e7f	0.008685707
146	0x3dd13057	0.10214298
147	0x3dbc6253	0.09198441
148	0xbda04842	-0.07826282
149	0xbcf08d8f	-0.029364375
150	0xbde5c096	-0.112183735
151	0xbd584c2e	-0.052807026
152	0xbd922d76	-0.07137577
153	0x3d3c57d1	0.045982186
154	0x3d6734cf	0.056446847
155	0x3d2b9724	0.041892186
156	0x3d8da312	0.06915869
157	0x3cfc2687	0.03078009
158	0xbd1ac2be	-0.037783377
159	0xbdd7e9de	-0.105426535
160	0x3c73ee8c	0.014888417
161	0x3d89f68a	0.06736477
162	0xbda70bbd	-0.08156536
163	0xbdb9b85b	-0.09068366
164	0xbd694c2a	-0.0569574
165	0x3a5135b3	0.0007980719
166	0xbd553e53	-0.05206139
167	0xbc8027ae	-0.01564392
168	0xbd188cff	-0.03724384
169	0xbcde8af5	-0.02716587
170	0xbe04b4b6	-0.12959561
171	0xbce80193	-0.028321063
172	0x3d895caf	0.06707131
173	0x3dc687a0	0.09693837
174	0xbd0764e5	-0.033055205
175	0xbd412463	-0.04715384
176	0x3dd308ae	0.1030439
177	0x3c4d6545	0.012536352
178	0x3d6b578c	0.057456538
179	0x3d29b736	0.04143449
180	0x3d188d47	0.037244108
181	0x3defd09b	0.1170971
182	0x3c00daa5	0.007864629
183	0x3cb032de	0.02150863
184	0xbd430e10	-0.047620833
185	0xbd5fa05d	-0.054596294
186	0xb8458b1d	-4.709802e-05
187	0xbd414b1d	-0.047190774
188	0x3e00c770	0.1257608
189	0x3da6b0e2	0.081392065
190	0xbd1e5f97	-0.03866538
191	0xbde3fd4e	-0.111322984
192	0x3d2902fa	0.041262604
193	0xbddc4ac1	-0.10756446
194	0x3d90ef7b	0.07076927
195	0xbd1c4632	-0.03815288
196	0xbbe19cc4	-0.006885143
197	0xbdcfad44	-0.1014047
198	0xbd4b60b5	-0.049652774
199	0x3d100688	0.03516248
200	0x3ce04f94	0.027381696
201	0xbd97bf32	-0.074095145
202	0x3d00b73f	0.031424757
203	0xbe06f939	-0.13181008
204	0xbd90d252	-0.070713654
205	0xbddc2160	-0.10748553
206	0xbc5c5062	-0.013446899
207	0x3d5e0caf	0.054211315
208	0x3da41c2c	0.08013186
209	0x3b783aac	0.0037876768
210	0xbdf8930c	-0.12137422
211	0x3d2a5a40	0.041589975
212	0xbdfe6e79	-0.12423415
213	0x3e143a8b	0.14475457
214	0x3dae9c91	0.085259564
215	0xbca06de6	-0.019583654
216	0xbda16a39	-0.078815885
217	0xbd07417a	-0.033021428
218	0xbde054de	-0.10953687
219	0x3d6ae9df	0.057351943
220	0xbdaf0851	-0.08546508
221	0xbdd3d01e	-0.103424296
222	0xbdc47d41	-0.09594203
223	0x3dcf3f79	0.10119528
224	0x3c430928	0.0119040385
225	0xbdf775dc	-0.12083027
226	0xbd75c820	-0.060005307
227	0xbd8cbcd3	-0.06871953
228	0x3d5e0607	0.054204967
229	0xbd31ab63	-0.043376338
230	0x3dbe6369	0.09296305
231	0x3de6fddf	0.11278891
232	0xbe0490ad	-0.12945814
233	0x3cfc772c	0.030818544
234	0xbcf48db3	-0.029852724
235	0xbd108f88	-0.035293132
236	0xbdf4d8cc	-0.11955413
237	0x3c91dc0b	0.01780512
238	0x3d9c07b2	0.07618655
239	0x3dbf0fc5	0.0932918
240	0x3e0551f0	0.13019538
241	0x3d3bd24b	0.045854848
242	0x3d470a7f	0.048593994
243	0x3c78b583	0.0151799945
244	0x3df84743	0.12122967
245	0x3e0c027d	0.13672824
246	0x3e050e73	0.12993793
247	0xbd9a2221	-0.07526041
248	0xbd8de7ab	-0.06928953
249	0xbd1aca62	-0.037790664
250	0xbda4a14b	-0.08038577
251	0xbb9c3da1	-0.004768089
252	0x3da0606d	0.07830892
253	0x3dd3b748	0.103376925
254	0x3db3b01b	0.08773824
255	0xbc77625c	-0.015099134

lstm.bias_ih_l1 f4 [256]
0	0xbd30ff18	-0.043212026
1	0xbd688e1c	-0.05677615
2	0x3df7c433	0.12097969
3	0x3deb91c1	0.1150241
4	0x3dd3d1fa	0.10342784
5	0x3d3471c8	0.044053823
6	0x3d685616	0.056722723
7	0x3d0f0f62	0.03492678
8	0x3d57df99	0.052703474
9	0x3db6b06e	0.0892037
10	0x3df68816	0.12037675
11	0xbd9fa8ad	-0.07795844
12	0x3cd9bcdf	0.026579319
13	0x3daf50fa	0.08560367
14	0xbc0ea57a	-0.008706445
15	0xba0b7764	-0.000532022
16	0xbd82d88f	-0.063889615
17	0xbd7c0cc1	-0.0615356
18	0x3d89b2c6	0.067235515
19	0x3dcf833a	0.10132451
20	0x3db1923e	0.086704716
21	0x3dc9d1c2	0.09854461
22	0xbc729afa	-0.014807457
23	0x3c1d7be3	0.009612056
24	0x3da52691	0.080639966
25	0x3b5d53fa	0.0033771978
26	0xbdf54478	-0.1197595
27	0x3df15041	0.11782885
28	0x3daecea4	0.08535507
29	0xbd9710a6	-0.07376222
30	0x3ca3d37c	0.019998305
31	0x3d71c00b	0.059021037
32	0x3d7f6ed4	0.062361553
33	0xbd85e20a	-0.06537254
34	0xbd74ffc3	-0.059814226
35	0xbca9c6cc	-0.020724677
36	0xbdf662d4	-0.12030569
37	0x3dcdec67	0.10054856
38	0xbbb506d5	-0.005524496
39	0x3daa6dd5	0.0832173
40	0x3d73b3a0	0.059497476
41	0x3da74d8f	0.0816909
42	0x3d1049e3	0.035226714
43	0xbdb35c38	-0.08757824
44	0x3c8fd547	0.017557753
45	0x3b707d55	0.0036695797
46	0x3de583ca	0.112067774
47	0x3d76e1f4	0.06027408
48	0x3be63548	0.0070253946
49	0x3e00e4a9	0.12587227
50	0xbc89158a	-0.016733903
51	0x3e057f3c	0.13036817
52	0x3d3af0cd	0.0456398
53	0x3df81866	0.12114029
54	0x3db5b5fc	0.088726014
55	0xbc834007	-0.016021742
56	0x3de50f0a	0.11184509
57	0x3d813c95	0.06310383
58	0xbdc922a9	-0.09821064
59	0x3dfb49c8	0.12269932
60	0x3d8c5684	0.06852439
61	0x3d90e114	0.0707418
62	0x3d45c87d	0.048286904
63	0x3dfb12e7	0.12259465
64	0xbcdc998d	-0.026928687
65	0x3d2d3343	0.042285215
66	0x3db38966	0.08766441
67	0xbdb55505	-0.08854107
68	0xbccb76f6	-0.024836998
69	0x3d073088	0.033005267
70	0x3d957811	0.072982915
71	0x3c67db0f	0.014151349
72	0xbdd350f1	-0.10318173
73	0x3df01e4b	0.11724528
74	0x3d99de3e	0.075130925
75	0xbda68704	-0.08131221
76	0xbdd6a9a7	-0.10481577
77	0xbe174c38	-0.14775169
78	0xbd8f6a1b	-0.0700266
79	0xbcf62db0	-0.030051082
80	0x3d89c2fc	0.067266434
81	0x3d7ee090	0.06222588
82	0xbddcd378	-0.10782522
83	0xbdbe3afc	-0.09288594
84	0x3d43c617	0.047796335
85	0x3c3f7eaf	0.011687919
86	0x3d89ec41	0.06734515
87	0xbd8b6442	-0.06806232
88	0x3dc850cc	0.09781036
89	0x3c9dcdc1	0.01926315
90	0x3c9b9227	0.01899059
91	0xbd7be2ee	-0.061495714
92	0x3d1053dd	0.03523623
93	0xbc218428	-0.009858169
94	0x3c5621e0	0.0130696
95	0x3dabf49b	0.08396264
96	0x3dc26373	0.09491625
97	0xbcf4b56b	-0.029871663
98	0x3c9a3ace	0.018826868
99	0x3d278d2f	0.040906128
100	0x3dbfaf62	0.093596235
101	0xbde44cf2	-0.11147489
102	0xbdae41d0	-0.085086465
103	0xbb4198fd	-0.002954065
104	0xbe0212ef	-0.12702535
105	0xbdabba4f	-0.08385145
106	0x3c40b2b6	0.011761358
107	0x3d283059	0.041061733
108	0xbde2d1a4	-0.11075142
109	0xbe379b28	-0.17930281
110	0xba6a2a0b	-0.00089326565
111	0x3db9f4a9	0.09079868
112	0x3d87f585	0.06638626
113	0x3d9f7df6	0.07787697
114	0x3d94440d	0.07239542
115	0xbdc92134	-0.09820786
116	0x3dbdc649	0.092663355
117	0xbd5fd76a	-0.054648794
118	0x3d9be762	0.07612492
119	0x3dd81273	0.10550394
120	0x3de91f10	0.11382878
121	0x3d62a11f	0.05532944
122	0xbd4a4d70	-0.049390256
123	0xbdc268ef	-0.09492671
124	0x3db16b12	0.08663
125	0xbd32d105	-0.043656368
126	0x3d894ba1	0.06703878
127	0xbab4dd2c	-0.0013798825
128	0x3d3ab1ff	0.045579907
129	0x3b886450	0.004162349
130	0xbd180727	-0.037116196
131	0x3b848fed	0.0040454776
132	0xbcfae987	-0.030628933
133	0xbda61746	-0.08109908
134	0x3db62340	0.08893442
135	0x3dba6e3b	0.09103056
136	0x3d271a8f	0.040796813
137	0x3bb24ac6	0.0054410426
138	0xbdd10851	-0.10206664
139	0xbcf2ce78	-0.029639468
140	0xbcba56a8	-0.022746399
141	0xbd6f7a88	-0.058466464
142	0x3d5fc9d6	0.054635845
143	0xbcad61e7	-0.021164848
144	0xbcfad422	-0.030618731
145	0xbd3b31f7	-0.045701947
146	0xbe0a4bca	-0.13505474
147	0x3cbd4598	0.023104474
148	0xbdb377d5	-0.087630905
149	0x3d55da92	0.052210398
150	0xbdf91abc	-0.12163302
151	0xbc9851d2	-0.018593702
152	0xbd74cb76	-0.059764348
153	0x3deebf8f	0.11657631
154	0x3cf37f84	0.02972389
155	0x3bef543f	0.007303744
156	0xbce29ea3	-0.027663535
157	0x3d927ad3	0.07152333
158	0x3da6edee	0.0815085
159	0x3d374673	0.04474492
160	0xbc0ee306	-0.008721119
161	0xbd983708	-0.074323714
162	0xbc510e26	-0.012759721
163	0xbda539ee	-0.0806769
164	0x3d528115	0.051392633
165	0xbd0b8b1b	-0.03406821
166	0x3d6b36f1	0.057425443
167	0xbd01f83b	-0.03173087
168	0x3d74dc43	0.05978037
169	0x3ddd16da	0.10795374
170	0x3dc9d0f4	0.09854308
171	0x3d86000e	0.06542979
172	0xbd34f0f0	-0.04417509
173	0x3b8382b8	0.0040133856
174	0xbdae00ed	-0.0849627
175	0x3d66ed97	0.056378927
176	0x3ddb8db1	0.10720385
177	0xbd93016b	-0.07178005
178	0xbd74e9ff	-0.05979347
179	0x3ca880d6	0.020569246
180	0x3da2f7c7	0.07957416
181	0x3d38d292	0.04512269
182	0x3dbf4b15	0.09340493
183	0xbde27cac	-0.110589355
184	0xbd0a00b9	-0.033692095
185	0xbd66b35a	-0.056323387
186	0xbdae9aa0	-0.08525586
187	0xbd8643f3	-0.06555929
188	0x3d61b260	0.055101752
189	0x3c8ba751	0.017047556
190	0x3d94f52a	0.07273324
191	0x3c505ccd	0.012717438
192	0x3cace3bd	0.021104688
193	0xbd06aeb2	-0.032881446
194	0x3d604f7c	0.054763302
195	0xbd097871	-0.033562128
196	0x3e02d239	0.12775506
197	0x3d676170	0.056489408
198	0x3c608d74	0.0137056
199	0xbca4e7ec	-0.02013012
200	0x3c322bde	0.010874717
201	0x3dac1c28	0.08403808
202	0x3de112af	0.10989892
203	0xbdad678e	-0.08467017
204	0x3d4c0783	0.04981185
205	0x3d2a5b2c	0.041590855
206	0x3dab852b	0.08375009
207	0x3db201ee	0.08691774
208	0xbdc99827	-0.09843474
209	0xbda4bb0e	-0.0804349
210	0x3cacf16a	0.021111209
211	0xbdde5671	-0.10856331
212	0x3df4a4eb	0.11945518
213	0xbd92c61d	-0.07166693
214	0x3d8c5aaa	0.0685323
215	0xbced8c86	-0.02899767
216	0xbd102e7c	-0.03520058
217	0x3d92db8e	0.07170783
218	0x3dbcc01d	0.0921633
219	0x3df9f96f	0.12205779
220	0x3a47f8b8	0.00076283095
221	0x3e0c9e09	0.1373216
222	0xbc9bd9fc	-0.019024841
223	0x3ccba11d	0.024857098
224	0x3e03a1cf	0.12854694
225	0x3d144c26	0.036205433
226	0xbd594ef5	-0.053053815
227	0xbd686db8	-0.05674526
228	0xbda6289e	-0.08113216
229	0x3cedc9f2	0.02902696
230	0xbd2a0495	-0.041508276
231	0x3de9041b	0.11377736
232	0x398ed277	0.0002724116
233	0x3e259d3b	0.1617326
234	0x3e076237	0.1322106
235	0xbd078404	-0.033084884
236	0x3d66ec74	0.056377843
237	0x3dc61074	0.09671107
238	0x3d55ba35	0.052179534
239	0x3e12654e	0.14296457
240	0x3e2911c2	0.1651068
241	0xbd1ae3a2	-0.037814744
242	0xbdb6eb8b	-0.08931645
243	0xbdc16464	-0.09442976
244	0xbcb6fa78	-0.02233623
245	0x3dad7b7d	0.08470819
246	0xbda1de0a	-0.07903679
247	0x3d8a9084	0.067658454
248	0x3df3835e	0.11890291
249	0xbd5501a9	-0.052003536
250	0xbd25190d	-0.040307093
251	0x3dd8d76a	0.10587962
252	0x3db1a1c1	0.0867343
253	0x3d7ae00c	0.061248824
254	0xbd4eb36e	-0.050464086
255	0x3e04993c	0.1294908
