data/models/TSLA/predict_t3/model.pth (torch, 615602 bytes, 27 tensors)

lstm.weight_ih_l0 f4 [256, 1]
00000000: e3a9 b03d d0a4 983c 599d f13b 7d2b 36bc
00000010: b8c8 e4bd b319 2d3e 1dd2 23be fd0c 1c3d
00000020: 7766 3a3d e496 063d 8d21 373d cecb d3bc
00000030: 7e61 203d f69e e33d d8cf e8bb a5eb a43d
00000040: d593 603d 5647 3cbe 9a0a a6bd 38df 0b3e
00000050: 8071 493c 6219 1a3e 5704 bb3d 822e 643d
00000060: 83ad 403d 8a75 023e 3985 0f3e b55e 79bd
00000070: 1fd9 0b3d 2b08 043e 6984 0e3e 6cdd a03d
00000080: a769 a0bd b906 af3d 1a16 3cbe 26fa 02bd
00000090: 30ec d33c e1b0 f6bd 0c50 593b 9a16 393e
000000a0: d7d7 85bd 689e ce3d 5973 57b9 fa61 443d
000000b0: 1d37 033d f8be 24bd 3e50 a93c 8fae 5ebd
000000c0: 2eae ce3d 1ddd c9bb df59 cc3c 291b b43c
000000d0: 3604 133d ac55 07bd 9341 e5bc 14ca c7bc
000000e0: e580 e23b 7159 e5bc 3052 01be 1a1a 1f3e
000000f0: 568e 6f3d 2b0c 58bc c2bb 06bd 9d81 1dbd
00000100: 3a32 393e 1a7c b2bd 1f46 083e 1325 463e
00000110: 0658 02bd a1e9 343e 4935 32be a76e eb3d
00000120: 55a1 15be 6ee7 163c 4ff9 0fbe 76d9 d8bd
00000130: 32cb b33d 7fe7 c23c 9006 d83b bbbd bb3c
00000140: 45fb dd3c 3041 ffbd 6001 ccbd 1dcd 10bd
00000150: 39fa 9fba e34a 3f3e 3efa cdbd aaea 713d
00000160: 0c0c a93d ad0e 6bbd 2757 223d b783 5abd
00000170: 2d2f 2f3e ea9a 9b3c f1b9 f63d 235d 743d
00000180: 321e f1bc 4ac4 753d 0ce0 c53c 2243 35be
00000190: a27d 9a3d 6e8f b13c f29d e73c f334 8a3d
000001a0: 4737 433d 225b bfbb 7e50 2ebd 41c1 6bbd
000001b0: 49c5 2bbe 7b61 b43d 50c9 f63d 1f55 ef3d
000001c0: 121c b0bd 7c74 183e 3b2a d2bd d308 f83d
000001d0: c1c9 15be bdaf 3dbe 0e7f 483d 3da7 01be
000001e0: 8865 b63d b4f8 d13d af76 30be 606f d9bc
000001f0: 57be 023e 7377 83bd 566c 2dbd 9056 87bd
00000200: 2efb 06be f9c2 3e3e 87fb 41be 7090 4ebe
00000210: 1136 ee3d 50c5 033e 4c9a 03be 449f 2abe
00000220: 80da 99bd 70fc 00be 6dea 57be 31d8 0e3c
00000230: 184a 2b3e ce87 2cbe c9ae a43d 8023 ebbd
00000240: 2185 2c3e 438d 12be b89b b0bd 23d3 d6bd
00000250: 8eb2 fbbd dbc8 dbbd 5d2d 59be 52af 2ebe
00000260: 6b0c 55be b01e 7abe 0eaa 3e3e 9cd1 0a3e
00000270: 83fc 453e e358 3d3e fb75 4dbe c421 23be
00000280: eea9 32be 7262 283e 00d4 8bbd 68f9 12be
00000290: 85f2 c4bd f0df 11be 36f7 12be b4c8 b53d
000002a0: 3333 2d3e 9af7 2cbe 5706 b23d b61d d23d
000002b0: eab7 8a3c 28b0 d53d 28c6 2b3e 3cbf 303e
000002c0: 4c1a 493e 094e 123e bb2d 4d3e 9240 4e3e
000002d0: 3241 6bbe ae20 37be 98f9 613e 2e91 52be
000002e0: 767e a73d e3e8 283e 7f0e 723d 1bbb 2fbe
000002f0: fd64 74be e9f6 2a3e aff1 e5bd 41df 243e
00000300: 4d09 643e bd5a fa3d 1e8e 403e 896f 6b3d
00000310: ece3 cbbd 2ca2 f63d bbd6 1dbe ead3 5d3d
00000320: 2995 08be 50d0 0f3e 4f74 a1bd bdb2 debd
00000330: 1f17 ae3c 8e49 163e 22a9 613d ff37 933d
00000340: 01f6 c13d c1d4 02be 525d 21be ebfe 113e
00000350: 7c94 b6bb 4c2d 3c3e 3ec6 44bd 7182 c4bd
00000360: d31e 323e a618 cf3d 96f1 363e 8cb4 0a3e
00000370: ecfe ad3d 89ee 333d 2725 233e 41b7 923d
00000380: f64e efbc f7bd 1a3b 5266 e8bc fe90 7f3c
00000390: a69b 0bbe cb0b 76be f588 d33d 7c15 2e3e
000003a0: 8575 e2bc 1f83 f63c 8c6a 313d 5415 ffbc
000003b0: 97ae bfbc 6333 123e c2a7 febc f9d0 b23c
000003c0: a23b c13d 22d7 3b3c f8be 903d 1467 f53d
000003d0: 2069 393d 123d 323d d0be f2bc d2d1 6cbd
000003e0: 2cd7 b2ba 21bf 83ba 51a6 073c ea79 0c3d
000003f0: ddc8 373e a7c5 d23d 00b6 ea3c 4c1d 2fbd
0.08626153 0.018633276 0.0073734936 -0.011118767 -0.111710966 0.16904335 -0.1599812 0.038098324
0.045507874 0.032858744 0.04470973 -0.025854018 0.039155476 0.11114304 -0.007104855 0.08052758
0.054828484 -0.18386588 -0.08107491 0.1365937 0.012295127 0.15048745 0.09131687 0.055708416
0.047040474 0.1274015 0.14015664 -0.060881335 0.03414261 0.12893741 0.13917698 0.07854733
-0.078326516 0.08546204 -0.18367806 -0.03197684 0.025869459 -0.12045456 0.0033159284 0.18075028
-0.06535309 0.10088807 -0.00020546968 0.047945 0.032034982 -0.040221184 0.020668145 -0.05436569
0.10091816 -0.006160392 0.024945198 0.021985607 0.035892688 -0.033040687 -0.02798537 -0.02438835
0.006912338 -0.02799675 -0.12629008 0.155373 0.05848535 -0.013186495 -0.032893904 -0.038453687
0.18085566 -0.08715077 0.13307999 0.1935008 -0.031822227 0.17667247 -0.17403139 0.11495715
-0.14612325 0.009210451 -0.14059947 -0.105883524 0.08778991 0.023792027 0.006592579 0.022917619
0.027097354 -0.124636054 -0.099612 -0.03535186 -0.001220531 0.18680911 -0.100574955 0.059061684
0.08254251 -0.057387043 0.039633896 -0.05334827 0.1710784 0.018994767 0.12047184 0.059659135
-0.029433344 0.06000165 0.024154685 -0.1770139 0.07543494 0.021674838 0.028273556 0.067483805
0.04766014 -0.0058397213 -0.042557232 -0.05755735 -0.16774477 0.088076554 0.12050116 0.116861574
-0.08599104 0.14888185 -0.10261961 0.12111058 -0.14627744 -0.1852407 0.048949294 -0.12661453
0.08906084 0.102525145 -0.17232774 -0.026542366 0.12767921 -0.064192675 -0.042339645 -0.06608307
-0.13181755 0.18629064 -0.18943606 -0.20172286 0.11631406 0.12868237 -0.12851828 -0.16662318
-0.07512379 -0.12596297 -0.2108552 0.008718536 0.16727483 -0.1684868 0.0804115 -0.114813805
0.1684766 -0.143117 -0.08623451 -0.1048949 -0.12289916 -0.107316695 -0.21208711 -0.17059067
-0.20805518 -0.24425769 0.18619558 0.13556522 0.19334607 0.18490939 -0.20064537 -0.1593085
-0.17447636 0.16443804 -0.06827545 -0.14352953 -0.096165694 -0.14245582 -0.14352116 0.08876172
0.16914062 -0.16891328 0.086926155 0.10259573 0.0169334 0.1043399 0.1677481 0.1726045
0.19638938 0.1428758 0.20036976 0.20141819 -0.22974089 -0.1788356 0.22067869 -0.20563194
0.081784174 0.16495089 0.059095856 -0.17161219 -0.23866649 0.16695751 -0.11227738 0.1610079
0.22269173 0.12224338 0.18804213 0.057479415 -0.09955582 0.120426506 -0.15413944 0.054157175
-0.1333815 0.14044309 -0.07883512 -0.10873935 0.02125126 0.14676496 0.05509294 0.07188415
0.0947075 -0.12776472 -0.15758255 0.142574 -0.0055719 0.18376654 -0.04804062 -0.09595192
0.17394571 0.10112123 0.17865595 0.13545436 0.08495888 0.043928657 0.15932141 0.07163859
-0.029212456 0.0023611763 -0.028369103 0.015598534 -0.13633594 -0.24027936 0.10328857 0.17000383
-0.027643928 0.03009182 0.0433145 -0.0311381 -0.02339868 0.14277415 -0.031085853 0.021828162
0.09435202 0.011464866 0.070676744 0.11982551 0.04526627 0.043515272 -0.029632002 -0.057817288
-0.0013644448 -0.0010051468 0.008279399 0.034295954 0.17947717 0.102916054 0.028651237 -0.04275255

lstm.weight_hh_l0 f4 [256, 64]
00000000: 4c34 a2bd ed64 983d 570a 20be 4328 8ebd
00000010: a3d8 6bbd c242 563c 3476 aa3d 8279 1bbe
00000020: b33c 30be 47c7 183c 3c76 1a3d 354f 12bd
00000030: 0dc1 06bd e8f5 edbd 584f 45bd 69c5 983d
00000040: 5fdc be3c eb2a 51bd 3797 eb3c e4ea f03b
00000050: 4c24 d73c 6ca8 fbbd eadd 7a3d 0a1f 54bd
00000060: 3e37 763c e58b bebc 44af 1cbd b5b2 2f3e
00000070: 7e01 e53c 5aa2 f03d 59be a53d 0e06 f7bd
00000080: 9a5d 893d cbcb 053e b7cd 0cbe 0e7e 10bd
00000090: f4e7 d6bd 5042 8bbc baab 97bd 7c2f 053e
000000a0: a9ef aabd 623c b4bd 757d d1bd 8374 d8bd
000000b0: e567 94bd ec00 ec3d 5a67 4abd ce2e cebb
000000c0: d631 aa3d 5451 023e 5615 683e ea57 6c3d
000000d0: 1a8d 03be 614d 23be 4988 ef3d c7d6 ecbc
000000e0: 5915 dc3d e99d 6abd b03a 0ebd ee77 963d
000000f0: 0116 dcbb 8f4b 253e eefa 85bb 3a28 9c3d
00000100: e14b c7bd 80a9 d93d 19c6 a03d 33c9 503d
00000110: 0e27 33be bbb5 b93d 2c27 8a3d f333 4a3d
00000120: 47ee 833e 6cd5 87bd 5e8b 883d 4e0f 4c3e
00000130: 523b 91bc ab72 73bd 5c47 b53d 5325 91bd
00000140: 365e e63d 4545 f43d 445f 423d dcea aa3d
00000150: 882c d83d 76bc b8bc b67b a03c 1675 a7bd
00000160: 0fa2 383c b450 683d 09ed 913c 6d79 343d
00000170: bed8 c6bd ac5f f93c 92f7 4fbd 725b e0bc
00000180: 9419 193e 0efc 0cbe efed 573e a743 673e
00000190: aad3 c8bc 83dd 373e ec1f 0abd 77d2 abbc
000001a0: ecd9 34bb 0dff f93d 8b96 473c 3eb6 01bc
000001b0: 6b1a 36be 664e 793d fd56 8cbd 4a18 47bb
000001c0: 11b9 1bbe 1c68 d2bb 4967 dcbd bc3b 83bd
000001d0: 8887 f5bc b912 363d 62f5 cfbd 68c2 afbc
000001e0: 28b1 f13d dc51 a73c dd46 d9bc 1b8f 30bb
000001f0: 8d7d d33d 4cb7 823d 5264 2cbd 6946 293d
00000200: b043 f73c a450 653d cc26 2cbb 6aba 1a3d
00000210: 1f42 373c 54c8 ff3d 56d6 e43d e5ee 1bbe
00000220: 01e3 1a3e 9830 a8bd 714a 83bb 1c20 e43d
00000230: 5c97 973c 6e96 18be 24bc 5f3c c6ab aa3d
00000240: 5bde 763d be96 f43d 42b2 033e 7503 8a3d
00000250: a934 bb3d 5b61 dd3c b3e2 06bd 2137 923d
00000260: e5da 893d 3563 c8bc f705 94bd 0462 ee3d
00000270: 69d4 c63d d55f 543d c7fe 9f3c 9462 64bd
00000280: 1f7e e1bc ccd4 abbd e150 8ebc 679e 32bd
00000290: 89fd 473d d279 77bc bda2 cfbc 3260 99bd
000002a0: 3fa7 c83d 5be1 e3bb e507 32bd d01a 48bd
000002b0: 5e55 f7bd 1d5f 9cbd 4323 9bbd c7c0 24bb
000002c0: 5cfc 083d 6e5f 50bd 0d25 b03d d6f6 3cbc
000002d0: 800e 1e3e 23ea d23d d733 1f3d 426d bb3d
000002e0: ea56 3f3d 2607 883c c3fa 38be d5c7 27be
000002f0: e68f 0fbe 5790 bebc abda 883c a91d 073e
00000300: 8a9b 24be ee5f 213e cf2b 2f3d babb 98bd
00000310: cbde 753d 2468 d03d f617 743d 7adc 5fbd
00000320: 3226 f53d 7b1d 0abd 1915 85bd 90c2 fb3d
00000330: aa46 93bc 25bf 1e3d 8fde 343e f82b 33bc
00000340: 291e 3a3e d05d 3a3e b577 253d 16f6 17be
00000350: fa8a 1abe 0382 39be c4ec 413d b5fc 3f3d
00000360: 91a5 f9bc a326 18be de8d b63d 605e 87bd
00000370: 5ba3 383e 4aba 263e a1be c1bd 8e40 883d
00000380: c14c 6ebd 5ec7 403b 030c 0d3d fa4e 89bc
00000390: 3910 cf3c 3785 113e bfcd 883d 8783 333e
000003a0: 4f6c a53d 7f35 0b3c 1cc8 ab3c 55d6 fd3d
000003b0: a7dd 09be d431 d63d 1127 7f3d 71af 0b3d
000003c0: 5074 d6bd e2f5 403e 5434 adbd cde5 e4bc
000003d0: d592 143d bbf0 b7bc e50d 743d da23 7a3d
000003e0: dd1a 3c3e adbe 1c3e 15d2 393d 4dd6 22be
000003f0: 843b 5ebd 2800 18bd eca5 06be 84fb fa3d
-0.07920131 0.07441125 -0.15628944 -0.06941273 -0.057579648 0.01307744 0.08323327 -0.1518307
-0.17210655 0.009324855 0.037710413 -0.03572007 -0.03289895 -0.116191685 -0.04817137 0.07459528
0.02329844 -0.05106632 0.028758628 0.00735222 0.026262425 -0.12287983 0.06124679 -0.051787414
0.015027819 -0.023260066 -0.038253084 0.17158015 0.027954813 0.11749716 0.080929466 -0.12061702
0.06707306 0.13066022 -0.13750349 -0.035276465 -0.1049346 -0.016999394 -0.07405801 0.13006395
-0.08346493 -0.088005796 -0.10229007 -0.10569098 -0.07246379 0.11523613 -0.04941497 -0.0062922006
0.08310287 0.12726337 0.22664389 0.05770103 -0.12846795 -0.15947486 0.11695916 -0.028911008
0.10746259 -0.0572795 -0.034723938 0.073470935 -0.0067164903 0.16142105 -0.004088751 0.0762486
-0.0973127 0.10628033 0.07850284 0.05097313 -0.17495367 0.090678655 0.06745753 0.04936595
0.2576773 -0.06632504 0.06667207 0.19927713 -0.017728481 -0.059435528 0.08851501 -0.07087197
0.11248438 0.119272746 0.047454134 0.08345577 0.10555369 -0.022550803 0.01959024 -0.08176629
0.0112691065 0.05671759 0.017813222 0.044061113 -0.09709309 0.030441128 -0.05077321 -0.027387355
0.14951164 -0.13768026 0.21086858 0.22584401 -0.024514992 0.17955594 -0.03372185 -0.02097438
-0.0027595712 0.1220685 0.012181888 -0.007916985 -0.17783515 0.060865782 -0.06852529 -0.0030379468
-0.15207316 -0.006421102 -0.107618876 -0.06407878 -0.029971853 0.04445145 -0.10154225 -0.021455005
0.11801368 0.020424776 -0.026523048 -0.0026940766 0.10326681 0.06382617 -0.04208786 0.041326914
0.030183643 0.055985108 -0.0026268242 0.037775435 0.011185198 0.124893814 0.11173694 -0.1522785
0.15125658 -0.082123935 -0.004006677 0.11138937 0.018504791 -0.14901134 0.013655696 0.083335444
0.06027065 0.11942814 0.12860969 0.067389406 0.091409035 0.027023962 -0.03293104 0.07139421
0.06731204 -0.024461368 -0.072277 0.11639789 0.09708483 0.051849205 0.019530667 -0.055758074
-0.02752596 -0.08390197 -0.01737255 -0.043608095 0.048825774 -0.015104728 -0.025346154 -0.07489051
0.09797525 -0.0069543547 -0.04346456 -0.048853695 -0.120768294 -0.07635329 -0.07575085 -0.0025139318
0.033443794 -0.05087226 0.08600817 -0.01153346 0.15435219 0.10298564 0.038867798 0.09151699
0.046713747 0.016604971 -0.18064408 -0.16384824 -0.14019737 -0.023262186 0.016705832 0.13194908
-0.16074958 0.1575925 0.04276639 -0.07457681 0.060026925 0.10176113 0.059593163 -0.054653622
0.11970176 -0.03371952 -0.06498165 0.12292969 -0.017978031 0.03875651 0.17663024 -0.010935776
0.18175568 0.18199849 0.040397365 -0.14839968 -0.15092078 -0.18116002 0.047344938 0.04687186
-0.030474456 -0.14858489 0.08913778 -0.066097975 0.18031065 0.16282001 -0.09460188 0.06652938
-0.058178667 0.0029415707 0.034435283 -0.016761292 0.02527629 0.14210974 0.06679868 0.17530642
0.08077299 0.008496641 0.020969443 0.12394396 -0.1346346 0.10458723 0.062293116 0.03410286
-0.104714036 0.18843797 -0.084572464 -0.027941609 0.036272842 -0.022453656 0.059583563 0.061069347
0.18369623 0.15307112 0.045366365 -0.15902062 -0.054255977 -0.037109524 -0.13149232 0.12255004

lstm.bias_ih_l0 f4 [256]
00000000: 6ad6 123e 7a06 71bd ce01 d03c 8394 e03d
00000010: 63e8 833d 2508 9c3c ea7e c93d 7751 d33d
00000020: d06f d9bc c38d 873d 317f d43d 3eb5 ccbd
00000030: e1ee f43d 76c5 df3d 693c bb3d b717 fe3c
00000040: 4b94 0e3e 08ec 2cbd 56e5 9ebd 4e24 ebbd
00000050: f2ec 5cbd 75eb 93bc eec6 ce3d 308d 373e
00000060: bcd8 2c3e b8a9 013e 1ab6 4eba c426 843d
00000070: 54ca 753e 3306 2a3e 26cb a73d 5f87 833d
00000080: 2d7d ea3d d2a2 f83d a59f d2bd f5d3 073e
00000090: 7051 86bc df48 193e df3d c73d 048f 71bd
000000a0: 3fa9 aabc fb90 123e 3816 5ebd 9d1c 633d
000000b0: bcd8 f03d 4321 c33d 0da0 05bd fbfb 143e
000000c0: 3d9a 243e ac97 233d 5992 1f3e 22b6 b13d
000000d0: 0875 3d3b 0283 be3c 95ff 123e 683f a23d
000000e0: c5ed dbbd 82a9 05bd 88b2 0bbd f2e7 1fbd
000000f0: d0be b13e 4f1b c1bc adf2 933d 0bde 88bd
00000100: 8f5b dbbc feb1 a43d a36b 0d3d e91b efbd
00000110: a5ec f5bc ad82 553d 8d0d 95bd 9ab1 a83d
00000120: c4e7 b83d aceb 1cbe 3cfd 68bd 4298 e03d
00000130: 2270 edbc 8872 f23d b229 b3bd cc92 963d
00000140: 5744 09be 978c fcbc 8d95 80bc 91d3 b03d
00000150: 83c3 7b3c 716b b7bd bbf7 acbd f41a 693d
00000160: 59f1 d5bc 3adc 03be 0468 fabb 3cc5 a63d
00000170: 89b5 ccbd a052 05be 2750 e7bc a274 803d
00000180: b448 873d a978 0a3d a538 83bd 6328 c63d
00000190: 052d b83d 8a2e 83bb a95a bdbc d21d 29bd
000001a0: d8e2 8dbd d72b 27be c739 dbbb 27c6 acbd
000001b0: 25cd f0bd 621a 9c3c 0578 d93d 5557 07bd
000001c0: 8d27 adbd bb40 1f3d 5390 b6bb 6855 a9bc
000001d0: c062 febc a2d4 8ebd 317f 03bc a330 babd
000001e0: 0181 f8bd e436 3cbd 5faa fa3c dd6e 14bd
000001f0: fa03 dcbd 3705 59bb 3190 b03c 2ba5 823d
00000200: 23de 45bb faba 87bd d76c c5bd a92c 413d
00000210: 154f 7fbd c831 5f3d b94b 1bbd 1132 b73c
00000220: 2969 403d 971e 023d 05f0 bbbb 026e 303d
00000230: d105 6e3d 2bd8 f7bc 1653 6c3d b5d1 d8bc
00000240: e0c8 98bd 362b 8f3d 2288 ad3d e1e7 7abd
00000250: 8a15 5bbc 90ec c1bd 66ab 76bd f281 d1bc
00000260: 468e 933c 4f36 bd3d 7558 e93c d297 9c3d
00000270: 9361 00bd 8bab 6fbd d014 313d 4cd2 203d
00000280: c58d 313c d9f8 fd3d 39e7 9d3c 4286 603c
00000290: a9c6 d73c ca9f 213d 3a18 3abd 386b 043d
000002a0: 351d a23c 224b 8b3c 5621 1bbc 2c93 883d
000002b0: f02b d2bd be05 613d bb11 a73d dfb1 b03d
000002c0: 962a 9fbc 20eb e7bc a31a a0bc 6a38 2ebd
000002d0: 0f32 823d 54ef 87bc 6871 c33d 75d2 8abc
000002e0: 9d7a 5c3d 0a8d 293d cfe3 bdbd c971 113d
000002f0: 8024 8fbd 1017 51bc e5dc 90bd 5cb2 2f3d
00000300: a999 183d 2a14 a8bb 635a 35bc 6e4f 733d
00000310: c507 c93d 88f1 54bc a3c7 053e 311c 0c3e
00000320: c744 68bd e326 1a3e e5a0 113c 4a2e c4bc
00000330: d1d8 163e 708c c03d 3c80 09bb 4af0 a23d
00000340: 03f3 333d 758d 2bbd eee0 a13c 42e8 d23d
00000350: 9eee 013d 2156 363d dc73 a53c 57b7 8a3c
00000360: e063 c33d 0773 433e eef8 343c 7984 58bd
00000370: 99c0 133e 08cf 633e ee87 a93d d889 203e
00000380: c0de 39bd c59a 88bd 461b f5bd 3d7d 02bd
00000390: 2688 d73c 0c2e 623c 6a5c 7d3c b65f b0bd
000003a0: 3d6e 7dbd db60 9ebd 2fc2 233e 65f5 9ebd
000003b0: ff5b bebd 382e ad3d 5086 7abd 32a5 363e
000003c0: 9983 36bb 66a2 153e 60a1 303c e66a 133e
000003d0: 5d13 02bd d70c db3d f64c 513c 4009 42bd
000003e0: 5f2c 643d 63af cfbc 71ea f13c edf9 f43d
000003f0: bbe1 da3e 7d95 a13d 8103 8d3d f303 1d3e
0.14339605 -0.058844067 0.025391486 0.10965826 0.064408086 0.019046852 0.0983866 0.103182726
-0.026542574 0.06618836 0.10375822 -0.09995507 0.11959625 0.109263346 0.09142382 0.031017167
0.13923757 -0.042217284 -0.07758586 -0.11481534 -0.053936906 -0.01805661 0.100965366 0.17924953
0.16879553 0.12662399 -0.00078854116 0.064527065 0.24002963 0.16603927 0.08193044 0.06422304
0.11449657 0.121404305 -0.10284356 0.13264449 -0.016396254 0.14969204 0.09728598 -0.05897428
-0.020832656 0.14313118 -0.05422041 0.05544721 0.11760089 0.095278285 -0.03262334 0.14549248
0.16074462 0.039939567 0.15583171 0.08677317 0.0028908867 0.023255829 0.1435531 0.0792225
-0.1073871 -0.03263236 -0.034105808 -0.03903956 0.3471589 -0.023572592 0.07224021 -0.06682976
-0.026777057 0.08041762 0.03452648 -0.11675245 -0.030020067 0.052126575 -0.07277975 0.08237
0.09028581 -0.15324277 -0.056882128 0.10966541 -0.028984133 0.11838251 -0.08748187 0.07352218
-0.13404976 -0.030828757 -0.015696311 0.08634103 0.015366438 -0.0895604 -0.08445688 0.05691047
-0.02611606 -0.12876979 -0.007641794 0.08143088 -0.099955626 -0.130198 -0.028236462 0.06272246
0.06605664 0.033806477 -0.064072885 0.09675672 0.08992962 -0.0040033506 -0.02311452 -0.041288204
-0.06928033 -0.16325317 -0.006690237 -0.08436232 -0.11757878 0.019055549 0.10618595 -0.03304227
-0.08454809 0.03888009 -0.005571404 -0.020670608 -0.031052947 -0.0697415 -0.00802593 -0.09091308
-0.121339805 -0.045950785 0.030598817 -0.03623854 -0.10742946 -0.003311468 0.02155313 0.063791595
-0.0030192218 -0.0662746 -0.096399 0.047161732 -0.062331278 0.054490834 -0.03791401 0.02236274
0.04697529 0.031767454 -0.0057353997 0.04307366 0.058111016 -0.030254444 0.057696424 -0.026467184
-0.07460189 0.06990664 0.08473231 -0.061256293 -0.0133718345 -0.09468949 -0.060222052 -0.025574658
0.018012177 0.09238874 0.028484562 0.07646145 -0.031343054 -0.058513205 0.04323274 0.039263055
0.010837023 0.124009795 0.019275295 0.013703885 0.026339846 0.039459027 -0.04543326 0.032328814
0.019789318 0.0170036 -0.009468397 0.06668696 -0.10262287 0.054937117 0.08157679 0.08627676
-0.019429486 -0.028310359 -0.019543951 -0.04253427 0.06357204 -0.016593613 0.09543115 -0.016946057
0.05382787 0.04139427 -0.09271967 0.035508905 -0.06989384 -0.012761846 -0.07073382 0.042894706
0.037255917 -0.005129357 -0.011068913 0.059401922 0.09815935 -0.012997039 0.13064437 0.13682629
-0.056706216 0.15053897 0.008888458 -0.023947854 0.14731146 0.09401786 -0.0020980975 0.07955988
0.043932926 -0.04188295 0.019760575 0.10298206 0.031721704 0.044515733 0.020196848 0.016933126
0.09540534 0.19086848 0.011045678 -0.05286071 0.14428939 0.22246945 0.0827788 0.15677583
-0.045378447 -0.06670145 -0.119680926 -0.031857718 0.026310038 0.013804924 0.015463928 -0.086120054
-0.06187271 -0.077333175 0.15992044 -0.07761649 -0.092948906 0.08456081 -0.061163247 0.17836455
-0.0027849434 0.14612731 0.010780662 0.14396247 -0.031756748 0.106958084 0.012774697 -0.047372103
0.055706378 -0.025352186 0.029530736 0.11961732 0.42750344 0.07889841 0.06885434 0.15333538

lstm.bias_hh_l0 f4 [256]
00000000: 993c 70bd 6a46 393e 53dd cc3d 370b 383d
00000010: b948 8c3c 680c 3ebd 7ccd 01bd 0ebc 633d
00000020: 8b2c e43d d9df 983c 0f96 11bd 4a65 acbd
00000030: c572 97bd 8beb 44bc 464a 9f3d 1d63 2a3e
00000040: ca82 6c3e 7541 ddbd 055b a63d 667c c33d
00000050: 0384 8bbc 2faa 643b 9885 4a3e 9cd3 29bc
00000060: e04a 553e 3468 e63d 6918 073e f853 f13d
00000070: 7664 ab3d 82f7 053d 0527 9fbd 4e5e cabc
00000080: 2c2e 1cbd 4558 8b3d 97d9 02be c970 c33d
00000090: 3d89 f6bd 592b 833d 42e3 013e 456e adbd
000000a0: a6ca 233e 647d 143e ea0f c33d b991 943d
000000b0: 7a80 ac3d d33d b3bd f813 2dbd fe95 093e
000000c0: 14fa 663c eda5 62bd 55c7 4f3e ec00 bdbc
000000d0: c620 d63d 190c 84bd e930 a73d 5dad 1a3e
000000e0: 546c e63d 783e 983c 5bb1 fd3c af10 32bd
000000f0: fae8 d73e 3217 8bbd 77d3 0e3d 1e3d e23c
00000100: cfc5 1abc 1eb6 843d 4abb 5dbd bfe8 06bd
00000110: 9a75 a03d 5518 cc3c d2c0 f6bd 8fc3 323d
00000120: 01fc 043e f867 a7bd 8c31 03be adef 823c
00000130: 12d1 cbbd 6d2e 2c3c 50a1 e43d d199 74bd
00000140: 4b58 8cbd eaaf 11bd 364d 57bb b3a1 973d
00000150: 3252 c1bd db7c 1dbe 1b13 06be df1d b53c
00000160: 4eae 54bd 025b a1bd 964a 593d dbaa 113c
00000170: c190 0fbe e03a 183d 31a7 cfbd f384 7fbd
00000180: 92d6 87bd 0423 f6bc 6cb3 b53d d15d f43c
00000190: 8b8d 3abd 4507 b83d eadd 013d ee57 a53c
000001a0: c251 b93d 2376 bcbd b8ed 45bd 6f2b a33d
000001b0: 3776 d8bd 0375 24bd acc4 bebd 1d67 69bd
000001c0: fc47 8b3c 68dd 243d b192 c03d 302e 253d
000001d0: 768a 08be 8b6b dfbd bbf8 8c3d 1690 e3bd
000001e0: 4317 3abc 81f8 44bc a8ac 3fbd 19ab bd3d
000001f0: fec0 0cbe 2405 28be 7e45 7c3c b7c1 593d
00000200: a7e0 45bc 9cb9 153e 1953 c33d 320b d7bd
00000210: 8d72 5f3d 986e a8bc b1ca cc3d 5587 bbbd
00000220: ce0c 0f3d 6347 bd3c e2dc 623d 5079 4b3d
00000230: 8dec f73a b520 f2bc e004 653d 85b2 b23c
00000240: 963e a13d cdc3 7ebd 6685 5b3d 351a b0bd
00000250: 8210 5b3c d406 043d 5cd9 9a3d 9808 30bc
00000260: f5b4 01bd 5c1a b2bd a2a9 a43d 4eda 213c
00000270: 0050 ff3c f83a b43d cdea 75bd dc46 97bd
00000280: beb4 893d d7fd d4bd 15da 143d 5fc9 643d
00000290: ef14 123d f25f d43d 72d1 ac3d 3df4 c63c
000002a0: 48ff 963d b1a8 bf3c 6c19 e73b 14fd b7bc
000002b0: c340 4d3d 64dc 86bc bdd9 cebd 2ba7 19bd
000002c0: 3e5d 8abd c942 363d 85bd 25bc 8327 c03c
000002d0: dd4a febc eec1 7f3d 0fe4 2c3c d1a6 473d
000002e0: 3a50 7cbc 9348 623d af8f aa3c d02c 04bd
000002f0: d138 8e3d e771 b73d fc01 5a3d ee36 e13c
00000300: 4bc5 813c bf56 1f3d efa7 e23d 6f5a 823d
00000310: 31f4 f03d 1636 273d 963e b1bd a717 a33c
00000320: cfa8 be3d 2ac7 853d 8338 4c3d 5ba2 9f3d
00000330: 3457 303c 32a1 c33d fa2c a83d 9cd0 84bd
00000340: 023c 8dbb b8fe d1bd 20ab d4bd 9af2 b6bd
00000350: 9b90 f13d 0bb3 88bc 09e0 053e 1574 a53d
00000360: 2170 903d aa66 093e fdc1 d1bd ec2b 3f3d
00000370: dbb6 7c3d 6d0a 653d 8a29 6abc e37c f43b
00000380: 2112 76bc d87e 2cbc 3681 d63d d45e 5dbd
00000390: f88f c03d 67c6 a53d 41ca 113e 2914 393d
000003a0: 8b18 0a3e 4adc 073e 97e9 823d 3156 a43d
000003b0: 1da5 103d 3523 883c 3181 e33d 4f09 42bc
000003c0: 1ea8 f53d a853 1dbd 83c1 9b3d 03cc 8e3d
000003d0: 756e 5abc 3a52 9a3d b195 d53d 0482 a43d
000003e0: 1a50 b53d d6e1 083e a8e4 9dbd 32d7 2c3e
000003f0: 66f6 893e 9de4 fd3d 592d b7bc 29a0 cc3d
-0.05865154 0.18093267 0.10003152 0.04493257 0.01712452 -0.04639855 -0.031690106 0.055599265
0.111413084 0.018661426 -0.035543498 -0.08417757 -0.073949374 -0.012019048 0.077778384 0.16639371
0.23096767 -0.108035006 0.08122829 0.095452115 -0.017030722 0.0034891476 0.19777524 -0.010365393
0.20829344 0.11250344 0.13192905 0.11783594 0.08368771 0.032706745 -0.07771114 -0.024703171
-0.03812997 0.068039455 -0.12778316 0.095429964 -0.12037895 0.06404752 0.12684348 -0.08468298
0.15995273 0.14500958 0.0952452 0.07254357 0.084229425 -0.087520264 -0.04225537 0.13436124
0.014097709 -0.05533402 0.20290883 -0.023071729 0.1045547 -0.0644762 0.08163626 0.15105195
0.11251131 0.018584475 0.030968359 -0.043472942 0.42169935 -0.067915335 0.034869637 0.027617034
-0.009446575 0.064800486 -0.05413369 -0.032936808 0.07834931 0.024913946 -0.12048496 0.04364353
0.12986757 -0.08174127 -0.1281187 0.015983427 -0.09951986 0.010509116 0.111635804 -0.059717003
-0.06852778 -0.035568155 -0.0032852418 0.074038886 -0.09439506 -0.1537966 -0.13093226 0.02210897
-0.051924042 -0.078786865 0.053049646 0.008890833 -0.14020063 0.037165523 -0.10139311 -0.06238265
-0.06632723 -0.030045994 0.08872113 0.029829891 -0.045545142 0.089857616 0.031705774 0.02018353
0.09048797 -0.0920222 -0.04832241 0.07967269 -0.10569423 -0.040150654 -0.09314856 -0.056983102
0.017002098 0.040250212 0.09402979 0.04032725 -0.13334069 -0.10909184 0.06883379 -0.111114666
-0.011358085 -0.012022139 -0.046795517 0.0926115 -0.13745496 -0.16408211 0.015397428 0.053163256
-0.012077487 0.14621586 0.09537334 -0.10500182 0.054552604 -0.020560548 0.09999598 -0.09156672
0.03492432 0.023105329 0.05538643 0.04967624 0.0018915102 -0.029556612 0.055912852 0.02181364
0.078732654 -0.06219845 0.053594016 -0.085987486 0.013370635 0.032233074 0.07560989 -0.010744236
-0.031666715 -0.08696434 0.080401674 0.009878708 0.031166077 0.0880031 -0.060038377 -0.07386562
0.06723927 -0.103999786 0.03634079 0.055856105 0.035664495 0.103698626 0.08438386 0.024286384
0.0737291 0.023395868 0.007052591 -0.022459544 0.05011059 -0.016462512 -0.10100124 -0.03751294
-0.06756066 0.044497285 -0.010115986 0.02345634 -0.031041557 0.062440805 0.01055242 0.048743073
-0.015399987 0.055244993 0.020820467 -0.0322693 0.069444306 0.08957272 0.05322455 0.027492013
0.015841147 0.038901087 0.11067187 0.06364905 0.11765326 0.040823065 -0.086545154 0.01990874
0.093095414 0.06532128 0.04985858 0.07794639 0.010762978 0.0955223 0.082117036 -0.064851016
-0.004310132 -0.10253662 -0.10384202 -0.08932991 0.117951594 -0.016686937 0.13073744 0.080787815
0.07052637 0.1341807 -0.102420785 0.046672747 0.061697822 0.055918146 -0.01429213 0.0074611767
-0.015018971 -0.010528289 0.10473864 -0.054045513 0.0940246 0.08094483 0.1423731 0.04518524
0.13485925 0.13267627 0.0639221 0.08024252 0.035313714 0.01661835 0.11108626 -0.01184304
0.119949564 -0.03840986 0.07605269 0.06972506 -0.013331999 0.07535215 0.10428942 0.08032611
0.08853169 0.133674 -0.07709628 0.16878965 0.269458 0.1239712 -0.02236049 0.099914856

lstm.weight_ih_l1 f4 [256, 64]
00000000: a5ea c4bd f03a fb3c 3c61 9bbc de6a 2dbc
00000010: 1a84 90bd 8e45 b53d ac3f 5a3b 9e83 a0bd
00000020: 2923 bc3d d6f4 21be d3d7 9abd 5aff bf3d
00000030: f273 6cbd 5951 06be 2812 c73d ee2b d53d
00000040: 83a3 cb3d 7c76 7abd 6dd2 a0bc a997 013d
00000050: 4b36 5d3c 8cc3 e9bd c4f7 b0bc 7d75 bf3d
00000060: f529 02be a401 b33c 939b 723d 6c54 e33c
00000070: f6da 84bd bce6 463d d735 a8bd 0e8e babd
00000080: d0b9 9abd 21b8 71bd 6c6e afbd f48a 9c3d
00000090: 1f9b 983c 363a 293c dbf3 a13d 3c01 f5bc
000000a0: 995a 6bbc 75e8 3e3d f7e4 ea3d d558 8c3d
000000b0: 6612 223d bdc7 1e3d 6bb8 ec3d 1d82 b4bd
000000c0: 719e 14bd 04fe 443c bcf4 9cbc 159b 913d
000000d0: 1bae 29bc d42f 6fbd 69aa 65bd 5c35 ce3b
000000e0: bba6 1cbd 7a97 bc3c 4d4b 2b3d 9be9 ebbd
000000f0: fb36 b7bd 45e4 ab3d 2c00 383d 46c1 fa3c
00000100: 733c 653d a11f 6bbd 008d 61bd 9efc f5bc
00000110: 8b1c f23b 43ce cf3d 41c3 b93d de26 32bd
00000120: 4957 963d a927 a7bd 7046 51bd f2fc 84bc
00000130: 6bff 98bd fb6a 8abd e454 a33d 87d1 9abc
00000140: 0e93 3fbd b566 393d 7933 683d 233d d9bd
00000150: 17ea e53c e5bb da3c 1074 733c bc29 13be
00000160: d775 29be 14f6 88bc 4ebb afbd 0f49 98bd
00000170: a7cf e03d eb12 833d 6df3 76bd a27d 913d
00000180: 4dde 0ebe f60d 9fbd c06c e33d de1f 4fbd
00000190: 7c92 843d 13bf e4bc a847 94bc c8b5 37bc
000001a0: 6f30 173c 6501 eb3c 75b7 a63c c6a6 263d
000001b0: 5dfa 693d 62fa 86bd 6f8b a53d 193e a4bb
000001c0: 6090 a2bc 7a8f c7bd 0dc8 0d3e 7b29 3a3e
000001d0: 0900 b03c afbb 06be 86d5 163d 0a4d 19be
000001e0: bf1e a1bd 133f 92bd b560 dd3d d49d 38be
000001f0: ba1f 90bd c4b5 873d 47a7 123d 78c9 9b3d
00000200: 15f8 4bbb 2304 14be 4d51 11bb 344a a0bd
00000210: 99eb 443c af40 513d c978 e93c 0281 debd
00000220: 4275 593b d908 d33d 3739 493c 8c42 08bc
00000230: 9ea8 f9bd 8ef9 c3bc 6808 95bc a86e fd3d
00000240: 336a b43d c594 1bbd 9b73 9039 ef6f a4bd
00000250: 1471 55bd da78 65bd 0043 3f3d f708 573d
00000260: f57a 81bc 42df e33d 6105 60bd 7bab 5a3d
00000270: 2535 18bd 0ea9 c4bd 72b6 ffbc 3737 ae3d
00000280: d15f 89bc 7e03 2b3b 2936 79bb 0473 a0bd
00000290: b358 8a3c 53cf c7bc 78d8 48bc 1324 7a3c
000002a0: f370 3cbe 0290 03be 447d c63c 19ed 0fbd
000002b0: b52c 323d f024 13bd 76f4 1f3c 7748 9fbc
000002c0: cb99 0b3d 5f9b 29bd bcf0 d83d 7c81 efbd
000002d0: e41e cabc 52b9 cbbd 434f 67bd 6ae2 d9bd
000002e0: ad15 583d 367c f43d 199c 85bd 57e1 93bd
000002f0: af19 473d 7ef9 aabd f3b9 be3d f511 fabd
00000300: 0c5f 49bd 2e7b 0fbd 050d 5d3d 5152 fa3b
00000310: 4025 1c3d ab00 6abd 55d2 80bd 7aaa 1c3d
00000320: 3cc7 a23c b70f 433c 3a17 c8bd 3dd9 55bd
00000330: 6c53 cabd 062a a0bd 782e cd3d 04e2 e03c
00000340: c6ff 9fbd cdf2 823d f75c ca3b 7dca 253d
00000350: 3479 ae3c 471b 1ebe d1ad e63d 9d38 e73d
00000360: df86 a6bd 94a2 85bd 3970 963d 0a4a 1dbd
00000370: 829d 8dbd e9da 80bd 9d31 8cbd a53b ac3d
00000380: 521e 8bbc b298 94bd 08c3 28bd 1360 b53d
00000390: f060 dbbd b088 c73d b303 d0bc ddd4 173e
000003a0: ab7d 66bd 0b53 49bd 3c74 fe3c b77f d3bd
000003b0: a44e 8cbc 2c20 0abe be26 4c3d 1687 e6bc
000003c0: 6c58 71bc 51fb 5cbd 3bcf 163d 6610 833d
000003d0: b458 193d 00b8 0ebd 375b 18bd 5c6e 933d
000003e0: 8c56 993d cb76 073e 047c 5d3d b739 173d
000003f0: 6423 cd3d a742 e13d e5fd 89b9 31c1 cdbc
-0.096150674 0.030667752 -0.018967263 -0.010584561 -0.070564464 0.08851157 0.0033302112 -0.07837604
0.09186394 -0.15816054 -0.075606965 0.09374876 -0.05772776 -0.13116969 0.0972026 0.104087695
0.09943297 -0.06114815 -0.019631589 0.031638775 0.013501714 -0.11414251 -0.021602519 0.09348581
-0.12711318 0.021851368 0.0592304 0.027750216 -0.06487076 0.04855989 -0.08213394 -0.09109126
-0.07554972 -0.05901349 -0.08565983 0.07643691 0.018628655 0.01032882 0.0790784 -0.029907815
-0.014364862 0.046608407 0.11469453 0.06852881 0.039568327 0.038764704 0.115586124 -0.0881388
-0.036283914 0.012023453 -0.019159667 0.07109658 -0.010356451 -0.05839522 -0.05607072 0.006292982
-0.038244944 0.023021448 0.04181986 -0.11519166 -0.089460336 0.08393148 0.04492204 0.030609738
0.055965852 -0.05740321 -0.05506611 -0.030027684 0.0073886565 0.10146763 0.09070445 -0.043494098
0.07340867 -0.081618614 -0.051092565 -0.016233895 -0.07470592 -0.06758686 0.07975176 -0.018898739
-0.0467711 0.045263965 0.056689713 -0.10607364 0.028065724 0.026700923 0.014859214 -0.14371389
-0.16548859 -0.016718902 -0.085806474 -0.0743581 0.109771065 0.06400093 -0.060290743 0.07104041
-0.13951989 -0.07766335 0.11104727 -0.0505675 0.06473252 -0.027923143 -0.018100575 -0.011212774
0.009227856 0.028687188 0.020351151 0.04068639 0.05712353 -0.065907255 0.080832355 -0.0050122854
-0.019844234 -0.09744163 0.13845845 0.18179886 0.021484392 -0.13157533 0.036824726 -0.14970794
-0.078671925 -0.07140937 0.10809461 -0.18028957 -0.07037301 0.06626466 0.03580406 0.076067865
-0.003112321 -0.14454703 -0.0022173703 -0.07826653 0.0120190615 0.051087078 0.028499978 -0.1086445
0.0033181463 0.10304422 0.0122817075 -0.008316647 -0.12190364 -0.023922708 -0.018192485 0.12374622
0.088093184 -0.037983675 0.00027551953 -0.08029162 -0.052109793 -0.056023456 0.046694756 0.052498784
-0.0158057 0.111265674 -0.05469263 0.053386193 -0.037160058 -0.09602557 -0.031214926 0.08506625
-0.016769322 0.002609461 -0.0038026667 -0.078344375 0.016887998 -0.024390852 -0.012258641 0.01526739
-0.18402462 -0.12847903 0.024229653 -0.035138223 0.043499667 -0.0359239 0.009762874 -0.019443734
0.034082215 -0.04140794 0.105927914 -0.11694619 -0.024672933 -0.099474564 -0.056472074 -0.10638888
0.052755047 0.11937754 -0.06523914 -0.072207145 0.04860848 -0.08348368 0.09312811 -0.12210456
-0.04916291 -0.035029583 0.053967495 0.0076392074 0.038121462 -0.057129543 -0.06290118 0.038248517
0.019870393 0.011905602 -0.09770055 -0.052209128 -0.09879193 -0.07820515 0.10018629 0.027451523
-0.07812457 0.06393967 0.006175633 0.04047631 0.021298029 -0.15440093 0.112636216 0.11290095
-0.08131193 -0.0652515 0.073456235 -0.038400687 -0.06914808 -0.06291754 -0.068454005 0.08409814
-0.016982231 -0.07255687 -0.04120162 0.08856215 -0.10711849 0.09742868 -0.025392389 0.14827295
-0.05627219 -0.04915146 0.031061284 -0.10327094 -0.017127343 -0.13488835 0.049841635 -0.028140586
-0.014730554 -0.05395061 0.036818724 0.06399612 0.03743811 -0.034843445 -0.037196364 0.07198784
0.07487211 0.1322891 0.05407335 0.036920276 0.10016516 0.10999041 -0.00026319842 -0.025116535

lstm.weight_hh_l1 f4 [256, 64]
00000000: af59 413c caf1 f53d 2bfa 8f3d 1079 00be
00000010: 4780 8abd fc24 f1bd df51 45bd feb7 03bd
00000020: 9671 003d 5561 4fbc d355 333d 8e05 803d
00000030: 2495 ccbd db4b 913c 4877 98bd 2bde 97bd
00000040: a1ca 843c 1b48 03be 0460 433d b072 643d
00000050: 8d31 b9bd 4012 17bd 4363 9a3d dd68 1dbd
00000060: 3b7a 6f3d b775 9dbd 62e5 d23d 60df 7cbd
00000070: 768f e5bd b68b f53c 5f31 693d d027 e73d
00000080: a376 3d3d aa1c 753d 47bb 33bd ada7 353c
00000090: bebc 05be 3c55 2cbb e809 753d ff0a b43d
000000a0: 0462 c2bd 1749 a5bd 3efa 8e3d 7ee5 bc3d
000000b0: 5730 52bd a78c 9c3d 38de 05be e66e f4bd
000000c0: 2193 9e3d 4baa ed3d fd9d b23c b5d5 fc3d
000000d0: ba8b 85bd 604e 57bd f59c 21bd 51f9 3fbd
000000e0: 7a30 8d3d 1bd3 843d 0751 bd3d ea15 843d
000000f0: 1964 3d3d c1fc ce3d 71fc b13a 91f0 cf3d
00000100: 0fbd cf3c 9ae1 5d3d 37d9 72bd 7717 b13b
00000110: 64a5 b3bc d999 01bd bcc8 82bd 12ed 65bd
00000120: 0ffd 953d 418e b7bd 280f 8dba 21ed a3bd
00000130: b23e b1bc 614e 00bd 6fa2 873d b107 cdbd
00000140: 108a f2bd adc2 c03d ed7f 38bd fb86 ee3b
00000150: ef86 9bbd a627 11bc 7da8 bb3c 345f 973d
00000160: aa48 853d 130a b53c 15fe c0bd 76a6 f53d
00000170: 67cb a1bd c5ab c23d 2075 a03d 7749 013d
00000180: 57b5 aebd d37f 223d 377d 953c 63ff 02bd
00000190: 6c5e 87bd b680 dc3d 0385 c1bd fee4 753c
000001a0: 062a fa3d 685e 273d 06b3 c6bd b48e aabd
000001b0: a1f9 8fbd 967c ed3d 6d42 95bd 406a 53bd
000001c0: a256 05bd 9db2 fd3d 34b2 7fba 01b8 28bd
000001d0: bdd5 5b3b 5c2d a8bd c464 c23d 442b 40bd
000001e0: 1bcb 693d e528 c63d 41c4 15bd 762f 803c
000001f0: b370 0b3c 6530 ad3d 4d9d a0bd 39c3 e13d
00000200: c284 953c 0fb2 ae3d c687 71bd 588d 403d
00000210: db3a ee3d 7e9e e8bd d114 08be 94ea 15bd
00000220: 30b7 c5bd 0bc7 4fbc d5b9 64bc 1d7f a2bd
00000230: 4942 9f3d fb5e e33d fc95 533b 81f3 62bd
00000240: 58d7 cd3d 6e37 893d 2874 b9bd 6348 573c
00000250: 808b 02bc ca46 82bd 7b14 3a3d b07b e23d
00000260: e283 d93d f3d4 f4bc 5807 9fbd 28b7 ad3d
00000270: e92b a83d 5036 4eba c31b ff3d b53d a43d
00000280: f56f c63d 8c23 893c ed9d 49bd 7106 78bd
00000290: 2c56 d4bd 4a88 2f3d 4ee0 de3b 7870 c63d
000002a0: 3e61 c8bd a9fc d3bd 2c0f ecbd 4935 84bd
000002b0: ecce 843d fd8c 34bd a3c5 123d 89af 163d
000002c0: 61df 4f3d ca1b 59bd 64eb a03d eaf8 80bd
000002d0: 7a1b 87bd 9230 07bd b967 3bbc 3d91 073d
000002e0: 7520 e1bd 632b 013a 375b de3c 4f5f da3d
000002f0: 306a c73d 0daa dabd 5d4c d23d 64ca d8bc
00000300: f59a 75bd b10b c8bc 7acd 4dbd 2f96 a63c
00000310: 3ae1 1ebd 82b0 20be b49d cd3c ed40 a63d
00000320: f255 6b3d b1bd 8d3d 122d e0bd 8060 363d
00000330: daed bb3d 43d5 c03d d537 29bc 9921 81bc
00000340: b550 31bd 1257 413c 3d30 f53d 1352 843d
00000350: 49a2 80bc 3f29 adbd fa48 b9bd ea81 a1bd
00000360: a10e e33c 30b7 dd3d 5243 85bd 8088 d93d
00000370: be17 4cbd b4c5 513c 332e 9ebd 7be8 6e3b
00000380: bfc3 ad3d 420f e93a d267 c1bd 3a05 6dbc
00000390: bf10 933d 31c2 c33c 1dc1 343d 494f 533d
000003a0: 9f5f ca3d 58ea 923d 9edb a83d 96aa 79bd
000003b0: 88b6 46bc b56e 9e3d 0307 bc3c 1a5d c6bd
000003c0: a33e 053d d60c bfbd e47e cd3d d6f1 42bd
000003d0: 1ff7 213d c7b9 903d cf89 e3bd b612 c23a
000003e0: 0821 003d f17d 88bd 1fc3 34ba 10ca 35bc
000003f0: 061e a9bd 5ab6 1b3c 8366 863d bcfd cdbd
0.011801167 0.12009008 0.07030138 -0.12546182 -0.06762748 -0.11774632 -0.04817378 -0.03215789
0.031358324 -0.012657483 0.04378302 0.062510595 -0.09989384 0.017736366 -0.07444626 -0.07415422
0.016209902 -0.12820475 0.04769899 0.055773437 -0.09042654 -0.03688264 0.07538464 -0.038430084
0.058466177 -0.07688468 0.102976575 -0.061736465 -0.112090036 0.029973846 0.05693185 0.112868905
0.04625572 0.05984179 -0.043879773 0.01108734 -0.1306028 -0.002629592 0.0598239 0.0879116
-0.09491351 -0.080705814 0.06981324 0.0922346 -0.05131563 0.07644015 -0.13073051 -0.11935215
0.07742906 0.116047464 0.02180385 0.12345449 -0.06520791 -0.05256498 -0.039456327 -0.046868626
0.06894012 0.06485578 0.0924397 0.06449492 0.04623804 0.10106803 0.0013579262 0.10153306
0.025358705 0.05417023 -0.059289183 0.0054044086 -0.02192945 -0.03164086 -0.06385943 -0.05613429
0.07323658 -0.0896268 -0.0010761963 -0.08004213 -0.02163634 -0.031324748 0.066227786 -0.10011233
-0.118427396 0.094121315 -0.045043875 0.0072792745 -0.07594096 -0.008859551 0.02290749 0.073912054
0.06508 0.02209953 -0.09423462 0.119946405 -0.07900124 0.09505419 0.0783484 0.031564202
-0.085306816 0.039672684 0.018248184 -0.031981837 -0.066098064 0.10766737 -0.09449198 0.015008209
0.122150466 0.040861517 -0.09702115 -0.08328 -0.07030035 0.115960285 -0.0728806 -0.051615
-0.032553323 0.123875834 -0.00097540324 -0.041191105 0.0033544146 -0.082117766 0.09491876 -0.04691626
0.057078462 0.09675769 -0.036564115 0.015647631 0.008510756 0.08456496 -0.07842503 0.11023564
0.01825178 0.08530056 -0.058967374 0.047009796 0.116323195 -0.11358355 -0.13289191 -0.036600664
-0.09654081 -0.012681733 -0.013960321 -0.07934401 0.07776315 0.111021005 0.0032285443 -0.055408005
0.10050839 0.067000255 -0.09055358 0.013139817 -0.00796783 -0.06361158 0.045429688 0.11058748
0.10620858 -0.029886698 -0.077650726 0.084822 0.082115 -0.00078663696 0.12456467 0.08019582
0.09689323 0.016740583 -0.049222875 -0.060553018 -0.103679985 0.042854585 0.0068016415 0.096894205
-0.097841725 -0.103509255 -0.11526331 -0.06455476 0.0648478 -0.04407977 0.035833012 0.036788497
0.05075014 -0.053005017 0.07857397 -0.062974766 -0.065970376 -0.033005305 -0.011438304 0.033097494
-0.10992519 0.00049274246 0.027143104 0.1066271 0.097370505 -0.10676966 0.102684714 -0.026463695
-0.05996223 -0.024419637 -0.050244786 0.020335285 -0.03878901 -0.15692332 0.025099613 0.08117852
0.05745501 0.069209464 -0.109460965 0.044525623 0.09176226 0.094156764 -0.010328253 -0.01576309
-0.04328986 0.011800544 0.11972091 0.06460967 -0.015702384 -0.08455133 -0.09047122 -0.07886107
0.027716937 0.10825956 -0.06506981 0.106217384 -0.04982733 0.012803484 -0.077236556 0.0036454487
0.08484601 0.0017781036 -0.0944363 -0.014466578 0.071809284 0.023896309 0.04412948 0.051589284
0.098815195 0.07173604 0.08245014 -0.0609537 -0.01212848 0.077359594 0.022952562 -0.096857265
0.03253044 -0.0932862 0.10033968 -0.047593914 0.039542314 0.07066684 -0.11110269 0.0014806602
0.0312815 -0.066646464 -0.00068955304 -0.011095539 -0.0825768 0.009503925 0.06562521 -0.100581616

lstm.bias_ih_l1 f4 [256]
00000000: 49a0 99bc 3e8f 2b3e c57e 093e d5df 01bd
00000010: f7bc a0bd 2d3d c5bd b1c8 9a3d 2fbe 193e
00000020: 2a47 44bd 383a 24bd 5c9a 70bd e98a 45bd
00000030: ab00 e03d 3161 803c 661d 2c3d 14b8 063c
00000040: 842e c53d b613 083d df97 353e 0431 333d
00000050: 50b9 43bc 1855 113e ee98 023e b6ca 493d
00000060: 5d2f 69bd d1d4 e8bc 4099 9ebd 147b 82bd
00000070: 56af 643d 3303 f23d ecc3 ea3d 0207 843d
00000080: d82f 843d 3d38 1a3e 6366 a0bb dcd4 9cbd
00000090: 1e18 d4bd fb95 4f3d 199b 2c3d 05ed d93d
000000a0: 78f9 eb3d 8d53 d5bc 3515 2e3e 6a7e c7bd
000000b0: c652 183e 476b a5bd 4c97 333d 3df1 a13d
000000c0: 810f 6abd b7e4 b8ba 7fcc 66bd dce6 96bc
000000d0: a3c7 793d be2e 94bd 1f8a 0c3e c16f a4bd
000000e0: 8d97 513d b331 c73d f112 af3d cbb0 07bd
000000f0: dac7 673d 9c65 6cbc 33c1 8a3c a144 7abc
00000100: 8949 a2bd 3167 ecbd 2125 bcbc 7c46 77bd
00000110: c983 ae3d 06b1 313c 311c f4bd 6bf8 bcbd
00000120: 30ee 303c ec81 dbbd 08d3 adbd 0e2c 473d
00000130: fb81 933d a13c 07be f7f3 55bd 21e9 bfbd
00000140: 7770 fcbc 2d50 413c 61af 93bc 857d 283d
00000150: 2699 10be da3c fdbd 6adc b6bd 313c f13d
00000160: 8778 57bd e2cc 5dbd 8be6 76bd 923f bb3d
00000170: f8e5 d3bd dde5 ecbd f373 c7bc 2d88 c3bd
00000180: b166 eebc 5de7 62bc 0b3f 56bd d178 c13d
00000190: d0c8 643d 58d1 a1bc 1567 2abd 1874 bc3c
000001a0: 8a20 f43d 89d1 6cbd c256 0dbe c7c5 efbd
000001b0: c29f 33bd 3cfe 2cbc 9e95 1cbc 737b 24bd
000001c0: 56bd 143d b305 cabc 482f e33d 3093 70bd
000001d0: 3d9c 0a3c 78a3 fcbc 8284 6b3d cb0f 3d3d
000001e0: 2e8e e13b ab42 6bbd 766a dcbd afd9 f53d
000001f0: 86a6 983c 21ba 90bd 5a50 0b3e 9329 ca3d
00000200: 1494 193d d578 2dbd d6ec 273c 0d99 ee3d
00000210: 1c71 2a3d 2b75 1f3d 58ec 73bb 680f 48bd
00000220: 119c 28bb f04d bebd c78e b83d d979 933d
00000230: 8fb6 50bd fe70 5d3d 55e1 603c 5c2d 703d
00000240: 33e2 083d cd08 94bc 0220 1ebb 1db9 5d3d
00000250: ba35 7a3c 51f2 44bc cf61 453d 2b38 a73b
00000260: f7db 56bd 994b afbd fada 94bd 14c9 e43d
00000270: 2d2c bfbd 75ad 6ebd 0b10 613d 2edc 923c
00000280: 9bbb 113d 1014 c2bc b349 643d c5d5 a4bd
00000290: 6818 09bd cedf d03c d3ed c3bc 6b98 583d
000002a0: f931 4ebd 816e 06be 3b06 edbd a6ac 49bd
000002b0: c750 64bc 62d5 8b3c 9187 76ba 4e64 2c3d
000002c0: 57b4 0ebd 227c 123c eec0 9d39 6b54 ac3d
000002d0: ffb8 e3bd aade 993a d213 b4bd 7b55 583d
000002e0: dad7 213c bd5a 9ebb fb83 b0bd 6d3b 16bd
000002f0: 67f2 8abc f7ae 91bd c2a0 20bd 5046 be3d
00000300: cead de3d fb9e 663c c5ae 79bc fcb8 0a3e
00000310: ecf8 9fbc 07dd b73d e98f 69bd 43d7 ad3d
00000320: a888 a03d 0c16 dd3d 11aa 09bd 744e 163d
00000330: f387 72bd f56e 75bd f3b2 14be ebaf cb3b
00000340: d68e 443d ddfd 5e3d dd8c e9bb 40d4 a73c
00000350: 3217 0f3e ef18 2b3e ec6a f83d 57c5 ec3d
00000360: fd32 73bb 0958 0abc ffc2 5cbc bb69 37bd
00000370: e547 0d3d de59 e63d 6b22 f0bd 13cc 70bd
00000380: 94cd cebc b5c0 033e 5eb8 b33d 888a 69bd
00000390: a832 a23b 9046 f63d e447 88bd 6b77 80bd
000003a0: 176a 0e3d 2f5a 32bd d7a2 e53c fda3 7e3d
000003b0: 4be0 b0bd e74b c43d b3a8 dfbc 7621 37bd
000003c0: 4e8a d83d 1127 61bb 417c 1a3e fc9f 223e
000003d0: c919 023e 8dd2 9fbd aa3c c2bd b07a f33d
000003e0: aed4 f0ba 3e2f 6e3d 467d ba3c 0f8c 67bb
000003f0: 2229 85bc 00e9 913c fbab 923c ee14 033d
-0.018753188 0.16753861 0.13427265 -0.031707603 -0.07848542 -0.09630809 0.0755781 0.15013956
-0.04791943 -0.040094584 -0.05874096 -0.04822818 0.109376274 0.015671344 0.042020224 0.008222599
0.09628013 0.033221923 0.17733715 0.043747917 -0.011946037 0.14192617 0.1275365 0.049265586
-0.056929935 -0.028421791 -0.07744074 -0.063711315 0.055831276 0.118170165 0.114631504 0.06446649
0.06454438 0.15060516 -0.004895018 -0.07657787 -0.103561625 0.050680142 0.0421401 0.10640911
0.11522192 -0.026040817 0.17000277 -0.097409084 0.14875326 -0.08077102 0.04384546 0.07907341
-0.057143692 -0.0014106248 -0.056347366 -0.01842063 0.060981404 -0.07235478 0.13724564 -0.08029128
0.05116992 0.09726276 0.08548535 -0.033127587 0.056587078 -0.014428522 0.016937828 -0.0152751515
-0.07924182 -0.1154312 -0.022966923 -0.060369954 0.0852123 0.010845428 -0.119194396 -0.092270695
0.010798976 -0.1071814 -0.08487517 0.048626 0.07202526 -0.13206722 -0.052234616 -0.09370638
-0.030815346 0.011798901 -0.018027963 0.04113533 -0.14120921 -0.12365122 -0.089287594 0.11779059
-0.05260518 -0.05415047 -0.060278457 0.091429844 -0.103465974 -0.115672804 -0.024347281 -0.09547458
-0.029101701 -0.013849107 -0.052306216 0.09446872 0.055855572 -0.019753143 -0.041602213 0.023004577
0.11920269 -0.057817016 -0.13802627 -0.11707645 -0.04385353 -0.010558661 -0.009557156 -0.040156793
0.036313377 -0.02466092 0.110930026 -0.05873412 0.008460102 -0.030839667 0.057499416 0.04615764
0.006883404 -0.057436626 -0.10762493 0.120044105 0.018634092 -0.07066751 0.1360487 0.09871211
0.037494734 -0.042351563 0.010249337 0.11650286 0.041611776 0.0389301 -0.003721973 -0.048842818
-0.0025727788 -0.09292209 0.090116076 0.07200975 -0.05095535 0.054062836 0.013725598 0.058637008
0.033418845 -0.018070603 -0.0024127965 0.054131616 0.0152715985 -0.012020663 0.04818898 0.0051031313
-0.05245587 -0.08559341 -0.07268329 0.11171165 -0.09334598 -0.05827089 0.05494694 0.017927255
0.035579305 -0.023691207 0.055734348 -0.08048586 -0.03347054 0.025497343 -0.023917114 0.052879732
-0.050340626 -0.13128091 -0.11573454 -0.049236916 -0.013935274 0.017069522 -0.0009404356 0.042087846
-0.034839954 0.008940728 0.00030089117 0.08414539 -0.111192696 0.0011739333 -0.08792843 0.052815896
0.009878123 -0.004832594 -0.08618923 -0.036677767 -0.01696129 -0.0711345 -0.03921581 0.09290755
0.10872994 0.01407599 -0.015239422 0.13547128 -0.019527875 0.089777045 -0.05702201 0.084883235
0.07838565 0.10795221 -0.033609454 0.036695912 -0.059211683 -0.05992027 -0.14521389 0.0062160394
0.04798778 0.05444132 -0.007127388 0.02048695 0.13973692 0.1670873 0.12129769 0.11561077
-0.0037109249 -0.008443841 -0.013474225 -0.044778567 0.034492392 0.112476096 -0.11725315 -0.05878837
-0.025244512 0.1286648 0.087753996 -0.05701688 0.0049498864 0.120251775 -0.06654337 -0.06272777
0.034769144 -0.043543037 0.02803175 0.06216811 -0.086365305 0.0958479 -0.027302122 -0.044709645
0.105732545 -0.003435556 0.15086462 0.15881342 0.12705149 -0.07803831 -0.09484227 0.11888635
-0.001837393 0.058150522 0.022764813 -0.0035331284 -0.016254965 0.017811298 0.017904272 0.032002382

lstm.bias_hh_l1 f4 [256]
00000000: a338 d3bc 5a65 583c 364b b0bd 110b ec3d
00000010: 07ce 81bc aa83 883c b0b2 053e 4c8b c53d
00000020: bf54 893d 5495 943d 0baf 733d f71d 1b3e
00000030: 8bb1 293d c564 f83d 3772 043e 71c3 353d
00000040: 33dd a1bc 86d7 9fbd c87a 15bc 217c 6cbd
00000050: b5e6 1f3e 919e 963c 188e 3b3e abcc aebd
00000060: 03e5 72bd c493 c83c 2ce3 e63c 7be3 94bd
00000070: 8099 1ebd 9b4a e1bd 64c9 d1bd 7564 573c
00000080: c2f5 913d 9975 ae3d 7a7c d6bd a3f8 d8bc
00000090: 27fb 3bbd c254 d5bd 7e83 33bd e1ab 263e
000000a0: bfc7 313e 3b15 25bd e112 633d 202c b8bd
000000b0: cfb2 2dbd 0482 1b3d 2612 9cbb f7e9 dbbb
000000c0: 61ce 213d f028 0bbd c61a 443d b4ce 81bc
000000d0: 4fba b2bd eb64 09bd 553f 0bbd ccb6 5bbc
000000e0: 7ebc 113d 1efe 2a3d d7b1 ee3d 76cb e33d
000000f0: 99f5 1d3e fe30 2bbd 75bd 06bd cbac f43d
00000100: b27a f4bc b3c9 a0bd b04a acbc f5e4 b93c
00000110: 671b dd3d 0b32 b53d 9d36 41bc 1788 083e
00000120: af0c 1dbd 1cf8 f0bc 27e0 013c 1b29 63bd
00000130: e051 6fbd 1da6 883d b660 98bd 07b3 373c
00000140: 090d ca3d 9509 ac3d 3d50 9b3c b188 263d
00000150: 9d11 953d bc1e d6bd 1ef9 af3d 97f5 b23d
00000160: 4e22 e93d aedd 043e d41c c13d 2f7a f6bd
00000170: 966d f53d 34ca 80bd bc17 613d 2d78 93bd
00000180: 96cb 473d 274c ad3d 5108 6e3d f72f 1fbd
00000190: ec7e 54bd 1733 bf3d d507 fd3b 69ff e738
000001a0: 262a adbc 4acd f6bb 1e32 d7bd 461b d43d
000001b0: 5ac5 62bd 19cd e43d 3ec8 fd3c b76e 343d
000001c0: cd40 9e3c abda f83c e219 41bb a865 183d
000001d0: de8e bbbc 5c48 efbd d890 5e3d 8203 b03c
000001e0: 8b64 c33d 7884 cfbd 1327 6cbd 456f ae3d
000001f0: 0dc4 46bd 0868 08bd 2a52 fdbc 7192 233d
00000200: ca5f 443b 92a7 82bd a022 86bc f848 02be
00000210: 384c 8bbd 4568 48bd 8385 e6bc 958f 213d
00000220: 4942 273d 8eb9 a3bd 6541 8cbd 6b20 b9bd
00000230: c0cb b53d 8873 e5bc c4ff 663d 1f7c c6bc
00000240: 282c 66bc 4eb3 7abd e482 063d 705b 5c3d
00000250: 528b babc 8abc 873d 76ac 9e3c a831 3a3d
00000260: 0902 bd3c 0165 583d 173d 9a3d cc04 d8bd
00000270: e6d8 4f3d fd60 48bd d3e8 8a3d d9ba 8d3c
00000280: 0ce2 8c3d a1d3 7cbc 24f4 adbd 5c4f 183d
00000290: 433f 143c 34bf 193d 08b2 8abd fdeb 37bd
000002a0: 15fc a1bb bbcc d63d 7567 9f3d 3cf8 18bd
000002b0: 4e3d 11bd 46f1 c73d f1b9 8bbd 78f3 a9bc
000002c0: 407e 4abd 7e88 d23d ef10 5e3d 4b82 aabc
000002d0: 8856 933d 4f56 28bd 7057 77bd c1ce 51bd
000002e0: 8ba3 16bd 44f1 80bb 220f 8b3d 06fb 3e3d
000002f0: efa2 213d d3be 663d 03aa 50bc 1290 aebd
00000300: 8228 593d 5c06 84bc 0449 ca3d 86f5 cc3b
00000310: c0dd 803d 8d70 a3bd 452f 8ebd 88e0 a53d
00000320: ef43 003e 580c 9cbd 3998 10bd d17c 453d
00000330: b8bd 733d 7062 adbd bf0a c4bd 7e92 83bd
00000340: f0c4 223c bd5d a43d 2ee6 00bd da5f 0b3e
00000350: 5780 173e 6a80 183e 05f2 bc3c d564 e1bc
00000360: b630 82bd 231d d2bd dd9c efbc 39c9 873d
00000370: c38e af3d 5277 c5bd b3c6 78bd f8b9 623d
00000380: f418 b63c 9a01 9ebd 4209 cabd 97af 823d
00000390: b751 7d3c 8d42 18bd 6520 ac3d ad90 cc3d
000003a0: fa34 823d aab9 01bd e51e 033e 5a07 de3d
000003b0: e01c f03d 62db a83d ad4f 24bd 8e42 483d
000003c0: 4c43 083d debc a43b 0a40 5f3d 96d9 0b3e
000003d0: 79d3 133e 54c4 ad3c e3ab d5bd 2cef 8bbc
000003e0: e060 e539 7d8b 88bd 2745 3ebd 25d0 593d
000003f0: e34c 16bc bcd0 16bd 01e2 b0bd b67c 923d
-0.025783842 0.013207758 -0.08608095 0.11525548 -0.015845312 0.016664345 0.13056445 0.096457094
0.06705617 0.072550446 0.059493106 0.1514815 0.041429084 0.12128595 0.12934195 0.04437584
-0.019758796 -0.0780478 -0.009123512 -0.057735566 0.15615351 0.018386157 0.18315923 -0.08535131
-0.059300434 0.024484523 0.028184496 -0.07269951 -0.038720608 -0.11000558 -0.1024349 0.013146509
0.07126953 0.08518524 -0.10472961 -0.026485747 -0.045893814 -0.10416557 -0.043826573 0.16276504
0.17361353 -0.04030345 0.055437926 -0.08992791 -0.042406853 0.03796579 -0.0047629056 -0.0067112404
0.03950346 -0.033974588 0.047877096 -0.015845634 -0.08726942 -0.03354351 -0.033995945 -0.013410281
0.03558015 0.04174625 0.11655014 0.111227915 0.1542572 -0.04179477 -0.032895524 0.1194702
-0.029843662 -0.07850971 -0.021031708 0.022692183 0.10796242 0.088474356 -0.011792806 0.13333164
-0.038342174 -0.029415183 0.007926977 -0.055459123 -0.05842769 0.066723086 -0.07440321 0.011212117
0.098657675 0.08400265 0.018959159 0.040657703 0.0727875 -0.10455081 0.08592437 0.08738249
0.11383496 0.12975189 0.09429327 -0.120350234 0.119837925 -0.06288567 0.054954275 -0.07200656
0.04877814 0.084617905 0.0581134 -0.038864102 -0.051878855 0.093359165 0.007721881 0.00011062512
-0.021138262 -0.0075317966 -0.10507606 0.103567645 -0.05536399 0.11171932 0.030979272 0.0440509
0.019318009 0.030377707 -0.002946489 0.037206322 -0.022895273 -0.11683723 0.054337353 0.021486048
0.095406614 -0.10132688 -0.05765445 0.08517317 -0.048526812 -0.033302337 -0.030922968 0.03993458
0.0029964321 -0.06379618 -0.016373932 -0.12723148 -0.06801647 -0.048927564 -0.028139835 0.03944357
0.0408347 -0.07994376 -0.068484105 -0.09039386 0.08876753 -0.028009191 0.05639626 -0.024229107
-0.014048614 -0.061206155 0.03283967 0.05379814 -0.022771511 0.06627758 0.019369345 0.045457512
0.02307226 0.0528307 0.07531183 -0.1054779 0.05074396 -0.04892062 0.06782689 0.01730101
0.068790525 -0.015431316 -0.08493832 0.037185058 0.009048286 0.03753586 -0.06772238 -0.04490279
-0.0049433806 0.10488268 0.07783405 -0.03734611 -0.035458855 0.09762816 -0.06822575 -0.020745978
-0.049436808 0.1027994 0.054215368 -0.020814082 0.07194239 -0.041097935 -0.06038612 -0.051222567
-0.03677706 -0.003935011 0.06789996 0.046626113 0.039462026 0.056334328 -0.012735846 -0.08523573
0.053017147 -0.016116314 0.09877208 0.0062548546 0.062922955 -0.07980452 -0.0694261 0.080994666
0.12525915 -0.07619542 -0.03530142 0.048214737 0.0595071 -0.08466041 -0.09572362 -0.064244255
0.009934649 0.08025692 -0.031469516 0.13610783 0.14795052 0.14892736 0.023064623 -0.0275139
-0.06356947 -0.10259464 -0.029249603 0.06630177 0.085721515 -0.09641899 -0.06073637 0.055353135
0.022228695 -0.07715149 -0.09865047 0.06381147 0.015461377 -0.037172843 0.08404616 0.09988532
0.06357761 -0.031671204 0.12804754 0.10841246 0.117242575 0.08244969 -0.040115047 0.048891596
0.033267304 0.0050273975 0.05450443 0.13657221 0.14436139 0.02121178 -0.104331754 -0.01708182
0.0004375046 -0.0666723 -0.046452668 0.053177018 -0.009173605 -0.03682016 -0.08636857 0.07152693
