data/models/MSFT/predict_t8/model.pth (torch, 615602 bytes, 27 tensors)

lstm.weight_ih_l0 f4 [256, 1]
-0.02311155 -0.032233726 -0.037151624 -0.17199816 -0.017590333 0.022267291 -0.1534263 0.04822184
-0.02402888 -0.016831527 0.03326027 -0.06867538 -0.1439037 -0.0034119247 -0.13831723 0.14026232
-0.028452363 -0.08953056 0.06323124 0.13617301 -0.06307846 -0.06857977 -0.1362329 0.05066688
-0.083487436 0.011321741 -0.04165903 0.059177242 -0.22925979 0.055487618 -0.04487136 -0.018834785
-0.083292864 0.11597195 -0.0102441 -0.058340825 -0.062843725 -0.028470267 -0.09445203 -0.13864836
-0.019160658 0.056316502 -0.15293391 -0.113933094 -0.038852204 -0.16011417 -0.05986561 0.048784412
-0.12903512 -0.16787384 -0.06768177 -0.10282532 0.031030899 -0.12722684 0.038699046 -0.06346786
0.079104535 -0.121766105 0.022388557 0.032758374 -0.009781932 -0.080801345 0.017738186 0.022382079
-0.06032513 -0.0055918735 -0.056962185 -0.14787865 -0.028588636 -0.02923482 0.04370092 0.18662652
0.036401954 -0.091218755 -0.058408707 -0.018683 0.024120117 -0.0864076 0.05680925 -0.010607507
0.061426453 0.07777235 -0.07844185 -0.028443286 0.054998107 -0.110120066 -0.026514927 -0.09617764
0.14838085 -0.13557447 -0.020120015 -0.012218923 0.06279365 -0.13507524 -0.001310061 -0.12981494
-0.09541028 0.15813604 0.107181236 -0.1331257 -0.030088589 -0.08654575 0.04481321 -0.014696494
0.017013485 0.17639405 -0.11539315 -0.025939612 -0.039948862 -0.13990146 -0.054564398 0.2134857
-0.18662564 0.04129361 0.031245098 -0.09562302 -0.04655635 0.061656836 0.029452316 0.020150628
0.05651869 0.033443276 -0.054166447 0.024814755 -0.00609702 -0.10294782 -0.14924373 0.004616554
-0.14712717 -0.055783685 0.12597623 0.15987086 0.15003331 -0.112404555 0.03868062 0.1668889
0.12000646 -0.17110294 0.04460237 -0.18097372 -0.1986686 -0.020084657 0.13365038 -0.090585805
0.14885743 -0.10276605 -0.12418065 0.04654047 -0.15808837 -0.19284855 0.1386786 -0.062365763
0.08407207 0.20668605 0.11014088 -0.13345751 -0.18131681 0.0114941215 0.047993466 0.08732562
-0.179351 0.10916333 0.13421448 -0.042340957 0.19925332 0.02566449 -0.19671825 0.20543535
0.19221938 -0.1668193 0.0696413 0.16541053 0.1503899 -0.15216538 0.008678755 -0.22855422
0.2162173 -0.15246783 -0.12145065 0.0362795 0.1831501 0.1765489 -0.15567684 0.077896506
0.061045293 -0.18853314 0.17550096 0.14995065 0.12420048 -0.00418935 -0.10798867 -0.011305189
-0.08087573 0.007288382 -0.027753137 -0.017904812 -0.0606468 -0.085719876 0.019116733 0.020823386
-0.06294019 0.048816368 0.015641527 0.040021002 -0.18959767 -0.110648856 -0.15984851 -0.027384784
-0.06927814 0.054298654 -0.08832456 0.04939384 -0.17206386 -0.18813947 -0.13128991 -0.08455402
0.076202266 -0.09257638 -0.15788163 0.067636065 -0.2563062 -0.16844276 0.016940944 -0.062858246
-0.013628214 -0.08230495 0.04541365 -0.115406185 0.0145038515 -0.007627511 -0.09678837 -0.04456788
-0.05584197 0.19965136 -0.11020209 0.008636535 -0.05448786 -0.1686969 -0.108328275 -0.06909014
-0.109283924 -0.15247768 0.09660808 -0.009959032 -0.13347746 -0.14336745 -0.19669934 -0.16589297
-0.109302975 -0.15996541 -0.17244057 -0.1602341 0.064291134 -0.048773978 0.019429993 0.09691617
00000000: 6f54 bdbc 8307 04bd 4d2c 18bd 4920 30be
00000010: 9a19 90bc e569 b63c c91b 1dbe 4484 453d
00000020: 37d8 c4bc 45e2 89bc ec3b 083d ada5 8cbd
00000030: 7e5b 13be 999a 5fbb 08a3 0dbe eda0 0f3e
00000040: ee14 e9bc cc5b b7bd 617f 813d f070 0b3e
00000050: 482f 81bd 8d73 8cbd a380 0bbe 1388 4f3d
00000060: 76fb aabd d37e 393c a9a2 2abd d663 723d
00000070: 14c3 6abe fc46 633d 08cb 37bd 684b 9abc
00000080: 7395 aabd b482 ed3d dfd6 27bc caf6 6ebd
00000090: 36b4 80bd 7a3a e9bc 1170 c1bd d6f9 0dbe
000000a0: d0f6 9cbc 22ac 663d b59a 1cbe c155 e9bd
000000b0: 7d23 1fbd f8f4 23be a435 75bd 2ad2 473d
000000c0: c821 04be 1fe7 2bbe bd9c 8abd 1596 d2bd
000000d0: 8334 fe3c c147 02be e482 1e3d 70fb 81bd
000000e0: 8f01 a23d 8260 f9bd 3568 b73c a52d 063d
000000f0: 6644 20bc 2d7b a5bd ac4f 913c 9f5a b73c
00000100: 7c17 77bd 093c b7bb 2e51 69bd 806d 17be
00000110: b732 eabc dc7d efbc bcff 323d 061b 3f3e
00000120: 371a 153d e6d0 babd f83d 6fbd 170d 99bc
00000130: 8d97 c53c 78f6 b0bd d1b0 683d 1ccb 2dbc
00000140: 4e9a 7b3d 1c47 9f3d 1fa6 a0bd e501 e9bc
00000150: b245 613d a186 e1bd d535 d9bc c8f8 c4bd
00000160: 26f1 173e 09d4 0abe bbd2 a4bc e131 48bc
00000170: f599 803d 2a51 0abe 5ab6 abba 35ee 04be
00000180: 7766 c3bd 6aee 213e d681 db3d 1a52 08be
00000190: 587c f6bc e63e b1bd 0e8e 373d 90c9 70bc
000001a0: dd5f 8b3c a4a0 343e 3e53 ecbd 4f7f d4bc
000001b0: 6ba1 23bd 5442 0fbe eb7e 5fbd ff9b 5a3e
000001c0: cb1a 3fbe 7d23 293d b8f5 ff3c 00d6 c3bd
000001d0: dfb1 3ebd e18b 7c3d fc45 f13c ee12 a53c
000001e0: 2480 673d d1fb 083d a3dd 5dbd 5048 cb3c
000001f0: 83c9 c7bb 4fd6 d2bd 59d3 18be 7646 973b
00000200: 81a8 16be 6f7d 64bd eaff 003e 30b5 233e
00000210: 55a2 193e 5c34 e6bd 926f 1e3d ece4 2a3e
00000220: f2c5 f53d 9c35 2fbe fab0 363d 2d51 39be
00000230: c86f 4bbe 9488 a4bc a5db 083e 0d85 b9bd
00000240: 156e 183e 0277 d2bd 6d52 febd 38a1 3e3d
00000250: ebe1 21be 177a 45be c301 0e3e 3e73 7fbd
00000260: fa2d ac3d 82a5 533e 8b91 e13d 16a9 08be
00000270: 1dab 39be d751 3c3c cc94 443d c6d7 b23d
00000280: caa7 37be 0691 df3d 856f 093e b66d 2dbd
00000290: 1009 4c3e 563e d23c 8270 49be a55d 523e
000002a0: 28d5 443e aed2 2abe 19a0 8e3d 6161 293e
000002b0: cfff 193e 3ed1 1bbe 5631 0e3c 1e0a 6abe
000002c0: 1168 5d3e 8720 1cbe 1ebb f8bd d099 143d
000002d0: b38b 3b3e 3cc9 343e c069 1fbe 3488 9f3d
000002e0: a10a 7a3d d50e 41be 86b6 333e aa8c 193e
000002f0: d25c fe3d d146 89bb 2a29 ddbd 6639 39bc
00000300: 2da2 a5bd 61d3 ee3b 8c5a e3bc 1dad 92bc
00000310: c768 78bd e78d afbd b29a 9c3c ce95 aa3c
00000320: c9e6 80bd acf3 473d a922 803c 10ed 233d
00000330: e425 42be de9b e2bd 54af 23be 0e56 e0bc
00000340: b3e1 8dbd 4468 5e3d 82e3 b4bd 3251 4a3d
00000350: 8231 30be a2a7 40be dd70 06be a82a adbd
00000360: ef0f 9c3d af98 bdbd b9ab 21be c784 8a3d
00000370: 913a 83be 427c 2cbe bcc7 8a3c d3bb 80bd
00000380: df48 5fbc 7f8f a8bd aa03 3a3d 145a ecbd
00000390: 90a1 6d3c 33f0 f9bb fb38 c6bd cf8c 36bd
000003a0: 8dba 64bd 6871 4c3e a2b1 e1bd 4180 0d3c
000003b0: aa2e 5fbd e1be 2cbe 37db ddbd 227f 8dbd
000003c0: 40d0 dfbd 1c23 1cbe 75da c53d 352b 23bc
000003d0: 51ae 08be ebce 12be 8d6b 49be d9df 29be
000003e0: 3dda dfbd f9cd 23be 4394 30be 6814 24be
000003f0: 12ab 833d 39c7 47bd a62b 9f3c fc7b c63d

lstm.weight_hh_l0 f4 [256, 64]
0.10618208 0.0806651 -0.04524235 -0.036537092 -0.05128988 -0.027605245 -0.10673138 -0.0847688
-0.10629325 0.117614016 -0.01004286 -0.018985778 -0.088064946 -0.04275441 -0.039076354 -0.04105268
0.07413551 0.04810711 0.13169782 -0.09427557 0.14561293 -0.084972166 -0.07588127 0.04705791
-0.09166332 -0.01930528 0.09018674 -0.061960064 0.11866401 -0.07686435 0.077944584 -0.1383626
-0.049787037 0.13549706 0.046687346 0.04959022 -0.040284906 0.11603714 0.047017444 0.09225681
0.034167703 -0.021374863 0.044354413 0.016270598 -0.022514068 0.15402767 -0.0043679504 -0.008516686
0.044881634 0.121544294 0.12896155 0.08512737 0.10432111 0.06481194 -0.004638811 -0.029431235
-0.0050193677 -0.08902302 -0.07356687 0.0077880593 0.01648303 0.02249905 -0.018773217 -0.00754921
0.06488091 -0.036210474 -0.05738323 -0.12106706 0.110662386 -0.11527206 -0.0042241504 0.061236423
-0.050946508 0.034468785 0.03602903 -0.09911791 -0.087746255 -0.072837085 -0.085983485 -0.12546389
-0.02081637 0.037182 0.089864604 0.09298108 -0.090881385 0.11065265 0.05271739 0.04898994
-0.037349798 0.011168316 -0.03533423 -0.08130966 -0.065629005 -0.11189693 0.025653128 0.013697726
-0.007023234 -0.014059202 -0.14026536 -0.062123932 0.07088134 0.09140487 -0.022174204 -0.03339546
0.05878172 0.08916065 -0.020671923 0.07127057 0.08553804 0.008280408 -0.038693838 -0.0864303
0.027298592 0.10143138 0.015223349 0.066892624 -0.057073034 0.07540405 -0.09726671 0.017861813
-0.11120019 -0.09544106 -0.008709939 0.0068765706 0.112340234 -0.009859703 -0.03255594 0.07341706
0.0015160564 0.07933687 0.02656707 0.10782775 -0.12032845 -0.06501059 -0.048592467 0.014566833
0.03795421 0.0665939 -0.013554049 0.09345139 0.05498324 0.014955206 0.017378045 0.05433185
-0.052824505 0.06793093 0.056400813 -0.025685329 -0.013672528 -0.10636123 0.043161064 -0.056958146
-0.09656625 0.072556175 0.0043673827 0.03731959 0.11532402 -0.13249707 0.0039886893 0.020097291
-0.09748445 -0.044266097 0.028934916 0.10501777 -0.123688735 -0.030950561 0.026644789 0.095582746
0.06798406 -0.115803495 -0.12528895 0.04143485 -0.07244677 0.06759398 0.06601527 0.030669788
-0.032166105 0.0038428893 -0.048449922 0.024158277 0.040255196 -0.042664193 0.11312488 -0.0011757687
-0.0040889876 -0.0149457585 -0.09776968 0.09472294 -0.12004692 -0.0038515434 -0.11237054 0.037930354
-0.0023286515 -0.035377003 0.06491323 -0.10421158 0.07525029 -0.015702173 -0.051539477 -0.10886013
0.03134411 -0.099116385 -0.11274476 -0.017967345 0.11592984 0.12563199 -0.12947893 -0.048658554
-0.1295631 -0.11299627 -0.0181035 -0.03653494 0.029233478 0.01213712 -0.08341153 0.10927538
0.064282045 -0.1083473 0.06406907 -0.0984677 -0.019647231 0.07040703 -0.08677654 -0.0415675
-0.08823443 0.11743468 -0.081301324 -0.047223136 -0.105066486 -0.08101462 -0.09075342 -0.058566023
-0.03715369 0.030988026 0.027995877 -0.116102144 0.09872049 0.047930814 0.020831203 -0.028275939
-0.092644565 0.021432776 0.063449904 0.04037964 0.033632606 0.095622785 -0.061953872 0.11478156
0.1125354 0.078535415 -0.073634736 0.09977189 0.029534029 0.009552136 0.11281628 0.03786233
00000000: fe75 d93d be33 a53d 0b50 39bd eba7 15bd
00000010: 5615 52bd 6524 e2bc fb95 dabd 449b adbd
00000020: 47b0 d9bd 9edf f03d cf8a 24bc 1088 9bbc
00000030: 655b b4bd 401f 2fbd 870e 20bd db26 28bd
00000040: 5cd4 973d f60b 453d cbdb 063e 8d13 c1bd
00000050: 8e1b 153e e305 aebd a467 9bbd ccbf 403d
00000060: fbb9 bbbd 1b26 9ebc d3b3 b83d d6c9 7dbd
00000070: 1e06 f33d 0e6b 9dbd 69a1 9f3d edae 0dbe
00000080: 7eed 4bbd bebf 0a3e 3b3b 3f3d 1d1f 4b3d
00000090: c901 25bd e1a4 ed3d 5d95 403d 23f1 bc3d
000000a0: 6ff3 0b3d 561a afbc f9ac 353d eb49 853c
000000b0: 6c6f b8bc 6eb9 1d3e 0621 8fbb 9289 0bbc
000000c0: ced5 373d 37ec f83d 7f0e 043e 4257 ae3d
000000d0: 4ea6 d53d 1fbc 843d 2b01 98bb c619 f1bc
000000e0: 8279 a4bb b351 b6bd 3aaa 96bd fa32 ff3b
000000f0: 6b07 873c ed4f b83c 4aca 99bc 5d5f f7bb
00000100: 48e0 843d 6f51 14bd ae0a 6bbd 02f2 f7bd
00000110: f6a2 e23d c213 ecbd be6a 8abb 0bd3 7a3d
00000120: 49ad 50bd 242f 0d3d 2d93 133d 55fe cabd
00000130: 4fb4 b3bd 9c2b 95bd 1c18 b0bd 9b79 00be
00000140: 1887 aabc 274c 183d ef0a b83d dd6c be3d
00000150: 0520 babd db9d e23d 31ee 573d ada9 483d
00000160: 1afc 18bd 50fb 363c a0ba 10bd ae85 a6bd
00000170: 8068 86bd 382a e5bd 8226 d23c 6d6c 603c
00000180: 2823 e6bb 9158 66bc b9a1 0fbe aa75 7ebd
00000190: 3c2a 913d 7a32 bb3d ada6 b5bc aec9 08bd
000001a0: 1ac5 703d dc99 b63d 2a58 a9bc 4ef6 913d
000001b0: 912e af3d 8caa 073c 6e7d 1ebd 5e02 b1bd
000001c0: 4ca1 df3c 41bb cf3d 5b6b 793c 00ff 883d
000001d0: 6ac5 69bd 706d 9a3d c533 c7bd f052 923c
000001e0: edbc e3bd 9a76 c3bd 22b4 0ebc db54 e13b
000001f0: a312 e63d 978a 21bc 6159 05bd af5b 963d
00000200: 69b6 c63a 5e7b a23d 2fa3 d93c ccd4 dc3d
00000210: c36e f6bd 4624 85bd e508 47bd baa9 6e3c
00000220: e075 1b3d 6262 883d cd11 5ebc 7163 bf3d
00000230: 1b36 613d ae06 753c 675c 8e3c 138b 5e3d
00000240: 825e 58bd 5f1f 8b3d 8a04 673d 0a6a d2bc
00000250: bd02 60bc ebd3 d9bd a8c9 303d f24c 69bd
00000260: 87c4 c5bd 5598 943d 431c 8f3b 6ddc 183d
00000270: 002f ec3d 50ad 07be 8db3 823b 13a3 a43c
00000280: eda5 c7bd 5e50 35bd eb08 ed3c 8e13 d73d
00000290: 8550 fdbd 088c fdbc 2c46 da3c e3c0 c33d
000002a0: 3a3b 8b3d 622a edbd bf4b 00be 97b7 293d
000002b0: f95e 94bd b66e 8a3d 0433 873d 353f fb3c
000002c0: 9bc0 03bd fcd8 7b3b 6d73 46bd 94e7 c53c
000002d0: a2e2 243d a6c0 2ebd 04ae e73d 401c 9aba
000002e0: eafc 85bb 0edf 74bc 783b c8bd 1afe c13d
000002f0: 29db f5bd 2d6a 7cbb 8722 e6bd dc5c 1b3d
00000300: 4a9c 18bb 7ae7 10bd 3af1 843d e16c d5bd
00000310: d31c 9a3d d8a1 80bc 0f1b 53bd 0ff2 debd
00000320: ae62 003d 88fd cabd bae6 e6bd 4130 93bc
00000330: a06c ed3d aca5 003e 2096 04be 314e 47bd
00000340: 30ac 04be 976a e7bd cb4d 94bc a9a5 15bd
00000350: 0c7b ef3c c5da 463c aad3 aabd c5cb df3d
00000360: 4ea6 833d 30e5 ddbd a536 833d 6fa9 c9bd
00000370: 3bf3 a0bc 9031 903d e6b7 b1bd af42 2abd
00000380: 41b4 b4bd 9881 f03d 4f81 a6bd 0c6d 41bd
00000390: 192d d7bd feea a5bd eedc b9bd ede2 6fbd
000003a0: 782e 18bd 9ada fd3c 9c57 e53c f6c6 edbd
000003b0: f82d ca3d 1a53 443d 33a6 aa3c f1a2 e7bc
000003c0: 6fbc bdbd ca93 af3c 06f2 813d 1f65 253d
000003d0: 58c2 093d e1d5 c33d 58c3 7dbd 9812 eb3d
000003e0: f678 e63d 2dd7 a03d cfcd 96bd 3455 cc3d
000003f0: 59f1 f13c 9080 1c3c 390c e73d 8815 1b3d

lstm.bias_ih_l0 f4 [256]
0.14235906 -0.02993594 0.017522698 0.11815562 -0.06209873 0.110867426 0.025742466 0.11508624
0.11043121 0.10888129 -0.08606427 0.065699324 -0.056475703 -0.07636538 -0.04409732 -0.054196704
0.06988089 0.060687102 0.10695816 0.027269468 0.14913522 0.009499054 -0.025400996 0.111713484
0.03977992 -0.07448117 0.06364492 0.13978216 0.25736785 0.09792727 0.02226816 0.07555805
-0.104508676 -0.047590554 -0.0028017948 0.104260445 0.15674159 0.114997596 -0.00015865733 0.10851772
0.17457888 0.046414796 -0.12137752 0.21903242 0.011805978 -0.032133646 -0.070951454 0.26496747
0.13281639 0.14432019 0.16038246 0.07201458 0.16290443 9.003601e-05 0.061962646 0.05232113
0.07219667 0.16046464 0.04660667 0.06077348 0.027267298 -0.021653466 -0.0036088384 0.03468541
0.07289024 -0.11104465 -0.03936582 -0.047361724 -0.08822541 0.03311617 0.08507466 -0.090261824
-0.045492493 0.1265333 0.03641558 0.08992537 -0.07545477 -0.100245684 -0.034525536 -0.07982365
0.091742516 0.09421674 -0.10552446 0.08461803 -0.08673819 0.08622044 0.104088575 0.021727609
0.057940904 -0.1022334 -0.06461511 -0.12840852 -0.007331059 0.032934573 0.0096833315 -0.047840584
0.11475129 -0.05071762 0.010879433 0.061908554 -0.06721064 -0.07490381 0.01318124 0.13673916
0.07515068 0.043309595 -0.046774127 0.080007605 0.110342465 -0.079001926 -0.08989302 -0.15477563
-0.09607526 -0.09385425 0.07860757 0.07091256 0.1015817 -0.084029324 -0.07704627 0.10005666
-0.051322196 -0.080547385 0.116439074 0.02120293 -0.055128653 -0.023579093 -0.09694528 -0.02432132
-0.12964891 -0.096621305 -0.039512407 -0.06847791 -0.07837615 0.066370465 -0.010016475 0.106626555
-0.0915486 -0.05327144 0.09631516 0.08632412 -0.037111714 -0.089310676 -0.01792802 -0.096114516
0.009688731 -0.045868386 -0.06756986 0.003585496 0.023635322 0.04188724 -0.06892984 0.09450491
-0.09353388 0.027502364 -0.012980244 -0.103479885 0.012430914 -0.08886245 -0.07187171 -0.061727412
0.011398422 0.079822056 0.0851781 -0.077092215 -0.09904591 0.082053855 -0.070617594 -0.045839775
0.13292582 -0.048929576 -0.062701315 -0.03026823 0.1220993 0.06744289 0.09619311 0.027949508
-0.060028672 -0.106075704 0.04291616 -0.093335204 0.01444011 -0.07217092 0.052600563 0.05071454
-0.11363482 -0.09881253 0.013315636 -0.08130247 0.09472762 -0.066076875 -0.029748732 -0.09735951
-0.039711144 0.021725629 -0.106276944 0.11485287 0.102702476 0.0043872795 0.018990044 -0.04638819
-0.02671436 -0.08709601 -0.08597072 0.18242551 -0.07099283 -0.082313545 0.005736601 -0.11056264
0.15534462 0.08761785 0.021547362 0.07626292 0.010396282 0.045322675 -0.0068331016 -0.11554243
-0.053499926 -0.07893164 0.10719681 0.05350452 0.37422857 0.09145919 0.0043581314 0.10926752
0.08869509 -0.05246952 -0.04799789 -0.13162763 -0.04441674 -0.047610573 0.07005877 0.2087562
0.15463543 -0.071552366 0.118912324 0.05828622 0.12875557 0.031343047 -0.027959326 0.23711143
-0.075664796 0.06831707 0.13511968 -0.07189755 0.017622784 0.07666082 -0.05992356 0.11417621
-0.01065301 -0.01909658 0.03244193 0.14404285 0.040763468 0.046466064 0.09840993 -0.065134354
00000000: 93c6 113e 373c f5bc c38b 8f3c 93fb f13d
00000010: 3d5b 7ebd 760e e33d dde1 d23c 56b2 eb3d
00000020: c229 e23d 27fd de3d 7742 b0bd 5e8d 863d
00000030: 1153 67bd 7465 9cbd 649f 34bd 5dfd 5dbd
00000040: b61d 8f3d 0a93 783d e10c db3d 3864 df3c
00000050: e7b6 183e eca1 1b3c c015 d0bc 0aca e43d
00000060: 45f0 223d 9589 98bd 4558 823d 0e23 0f3e
00000070: b8c5 833e 188e c83d b76b b63c 2ebe 9a3d
00000080: a508 d6bd 50ee 42bd 519e 37bb 8086 d53d
00000090: de80 203e dc83 eb3d 415d 26b9 8a3e de3d
000000a0: cec4 323e 711d 3e3d c794 f8bd 094a 603e
000000b0: dc6d 413c 929e 03bd ff4e 91bd d1a9 873e
000000c0: 0501 083e acc8 133e 4d3b 243e 617c 933d
000000d0: 6bd0 263e b7d1 bc38 8bcc 7d3d ae4e 563d
000000e0: d9db 933d d850 243e a3e6 3e3d 9ded 783d
000000f0: ab5f df3c 9c62 b1bc 4382 6cbb 4a12 0e3d
00000100: 7a47 953d 616b e3bd 0e3e 21bd 5efe 41bd
00000110: 86af b4bd d2a4 073d a03b ae3d 31db b8bd
00000120: 5656 3abd f291 013e 8128 153d cb2a b83d
00000130: 0888 9abd 9c4d cdbd a66a 0dbd 957a a3bd
00000140: 80e3 bb3d b5f4 c03d 351d d8bd 384c ad3d
00000150: cba3 b1bd 5894 b03d 642c d53d 19fe b13c
00000160: 7153 6d3d bf5f d1bd ed54 84bd 867d 03be
00000170: 6139 f0bb 67e6 063d d6a6 1e3c 7df4 43bd
00000180: b902 eb3d 47bd 4fbd a63f 323c d393 7d3d
00000190: bba5 89bd 2b67 99bd 21f6 573c 5a05 0c3e
000001a0: 9ae8 993d 6765 313d 3a96 3fbd 07db a33d
000001b0: 3bfb e13d c3cb a1bd d519 b8bd 817d 1ebe
000001c0: 1bc3 c4bd a836 c0bd 01fd a03d 9b3a 913d
000001d0: 110a d03d 9117 acbd 6fca 9dbd 82ea cc3d
000001e0: 3937 52bd 07f6 a4bd 9c77 ee3d c4b1 ad3c
000001f0: 95ce 61bd f128 c1bc 3f8b c6bd 813d c7bc
00000200: afc2 04be 64e1 c5bd c3d7 21bd 253e 8cbd
00000210: ad83 a0bd 3ded 873d 241c 24bc 065f da3d
00000220: d57d bbbd 2733 5abd e240 c53d b3ca b03d
00000230: 7402 18bd 84e8 b6bd c8dd 92bc b0d7 c4bd
00000240: 7cbd 1e3c 7de0 3bbd 1162 8abd a4fa 6a3b
00000250: dd9e c13c f491 2b3d 172b 8dbd ca8b c13d
00000260: b18e bfbd a34c e13c 17ab 54bc 43ed d3bd
00000270: 08ab 4b3c 84fd b5bd 7a31 93bd e2d5 7cbd
00000280: 72c0 3a3c bf79 a33d db71 ae3d 86e2 9dbd
00000290: 95d8 cabd da0b a83d f59f 90bd 7dc2 3bbd
000002a0: b51d 083e 616a 48bd 8c69 80bd 14f5 f7bc
000002b0: 330f fa3d 7f1f 8a3d e500 c53d 5ef6 e43c
000002c0: a0e0 75bd 383e d9bd dbc8 2f3d 8726 bfbd
000002d0: 3696 6c3c 59ce 93bd b073 573d 0dba 4f3d
000002e0: 5fb9 e8bd 395e cabd d329 5a3c e981 a6bd
000002f0: 8e00 c23d 5053 87bd 9db3 f3bc 6c64 c7bd
00000300: 27a8 22bd f2f9 b13c baa7 d9bd fb37 eb3d
00000310: ad55 d23d 2bc3 8f3b 0291 9b3c 8b01 3ebd
00000320: 13d8 dabc 655f b2bd 6b11 b0bd c1cd 3a3e
00000330: b064 91bd 0194 a8bd 19fa bb3b aa6e e2bd
00000340: a912 1f3e fd70 b33d 1884 b03c bc2f 9c3d
00000350: 2b55 2a3c 45a4 393d 36e8 dfbb 82a1 ecbd
00000360: bd22 5bbd e9a6 a1bd 008a db3d 8e27 5b3d
00000370: e39a bf3e f54e bb3d a8ce 8e3b a6c7 df3d
00000380: c5a5 b53d 48ea 56bd 6f99 44bd 65c9 06be
00000390: 54ee 35bd 4e03 43bd f97a 8f3d 2fc4 553e
000003a0: c058 1e3e 0c8a 92bd 4e88 f33d 88bd 6e3d
000003b0: 80d8 033e 9161 003d f50a e5bc 57cd 723e
000003c0: 25f6 9abd d2e9 8b3d d05c 0a3e 063f 93bd
000003d0: a85d 903c 5900 9d3d 6872 75bd 37d5 e93d
000003e0: f689 2ebc 6e70 9cbc d4e1 043d f87f 133e
000003f0: 98f7 263d 3353 3e3d 258b c93d 2965 85bd

lstm.bias_hh_l0 f4 [256]
0.052498046 -0.112199284 0.113521814 -0.011818744 0.06587657 -0.002132205 0.09612069 -0.032262016
0.06578063 0.11086135 -0.09343239 0.12790135 0.13221775 -0.018758984 0.08993735 -0.10862619
0.14586978 0.064184695 0.06984737 0.012880128 0.01632398 0.09328913 0.097416215 -0.048922356
-0.06338186 0.15537181 0.092276394 0.10962323 0.29759952 -0.09001903 -0.10597484 0.10265969
0.10856069 -0.098834224 -0.03673369 0.0025115267 0.10938073 0.10081198 0.15304698 0.018688858
0.17087972 -0.07737124 -0.020666331 0.114357464 -0.07018035 -0.016329939 -0.05001766 0.23594663
-0.02340732 0.11982131 -0.038783826 0.083966516 0.106642425 0.04892444 0.09003968 -0.00314149
-0.11256046 0.058211446 -0.031577043 0.13040441 -0.04818122 -0.10977575 -0.08708649 -0.04644105
0.017109768 0.110984616 -0.12857483 0.024395186 0.09436062 0.06253995 -0.11254877 -0.007684787
0.0016039761 -0.09723158 0.050958104 0.0095107965 -0.093358904 -0.054129392 0.08761256 0.08234776
-0.03154275 -0.05264303 -0.113812394 -0.09745228 0.0407877 0.1295665 0.06803574 -0.033201084
-0.1454813 0.08096979 -0.055838823 -0.030720623 -0.058900855 0.105688944 -0.0037977195 0.06830929
-0.047114763 -0.1078167 0.005801242 0.057685103 -0.0045180586 0.06720859 0.072868034 -0.07348896
-0.09106344 0.027285755 -0.047309943 0.06527736 0.06961428 -0.07554115 -0.11191184 -0.10945095
-0.046079013 0.026803365 0.015271558 -0.05819617 0.034031905 0.072516195 0.0043106596 0.052134898
0.025288206 0.03880495 -0.1181367 0.09035326 -0.07073274 -0.089928925 0.037556585 0.013277734
0.086896 0.101828784 0.09715265 -0.041786935 -0.046010498 -0.0051587312 -0.048747677 -0.023231324
-0.084274076 0.012271853 0.05438161 -0.063886866 -0.02409278 -0.013569703 -0.09522858 -0.043873627
0.041562967 0.07857814 0.01080842 0.0716839 0.03178447 -0.10446311 -0.08794905 0.034209628
0.07148864 -0.06462572 -0.06748775 -0.047186226 0.027216554 -0.095965594 0.07008682 -0.042031936
0.06675802 0.015497832 -0.07546667 -0.0027074546 0.12174222 0.013886003 -0.08409562 0.09684709
-0.10379888 -0.065554775 0.028587664 0.01324766 -0.034989305 0.0927481 -0.054753978 -0.09883538
-0.053825404 0.10010271 -0.081857495 -0.1070451 0.09547184 0.017888118 0.051540986 -0.11264608
0.10718233 0.019427681 0.037114993 0.035721686 -0.013783771 -0.06216116 0.07440517 0.0057803844
-0.080904625 0.021504272 -0.118181795 -0.07797759 0.007720456 0.07782749 0.08745307 -0.07936685
-0.09799611 -0.021321125 -0.07581129 0.039380256 0.06289786 -0.051004324 0.11699499 -0.08603417
0.13166517 -0.11555033 0.03644556 0.061718967 0.11657346 0.097315826 0.06386617 0.080007344
0.04714454 0.074919395 0.07671039 -0.073883735 0.24485672 0.07204204 0.014650695 -0.0019965447
0.102413885 -0.062189993 0.14738554 -0.09265642 0.05639791 -0.11766935 0.05925622 0.082443684
0.14685558 0.12587988 0.102611534 0.02529285 0.03751955 0.111877605 0.08441124 0.034573257
0.14529817 -0.059262827 0.094979614 -0.020506397 0.13162293 0.09609808 0.047523532 -0.02397888
-0.11027289 -0.012021055 -0.091111146 -0.07169264 -0.011376126 -0.12355452 0.060996857 -0.11060417
00000000: 3108 573d bdc8 e5bd 207e e83d 68a3 41bc
00000010: 4cea 863d 77bc 0bbb edda c43d 2d25 04bd
00000020: ffb7 863d 470b e33d 7b59 bfbd 92f8 023e
00000030: 1764 073e 71ac 99bc 1331 b83d 6877 debd
00000040: e35e 153e 4473 833d 230c 8f3d 2c07 533c
00000050: deb9 853c 5f0e bf3d 2782 c73d cf62 48bd
00000060: 59ce 81bd ca19 1f3e 68fb bc3d 2582 e03d
00000070: f75e 983e e65b b8bd 5609 d9bd 3e3f d23d
00000080: 1155 de3d 9969 cabd 1176 16bd 6d98 243b
00000090: 0103 e03d 8376 ce3d 59b8 1c3e 6019 993c
000000a0: 18fb 2e3e d074 9ebd 704c a9bc 3f34 ea3d
000000b0: b7ba 8fbd 5dc6 85bc 51df 4cbd fe9b 713e
000000c0: b5c0 bfbc e064 f53d cadb 1ebd a3f6 ab3d
000000d0: 5867 da3d fe64 483d b966 b83d 75e1 4dbb
000000e0: 1986 e6bd 206f 6e3d ee56 01bd bc88 053e
000000f0: ac59 45bd 1cd2 e0bd 675a b2bd f838 3ebd
00000100: c929 8c3c e74b e33d 1fa9 03be 6ad8 c73c
00000110: 2440 c13d f214 803d f87f e6bd aad0 fbbb
00000120: 823c d23a 5a21 c7bd 72b9 503d 2cd3 1b3c
00000130: f432 bfbd c8b6 5dbd 376e b33d f1a5 a83d
00000140: f832 01bd 38a0 57bd 7916 e9bd 1095 c7bd
00000150: 0111 273d 15ad 043e 5256 8b3d dcfd 07bd
00000160: 0df9 14be 7dd3 a53d 40b7 64bd d1a9 fbbc
00000170: 0642 71bd 7273 d83d 29e3 78bb bee5 8b3d
00000180: 69fb 40bd 01cf dcbd 5818 be3b 3747 6c3d
00000190: 390c 94bb a8a4 893d d63b 953d 6181 96bd
000001a0: 787f babd 6086 df3c 12c8 41bd 23b0 853d
000001b0: ee91 8e3d 52b5 9abd 0932 e5bd d227 e0bd
000001c0: 59bd 3cbd bb92 db3c 8f35 7a3c 1b5f 6ebd
000001d0: 0a65 0b3d 5f83 943d 6f40 8d3b 678b 553d
000001e0: 3629 cf3c f0f1 1e3d a7f1 f1bd 210b b93d
000001f0: 54dc 90bd a82c b8bd efd4 193d da8a 593c
00000200: 88f6 b13d 9c8b d03d f8f7 c63d c728 2bbd
00000210: 8175 3cbd 930a a9bb a5ab 47bd 9e4f bebc
00000220: e397 acbd e20f 493c 40bf 5e3d 1ed7 82bd
00000230: 395e c5bc 7653 5ebc 3407 c3bd d5b4 33bd
00000240: ee3d 2a3d 93ed a03d cd15 313c 02cf 923d
00000250: 6f30 023d c1f0 d5bd a21e b4bd 651f 0c3d
00000260: a368 923d 7d5a 84bd 0437 8abd 5846 41bd
00000270: 40f5 de3c 9c89 c4bd ae89 8f3d ae29 2cbd
00000280: 6eb8 883d 9eea 7d3c 458e 9abd 8d6f 31bb
00000290: fc53 f93d 1e82 633c 533a acbd c457 c63d
000002a0: 8294 d4bd 9541 86bd ad30 ea3c b70c 593c
000002b0: f250 0fbd b7f2 bd3d b545 60bd 346a cabd
000002c0: 0778 5cbd a602 cd3d e7a4 a7bd 763a dbbd
000002d0: bd86 c33d 1a8a 923c a41c 533d fdb2 e6bd
000002e0: 6982 db3d cd26 9f3c e405 183d e750 123d
000002f0: 53d5 61bc b39c 7ebd bd61 983d 6169 bd3b
00000300: 53b1 a5bd ba29 b03c 4c09 f2bd b7b2 9fbd
00000310: e1fb fc3b 0564 9f3d 981a b33d 168b a2bd
00000320: 2fb2 c8bd a4a9 aebc f342 9bbd 314d 213d
00000330: 98d0 803d e9e9 50bd 129b ef3d af32 b0bd
00000340: 3cd3 063e a7a5 ecbd f147 153d 07cd 7c3d
00000350: 11be ee3d 854d c73d 44cc 823d e4da a33d
00000360: a21a 413d 576f 993d 561a 9d3d 5b50 97bd
00000370: b8bb 7a3e c78a 933d 7809 703c 76d8 02bb
00000380: 5fbe d13d efba 7ebd 3cec 163e a6c2 bdbd
00000390: 7f01 673d a1fc f0bd a6b6 723d 3cd8 a83d
000003a0: 4f61 163e a8e6 003e ff25 d23d f332 cf3c
000003b0: 1aae 193d 1620 e53d cddf ac3d b09c 0d3d
000003c0: 0bc9 143e 94bd 72bd ac84 c23d 08fd a7bc
000003d0: 29c8 063e 12cf c43d 09a8 423d 5b6f c4bc
000003e0: c1d6 e1bd f6f3 44bc 7b98 babd 97d3 92bd
000003f0: ee62 3abc 270a fdbd d7d7 793d 7084 e2bd

lstm.weight_ih_l1 f4 [256, 64]
0.0022559147 0.12282656 0.025728751 -0.055839863 0.036867637 0.04890238 -0.117198646 0.03345175
0.09719554 0.07039817 0.04439545 0.13624743 0.035263434 -0.06245359 -0.061788287 -0.005011932
-0.08183964 -0.06776369 -0.0036645073 0.056292053 0.0746835 0.064441636 -0.058753647 -0.036003888
0.043159816 -0.06313915 -0.03436108 0.17879401 0.24529837 -0.1259835 -0.0056847385 -0.012508191
0.14005615 -0.027845072 -0.12449799 -0.006520369 -0.088053584 -0.013727709 0.13896404 -0.15268905
-0.13621031 -0.07197486 -0.123169184 -0.18223144 -0.14187483 -0.048363645 0.051467355 -0.054458752
-0.06947768 0.1610067 0.088821106 -0.1077762 -0.14839134 -0.17386506 0.121213 0.048244152
-0.025017604 0.1523793 0.033828456 -0.115603454 0.046325132 -0.044806153 0.11910895 -0.08351688
-0.07881006 -0.065899536 -0.07838499 0.014379174 -0.11826108 0.045417257 0.08789567 -0.038556565
0.04619767 -0.068170406 0.003961576 0.10760033 -0.0064990725 0.087819405 0.06464453 0.13793704
-0.063202575 0.1468987 0.07907241 -0.059701055 -0.03742213 -0.06416768 -0.04270594 0.07931145
0.054435473 -0.058350507 -0.10459534 0.0041017625 0.16188619 -0.14556623 -0.03521432 -0.13759257
-0.0821031 -0.09103421 -0.1514153 -0.041697446 -0.033102572 0.15032649 -0.053899605 -0.08842984
-0.04671438 -0.08647922 0.046880513 -0.19753782 0.051590938 -0.00056440715 0.11414552 0.14273661
-0.05182885 -0.067010075 0.06460978 -0.14854005 0.05504587 -0.13812256 -0.030283777 -0.1355474
0.08622612 0.078609236 -0.018003425 -0.07331751 0.042551182 -0.08524855 0.04868741 0.0573291
0.05484304 0.014964583 0.03761113 -0.15388831 -0.10112373 -0.027533546 -0.017665805 0.019506985
-0.095776446 -0.03212702 -0.037631102 0.14692709 0.00975012 -0.050458856 -0.15368658 -0.05296841
-0.17508167 0.13434042 0.15683289 -0.031493492 0.13940193 -0.029521286 -0.0298049 0.02154942
-0.07444978 -0.06020351 -0.16541854 0.04692578 0.12588562 -0.06138081 0.13159536 -0.018243669
0.087038726 0.0056959004 0.039776802 0.044553712 0.07025103 0.096208654 -0.07299927 -0.1804773
-0.055840347 0.044834178 -0.035421442 -0.064044476 0.031174917 0.15322946 0.06610651 -0.058051065
-0.09975613 -0.023238892 -0.029482722 0.050658695 0.007480866 0.021910949 0.1585863 -0.024056355
-0.07226497 0.11318558 -0.12520121 -0.17545605 0.07631669 0.058873072 0.003592292 -0.01886057
0.16300873 -0.072334744 -0.016260039 -0.09019094 -0.13893571 -0.030233812 0.06761609 -0.091897324
-0.13067053 0.09083682 -0.047832333 0.007315438 0.1466728 0.0033566754 -0.040661667 -0.09255369
0.0008303668 -0.045880534 0.07510156 -0.0780945 0.010623645 0.056025095 -0.01295669 0.058582112
-0.038098715 -0.08083824 -0.00649858 0.1031291 0.29284388 -0.13915576 -0.0020254166 -0.15219852
-0.014563042 0.036989085 0.026784377 -0.13797925 -0.048840754 0.04219023 0.015578152 -0.04364049
-0.046104673 -0.07347534 -0.11513234 -0.15384825 -0.123764776 0.13443482 0.09480702 0.110899515
-0.17355755 0.04387667 0.048599474 0.007914913 0.027599275 0.0069728103 -0.06900097 0.045539074
0.05288227 0.09725725 0.037538327 0.019263843 0.08564965 -0.14419119 0.10068898 0.010138709
00000000: f8d7 133b 7e8c fb3d 1ac5 d23c 57b8 64bd
00000010: 8502 173d dd4d 483d d805 f0bd b404 093d
00000020: 750e c73d ea2c 903d 01d8 353d 7284 0b3e
00000030: 6470 103d 56cf 7fbd b715 7dbd 223b a4bb
00000040: 8b9b a7bd b1c7 8abd 3b28 70bb 7f92 663d
00000050: aaf3 983d faf9 833d aaa7 70bd d078 13bd
00000060: 59c8 303d 194f 81bd 34be 0cbd c715 373e
00000070: 7f2f 7b3e d201 01be 0b47 babb 28ef 4cbc
00000080: e16a 0f3e 591b e4bc cdf8 febd d2a8 d5bb
00000090: 7055 b4bd 2fea 60bc 974c 0e3e 855a 1cbe
000000a0: b77a 0bbe 8e67 93bd 2040 fcbd e19a 3abe
000000b0: a347 11be f518 46bd 6fcf 523d 2410 5fbd
000000c0: 504a 8ebd f1de 243e d7e7 b53d c5b9 dcbd
000000d0: e6f3 17be af09 32be 853e f83d a99b 453d
000000e0: b8f1 ccbc 5209 1c3e b58f 0a3d 81c1 ecbd
000000f0: 6cbf 3d3d a886 37bd 65ef f33d e60a abbd
00000100: 2b67 a1bd 56f6 86bd 4f88 a0bd a196 6b3c
00000110: dd32 f2bd 7207 3a3d a502 b43d 7ded 1dbd
00000120: c539 3d3d ed9c 8bbd 1cd0 813b 905d dc3d
00000130: 2cf6 d4bb a9da b33d 5a64 843d 5e3f 0d3e
00000140: 5a70 81bd 9d6c 163e b7f0 a13d 1889 74bd
00000150: f347 19bd 586a 83bd 6cec 2ebd 0b6e a23d
00000160: bbf7 5e3d f100 6fbd 1536 d6bd 1468 863b
00000170: 7ec5 253e 500f 15be e43c 10bd 11e5 0cbe
00000180: ac25 a8bd 2570 babd 9d0c 1bbe f1ca 2abd
00000190: 9096 07bd 30ef 193e d5c5 5cbd b41a b5bd
000001a0: 9457 3fbd 041c b1bd c805 403d 5b47 4abe
000001b0: 0551 533d b9f4 13ba 20c5 e93d 8c29 123e
000001c0: 7d4a 54bd 943c 89bd 2252 843d e21a 18be
000001d0: c777 613d 0070 0dbe af15 f8bc f0cc 0abe
000001e0: 5297 b03d e1fd a03d eb7b 93bc 7e27 96bd
000001f0: 264a 2e3d cb96 aebd 736c 473d ebd1 6a3d
00000200: 18a3 603d 032e 753c 210e 1a3d e694 1dbe
00000210: f519 cfbd 088e e1bc e1b7 90bc 1dcd 9f3c
00000220: 7126 c4bd 9f97 03bd 1223 1abd 0e74 163e
00000230: f8be 1f3c f2ad 4ebd 0460 1dbe 67f5 58bd
00000240: 9c48 33be 8990 093e cd98 203e 52ff 00bd
00000250: 61bf 0e3e a0d6 f1bc 6829 f4bc 6988 b03c
00000260: 2079 98bd f597 76bd 7a63 29be 3f35 403d
00000270: 29e8 003e 726a 7bbd efc0 063e bf73 95bc
00000280: 5c41 b23d ada4 ba3b 00ed 223d f47d 363d
00000290: c6df 8f3d 0b09 c53d a480 95bd 0bcf 38be
000002a0: d9b8 64bd 0ba4 373d 1316 11bd c029 83bd
000002b0: 8a62 ff3c 2fe8 1c3e da62 873d f4c6 6dbd
000002c0: f14c ccbd 7d5f bebc c085 f1bc 7e7f 4f3d
000002d0: 0d22 f53b 977e b33c 7264 223e d511 c5bc
000002e0: a8ff 93bd d7cd e73d bf34 00be c0aa 33be
000002f0: ed4b 9c3d e424 713d a96c 6b3b 7b81 9abc
00000300: c3eb 263e 3d24 94bd c633 85bc 07b6 b8bd
00000310: 2a45 0ebe e6ac f7bc 4e7a 8a3d aa34 bcbd
00000320: 7fce 05be a808 ba3d d6eb 43bd 57b6 ef3b
00000330: 6531 163e abfb 5b3b d98c 26bd ca8c bdbd
00000340: f9ac 593a 3aed 3bbd d9ce 993d 02f0 9fbd
00000350: cc0e 2e3c 927a 653d 4c48 54bc ccf3 6f3d
00000360: 660d 1cbd 858e a5bd 0af2 d4bb 5935 d33d
00000370: a2ef 953e d97e 0ebe dabc 04bb eed9 1bbe
00000380: d399 6ebc de81 173d e96a db3c 6f4a 0dbe
00000390: 3e0d 48bd aacf 2c3d 813b 7f3c 5fc0 32bd
000003a0: 41d8 3cbd 3d7a 96bd 81ca ebbd 658a 1dbe
000003b0: 6378 fdbd 48a9 093e 2f2a c23d 491f e33d
000003c0: 12b9 31be 06b8 333d 3e10 473d 8dad 013c
000003d0: e017 e23c 2c7c e43b 6150 8dbd 2e87 3a3d
000003e0: 149b 583d cf2e c73d cac1 193d 35cf 9d3c
000003f0: 1569 af3d dba6 13be 0636 ce3d d41c 263c

lstm.weight_hh_l1 f4 [256, 64]
-0.07190582 0.104709506 0.016713735 -0.065494664 -0.08446052 -0.06537413 0.079422936 -0.09220924
0.06214767 -0.037309106 -0.07266712 -0.0034500677 -0.03527926 0.072279006 -0.044400815 -0.0009282045
-0.10309214 -0.098858036 -0.10519185 0.025947956 -0.04221983 0.08039 -0.031689815 -0.018491827
0.06069507 -0.11195104 -0.08477367 -0.061487276 -0.027504891 -0.06122389 0.062250797 -0.10723738
0.024031796 -0.02249584 -0.10407496 0.14060763 0.0856284 0.007935608 -0.012816355 0.071065225
-0.03484438 0.009693496 0.01301961 0.056789584 -0.022259897 -0.11809235 0.0515486 0.012466893
-0.011947076 0.016791837 -0.0540021 0.08456616 -0.06817363 0.027072012 0.078464605 0.029465798
-0.046143167 0.08572741 -0.042560432 0.045520104 0.05637366 -0.03733215 0.09968921 0.054776456
-0.03849122 -0.0068374868 0.14210539 -0.095474824 -0.02878318 0.007852495 -0.09745261 -0.09722679
-0.005011423 0.107632406 -0.034676235 -0.10541079 -0.07312357 0.056145407 -0.14280125 -0.09978482
-0.012389272 -0.06671775 0.064258166 -0.021196192 -0.19218478 -0.1323273 0.15272295 -0.09876322
0.036710285 -0.11645535 -0.007938201 0.0069774785 -0.09185449 0.13864848 0.06574764 -0.13800539
-0.061887935 0.029276993 -0.08124491 -0.058671173 0.042787332 -0.13577633 -0.121831514 -0.10915905
0.021595413 0.097168796 0.108818874 0.10300174 -0.085715614 0.030749803 0.044433974 -0.018174859
-0.005610607 -0.09008137 -0.06320902 0.035375427 0.09653493 -0.016488265 -0.08548142 -0.09720194
0.019953724 -0.07472094 -0.029135061 0.020027468 -0.14650156 0.0020562524 0.08537676 -0.016170522
-0.047979746 0.07382457 -0.04967828 0.0594828 0.11753561 -0.12436902 0.10761798 0.057530895
0.07354087 0.07004379 -0.07755317 -0.10039473 -0.05285003 -0.025753042 0.041671425 0.046962835
-0.058056004 -0.012277385 -0.08036586 -0.007682397 -0.109352365 0.037899055 0.09940248 0.016057065
-0.15045539 -0.12943287 -0.082295954 0.10631077 0.04016852 -0.091289535 0.044904232 -0.12774134
-0.07898133 0.08231818 -0.13592486 0.121419355 0.046001457 -0.0287085 -0.06295337 0.037755985
-0.08659412 0.02351184 0.1352918 -0.06800605 0.07691449 -0.020305209 0.0045525013 0.063650474
0.0902832 0.013164403 -0.07704604 -0.12789524 0.041305833 -0.06184751 -0.10060595 0.1524804
0.042635027 -0.0010271737 0.052127667 -0.11867263 -0.015221483 0.1307179 -0.055847354 -0.057073917
0.0456642 -0.050618175 -0.010833811 0.053553883 -0.0537976 0.019951494 0.02981415 -0.119357675
0.100447476 -0.06409852 0.0011957599 -0.0411837 -0.017332321 -0.08612625 0.072630316 -0.015987497
0.08024803 0.041343246 -0.02251506 -0.063582145 -0.10316287 -0.09076325 -0.12819307 -0.012468276
-0.031725522 0.02717973 -0.06627922 0.122106925 -0.048419345 0.03353269 -0.032298837 -0.0025615175
0.09784688 -0.1140629 -0.043596506 -0.012031125 -0.061146196 0.075184464 -0.13187781 0.13391422
0.08064321 0.061505605 0.038579095 0.054827433 0.15617909 0.0745078 -0.015330042 -0.041089416
0.09637601 0.03635534 -0.0771294 -0.062506534 0.06997257 0.037688557 -0.0061147753 0.017583743
-0.06310043 0.13639702 -0.034707967 0.055055752 0.088711426 0.13599883 -0.03403548 0.093862854
00000000: 5c43 93bd f071 d63d 3eeb 883c 1122 86bd
00000010: a3f9 acbd dfe2 85bd 7ea8 a23d 33d8 bcbd
00000020: 8e8e 7e3d 6fd1 18bd 80d2 94bd 881a 62bb
00000030: fc80 10bd 0407 943d a1dd 35bd c052 73ba
00000040: f921 d3bd 1576 cabd d36e d7bd cf90 d43c
00000050: b3ee 2cbd 83a3 a43d 2ecd 01bd 2c7c 97bc
00000060: 659b 783d 9646 e5bd d19d adbd 15da 7bbd
00000070: f051 e1bc e7c5 7abd b1fa 7e3d 469f dbbd
00000080: 54de c43c 3249 b8bc 4125 d5bd 72fb 0f3e
00000090: f15d af3d 5a04 023c b0fb 51bc a58a 913d
000000a0: fbb8 0ebd 78d1 1e3c 3450 553c 329c 683d
000000b0: 635a b6bc 67da f1bd a024 533d f041 4c3c
000000c0: abbd 43bc 098f 893c 4e31 5dbd 0631 ad3d
000000d0: 9e9e 8bbd 20c6 dd3c 0db2 a03d 4262 f13c
000000e0: 9e00 3dbd da91 af3d d953 2ebd 4a73 3a3d
000000f0: 11e8 663d 99e9 18bd db29 cc3d 475d 603d
00000100: f8a8 1dbd ff0c e0bb 1384 113e 4e88 c3bd
00000110: b4ca ebbc c0a7 003c 3c95 c7bd d71e c7bd
00000120: dd36 a4bb 616e dc3d ab08 0ebd 9de1 d7bd
00000130: cfc1 95bd baf8 653d 7e3a 12be fc5b ccbd
00000140: 60fc 4abc 51a3 88bd c999 833d a3a3 adbc
00000150: 16cc 44be cf80 07be 6863 1c3e 5f44 cabd
00000160: 865d 163d 2480 eebd 3a0f 02bc 55a3 e43b
00000170: 351e bcbd def9 0d3e b3a6 863d 4951 0dbe
00000180: 347e 7dbd 4ed6 ef3c bb63 a6bd 2f51 70bd
00000190: c541 2f3d f308 0bbe cd82 f9bd c88e dfbd
000001a0: dde8 b03c 6f00 c73d 6edc de3d 94f2 d23d
000001b0: ab8b afbd 03e7 fb3c 6600 363d 71e3 94bc
000001c0: 2fd9 b7bb 957c b8bd bb73 81bd d3e5 103d
000001d0: 1bb4 c53d 6612 87bc e210 afbd d011 c7bd
000001e0: fe75 a33c 4b07 99bd a7ac eebc a510 a43c
000001f0: 8104 16be 31c2 063b 03da ae3d 0b78 84bc
00000200: 6986 44bd 5631 973d 747b 4bbd 3da4 733d
00000210: 83b6 f03d 2fb5 febd d166 dc3d 84a5 6b3d
00000220: 989c 963d 1e73 8f3d 32d4 9ebd c19b cdbd
00000230: 4679 58bd 0bf8 d2bc a8af 2a3d 1a5c 403d
00000240: 22cc 6dbd 1627 49bc db96 a4bd 9ebc fbbb
00000250: 22f4 dfbd 0a3c 1b3d 8793 cb3d 1b8a 833c
00000260: fa10 1abe 0d8a 04be c88a a8bd 76b9 d93d
00000270: bf87 243d 02f6 babd 80ed 373d a0ce 02be
00000280: f7c0 a1bd 6f96 a83d e32f 0bbe b6aa f83d
00000290: 066c 3c3d 172e ebbc b2ed 80bd 05a6 1a3d
000002a0: 4258 b1bd e79b c03c ef89 0a3e c246 8bbd
000002b0: 5885 9d3d 1c57 a6bc 262d 953b 2e5b 823d
000002c0: 66e6 b83d 82af 573c 50ca 9dbd f8f6 02be
000002d0: 4e30 293d d153 7dbd 7e0a cebd d223 1c3e
000002e0: 11a2 2e3d 3ba2 86ba d283 553d a30a f3bd
000002f0: 8763 79bc eada 053e 32c0 64bd 57c6 69bd
00000300: 620a 3b3d 0155 4fbd 4c80 31bc 515b 5b3d
00000310: df5a 5cbd 5171 a33c ce3c f43c cc71 f4bd
00000320: 68b7 cd3d 1646 83bd 0bbb 9c3a 3db0 28bd
00000330: 83fc 8dbc f662 b0bd 34bf 943d 36f8 82bc
00000340: 1459 a43d 8957 293d 8171 b8bc 5b37 82bd
00000350: 0e47 d3bd 15e2 b9bd 0b45 03be bd47 4cbc
00000360: 9ff2 01bd 06a8 de3c 66bd 87bd 3213 fa3d
00000370: 5d53 46bd 9359 093d c94b 04bd 22df 27bb
00000380: f263 c83d cf99 e9bd 4092 32bd 321e 45bc
00000390: 6f74 7abd 50fa 993d fa0a 07be cf20 093e
000003a0: 4428 a53d 4ded 7b3d 1d05 1e3d bb92 603d
000003b0: 69ed 1f3e 8c97 983d db2a 7bbc 604d 28bd
000003c0: c960 c53d 56e9 143d 05f6 9dbd 6d03 80bd
000003d0: c74d 8f3d 515f 1a3d 745e c8bb c80b 903c
000003e0: cc3a 81bd a9ab 0b3e f129 0ebd 2482 613d
000003f0: 56ae b53d 4743 0b3e ca68 0bbd 2b3b c03d

lstm.bias_ih_l1 f4 [256]
0.111337304 0.1289693 -0.04982976 0.039607458 0.020335244 -0.061287627 0.09490417 -0.042153746
-0.039633874 0.066559754 0.028112309 0.007158445 0.11256366 0.06929175 -0.030894533 -0.024797361
0.029202059 -0.06472263 0.020259883 -0.028490547 0.033571098 -0.10786581 0.05445264 0.074059136
-0.021057367 0.07101935 0.09488065 0.046309404 -0.06722833 0.09439649 -0.06723382 -0.036794648
0.10040692 -0.05510073 -0.10596576 0.06636789 0.069259524 0.033176567 -0.0801191 -0.09287164
-0.03264305 0.031109132 0.065446936 0.07767986 -0.039307095 -0.05494767 -0.026087197 0.15529518
-0.002172078 0.08538583 -0.052829996 -0.09320007 0.027319066 0.043993473 0.06925823 0.114816
0.04235029 0.13868499 0.05763411 0.02458156 0.08789735 0.052480765 0.019566905 0.007480162
-0.014780786 -0.039172105 0.022059195 -0.004957981 -0.023422075 0.0631794 -0.0477551 0.10712061
0.08502782 -0.086920455 -0.10522243 0.10963595 0.08016778 -0.043979947 -0.04626011 -0.034051906
-0.074113294 0.070922345 -0.026964003 -0.09913897 0.089603834 0.118672416 0.08010142 0.12541291
0.07519872 -0.09033173 0.03826337 0.07353841 -0.0644494 -0.014474885 -0.03716337 -0.07487101
0.11880554 -0.055803604 -0.069344774 0.022030056 0.0176231 -0.035556506 0.05812399 0.120448895
0.11003846 0.00654423 0.009353292 0.050342765 0.1044989 0.012426434 -0.046622846 -0.088342614
0.049142934 -0.06520049 0.08528324 -0.04801732 0.12860602 0.098038666 -0.10174127 0.06816251
-0.034641657 -0.046587944 -0.11239798 -0.028036874 -0.051835496 -0.08940485 -0.08517356 -0.018213326
-0.048652068 0.021269817 0.08681476 0.10086733 -0.025212964 0.06570838 -0.10642007 -0.015154745
0.123707615 -0.06250359 -0.057495948 -0.0072431527 0.08568511 -0.03989978 -0.064719364 0.10918404
-0.10181999 -0.032677263 0.07095962 -0.03509183 0.08246725 -0.11167915 -0.060566064 0.078963205
-0.10081997 -0.006112643 0.0957216 0.06860968 0.001663559 -0.017858645 0.06447392 -0.034607142
-0.019026661 0.07412471 -0.069383055 0.077716574 0.06061686 0.038267307 -0.0492118 0.058943145
0.009983481 -0.012171943 -0.10088048 0.0008663119 0.1087708 -0.09205604 -0.1310289 0.06361051
0.09997757 -0.008203842 0.0698753 -0.044480044 0.09264029 0.029030856 0.007572638 0.022311496
-0.102621995 0.10583147 0.0070505524 0.01005882 0.12006314 0.042298954 -0.02953008 -0.010272462
-0.08951953 -0.087579206 0.031742133 0.060527157 0.08118633 0.009382409 -0.007683989 -0.09500739
0.061422724 -0.013352998 0.022761652 0.08797296 0.06092077 -0.0857306 0.084114686 -0.0038394376
0.07992993 -0.09002568 0.0991451 0.060074292 0.12233461 -0.07846302 0.08774589 0.055813055
0.06930614 0.10497155 0.14049964 0.13486536 0.13645092 0.1309528 0.04135121 -0.00013033628
-0.05408236 0.13109733 -0.07685045 0.047445685 -0.07259485 -0.043697294 0.07045395 -0.023651982
-0.08652004 0.10434691 0.11626079 -0.10336393 0.046539683 0.07575259 0.09042176 0.074024245
0.116235495 0.10545621 -0.05303648 0.007853474 -0.083137654 -0.08498239 -0.023183536 0.13957994
0.07255677 0.07691991 -0.04824761 -0.11271958 -0.10086422 0.12520663 0.14892185 0.12252448
00000000: d004 e43d 8710 043e 4a1a 4cbd 6e3b 223d
00000010: 1996 a63c bc08 7bbd 1e5d c23d 68a9 2cbd
00000020: 2157 22bd 7b50 883d c94b e63c 6491 ea3b
00000030: c787 e63d d5e8 8d3d 8816 fdbc d623 cbbc
00000040: 2839 ef3c 4c8d 84bd 0ef8 a53c 0265 e9bc
00000050: d981 093d c0e8 dcbd bb09 5f3d 51ac 973d
00000060: 8080 acbc 9872 913d c950 c23d eeae 3d3d
00000070: 02af 89bd f252 c13d e3b1 89bd fcb5 16bd
00000080: 25a2 cd3d 4eb1 61bd 9404 d9bd e3eb 873d
00000090: f0d7 8d3d 27e4 073d 7c15 a4bd 7d33 bebd
000000a0: b8b4 05bd 94d8 fe3c 0b09 863d 9e16 9f3d
000000b0: 7a00 21bd cf10 61bd d1b4 d5bc b305 1f3e
000000c0: 6c59 0ebb c4de ae3d 4464 58bd aedf bebd
000000d0: 3ccc df3c 8032 343d 42d7 8d3d a724 eb3d
000000e0: 7f77 2d3d 7003 0e3e bf11 6c3d 455f c93c
000000f0: 8703 b43d 12f6 563d c64a a03c 261c f53b
00000100: 1c2b 72bc ee72 20bd 7cb5 b43c 8f76 a2bb
00000110: a7df bfbc 3464 813d da9a 43bd 0d62 db3d
00000120: 1123 ae3d 5a03 b2bd db7e d7bd d088 e03d
00000130: 012f a43d 5124 34bd 3e7b 3dbd 037a 0bbd
00000140: b6c8 97bd bc3f 913d 9de3 dcbc 5f09 cbbd
00000150: 3782 b73d 860a f33d 370c a43d 3e6c 003e
00000160: c901 9a3d d8ff b8bd 0dba 1c3d 4e9b 963d
00000170: 0cfe 83bd 1128 6dbc 9e38 18bd f955 99bd
00000180: 5250 f33d 5292 64bd a204 8ebd 6078 b43c
00000190: 525e 903c b3a3 11bd 6c13 6e3d e9ad f63d
000001a0: d85b e13d fb70 d63b 8d3e 193c 3734 4e3d
000001b0: 8503 d63d 3e98 4b3c 99f7 3ebd f9ec b4bd
000001c0: 1a4a 493d d687 85bd fba8 ae3d cfad 44bd
000001d0: 4cb1 033e 7fc8 c83d ba5d d0bd c998 8b3d
000001e0: 69e4 0dbd 00d3 3ebd ea30 e6bd 96ad e5bc
000001f0: 7551 54bd e419 b7bd 7a6f aebd 1d34 95bc
00000200: 6447 47bd 0a3e ae3c f0cb b13d 8893 ce3d
00000210: 6b8b cebc 1d92 863d c4f2 d9bd 9c4b 78bc
00000220: 6b5a fd3d e201 80bd df80 6bbd f857 edbb
00000230: ad7b af3d f46d 23bd 968b 84bd e29b df3d
00000240: 0087 d0bd 98d8 05bd 4753 913d 73bc 0fbd
00000250: 97e4 a83d 0ab8 e4bd 1f14 78bd 76b7 a13d
00000260: b37a cebd 914c c8bb b009 c43d 3b83 8c3d
00000270: c70b da3a 4b4c 92bc e70a 843d 38c0 0dbd
00000280: cddd 9bbc b2ce 973d b418 8ebd de29 9f3d
00000290: 6249 783d 2ebe 1c3d 5092 49bd 5e6e 713d
000002a0: c191 233c d46c 47bc 6d9a cebd 3519 633a
000002b0: 3ac3 de3d e187 bcbd 712c 06be 3a46 823d
000002c0: 0ac1 cc3d 6869 06bc c81a 8f3d b530 36bd
000002d0: 31ba bd3d 1ed2 ed3c e423 f83b 99c6 b63c
000002e0: 7b2b d2bd 2bbe d83d 5208 e73b c0cd 243c
000002f0: aae3 f53d ab41 2d3d 11e9 f1bc d44d 28bc
00000300: 0456 b7bd ba5c b3bd 0a04 023d 53eb 773d
00000310: 0545 a63d adb8 193c f9c9 fbbb 3c93 c2bd
00000320: 6596 7b3d 88c6 5abc a576 ba3c 2b2b b43d
00000330: 0f88 793d 8693 afbd 5244 ac3d 139f 7bbb
00000340: 4eb2 a33d 625f b8bd 960c cb3d 7610 763d
00000350: 918a fa3d 38b1 a0bd 1eb4 b33d 3b9c 643d
00000360: 61f0 8d3d 53fb d63d 23df 0f3e 251a 0a3e
00000370: cab9 0b3e 7e18 063e e35f 293d e1aa 08b9
00000380: 7785 5dbd 613e 063e c563 9dbd 6856 423d
00000390: 9cac 94bd effb 32bd 294a 903d cdc1 c1bc
000003a0: 6b31 b1bd d5b3 d53d 231a ee3d 78b0 d3bd
000003b0: 65a0 3e3d 2d24 9b3d 0b2f b93d 069a 973d
000003c0: e00c ee3d 6df9 d73d c83c 59bd dbab 003c
000003d0: 1344 aabd 3f0b aebd 66eb bdbc 0bee 0e3e
000003e0: a598 943d 3088 9d3d 499f 45bd 86d9 e6bd
000003f0: e691 cebd 2b36 003e f87e 183e 1dee fa3d
